<?xml version="1.0" ?>
<net name="facial-landmarks-35-adas-0002" version="11">
	<layers>
		<layer id="64" name="data" type="Parameter" version="opset1">
			<data shape="1,3,60,60" element_type="f32"/>
			<rt_info>
				<attribute name="old_api_map_element_type" version="0" value="f16"/>
			</rt_info>
			<output>
				<port id="0" precision="FP32" names="data">
					<dim>1</dim>
					<dim>3</dim>
					<dim>60</dim>
					<dim>60</dim>
					<rt_info>
						<attribute name="layout" version="0" layout="[N,C,H,W]"/>
					</rt_info>
				</port>
			</output>
		</layer>
		<layer id="0" name="3513351716975" type="Const" version="opset1">
			<data offset="0" size="4" shape="" element_type="f32"/>
			<output>
				<port id="0" precision="FP32"/>
			</output>
		</layer>
		<layer id="1" name="3514351818514" type="Const" version="opset1">
			<data offset="4" size="4" shape="" element_type="f32"/>
			<output>
				<port id="0" precision="FP32"/>
			</output>
		</layer>
		<layer id="2" name="3515351918595" type="Const" version="opset1">
			<data offset="0" size="4" shape="" element_type="f32"/>
			<output>
				<port id="0" precision="FP32"/>
			</output>
		</layer>
		<layer id="3" name="3516352017155" type="Const" version="opset1">
			<data offset="4" size="4" shape="" element_type="f32"/>
			<output>
				<port id="0" precision="FP32"/>
			</output>
		</layer>
		<layer id="4" name="3413341717026" type="Const" version="opset1">
			<data offset="8" size="4" shape="" element_type="f32"/>
			<output>
				<port id="0" precision="FP32"/>
			</output>
		</layer>
		<layer id="5" name="3414341817308" type="Const" version="opset1">
			<data offset="12" size="4" shape="" element_type="f32"/>
			<output>
				<port id="0" precision="FP32"/>
			</output>
		</layer>
		<layer id="6" name="3415341918370" type="Const" version="opset1">
			<data offset="8" size="4" shape="" element_type="f32"/>
			<output>
				<port id="0" precision="FP32"/>
			</output>
		</layer>
		<layer id="7" name="3416342017815" type="Const" version="opset1">
			<data offset="12" size="4" shape="" element_type="f32"/>
			<output>
				<port id="0" precision="FP32"/>
			</output>
		</layer>
		<layer id="8" name="4775477916882" type="Const" version="opset1">
			<data offset="16" size="4" shape="" element_type="f32"/>
			<output>
				<port id="0" precision="FP32"/>
			</output>
		</layer>
		<layer id="9" name="4776478017776" type="Const" version="opset1">
			<data offset="20" size="4" shape="" element_type="f32"/>
			<output>
				<port id="0" precision="FP32"/>
			</output>
		</layer>
		<layer id="10" name="4777478117680" type="Const" version="opset1">
			<data offset="16" size="4" shape="" element_type="f32"/>
			<output>
				<port id="0" precision="FP32"/>
			</output>
		</layer>
		<layer id="11" name="4778478217725" type="Const" version="opset1">
			<data offset="20" size="4" shape="" element_type="f32"/>
			<output>
				<port id="0" precision="FP32"/>
			</output>
		</layer>
		<layer id="12" name="2153215718604" type="Const" version="opset1">
			<data offset="16" size="4" shape="" element_type="f32"/>
			<output>
				<port id="0" precision="FP32"/>
			</output>
		</layer>
		<layer id="13" name="2154215817320" type="Const" version="opset1">
			<data offset="24" size="4" shape="" element_type="f32"/>
			<output>
				<port id="0" precision="FP32"/>
			</output>
		</layer>
		<layer id="14" name="2155215917527" type="Const" version="opset1">
			<data offset="16" size="4" shape="" element_type="f32"/>
			<output>
				<port id="0" precision="FP32"/>
			</output>
		</layer>
		<layer id="15" name="2156216017812" type="Const" version="opset1">
			<data offset="24" size="4" shape="" element_type="f32"/>
			<output>
				<port id="0" precision="FP32"/>
			</output>
		</layer>
		<layer id="16" name="2473247716954" type="Const" version="opset1">
			<data offset="28" size="4" shape="" element_type="f32"/>
			<output>
				<port id="0" precision="FP32"/>
			</output>
		</layer>
		<layer id="17" name="2474247817833" type="Const" version="opset1">
			<data offset="32" size="4" shape="" element_type="f32"/>
			<output>
				<port id="0" precision="FP32"/>
			</output>
		</layer>
		<layer id="18" name="2475247918232" type="Const" version="opset1">
			<data offset="28" size="4" shape="" element_type="f32"/>
			<output>
				<port id="0" precision="FP32"/>
			</output>
		</layer>
		<layer id="19" name="2476248018340" type="Const" version="opset1">
			<data offset="32" size="4" shape="" element_type="f32"/>
			<output>
				<port id="0" precision="FP32"/>
			</output>
		</layer>
		<layer id="20" name="3133313717959" type="Const" version="opset1">
			<data offset="16" size="4" shape="" element_type="f32"/>
			<output>
				<port id="0" precision="FP32"/>
			</output>
		</layer>
		<layer id="21" name="3134313818025" type="Const" version="opset1">
			<data offset="36" size="4" shape="" element_type="f32"/>
			<output>
				<port id="0" precision="FP32"/>
			</output>
		</layer>
		<layer id="22" name="3135313917542" type="Const" version="opset1">
			<data offset="16" size="4" shape="" element_type="f32"/>
			<output>
				<port id="0" precision="FP32"/>
			</output>
		</layer>
		<layer id="23" name="3136314017038" type="Const" version="opset1">
			<data offset="36" size="4" shape="" element_type="f32"/>
			<output>
				<port id="0" precision="FP32"/>
			</output>
		</layer>
		<layer id="24" name="3273327717014" type="Const" version="opset1">
			<data offset="40" size="4" shape="" element_type="f32"/>
			<output>
				<port id="0" precision="FP32"/>
			</output>
		</layer>
		<layer id="25" name="3274327817950" type="Const" version="opset1">
			<data offset="44" size="4" shape="" element_type="f32"/>
			<output>
				<port id="0" precision="FP32"/>
			</output>
		</layer>
		<layer id="26" name="3275327917989" type="Const" version="opset1">
			<data offset="40" size="4" shape="" element_type="f32"/>
			<output>
				<port id="0" precision="FP32"/>
			</output>
		</layer>
		<layer id="27" name="3276328018001" type="Const" version="opset1">
			<data offset="44" size="4" shape="" element_type="f32"/>
			<output>
				<port id="0" precision="FP32"/>
			</output>
		</layer>
		<layer id="28" name="2773277717872" type="Const" version="opset1">
			<data offset="16" size="4" shape="" element_type="f32"/>
			<output>
				<port id="0" precision="FP32"/>
			</output>
		</layer>
		<layer id="29" name="2774277818469" type="Const" version="opset1">
			<data offset="48" size="4" shape="" element_type="f32"/>
			<output>
				<port id="0" precision="FP32"/>
			</output>
		</layer>
		<layer id="30" name="2775277918145" type="Const" version="opset1">
			<data offset="16" size="4" shape="" element_type="f32"/>
			<output>
				<port id="0" precision="FP32"/>
			</output>
		</layer>
		<layer id="31" name="2776278017602" type="Const" version="opset1">
			<data offset="48" size="4" shape="" element_type="f32"/>
			<output>
				<port id="0" precision="FP32"/>
			</output>
		</layer>
		<layer id="32" name="2413241718037" type="Const" version="opset1">
			<data offset="52" size="4" shape="" element_type="f32"/>
			<output>
				<port id="0" precision="FP32"/>
			</output>
		</layer>
		<layer id="33" name="2414241817080" type="Const" version="opset1">
			<data offset="56" size="4" shape="" element_type="f32"/>
			<output>
				<port id="0" precision="FP32"/>
			</output>
		</layer>
		<layer id="34" name="2415241918019" type="Const" version="opset1">
			<data offset="52" size="4" shape="" element_type="f32"/>
			<output>
				<port id="0" precision="FP32"/>
			</output>
		</layer>
		<layer id="35" name="2416242018565" type="Const" version="opset1">
			<data offset="56" size="4" shape="" element_type="f32"/>
			<output>
				<port id="0" precision="FP32"/>
			</output>
		</layer>
		<layer id="36" name="3313331717719" type="Const" version="opset1">
			<data offset="16" size="4" shape="" element_type="f32"/>
			<output>
				<port id="0" precision="FP32"/>
			</output>
		</layer>
		<layer id="37" name="3314331817176" type="Const" version="opset1">
			<data offset="60" size="4" shape="" element_type="f32"/>
			<output>
				<port id="0" precision="FP32"/>
			</output>
		</layer>
		<layer id="38" name="3315331918085" type="Const" version="opset1">
			<data offset="16" size="4" shape="" element_type="f32"/>
			<output>
				<port id="0" precision="FP32"/>
			</output>
		</layer>
		<layer id="39" name="3316332016699" type="Const" version="opset1">
			<data offset="60" size="4" shape="" element_type="f32"/>
			<output>
				<port id="0" precision="FP32"/>
			</output>
		</layer>
		<layer id="40" name="2353235718388" type="Const" version="opset1">
			<data offset="64" size="4" shape="" element_type="f32"/>
			<output>
				<port id="0" precision="FP32"/>
			</output>
		</layer>
		<layer id="41" name="2354235817596" type="Const" version="opset1">
			<data offset="68" size="4" shape="" element_type="f32"/>
			<output>
				<port id="0" precision="FP32"/>
			</output>
		</layer>
		<layer id="42" name="2355235917218" type="Const" version="opset1">
			<data offset="64" size="4" shape="" element_type="f32"/>
			<output>
				<port id="0" precision="FP32"/>
			</output>
		</layer>
		<layer id="43" name="2356236018079" type="Const" version="opset1">
			<data offset="68" size="4" shape="" element_type="f32"/>
			<output>
				<port id="0" precision="FP32"/>
			</output>
		</layer>
		<layer id="44" name="2213221717650" type="Const" version="opset1">
			<data offset="16" size="4" shape="" element_type="f32"/>
			<output>
				<port id="0" precision="FP32"/>
			</output>
		</layer>
		<layer id="45" name="2214221817446" type="Const" version="opset1">
			<data offset="72" size="4" shape="" element_type="f32"/>
			<output>
				<port id="0" precision="FP32"/>
			</output>
		</layer>
		<layer id="46" name="2215221918511" type="Const" version="opset1">
			<data offset="16" size="4" shape="" element_type="f32"/>
			<output>
				<port id="0" precision="FP32"/>
			</output>
		</layer>
		<layer id="47" name="2216222017668" type="Const" version="opset1">
			<data offset="72" size="4" shape="" element_type="f32"/>
			<output>
				<port id="0" precision="FP32"/>
			</output>
		</layer>
		<layer id="48" name="3033303717233" type="Const" version="opset1">
			<data offset="76" size="4" shape="" element_type="f32"/>
			<output>
				<port id="0" precision="FP32"/>
			</output>
		</layer>
		<layer id="49" name="3034303818301" type="Const" version="opset1">
			<data offset="80" size="4" shape="" element_type="f32"/>
			<output>
				<port id="0" precision="FP32"/>
			</output>
		</layer>
		<layer id="50" name="3035303917524" type="Const" version="opset1">
			<data offset="76" size="4" shape="" element_type="f32"/>
			<output>
				<port id="0" precision="FP32"/>
			</output>
		</layer>
		<layer id="51" name="3036304017548" type="Const" version="opset1">
			<data offset="80" size="4" shape="" element_type="f32"/>
			<output>
				<port id="0" precision="FP32"/>
			</output>
		</layer>
		<layer id="52" name="2253225717662" type="Const" version="opset1">
			<data offset="16" size="4" shape="" element_type="f32"/>
			<output>
				<port id="0" precision="FP32"/>
			</output>
		</layer>
		<layer id="53" name="2254225817032" type="Const" version="opset1">
			<data offset="84" size="4" shape="" element_type="f32"/>
			<output>
				<port id="0" precision="FP32"/>
			</output>
		</layer>
		<layer id="54" name="2255225917554" type="Const" version="opset1">
			<data offset="16" size="4" shape="" element_type="f32"/>
			<output>
				<port id="0" precision="FP32"/>
			</output>
		</layer>
		<layer id="55" name="2256226016684" type="Const" version="opset1">
			<data offset="84" size="4" shape="" element_type="f32"/>
			<output>
				<port id="0" precision="FP32"/>
			</output>
		</layer>
		<layer id="56" name="3633363717560" type="Const" version="opset1">
			<data offset="88" size="4" shape="" element_type="f32"/>
			<output>
				<port id="0" precision="FP32"/>
			</output>
		</layer>
		<layer id="57" name="3634363817770" type="Const" version="opset1">
			<data offset="92" size="4" shape="" element_type="f32"/>
			<output>
				<port id="0" precision="FP32"/>
			</output>
		</layer>
		<layer id="58" name="3635363917347" type="Const" version="opset1">
			<data offset="88" size="4" shape="" element_type="f32"/>
			<output>
				<port id="0" precision="FP32"/>
			</output>
		</layer>
		<layer id="59" name="3636364018379" type="Const" version="opset1">
			<data offset="92" size="4" shape="" element_type="f32"/>
			<output>
				<port id="0" precision="FP32"/>
			</output>
		</layer>
		<layer id="60" name="3673367716903" type="Const" version="opset1">
			<data offset="96" size="4" shape="" element_type="f32"/>
			<output>
				<port id="0" precision="FP32"/>
			</output>
		</layer>
		<layer id="61" name="3674367818028" type="Const" version="opset1">
			<data offset="100" size="4" shape="" element_type="f32"/>
			<output>
				<port id="0" precision="FP32"/>
			</output>
		</layer>
		<layer id="62" name="3675367916909" type="Const" version="opset1">
			<data offset="96" size="4" shape="" element_type="f32"/>
			<output>
				<port id="0" precision="FP32"/>
			</output>
		</layer>
		<layer id="63" name="3676368016987" type="Const" version="opset1">
			<data offset="100" size="4" shape="" element_type="f32"/>
			<output>
				<port id="0" precision="FP32"/>
			</output>
		</layer>
		<layer id="65" name="Constant_92865316957" type="Const" version="opset1">
			<data offset="104" size="6" shape="1,3,1,1" element_type="f16"/>
			<output>
				<port id="0" precision="FP16">
					<dim>1</dim>
					<dim>3</dim>
					<dim>1</dim>
					<dim>1</dim>
				</port>
			</output>
		</layer>
		<layer id="66" name="Constant_9286539398/restored_convert" type="Convert" version="opset1">
			<data destination_type="f32"/>
			<rt_info>
				<attribute name="decompression" version="0"/>
			</rt_info>
			<input>
				<port id="0">
					<dim>1</dim>
					<dim>3</dim>
					<dim>1</dim>
					<dim>1</dim>
				</port>
			</input>
			<output>
				<port id="1" precision="FP32">
					<dim>1</dim>
					<dim>3</dim>
					<dim>1</dim>
					<dim>1</dim>
				</port>
			</output>
		</layer>
		<layer id="67" name="Subtract_929" type="Subtract" version="opset1">
			<data auto_broadcast="numpy"/>
			<rt_info>
				<attribute name="preprocessing" version="0"/>
			</rt_info>
			<input>
				<port id="0">
					<dim>1</dim>
					<dim>3</dim>
					<dim>60</dim>
					<dim>60</dim>
				</port>
				<port id="1">
					<dim>1</dim>
					<dim>3</dim>
					<dim>1</dim>
					<dim>1</dim>
				</port>
			</input>
			<output>
				<port id="2" precision="FP32">
					<dim>1</dim>
					<dim>3</dim>
					<dim>60</dim>
					<dim>60</dim>
				</port>
			</output>
		</layer>
		<layer id="68" name="bn/data/mean/Fused_Mul_/fq_input_0" type="FakeQuantize" version="opset1">
			<data levels="256" auto_broadcast="numpy"/>
			<input>
				<port id="0">
					<dim>1</dim>
					<dim>3</dim>
					<dim>60</dim>
					<dim>60</dim>
				</port>
				<port id="1"/>
				<port id="2"/>
				<port id="3"/>
				<port id="4"/>
			</input>
			<output>
				<port id="5" precision="FP32">
					<dim>1</dim>
					<dim>3</dim>
					<dim>60</dim>
					<dim>60</dim>
				</port>
			</output>
		</layer>
		<layer id="69" name="Constant_195065617806" type="Const" version="opset1">
			<data offset="110" size="6" shape="1,3,1,1" element_type="f16"/>
			<output>
				<port id="0" precision="FP16">
					<dim>1</dim>
					<dim>3</dim>
					<dim>1</dim>
					<dim>1</dim>
				</port>
			</output>
		</layer>
		<layer id="70" name="Constant_19506569399/restored_convert" type="Convert" version="opset1">
			<data destination_type="f32"/>
			<rt_info>
				<attribute name="decompression" version="0"/>
				<attribute name="preprocessing" version="0"/>
			</rt_info>
			<input>
				<port id="0">
					<dim>1</dim>
					<dim>3</dim>
					<dim>1</dim>
					<dim>1</dim>
				</port>
			</input>
			<output>
				<port id="1" precision="FP32">
					<dim>1</dim>
					<dim>3</dim>
					<dim>1</dim>
					<dim>1</dim>
				</port>
			</output>
		</layer>
		<layer id="71" name="bn/data/mean/Fused_Mul_" type="Multiply" version="opset1">
			<data auto_broadcast="numpy"/>
			<rt_info>
				<attribute name="preprocessing" version="0"/>
			</rt_info>
			<input>
				<port id="0">
					<dim>1</dim>
					<dim>3</dim>
					<dim>60</dim>
					<dim>60</dim>
				</port>
				<port id="1">
					<dim>1</dim>
					<dim>3</dim>
					<dim>1</dim>
					<dim>1</dim>
				</port>
			</input>
			<output>
				<port id="2" precision="FP32">
					<dim>1</dim>
					<dim>3</dim>
					<dim>60</dim>
					<dim>60</dim>
				</port>
			</output>
		</layer>
		<layer id="72" name="data_add_770365918484" type="Const" version="opset1">
			<data offset="116" size="6" shape="1,3,1,1" element_type="f16"/>
			<output>
				<port id="0" precision="FP16">
					<dim>1</dim>
					<dim>3</dim>
					<dim>1</dim>
					<dim>1</dim>
				</port>
			</output>
		</layer>
		<layer id="73" name="data_add_77036599400/restored_convert" type="Convert" version="opset1">
			<data destination_type="f32"/>
			<rt_info>
				<attribute name="decompression" version="0"/>
			</rt_info>
			<input>
				<port id="0">
					<dim>1</dim>
					<dim>3</dim>
					<dim>1</dim>
					<dim>1</dim>
				</port>
			</input>
			<output>
				<port id="1" precision="FP32">
					<dim>1</dim>
					<dim>3</dim>
					<dim>1</dim>
					<dim>1</dim>
				</port>
			</output>
		</layer>
		<layer id="74" name="bn/data/variance/Fused_Add_" type="Add" version="opset1">
			<data auto_broadcast="numpy"/>
			<input>
				<port id="0">
					<dim>1</dim>
					<dim>3</dim>
					<dim>60</dim>
					<dim>60</dim>
				</port>
				<port id="1">
					<dim>1</dim>
					<dim>3</dim>
					<dim>1</dim>
					<dim>1</dim>
				</port>
			</input>
			<output>
				<port id="2" precision="FP32" names="data">
					<dim>1</dim>
					<dim>3</dim>
					<dim>60</dim>
					<dim>60</dim>
				</port>
			</output>
		</layer>
		<layer id="75" name="conv1/WithoutBiases/fq_input_0" type="FakeQuantize" version="opset1">
			<data levels="256" auto_broadcast="numpy"/>
			<input>
				<port id="0">
					<dim>1</dim>
					<dim>3</dim>
					<dim>60</dim>
					<dim>60</dim>
				</port>
				<port id="1"/>
				<port id="2"/>
				<port id="3"/>
				<port id="4"/>
			</input>
			<output>
				<port id="5" precision="FP32">
					<dim>1</dim>
					<dim>3</dim>
					<dim>60</dim>
					<dim>60</dim>
				</port>
			</output>
		</layer>
		<layer id="76" name="conv1/WithoutBiases/fq_weights_1/scale1201917605" type="Const" version="opset1">
			<data offset="122" size="64" shape="16,1,1,1" element_type="f32"/>
			<output>
				<port id="0" precision="FP32">
					<dim>16</dim>
					<dim>1</dim>
					<dim>1</dim>
					<dim>1</dim>
				</port>
			</output>
		</layer>
		<layer id="77" name="bn1/mean/Fused_Mul__copy6629401/restored_convert/quantized1201117773" type="Const" version="opset1">
			<data offset="186" size="432" shape="16,3,3,3" element_type="i8"/>
			<output>
				<port id="0" precision="I8">
					<dim>16</dim>
					<dim>3</dim>
					<dim>3</dim>
					<dim>3</dim>
				</port>
			</output>
		</layer>
		<layer id="78" name="bn1/mean/Fused_Mul__copy6629401/restored_convert/quantized/to_f32" type="Convert" version="opset1">
			<data destination_type="f32"/>
			<input>
				<port id="0">
					<dim>16</dim>
					<dim>3</dim>
					<dim>3</dim>
					<dim>3</dim>
				</port>
			</input>
			<output>
				<port id="1" precision="FP32">
					<dim>16</dim>
					<dim>3</dim>
					<dim>3</dim>
					<dim>3</dim>
				</port>
			</output>
		</layer>
		<layer id="79" name="conv1/WithoutBiases/fq_weights_1/mulpiply_by_scale" type="Multiply" version="opset1">
			<data auto_broadcast="numpy"/>
			<input>
				<port id="0">
					<dim>16</dim>
					<dim>3</dim>
					<dim>3</dim>
					<dim>3</dim>
				</port>
				<port id="1">
					<dim>16</dim>
					<dim>1</dim>
					<dim>1</dim>
					<dim>1</dim>
				</port>
			</input>
			<output>
				<port id="2" precision="FP32">
					<dim>16</dim>
					<dim>3</dim>
					<dim>3</dim>
					<dim>3</dim>
				</port>
			</output>
		</layer>
		<layer id="80" name="conv1/WithoutBiases" type="Convolution" version="opset1">
			<data auto_pad="explicit" strides="1,1" dilations="1,1" pads_begin="1,1" pads_end="1,1"/>
			<input>
				<port id="0">
					<dim>1</dim>
					<dim>3</dim>
					<dim>60</dim>
					<dim>60</dim>
				</port>
				<port id="1">
					<dim>16</dim>
					<dim>3</dim>
					<dim>3</dim>
					<dim>3</dim>
				</port>
			</input>
			<output>
				<port id="2" precision="FP32">
					<dim>1</dim>
					<dim>16</dim>
					<dim>60</dim>
					<dim>60</dim>
				</port>
			</output>
		</layer>
		<layer id="81" name="data_add_7706771166517401" type="Const" version="opset1">
			<data offset="618" size="32" shape="1,16,1,1" element_type="f16"/>
			<output>
				<port id="0" precision="FP16">
					<dim>1</dim>
					<dim>16</dim>
					<dim>1</dim>
					<dim>1</dim>
				</port>
			</output>
		</layer>
		<layer id="82" name="data_add_770677116659402/restored_convert" type="Convert" version="opset1">
			<data destination_type="f32"/>
			<rt_info>
				<attribute name="decompression" version="0"/>
			</rt_info>
			<input>
				<port id="0">
					<dim>1</dim>
					<dim>16</dim>
					<dim>1</dim>
					<dim>1</dim>
				</port>
			</input>
			<output>
				<port id="1" precision="FP32">
					<dim>1</dim>
					<dim>16</dim>
					<dim>1</dim>
					<dim>1</dim>
				</port>
			</output>
		</layer>
		<layer id="83" name="conv1/Fused_Add_" type="Add" version="opset1">
			<data auto_broadcast="numpy"/>
			<input>
				<port id="0">
					<dim>1</dim>
					<dim>16</dim>
					<dim>60</dim>
					<dim>60</dim>
				</port>
				<port id="1">
					<dim>1</dim>
					<dim>16</dim>
					<dim>1</dim>
					<dim>1</dim>
				</port>
			</input>
			<output>
				<port id="2" precision="FP32" names="conv1">
					<dim>1</dim>
					<dim>16</dim>
					<dim>60</dim>
					<dim>60</dim>
				</port>
			</output>
		</layer>
		<layer id="84" name="relu_conv1" type="ReLU" version="opset1">
			<input>
				<port id="0">
					<dim>1</dim>
					<dim>16</dim>
					<dim>60</dim>
					<dim>60</dim>
				</port>
			</input>
			<output>
				<port id="1" precision="FP32" names="relu1">
					<dim>1</dim>
					<dim>16</dim>
					<dim>60</dim>
					<dim>60</dim>
				</port>
			</output>
		</layer>
		<layer id="85" name="pool1/WithoutBiases/fq_input_0" type="FakeQuantize" version="opset1">
			<data levels="256" auto_broadcast="numpy"/>
			<input>
				<port id="0">
					<dim>1</dim>
					<dim>16</dim>
					<dim>60</dim>
					<dim>60</dim>
				</port>
				<port id="1"/>
				<port id="2"/>
				<port id="3"/>
				<port id="4"/>
			</input>
			<output>
				<port id="5" precision="FP32">
					<dim>1</dim>
					<dim>16</dim>
					<dim>60</dim>
					<dim>60</dim>
				</port>
			</output>
		</layer>
		<layer id="86" name="pool1/WithoutBiases/fq_weights_1/scale1096917395" type="Const" version="opset1">
			<data offset="650" size="64" shape="16,1,1,1" element_type="f32"/>
			<output>
				<port id="0" precision="FP32">
					<dim>16</dim>
					<dim>1</dim>
					<dim>1</dim>
					<dim>1</dim>
				</port>
			</output>
		</layer>
		<layer id="87" name="4106699403/restored_convert/quantized1096118196" type="Const" version="opset1">
			<data offset="714" size="2304" shape="16,16,3,3" element_type="i8"/>
			<output>
				<port id="0" precision="I8">
					<dim>16</dim>
					<dim>16</dim>
					<dim>3</dim>
					<dim>3</dim>
				</port>
			</output>
		</layer>
		<layer id="88" name="4106699403/restored_convert/quantized/to_f32" type="Convert" version="opset1">
			<data destination_type="f32"/>
			<input>
				<port id="0">
					<dim>16</dim>
					<dim>16</dim>
					<dim>3</dim>
					<dim>3</dim>
				</port>
			</input>
			<output>
				<port id="1" precision="FP32">
					<dim>16</dim>
					<dim>16</dim>
					<dim>3</dim>
					<dim>3</dim>
				</port>
			</output>
		</layer>
		<layer id="89" name="pool1/WithoutBiases/fq_weights_1/mulpiply_by_scale" type="Multiply" version="opset1">
			<data auto_broadcast="numpy"/>
			<input>
				<port id="0">
					<dim>16</dim>
					<dim>16</dim>
					<dim>3</dim>
					<dim>3</dim>
				</port>
				<port id="1">
					<dim>16</dim>
					<dim>1</dim>
					<dim>1</dim>
					<dim>1</dim>
				</port>
			</input>
			<output>
				<port id="2" precision="FP32">
					<dim>16</dim>
					<dim>16</dim>
					<dim>3</dim>
					<dim>3</dim>
				</port>
			</output>
		</layer>
		<layer id="90" name="pool1/WithoutBiases" type="Convolution" version="opset1">
			<data auto_pad="explicit" strides="2,2" dilations="1,1" pads_begin="1,1" pads_end="1,1"/>
			<input>
				<port id="0">
					<dim>1</dim>
					<dim>16</dim>
					<dim>60</dim>
					<dim>60</dim>
				</port>
				<port id="1">
					<dim>16</dim>
					<dim>16</dim>
					<dim>3</dim>
					<dim>3</dim>
				</port>
			</input>
			<output>
				<port id="2" precision="FP32">
					<dim>1</dim>
					<dim>16</dim>
					<dim>30</dim>
					<dim>30</dim>
				</port>
			</output>
		</layer>
		<layer id="91" name="pool1/Dims467167217863" type="Const" version="opset1">
			<data offset="3018" size="32" shape="1,16,1,1" element_type="f16"/>
			<output>
				<port id="0" precision="FP16">
					<dim>1</dim>
					<dim>16</dim>
					<dim>1</dim>
					<dim>1</dim>
				</port>
			</output>
		</layer>
		<layer id="92" name="pool1/Dims46716729404/restored_convert" type="Convert" version="opset1">
			<data destination_type="f32"/>
			<rt_info>
				<attribute name="decompression" version="0"/>
			</rt_info>
			<input>
				<port id="0">
					<dim>1</dim>
					<dim>16</dim>
					<dim>1</dim>
					<dim>1</dim>
				</port>
			</input>
			<output>
				<port id="1" precision="FP32">
					<dim>1</dim>
					<dim>16</dim>
					<dim>1</dim>
					<dim>1</dim>
				</port>
			</output>
		</layer>
		<layer id="93" name="pool1" type="Add" version="opset1">
			<data auto_broadcast="numpy"/>
			<input>
				<port id="0">
					<dim>1</dim>
					<dim>16</dim>
					<dim>30</dim>
					<dim>30</dim>
				</port>
				<port id="1">
					<dim>1</dim>
					<dim>16</dim>
					<dim>1</dim>
					<dim>1</dim>
				</port>
			</input>
			<output>
				<port id="2" precision="FP32" names="pool1">
					<dim>1</dim>
					<dim>16</dim>
					<dim>30</dim>
					<dim>30</dim>
				</port>
			</output>
		</layer>
		<layer id="94" name="conv2/WithoutBiases/fq_input_0" type="FakeQuantize" version="opset1">
			<data levels="256" auto_broadcast="numpy"/>
			<input>
				<port id="0">
					<dim>1</dim>
					<dim>16</dim>
					<dim>30</dim>
					<dim>30</dim>
				</port>
				<port id="1"/>
				<port id="2"/>
				<port id="3"/>
				<port id="4"/>
			</input>
			<output>
				<port id="5" precision="FP32">
					<dim>1</dim>
					<dim>16</dim>
					<dim>30</dim>
					<dim>30</dim>
				</port>
			</output>
		</layer>
		<layer id="95" name="conv2/WithoutBiases/fq_weights_1/scale1291917419" type="Const" version="opset1">
			<data offset="3050" size="128" shape="32,1,1,1" element_type="f32"/>
			<output>
				<port id="0" precision="FP32">
					<dim>32</dim>
					<dim>1</dim>
					<dim>1</dim>
					<dim>1</dim>
				</port>
			</output>
		</layer>
		<layer id="96" name="bn2/mean/Fused_Mul__copy6759405/restored_convert/quantized1291116795" type="Const" version="opset1">
			<data offset="3178" size="4608" shape="32,16,3,3" element_type="i8"/>
			<output>
				<port id="0" precision="I8">
					<dim>32</dim>
					<dim>16</dim>
					<dim>3</dim>
					<dim>3</dim>
				</port>
			</output>
		</layer>
		<layer id="97" name="bn2/mean/Fused_Mul__copy6759405/restored_convert/quantized/to_f32" type="Convert" version="opset1">
			<data destination_type="f32"/>
			<input>
				<port id="0">
					<dim>32</dim>
					<dim>16</dim>
					<dim>3</dim>
					<dim>3</dim>
				</port>
			</input>
			<output>
				<port id="1" precision="FP32">
					<dim>32</dim>
					<dim>16</dim>
					<dim>3</dim>
					<dim>3</dim>
				</port>
			</output>
		</layer>
		<layer id="98" name="conv2/WithoutBiases/fq_weights_1/mulpiply_by_scale" type="Multiply" version="opset1">
			<data auto_broadcast="numpy"/>
			<input>
				<port id="0">
					<dim>32</dim>
					<dim>16</dim>
					<dim>3</dim>
					<dim>3</dim>
				</port>
				<port id="1">
					<dim>32</dim>
					<dim>1</dim>
					<dim>1</dim>
					<dim>1</dim>
				</port>
			</input>
			<output>
				<port id="2" precision="FP32">
					<dim>32</dim>
					<dim>16</dim>
					<dim>3</dim>
					<dim>3</dim>
				</port>
			</output>
		</layer>
		<layer id="99" name="conv2/WithoutBiases" type="Convolution" version="opset1">
			<data auto_pad="explicit" strides="1,1" dilations="1,1" pads_begin="1,1" pads_end="1,1"/>
			<input>
				<port id="0">
					<dim>1</dim>
					<dim>16</dim>
					<dim>30</dim>
					<dim>30</dim>
				</port>
				<port id="1">
					<dim>32</dim>
					<dim>16</dim>
					<dim>3</dim>
					<dim>3</dim>
				</port>
			</input>
			<output>
				<port id="2" precision="FP32">
					<dim>1</dim>
					<dim>32</dim>
					<dim>30</dim>
					<dim>30</dim>
				</port>
			</output>
		</layer>
		<layer id="100" name="data_add_7714771967817809" type="Const" version="opset1">
			<data offset="7786" size="64" shape="1,32,1,1" element_type="f16"/>
			<output>
				<port id="0" precision="FP16">
					<dim>1</dim>
					<dim>32</dim>
					<dim>1</dim>
					<dim>1</dim>
				</port>
			</output>
		</layer>
		<layer id="101" name="data_add_771477196789406/restored_convert" type="Convert" version="opset1">
			<data destination_type="f32"/>
			<rt_info>
				<attribute name="decompression" version="0"/>
			</rt_info>
			<input>
				<port id="0">
					<dim>1</dim>
					<dim>32</dim>
					<dim>1</dim>
					<dim>1</dim>
				</port>
			</input>
			<output>
				<port id="1" precision="FP32">
					<dim>1</dim>
					<dim>32</dim>
					<dim>1</dim>
					<dim>1</dim>
				</port>
			</output>
		</layer>
		<layer id="102" name="conv2/Fused_Add_" type="Add" version="opset1">
			<data auto_broadcast="numpy"/>
			<input>
				<port id="0">
					<dim>1</dim>
					<dim>32</dim>
					<dim>30</dim>
					<dim>30</dim>
				</port>
				<port id="1">
					<dim>1</dim>
					<dim>32</dim>
					<dim>1</dim>
					<dim>1</dim>
				</port>
			</input>
			<output>
				<port id="2" precision="FP32" names="conv2">
					<dim>1</dim>
					<dim>32</dim>
					<dim>30</dim>
					<dim>30</dim>
				</port>
			</output>
		</layer>
		<layer id="103" name="relu_conv2" type="ReLU" version="opset1">
			<input>
				<port id="0">
					<dim>1</dim>
					<dim>32</dim>
					<dim>30</dim>
					<dim>30</dim>
				</port>
			</input>
			<output>
				<port id="1" precision="FP32" names="relu2">
					<dim>1</dim>
					<dim>32</dim>
					<dim>30</dim>
					<dim>30</dim>
				</port>
			</output>
		</layer>
		<layer id="104" name="pool2/WithoutBiases/fq_input_0" type="FakeQuantize" version="opset1">
			<data levels="256" auto_broadcast="numpy"/>
			<input>
				<port id="0">
					<dim>1</dim>
					<dim>32</dim>
					<dim>30</dim>
					<dim>30</dim>
				</port>
				<port id="1"/>
				<port id="2"/>
				<port id="3"/>
				<port id="4"/>
			</input>
			<output>
				<port id="5" precision="FP32">
					<dim>1</dim>
					<dim>32</dim>
					<dim>30</dim>
					<dim>30</dim>
				</port>
			</output>
		</layer>
		<layer id="105" name="pool2/WithoutBiases/fq_weights_1/scale1270917686" type="Const" version="opset1">
			<data offset="7850" size="64" shape="16,1,1,1" element_type="f32"/>
			<output>
				<port id="0" precision="FP32">
					<dim>16</dim>
					<dim>1</dim>
					<dim>1</dim>
					<dim>1</dim>
				</port>
			</output>
		</layer>
		<layer id="106" name="2806829407/restored_convert/quantized1270118421" type="Const" version="opset1">
			<data offset="7914" size="4608" shape="16,32,3,3" element_type="i8"/>
			<output>
				<port id="0" precision="I8">
					<dim>16</dim>
					<dim>32</dim>
					<dim>3</dim>
					<dim>3</dim>
				</port>
			</output>
		</layer>
		<layer id="107" name="2806829407/restored_convert/quantized/to_f32" type="Convert" version="opset1">
			<data destination_type="f32"/>
			<input>
				<port id="0">
					<dim>16</dim>
					<dim>32</dim>
					<dim>3</dim>
					<dim>3</dim>
				</port>
			</input>
			<output>
				<port id="1" precision="FP32">
					<dim>16</dim>
					<dim>32</dim>
					<dim>3</dim>
					<dim>3</dim>
				</port>
			</output>
		</layer>
		<layer id="108" name="pool2/WithoutBiases/fq_weights_1/mulpiply_by_scale" type="Multiply" version="opset1">
			<data auto_broadcast="numpy"/>
			<input>
				<port id="0">
					<dim>16</dim>
					<dim>32</dim>
					<dim>3</dim>
					<dim>3</dim>
				</port>
				<port id="1">
					<dim>16</dim>
					<dim>1</dim>
					<dim>1</dim>
					<dim>1</dim>
				</port>
			</input>
			<output>
				<port id="2" precision="FP32">
					<dim>16</dim>
					<dim>32</dim>
					<dim>3</dim>
					<dim>3</dim>
				</port>
			</output>
		</layer>
		<layer id="109" name="pool2/WithoutBiases" type="Convolution" version="opset1">
			<data auto_pad="explicit" strides="2,2" dilations="1,1" pads_begin="1,1" pads_end="1,1"/>
			<input>
				<port id="0">
					<dim>1</dim>
					<dim>32</dim>
					<dim>30</dim>
					<dim>30</dim>
				</port>
				<port id="1">
					<dim>16</dim>
					<dim>32</dim>
					<dim>3</dim>
					<dim>3</dim>
				</port>
			</input>
			<output>
				<port id="2" precision="FP32">
					<dim>1</dim>
					<dim>16</dim>
					<dim>15</dim>
					<dim>15</dim>
				</port>
			</output>
		</layer>
		<layer id="110" name="pool2/Dims450968517209" type="Const" version="opset1">
			<data offset="12522" size="32" shape="1,16,1,1" element_type="f16"/>
			<output>
				<port id="0" precision="FP16">
					<dim>1</dim>
					<dim>16</dim>
					<dim>1</dim>
					<dim>1</dim>
				</port>
			</output>
		</layer>
		<layer id="111" name="pool2/Dims45096859408/restored_convert" type="Convert" version="opset1">
			<data destination_type="f32"/>
			<rt_info>
				<attribute name="decompression" version="0"/>
			</rt_info>
			<input>
				<port id="0">
					<dim>1</dim>
					<dim>16</dim>
					<dim>1</dim>
					<dim>1</dim>
				</port>
			</input>
			<output>
				<port id="1" precision="FP32">
					<dim>1</dim>
					<dim>16</dim>
					<dim>1</dim>
					<dim>1</dim>
				</port>
			</output>
		</layer>
		<layer id="112" name="pool2" type="Add" version="opset1">
			<data auto_broadcast="numpy"/>
			<input>
				<port id="0">
					<dim>1</dim>
					<dim>16</dim>
					<dim>15</dim>
					<dim>15</dim>
				</port>
				<port id="1">
					<dim>1</dim>
					<dim>16</dim>
					<dim>1</dim>
					<dim>1</dim>
				</port>
			</input>
			<output>
				<port id="2" precision="FP32" names="pool2">
					<dim>1</dim>
					<dim>16</dim>
					<dim>15</dim>
					<dim>15</dim>
				</port>
			</output>
		</layer>
		<layer id="113" name="conv3/WithoutBiases/fq_input_0" type="FakeQuantize" version="opset1">
			<data levels="256" auto_broadcast="numpy"/>
			<input>
				<port id="0">
					<dim>1</dim>
					<dim>16</dim>
					<dim>15</dim>
					<dim>15</dim>
				</port>
				<port id="1"/>
				<port id="2"/>
				<port id="3"/>
				<port id="4"/>
			</input>
			<output>
				<port id="5" precision="FP32">
					<dim>1</dim>
					<dim>16</dim>
					<dim>15</dim>
					<dim>15</dim>
				</port>
			</output>
		</layer>
		<layer id="114" name="conv3/WithoutBiases/fq_weights_1/scale1222917116" type="Const" version="opset1">
			<data offset="12554" size="256" shape="64,1,1,1" element_type="f32"/>
			<output>
				<port id="0" precision="FP32">
					<dim>64</dim>
					<dim>1</dim>
					<dim>1</dim>
					<dim>1</dim>
				</port>
			</output>
		</layer>
		<layer id="115" name="bn3/mean/Fused_Mul__copy6889409/restored_convert/quantized1222117857" type="Const" version="opset1">
			<data offset="12810" size="9216" shape="64,16,3,3" element_type="i8"/>
			<output>
				<port id="0" precision="I8">
					<dim>64</dim>
					<dim>16</dim>
					<dim>3</dim>
					<dim>3</dim>
				</port>
			</output>
		</layer>
		<layer id="116" name="bn3/mean/Fused_Mul__copy6889409/restored_convert/quantized/to_f32" type="Convert" version="opset1">
			<data destination_type="f32"/>
			<input>
				<port id="0">
					<dim>64</dim>
					<dim>16</dim>
					<dim>3</dim>
					<dim>3</dim>
				</port>
			</input>
			<output>
				<port id="1" precision="FP32">
					<dim>64</dim>
					<dim>16</dim>
					<dim>3</dim>
					<dim>3</dim>
				</port>
			</output>
		</layer>
		<layer id="117" name="conv3/WithoutBiases/fq_weights_1/mulpiply_by_scale" type="Multiply" version="opset1">
			<data auto_broadcast="numpy"/>
			<input>
				<port id="0">
					<dim>64</dim>
					<dim>16</dim>
					<dim>3</dim>
					<dim>3</dim>
				</port>
				<port id="1">
					<dim>64</dim>
					<dim>1</dim>
					<dim>1</dim>
					<dim>1</dim>
				</port>
			</input>
			<output>
				<port id="2" precision="FP32">
					<dim>64</dim>
					<dim>16</dim>
					<dim>3</dim>
					<dim>3</dim>
				</port>
			</output>
		</layer>
		<layer id="118" name="conv3/WithoutBiases" type="Convolution" version="opset1">
			<data auto_pad="explicit" strides="1,1" dilations="1,1" pads_begin="1,1" pads_end="1,1"/>
			<input>
				<port id="0">
					<dim>1</dim>
					<dim>16</dim>
					<dim>15</dim>
					<dim>15</dim>
				</port>
				<port id="1">
					<dim>64</dim>
					<dim>16</dim>
					<dim>3</dim>
					<dim>3</dim>
				</port>
			</input>
			<output>
				<port id="2" precision="FP32">
					<dim>1</dim>
					<dim>64</dim>
					<dim>15</dim>
					<dim>15</dim>
				</port>
			</output>
		</layer>
		<layer id="119" name="data_add_7722772769116783" type="Const" version="opset1">
			<data offset="22026" size="128" shape="1,64,1,1" element_type="f16"/>
			<output>
				<port id="0" precision="FP16">
					<dim>1</dim>
					<dim>64</dim>
					<dim>1</dim>
					<dim>1</dim>
				</port>
			</output>
		</layer>
		<layer id="120" name="data_add_772277276919410/restored_convert" type="Convert" version="opset1">
			<data destination_type="f32"/>
			<rt_info>
				<attribute name="decompression" version="0"/>
			</rt_info>
			<input>
				<port id="0">
					<dim>1</dim>
					<dim>64</dim>
					<dim>1</dim>
					<dim>1</dim>
				</port>
			</input>
			<output>
				<port id="1" precision="FP32">
					<dim>1</dim>
					<dim>64</dim>
					<dim>1</dim>
					<dim>1</dim>
				</port>
			</output>
		</layer>
		<layer id="121" name="conv3/Fused_Add_" type="Add" version="opset1">
			<data auto_broadcast="numpy"/>
			<input>
				<port id="0">
					<dim>1</dim>
					<dim>64</dim>
					<dim>15</dim>
					<dim>15</dim>
				</port>
				<port id="1">
					<dim>1</dim>
					<dim>64</dim>
					<dim>1</dim>
					<dim>1</dim>
				</port>
			</input>
			<output>
				<port id="2" precision="FP32" names="conv3">
					<dim>1</dim>
					<dim>64</dim>
					<dim>15</dim>
					<dim>15</dim>
				</port>
			</output>
		</layer>
		<layer id="122" name="relu_conv3" type="ReLU" version="opset1">
			<input>
				<port id="0">
					<dim>1</dim>
					<dim>64</dim>
					<dim>15</dim>
					<dim>15</dim>
				</port>
			</input>
			<output>
				<port id="1" precision="FP32" names="relu3">
					<dim>1</dim>
					<dim>64</dim>
					<dim>15</dim>
					<dim>15</dim>
				</port>
			</output>
		</layer>
		<layer id="123" name="pool3/WithoutBiases/fq_input_0" type="FakeQuantize" version="opset1">
			<data levels="256" auto_broadcast="numpy"/>
			<input>
				<port id="0">
					<dim>1</dim>
					<dim>64</dim>
					<dim>15</dim>
					<dim>15</dim>
				</port>
				<port id="1"/>
				<port id="2"/>
				<port id="3"/>
				<port id="4"/>
			</input>
			<output>
				<port id="5" precision="FP32">
					<dim>1</dim>
					<dim>64</dim>
					<dim>15</dim>
					<dim>15</dim>
				</port>
			</output>
		</layer>
		<layer id="124" name="pool3/WithoutBiases/fq_weights_1/scale1231917608" type="Const" version="opset1">
			<data offset="22154" size="128" shape="32,1,1,1" element_type="f32"/>
			<output>
				<port id="0" precision="FP32">
					<dim>32</dim>
					<dim>1</dim>
					<dim>1</dim>
					<dim>1</dim>
				</port>
			</output>
		</layer>
		<layer id="125" name="3126959411/restored_convert/quantized1231117920" type="Const" version="opset1">
			<data offset="22282" size="18432" shape="32,64,3,3" element_type="i8"/>
			<output>
				<port id="0" precision="I8">
					<dim>32</dim>
					<dim>64</dim>
					<dim>3</dim>
					<dim>3</dim>
				</port>
			</output>
		</layer>
		<layer id="126" name="3126959411/restored_convert/quantized/to_f32" type="Convert" version="opset1">
			<data destination_type="f32"/>
			<input>
				<port id="0">
					<dim>32</dim>
					<dim>64</dim>
					<dim>3</dim>
					<dim>3</dim>
				</port>
			</input>
			<output>
				<port id="1" precision="FP32">
					<dim>32</dim>
					<dim>64</dim>
					<dim>3</dim>
					<dim>3</dim>
				</port>
			</output>
		</layer>
		<layer id="127" name="pool3/WithoutBiases/fq_weights_1/mulpiply_by_scale" type="Multiply" version="opset1">
			<data auto_broadcast="numpy"/>
			<input>
				<port id="0">
					<dim>32</dim>
					<dim>64</dim>
					<dim>3</dim>
					<dim>3</dim>
				</port>
				<port id="1">
					<dim>32</dim>
					<dim>1</dim>
					<dim>1</dim>
					<dim>1</dim>
				</port>
			</input>
			<output>
				<port id="2" precision="FP32">
					<dim>32</dim>
					<dim>64</dim>
					<dim>3</dim>
					<dim>3</dim>
				</port>
			</output>
		</layer>
		<layer id="128" name="pool3/WithoutBiases" type="Convolution" version="opset1">
			<data auto_pad="explicit" strides="2,2" dilations="1,1" pads_begin="1,1" pads_end="1,1"/>
			<input>
				<port id="0">
					<dim>1</dim>
					<dim>64</dim>
					<dim>15</dim>
					<dim>15</dim>
				</port>
				<port id="1">
					<dim>32</dim>
					<dim>64</dim>
					<dim>3</dim>
					<dim>3</dim>
				</port>
			</input>
			<output>
				<port id="2" precision="FP32">
					<dim>1</dim>
					<dim>32</dim>
					<dim>8</dim>
					<dim>8</dim>
				</port>
			</output>
		</layer>
		<layer id="129" name="pool3/Dims462369818337" type="Const" version="opset1">
			<data offset="40714" size="64" shape="1,32,1,1" element_type="f16"/>
			<output>
				<port id="0" precision="FP16">
					<dim>1</dim>
					<dim>32</dim>
					<dim>1</dim>
					<dim>1</dim>
				</port>
			</output>
		</layer>
		<layer id="130" name="pool3/Dims46236989412/restored_convert" type="Convert" version="opset1">
			<data destination_type="f32"/>
			<rt_info>
				<attribute name="decompression" version="0"/>
			</rt_info>
			<input>
				<port id="0">
					<dim>1</dim>
					<dim>32</dim>
					<dim>1</dim>
					<dim>1</dim>
				</port>
			</input>
			<output>
				<port id="1" precision="FP32">
					<dim>1</dim>
					<dim>32</dim>
					<dim>1</dim>
					<dim>1</dim>
				</port>
			</output>
		</layer>
		<layer id="131" name="pool3" type="Add" version="opset1">
			<data auto_broadcast="numpy"/>
			<input>
				<port id="0">
					<dim>1</dim>
					<dim>32</dim>
					<dim>8</dim>
					<dim>8</dim>
				</port>
				<port id="1">
					<dim>1</dim>
					<dim>32</dim>
					<dim>1</dim>
					<dim>1</dim>
				</port>
			</input>
			<output>
				<port id="2" precision="FP32" names="pool3">
					<dim>1</dim>
					<dim>32</dim>
					<dim>8</dim>
					<dim>8</dim>
				</port>
			</output>
		</layer>
		<layer id="132" name="conv4/WithoutBiases/fq_input_0" type="FakeQuantize" version="opset1">
			<data levels="256" auto_broadcast="numpy"/>
			<input>
				<port id="0">
					<dim>1</dim>
					<dim>32</dim>
					<dim>8</dim>
					<dim>8</dim>
				</port>
				<port id="1"/>
				<port id="2"/>
				<port id="3"/>
				<port id="4"/>
			</input>
			<output>
				<port id="5" precision="FP32">
					<dim>1</dim>
					<dim>32</dim>
					<dim>8</dim>
					<dim>8</dim>
				</port>
			</output>
		</layer>
		<layer id="133" name="conv4/WithoutBiases/fq_weights_1/scale1147918541" type="Const" version="opset1">
			<data offset="40778" size="512" shape="128,1,1,1" element_type="f32"/>
			<output>
				<port id="0" precision="FP32">
					<dim>128</dim>
					<dim>1</dim>
					<dim>1</dim>
					<dim>1</dim>
				</port>
			</output>
		</layer>
		<layer id="134" name="bn4/mean/Fused_Mul__copy7019413/restored_convert/quantized1147116807" type="Const" version="opset1">
			<data offset="41290" size="36864" shape="128,32,3,3" element_type="i8"/>
			<output>
				<port id="0" precision="I8">
					<dim>128</dim>
					<dim>32</dim>
					<dim>3</dim>
					<dim>3</dim>
				</port>
			</output>
		</layer>
		<layer id="135" name="bn4/mean/Fused_Mul__copy7019413/restored_convert/quantized/to_f32" type="Convert" version="opset1">
			<data destination_type="f32"/>
			<input>
				<port id="0">
					<dim>128</dim>
					<dim>32</dim>
					<dim>3</dim>
					<dim>3</dim>
				</port>
			</input>
			<output>
				<port id="1" precision="FP32">
					<dim>128</dim>
					<dim>32</dim>
					<dim>3</dim>
					<dim>3</dim>
				</port>
			</output>
		</layer>
		<layer id="136" name="conv4/WithoutBiases/fq_weights_1/mulpiply_by_scale" type="Multiply" version="opset1">
			<data auto_broadcast="numpy"/>
			<input>
				<port id="0">
					<dim>128</dim>
					<dim>32</dim>
					<dim>3</dim>
					<dim>3</dim>
				</port>
				<port id="1">
					<dim>128</dim>
					<dim>1</dim>
					<dim>1</dim>
					<dim>1</dim>
				</port>
			</input>
			<output>
				<port id="2" precision="FP32">
					<dim>128</dim>
					<dim>32</dim>
					<dim>3</dim>
					<dim>3</dim>
				</port>
			</output>
		</layer>
		<layer id="137" name="conv4/WithoutBiases" type="Convolution" version="opset1">
			<data auto_pad="explicit" strides="1,1" dilations="1,1" pads_begin="1,1" pads_end="1,1"/>
			<input>
				<port id="0">
					<dim>1</dim>
					<dim>32</dim>
					<dim>8</dim>
					<dim>8</dim>
				</port>
				<port id="1">
					<dim>128</dim>
					<dim>32</dim>
					<dim>3</dim>
					<dim>3</dim>
				</port>
			</input>
			<output>
				<port id="2" precision="FP32">
					<dim>1</dim>
					<dim>128</dim>
					<dim>8</dim>
					<dim>8</dim>
				</port>
			</output>
		</layer>
		<layer id="138" name="data_add_7730773570417539" type="Const" version="opset1">
			<data offset="78154" size="256" shape="1,128,1,1" element_type="f16"/>
			<output>
				<port id="0" precision="FP16">
					<dim>1</dim>
					<dim>128</dim>
					<dim>1</dim>
					<dim>1</dim>
				</port>
			</output>
		</layer>
		<layer id="139" name="data_add_773077357049414/restored_convert" type="Convert" version="opset1">
			<data destination_type="f32"/>
			<rt_info>
				<attribute name="decompression" version="0"/>
			</rt_info>
			<input>
				<port id="0">
					<dim>1</dim>
					<dim>128</dim>
					<dim>1</dim>
					<dim>1</dim>
				</port>
			</input>
			<output>
				<port id="1" precision="FP32">
					<dim>1</dim>
					<dim>128</dim>
					<dim>1</dim>
					<dim>1</dim>
				</port>
			</output>
		</layer>
		<layer id="140" name="conv4/Fused_Add_" type="Add" version="opset1">
			<data auto_broadcast="numpy"/>
			<input>
				<port id="0">
					<dim>1</dim>
					<dim>128</dim>
					<dim>8</dim>
					<dim>8</dim>
				</port>
				<port id="1">
					<dim>1</dim>
					<dim>128</dim>
					<dim>1</dim>
					<dim>1</dim>
				</port>
			</input>
			<output>
				<port id="2" precision="FP32" names="conv4">
					<dim>1</dim>
					<dim>128</dim>
					<dim>8</dim>
					<dim>8</dim>
				</port>
			</output>
		</layer>
		<layer id="141" name="relu_conv4" type="ReLU" version="opset1">
			<input>
				<port id="0">
					<dim>1</dim>
					<dim>128</dim>
					<dim>8</dim>
					<dim>8</dim>
				</port>
			</input>
			<output>
				<port id="1" precision="FP32" names="relu4">
					<dim>1</dim>
					<dim>128</dim>
					<dim>8</dim>
					<dim>8</dim>
				</port>
			</output>
		</layer>
		<layer id="142" name="pool4/WithoutBiases/fq_input_0" type="FakeQuantize" version="opset1">
			<data levels="256" auto_broadcast="numpy"/>
			<input>
				<port id="0">
					<dim>1</dim>
					<dim>128</dim>
					<dim>8</dim>
					<dim>8</dim>
				</port>
				<port id="1"/>
				<port id="2"/>
				<port id="3"/>
				<port id="4"/>
			</input>
			<output>
				<port id="5" precision="FP32">
					<dim>1</dim>
					<dim>128</dim>
					<dim>8</dim>
					<dim>8</dim>
				</port>
			</output>
		</layer>
		<layer id="143" name="pool4/WithoutBiases/fq_weights_1/scale1162917305" type="Const" version="opset1">
			<data offset="78410" size="256" shape="64,1,1,1" element_type="f32"/>
			<output>
				<port id="0" precision="FP32">
					<dim>64</dim>
					<dim>1</dim>
					<dim>1</dim>
					<dim>1</dim>
				</port>
			</output>
		</layer>
		<layer id="144" name="4207089415/restored_convert/quantized1162118163" type="Const" version="opset1">
			<data offset="78666" size="73728" shape="64,128,3,3" element_type="i8"/>
			<output>
				<port id="0" precision="I8">
					<dim>64</dim>
					<dim>128</dim>
					<dim>3</dim>
					<dim>3</dim>
				</port>
			</output>
		</layer>
		<layer id="145" name="4207089415/restored_convert/quantized/to_f32" type="Convert" version="opset1">
			<data destination_type="f32"/>
			<input>
				<port id="0">
					<dim>64</dim>
					<dim>128</dim>
					<dim>3</dim>
					<dim>3</dim>
				</port>
			</input>
			<output>
				<port id="1" precision="FP32">
					<dim>64</dim>
					<dim>128</dim>
					<dim>3</dim>
					<dim>3</dim>
				</port>
			</output>
		</layer>
		<layer id="146" name="pool4/WithoutBiases/fq_weights_1/mulpiply_by_scale" type="Multiply" version="opset1">
			<data auto_broadcast="numpy"/>
			<input>
				<port id="0">
					<dim>64</dim>
					<dim>128</dim>
					<dim>3</dim>
					<dim>3</dim>
				</port>
				<port id="1">
					<dim>64</dim>
					<dim>1</dim>
					<dim>1</dim>
					<dim>1</dim>
				</port>
			</input>
			<output>
				<port id="2" precision="FP32">
					<dim>64</dim>
					<dim>128</dim>
					<dim>3</dim>
					<dim>3</dim>
				</port>
			</output>
		</layer>
		<layer id="147" name="pool4/WithoutBiases" type="Convolution" version="opset1">
			<data auto_pad="explicit" strides="2,2" dilations="1,1" pads_begin="0,0" pads_end="0,0"/>
			<input>
				<port id="0">
					<dim>1</dim>
					<dim>128</dim>
					<dim>8</dim>
					<dim>8</dim>
				</port>
				<port id="1">
					<dim>64</dim>
					<dim>128</dim>
					<dim>3</dim>
					<dim>3</dim>
				</port>
			</input>
			<output>
				<port id="2" precision="FP32">
					<dim>1</dim>
					<dim>64</dim>
					<dim>3</dim>
					<dim>3</dim>
				</port>
			</output>
		</layer>
		<layer id="148" name="pool4/Dims468371118415" type="Const" version="opset1">
			<data offset="152394" size="128" shape="1,64,1,1" element_type="f16"/>
			<output>
				<port id="0" precision="FP16">
					<dim>1</dim>
					<dim>64</dim>
					<dim>1</dim>
					<dim>1</dim>
				</port>
			</output>
		</layer>
		<layer id="149" name="pool4/Dims46837119416/restored_convert" type="Convert" version="opset1">
			<data destination_type="f32"/>
			<rt_info>
				<attribute name="decompression" version="0"/>
			</rt_info>
			<input>
				<port id="0">
					<dim>1</dim>
					<dim>64</dim>
					<dim>1</dim>
					<dim>1</dim>
				</port>
			</input>
			<output>
				<port id="1" precision="FP32">
					<dim>1</dim>
					<dim>64</dim>
					<dim>1</dim>
					<dim>1</dim>
				</port>
			</output>
		</layer>
		<layer id="150" name="pool4" type="Add" version="opset1">
			<data auto_broadcast="numpy"/>
			<input>
				<port id="0">
					<dim>1</dim>
					<dim>64</dim>
					<dim>3</dim>
					<dim>3</dim>
				</port>
				<port id="1">
					<dim>1</dim>
					<dim>64</dim>
					<dim>1</dim>
					<dim>1</dim>
				</port>
			</input>
			<output>
				<port id="2" precision="FP32" names="pool4">
					<dim>1</dim>
					<dim>64</dim>
					<dim>3</dim>
					<dim>3</dim>
				</port>
			</output>
		</layer>
		<layer id="151" name="conv5/WithoutBiases/fq_input_0" type="FakeQuantize" version="opset1">
			<data levels="256" auto_broadcast="numpy"/>
			<input>
				<port id="0">
					<dim>1</dim>
					<dim>64</dim>
					<dim>3</dim>
					<dim>3</dim>
				</port>
				<port id="1"/>
				<port id="2"/>
				<port id="3"/>
				<port id="4"/>
			</input>
			<output>
				<port id="5" precision="FP32">
					<dim>1</dim>
					<dim>64</dim>
					<dim>3</dim>
					<dim>3</dim>
				</port>
			</output>
		</layer>
		<layer id="152" name="conv5/WithoutBiases/fq_weights_1/scale1210917113" type="Const" version="opset1">
			<data offset="152522" size="1024" shape="256,1,1,1" element_type="f32"/>
			<output>
				<port id="0" precision="FP32">
					<dim>256</dim>
					<dim>1</dim>
					<dim>1</dim>
					<dim>1</dim>
				</port>
			</output>
		</layer>
		<layer id="153" name="bn5/mean/Fused_Mul__copy7149417/restored_convert/quantized1210116945" type="Const" version="opset1">
			<data offset="153546" size="147456" shape="256,64,3,3" element_type="i8"/>
			<output>
				<port id="0" precision="I8">
					<dim>256</dim>
					<dim>64</dim>
					<dim>3</dim>
					<dim>3</dim>
				</port>
			</output>
		</layer>
		<layer id="154" name="bn5/mean/Fused_Mul__copy7149417/restored_convert/quantized/to_f32" type="Convert" version="opset1">
			<data destination_type="f32"/>
			<input>
				<port id="0">
					<dim>256</dim>
					<dim>64</dim>
					<dim>3</dim>
					<dim>3</dim>
				</port>
			</input>
			<output>
				<port id="1" precision="FP32">
					<dim>256</dim>
					<dim>64</dim>
					<dim>3</dim>
					<dim>3</dim>
				</port>
			</output>
		</layer>
		<layer id="155" name="conv5/WithoutBiases/fq_weights_1/mulpiply_by_scale" type="Multiply" version="opset1">
			<data auto_broadcast="numpy"/>
			<input>
				<port id="0">
					<dim>256</dim>
					<dim>64</dim>
					<dim>3</dim>
					<dim>3</dim>
				</port>
				<port id="1">
					<dim>256</dim>
					<dim>1</dim>
					<dim>1</dim>
					<dim>1</dim>
				</port>
			</input>
			<output>
				<port id="2" precision="FP32">
					<dim>256</dim>
					<dim>64</dim>
					<dim>3</dim>
					<dim>3</dim>
				</port>
			</output>
		</layer>
		<layer id="156" name="conv5/WithoutBiases" type="Convolution" version="opset1">
			<data auto_pad="explicit" strides="1,1" dilations="1,1" pads_begin="1,1" pads_end="1,1"/>
			<input>
				<port id="0">
					<dim>1</dim>
					<dim>64</dim>
					<dim>3</dim>
					<dim>3</dim>
				</port>
				<port id="1">
					<dim>256</dim>
					<dim>64</dim>
					<dim>3</dim>
					<dim>3</dim>
				</port>
			</input>
			<output>
				<port id="2" precision="FP32">
					<dim>1</dim>
					<dim>256</dim>
					<dim>3</dim>
					<dim>3</dim>
				</port>
			</output>
		</layer>
		<layer id="157" name="data_add_7738774371718220" type="Const" version="opset1">
			<data offset="301002" size="512" shape="1,256,1,1" element_type="f16"/>
			<output>
				<port id="0" precision="FP16">
					<dim>1</dim>
					<dim>256</dim>
					<dim>1</dim>
					<dim>1</dim>
				</port>
			</output>
		</layer>
		<layer id="158" name="data_add_773877437179418/restored_convert" type="Convert" version="opset1">
			<data destination_type="f32"/>
			<rt_info>
				<attribute name="decompression" version="0"/>
			</rt_info>
			<input>
				<port id="0">
					<dim>1</dim>
					<dim>256</dim>
					<dim>1</dim>
					<dim>1</dim>
				</port>
			</input>
			<output>
				<port id="1" precision="FP32">
					<dim>1</dim>
					<dim>256</dim>
					<dim>1</dim>
					<dim>1</dim>
				</port>
			</output>
		</layer>
		<layer id="159" name="conv5/Fused_Add_" type="Add" version="opset1">
			<data auto_broadcast="numpy"/>
			<input>
				<port id="0">
					<dim>1</dim>
					<dim>256</dim>
					<dim>3</dim>
					<dim>3</dim>
				</port>
				<port id="1">
					<dim>1</dim>
					<dim>256</dim>
					<dim>1</dim>
					<dim>1</dim>
				</port>
			</input>
			<output>
				<port id="2" precision="FP32" names="conv5">
					<dim>1</dim>
					<dim>256</dim>
					<dim>3</dim>
					<dim>3</dim>
				</port>
			</output>
		</layer>
		<layer id="160" name="relu_conv5" type="ReLU" version="opset1">
			<input>
				<port id="0">
					<dim>1</dim>
					<dim>256</dim>
					<dim>3</dim>
					<dim>3</dim>
				</port>
			</input>
			<output>
				<port id="1" precision="FP32" names="relu5">
					<dim>1</dim>
					<dim>256</dim>
					<dim>3</dim>
					<dim>3</dim>
				</port>
			</output>
		</layer>
		<layer id="161" name="conv_fm/WithoutBiases/fq_input_0" type="FakeQuantize" version="opset1">
			<data levels="256" auto_broadcast="numpy"/>
			<input>
				<port id="0">
					<dim>1</dim>
					<dim>256</dim>
					<dim>3</dim>
					<dim>3</dim>
				</port>
				<port id="1"/>
				<port id="2"/>
				<port id="3"/>
				<port id="4"/>
			</input>
			<output>
				<port id="5" precision="FP32">
					<dim>1</dim>
					<dim>256</dim>
					<dim>3</dim>
					<dim>3</dim>
				</port>
			</output>
		</layer>
		<layer id="162" name="conv_fm/WithoutBiases/fq_weights_1/scale1297918223" type="Const" version="opset1">
			<data offset="301514" size="2048" shape="512,1,1,1" element_type="f32"/>
			<output>
				<port id="0" precision="FP32">
					<dim>512</dim>
					<dim>1</dim>
					<dim>1</dim>
					<dim>1</dim>
				</port>
			</output>
		</layer>
		<layer id="163" name="2487219419/restored_convert/quantized1297116804" type="Const" version="opset1">
			<data offset="303562" size="1179648" shape="512,256,3,3" element_type="i8"/>
			<output>
				<port id="0" precision="I8">
					<dim>512</dim>
					<dim>256</dim>
					<dim>3</dim>
					<dim>3</dim>
				</port>
			</output>
		</layer>
		<layer id="164" name="2487219419/restored_convert/quantized/to_f32" type="Convert" version="opset1">
			<data destination_type="f32"/>
			<input>
				<port id="0">
					<dim>512</dim>
					<dim>256</dim>
					<dim>3</dim>
					<dim>3</dim>
				</port>
			</input>
			<output>
				<port id="1" precision="FP32">
					<dim>512</dim>
					<dim>256</dim>
					<dim>3</dim>
					<dim>3</dim>
				</port>
			</output>
		</layer>
		<layer id="165" name="conv_fm/WithoutBiases/fq_weights_1/mulpiply_by_scale" type="Multiply" version="opset1">
			<data auto_broadcast="numpy"/>
			<input>
				<port id="0">
					<dim>512</dim>
					<dim>256</dim>
					<dim>3</dim>
					<dim>3</dim>
				</port>
				<port id="1">
					<dim>512</dim>
					<dim>1</dim>
					<dim>1</dim>
					<dim>1</dim>
				</port>
			</input>
			<output>
				<port id="2" precision="FP32">
					<dim>512</dim>
					<dim>256</dim>
					<dim>3</dim>
					<dim>3</dim>
				</port>
			</output>
		</layer>
		<layer id="166" name="conv_fm/WithoutBiases" type="Convolution" version="opset1">
			<data auto_pad="explicit" strides="1,1" dilations="1,1" pads_begin="0,0" pads_end="0,0"/>
			<input>
				<port id="0">
					<dim>1</dim>
					<dim>256</dim>
					<dim>3</dim>
					<dim>3</dim>
				</port>
				<port id="1">
					<dim>512</dim>
					<dim>256</dim>
					<dim>3</dim>
					<dim>3</dim>
				</port>
			</input>
			<output>
				<port id="2" precision="FP32">
					<dim>1</dim>
					<dim>512</dim>
					<dim>1</dim>
					<dim>1</dim>
				</port>
			</output>
		</layer>
		<layer id="167" name="conv_fm/Dims432372416801" type="Const" version="opset1">
			<data offset="1483210" size="1024" shape="1,512,1,1" element_type="f16"/>
			<output>
				<port id="0" precision="FP16">
					<dim>1</dim>
					<dim>512</dim>
					<dim>1</dim>
					<dim>1</dim>
				</port>
			</output>
		</layer>
		<layer id="168" name="conv_fm/Dims43237249420/restored_convert" type="Convert" version="opset1">
			<data destination_type="f32"/>
			<rt_info>
				<attribute name="decompression" version="0"/>
			</rt_info>
			<input>
				<port id="0">
					<dim>1</dim>
					<dim>512</dim>
					<dim>1</dim>
					<dim>1</dim>
				</port>
			</input>
			<output>
				<port id="1" precision="FP32">
					<dim>1</dim>
					<dim>512</dim>
					<dim>1</dim>
					<dim>1</dim>
				</port>
			</output>
		</layer>
		<layer id="169" name="conv_fm" type="Add" version="opset1">
			<data auto_broadcast="numpy"/>
			<input>
				<port id="0">
					<dim>1</dim>
					<dim>512</dim>
					<dim>1</dim>
					<dim>1</dim>
				</port>
				<port id="1">
					<dim>1</dim>
					<dim>512</dim>
					<dim>1</dim>
					<dim>1</dim>
				</port>
			</input>
			<output>
				<port id="2" precision="FP32" names="conv_fm">
					<dim>1</dim>
					<dim>512</dim>
					<dim>1</dim>
					<dim>1</dim>
				</port>
			</output>
		</layer>
		<layer id="170" name="landmarks_conv_edge_61/WithoutBiases/fq_input_0" type="FakeQuantize" version="opset1">
			<data levels="256" auto_broadcast="numpy"/>
			<input>
				<port id="0">
					<dim>1</dim>
					<dim>512</dim>
					<dim>1</dim>
					<dim>1</dim>
				</port>
				<port id="1"/>
				<port id="2"/>
				<port id="3"/>
				<port id="4"/>
			</input>
			<output>
				<port id="5" precision="FP32">
					<dim>1</dim>
					<dim>512</dim>
					<dim>1</dim>
					<dim>1</dim>
				</port>
			</output>
		</layer>
		<layer id="171" name="landmarks_conv_leye_corner/WithoutBiases/fq_weights_1/scale1306917359" type="Const" version="opset1">
			<data offset="1484234" size="1024" shape="256,1,1,1" element_type="f32"/>
			<output>
				<port id="0" precision="FP32">
					<dim>256</dim>
					<dim>1</dim>
					<dim>1</dim>
					<dim>1</dim>
				</port>
			</output>
		</layer>
		<layer id="172" name="bn/landmarks_conv_leye_corner/mean/Fused_Mul__copy7279421/restored_convert/quantized1306117671" type="Const" version="opset1">
			<data offset="1485258" size="131072" shape="256,512,1,1" element_type="i8"/>
			<output>
				<port id="0" precision="I8">
					<dim>256</dim>
					<dim>512</dim>
					<dim>1</dim>
					<dim>1</dim>
				</port>
			</output>
		</layer>
		<layer id="173" name="bn/landmarks_conv_leye_corner/mean/Fused_Mul__copy7279421/restored_convert/quantized/to_f32" type="Convert" version="opset1">
			<data destination_type="f32"/>
			<input>
				<port id="0">
					<dim>256</dim>
					<dim>512</dim>
					<dim>1</dim>
					<dim>1</dim>
				</port>
			</input>
			<output>
				<port id="1" precision="FP32">
					<dim>256</dim>
					<dim>512</dim>
					<dim>1</dim>
					<dim>1</dim>
				</port>
			</output>
		</layer>
		<layer id="174" name="landmarks_conv_leye_corner/WithoutBiases/fq_weights_1/mulpiply_by_scale" type="Multiply" version="opset1">
			<data auto_broadcast="numpy"/>
			<input>
				<port id="0">
					<dim>256</dim>
					<dim>512</dim>
					<dim>1</dim>
					<dim>1</dim>
				</port>
				<port id="1">
					<dim>256</dim>
					<dim>1</dim>
					<dim>1</dim>
					<dim>1</dim>
				</port>
			</input>
			<output>
				<port id="2" precision="FP32">
					<dim>256</dim>
					<dim>512</dim>
					<dim>1</dim>
					<dim>1</dim>
				</port>
			</output>
		</layer>
		<layer id="175" name="landmarks_conv_leye_corner/WithoutBiases" type="Convolution" version="opset1">
			<data auto_pad="explicit" strides="1,1" dilations="1,1" pads_begin="0,0" pads_end="0,0"/>
			<input>
				<port id="0">
					<dim>1</dim>
					<dim>512</dim>
					<dim>1</dim>
					<dim>1</dim>
				</port>
				<port id="1">
					<dim>256</dim>
					<dim>512</dim>
					<dim>1</dim>
					<dim>1</dim>
				</port>
			</input>
			<output>
				<port id="2" precision="FP32">
					<dim>1</dim>
					<dim>256</dim>
					<dim>1</dim>
					<dim>1</dim>
				</port>
			</output>
		</layer>
		<layer id="176" name="data_add_7794779973017092" type="Const" version="opset1">
			<data offset="1616330" size="512" shape="1,256,1,1" element_type="f16"/>
			<output>
				<port id="0" precision="FP16">
					<dim>1</dim>
					<dim>256</dim>
					<dim>1</dim>
					<dim>1</dim>
				</port>
			</output>
		</layer>
		<layer id="177" name="data_add_779477997309422/restored_convert" type="Convert" version="opset1">
			<data destination_type="f32"/>
			<rt_info>
				<attribute name="decompression" version="0"/>
			</rt_info>
			<input>
				<port id="0">
					<dim>1</dim>
					<dim>256</dim>
					<dim>1</dim>
					<dim>1</dim>
				</port>
			</input>
			<output>
				<port id="1" precision="FP32">
					<dim>1</dim>
					<dim>256</dim>
					<dim>1</dim>
					<dim>1</dim>
				</port>
			</output>
		</layer>
		<layer id="178" name="landmarks_conv_leye_corner/Fused_Add_" type="Add" version="opset1">
			<data auto_broadcast="numpy"/>
			<input>
				<port id="0">
					<dim>1</dim>
					<dim>256</dim>
					<dim>1</dim>
					<dim>1</dim>
				</port>
				<port id="1">
					<dim>1</dim>
					<dim>256</dim>
					<dim>1</dim>
					<dim>1</dim>
				</port>
			</input>
			<output>
				<port id="2" precision="FP32" names="landmarks_conv_leye_corner">
					<dim>1</dim>
					<dim>256</dim>
					<dim>1</dim>
					<dim>1</dim>
				</port>
			</output>
		</layer>
		<layer id="179" name="relu_leye_corner" type="ReLU" version="opset1">
			<input>
				<port id="0">
					<dim>1</dim>
					<dim>256</dim>
					<dim>1</dim>
					<dim>1</dim>
				</port>
			</input>
			<output>
				<port id="1" precision="FP32" names="landmarks_conv_leye_corner">
					<dim>1</dim>
					<dim>256</dim>
					<dim>1</dim>
					<dim>1</dim>
				</port>
			</output>
		</layer>
		<layer id="180" name="landmarks_fc_leye_corner_x_new/WithoutBiases/fq_input_0" type="FakeQuantize" version="opset1">
			<data levels="256" auto_broadcast="numpy"/>
			<input>
				<port id="0">
					<dim>1</dim>
					<dim>256</dim>
					<dim>1</dim>
					<dim>1</dim>
				</port>
				<port id="1"/>
				<port id="2"/>
				<port id="3"/>
				<port id="4"/>
			</input>
			<output>
				<port id="5" precision="FP32">
					<dim>1</dim>
					<dim>256</dim>
					<dim>1</dim>
					<dim>1</dim>
				</port>
			</output>
		</layer>
		<layer id="181" name="landmarks_fc_leye_corner_x_new/WithoutBiases/fq_weights_1/scale1069917371" type="Const" version="opset1">
			<data offset="1616842" size="240" shape="60,1,1,1" element_type="f32"/>
			<output>
				<port id="0" precision="FP32">
					<dim>60</dim>
					<dim>1</dim>
					<dim>1</dim>
					<dim>1</dim>
				</port>
			</output>
		</layer>
		<layer id="182" name="4027349423/restored_convert/quantized1069116990" type="Const" version="opset1">
			<data offset="1617082" size="15360" shape="60,256,1,1" element_type="i8"/>
			<output>
				<port id="0" precision="I8">
					<dim>60</dim>
					<dim>256</dim>
					<dim>1</dim>
					<dim>1</dim>
				</port>
			</output>
		</layer>
		<layer id="183" name="4027349423/restored_convert/quantized/to_f32" type="Convert" version="opset1">
			<data destination_type="f32"/>
			<input>
				<port id="0">
					<dim>60</dim>
					<dim>256</dim>
					<dim>1</dim>
					<dim>1</dim>
				</port>
			</input>
			<output>
				<port id="1" precision="FP32">
					<dim>60</dim>
					<dim>256</dim>
					<dim>1</dim>
					<dim>1</dim>
				</port>
			</output>
		</layer>
		<layer id="184" name="landmarks_fc_leye_corner_x_new/WithoutBiases/fq_weights_1/mulpiply_by_scale" type="Multiply" version="opset1">
			<data auto_broadcast="numpy"/>
			<input>
				<port id="0">
					<dim>60</dim>
					<dim>256</dim>
					<dim>1</dim>
					<dim>1</dim>
				</port>
				<port id="1">
					<dim>60</dim>
					<dim>1</dim>
					<dim>1</dim>
					<dim>1</dim>
				</port>
			</input>
			<output>
				<port id="2" precision="FP32">
					<dim>60</dim>
					<dim>256</dim>
					<dim>1</dim>
					<dim>1</dim>
				</port>
			</output>
		</layer>
		<layer id="185" name="landmarks_fc_leye_corner_x_new/WithoutBiases" type="Convolution" version="opset1">
			<data auto_pad="explicit" strides="1,1" dilations="1,1" pads_begin="0,0" pads_end="0,0"/>
			<input>
				<port id="0">
					<dim>1</dim>
					<dim>256</dim>
					<dim>1</dim>
					<dim>1</dim>
				</port>
				<port id="1">
					<dim>60</dim>
					<dim>256</dim>
					<dim>1</dim>
					<dim>1</dim>
				</port>
			</input>
			<output>
				<port id="2" precision="FP32">
					<dim>1</dim>
					<dim>60</dim>
					<dim>1</dim>
					<dim>1</dim>
				</port>
			</output>
		</layer>
		<layer id="186" name="landmarks_fc_leye_corner_x_new/Dims482173718097" type="Const" version="opset1">
			<data offset="1632442" size="120" shape="1,60,1,1" element_type="f16"/>
			<output>
				<port id="0" precision="FP16">
					<dim>1</dim>
					<dim>60</dim>
					<dim>1</dim>
					<dim>1</dim>
				</port>
			</output>
		</layer>
		<layer id="187" name="landmarks_fc_leye_corner_x_new/Dims48217379424/restored_convert" type="Convert" version="opset1">
			<data destination_type="f32"/>
			<rt_info>
				<attribute name="decompression" version="0"/>
			</rt_info>
			<input>
				<port id="0">
					<dim>1</dim>
					<dim>60</dim>
					<dim>1</dim>
					<dim>1</dim>
				</port>
			</input>
			<output>
				<port id="1" precision="FP32">
					<dim>1</dim>
					<dim>60</dim>
					<dim>1</dim>
					<dim>1</dim>
				</port>
			</output>
		</layer>
		<layer id="188" name="landmarks_fc_leye_corner_x_new" type="Add" version="opset1">
			<data auto_broadcast="numpy"/>
			<input>
				<port id="0">
					<dim>1</dim>
					<dim>60</dim>
					<dim>1</dim>
					<dim>1</dim>
				</port>
				<port id="1">
					<dim>1</dim>
					<dim>60</dim>
					<dim>1</dim>
					<dim>1</dim>
				</port>
			</input>
			<output>
				<port id="2" precision="FP32" names="landmarks_fc_leye_corner_x_new">
					<dim>1</dim>
					<dim>60</dim>
					<dim>1</dim>
					<dim>1</dim>
				</port>
			</output>
		</layer>
		<layer id="189" name="softmax_landmarks_leye_corner_x" type="SoftMax" version="opset8">
			<data axis="1"/>
			<input>
				<port id="0">
					<dim>1</dim>
					<dim>60</dim>
					<dim>1</dim>
					<dim>1</dim>
				</port>
			</input>
			<output>
				<port id="1" precision="FP32" names="softmax_landmarks_leye_corner_x">
					<dim>1</dim>
					<dim>60</dim>
					<dim>1</dim>
					<dim>1</dim>
				</port>
			</output>
		</layer>
		<layer id="190" name="raw_predicts/fq_input_0" type="FakeQuantize" version="opset1">
			<data levels="256" auto_broadcast="numpy"/>
			<input>
				<port id="0">
					<dim>1</dim>
					<dim>60</dim>
					<dim>1</dim>
					<dim>1</dim>
				</port>
				<port id="1"/>
				<port id="2"/>
				<port id="3"/>
				<port id="4"/>
			</input>
			<output>
				<port id="5" precision="FP32">
					<dim>1</dim>
					<dim>60</dim>
					<dim>1</dim>
					<dim>1</dim>
				</port>
			</output>
		</layer>
		<layer id="191" name="4785478917323" type="Const" version="opset1">
			<data offset="16" size="4" shape="" element_type="f32"/>
			<output>
				<port id="0" precision="FP32"/>
			</output>
		</layer>
		<layer id="192" name="4786479017869" type="Const" version="opset1">
			<data offset="20" size="4" shape="" element_type="f32"/>
			<output>
				<port id="0" precision="FP32"/>
			</output>
		</layer>
		<layer id="193" name="4787479118046" type="Const" version="opset1">
			<data offset="16" size="4" shape="" element_type="f32"/>
			<output>
				<port id="0" precision="FP32"/>
			</output>
		</layer>
		<layer id="194" name="4788479217512" type="Const" version="opset1">
			<data offset="20" size="4" shape="" element_type="f32"/>
			<output>
				<port id="0" precision="FP32"/>
			</output>
		</layer>
		<layer id="195" name="landmarks_fc_leye_corner_y_new/WithoutBiases/fq_weights_1/scale1105917893" type="Const" version="opset1">
			<data offset="1632562" size="240" shape="60,1,1,1" element_type="f32"/>
			<output>
				<port id="0" precision="FP32">
					<dim>60</dim>
					<dim>1</dim>
					<dim>1</dim>
					<dim>1</dim>
				</port>
			</output>
		</layer>
		<layer id="196" name="3727419425/restored_convert/quantized1105117494" type="Const" version="opset1">
			<data offset="1632802" size="15360" shape="60,256,1,1" element_type="i8"/>
			<output>
				<port id="0" precision="I8">
					<dim>60</dim>
					<dim>256</dim>
					<dim>1</dim>
					<dim>1</dim>
				</port>
			</output>
		</layer>
		<layer id="197" name="3727419425/restored_convert/quantized/to_f32" type="Convert" version="opset1">
			<data destination_type="f32"/>
			<input>
				<port id="0">
					<dim>60</dim>
					<dim>256</dim>
					<dim>1</dim>
					<dim>1</dim>
				</port>
			</input>
			<output>
				<port id="1" precision="FP32">
					<dim>60</dim>
					<dim>256</dim>
					<dim>1</dim>
					<dim>1</dim>
				</port>
			</output>
		</layer>
		<layer id="198" name="landmarks_fc_leye_corner_y_new/WithoutBiases/fq_weights_1/mulpiply_by_scale" type="Multiply" version="opset1">
			<data auto_broadcast="numpy"/>
			<input>
				<port id="0">
					<dim>60</dim>
					<dim>256</dim>
					<dim>1</dim>
					<dim>1</dim>
				</port>
				<port id="1">
					<dim>60</dim>
					<dim>1</dim>
					<dim>1</dim>
					<dim>1</dim>
				</port>
			</input>
			<output>
				<port id="2" precision="FP32">
					<dim>60</dim>
					<dim>256</dim>
					<dim>1</dim>
					<dim>1</dim>
				</port>
			</output>
		</layer>
		<layer id="199" name="landmarks_fc_leye_corner_y_new/WithoutBiases" type="Convolution" version="opset1">
			<data auto_pad="explicit" strides="1,1" dilations="1,1" pads_begin="0,0" pads_end="0,0"/>
			<input>
				<port id="0">
					<dim>1</dim>
					<dim>256</dim>
					<dim>1</dim>
					<dim>1</dim>
				</port>
				<port id="1">
					<dim>60</dim>
					<dim>256</dim>
					<dim>1</dim>
					<dim>1</dim>
				</port>
			</input>
			<output>
				<port id="2" precision="FP32">
					<dim>1</dim>
					<dim>60</dim>
					<dim>1</dim>
					<dim>1</dim>
				</port>
			</output>
		</layer>
		<layer id="200" name="landmarks_fc_leye_corner_y_new/Dims441374418157" type="Const" version="opset1">
			<data offset="1648162" size="120" shape="1,60,1,1" element_type="f16"/>
			<output>
				<port id="0" precision="FP16">
					<dim>1</dim>
					<dim>60</dim>
					<dim>1</dim>
					<dim>1</dim>
				</port>
			</output>
		</layer>
		<layer id="201" name="landmarks_fc_leye_corner_y_new/Dims44137449426/restored_convert" type="Convert" version="opset1">
			<data destination_type="f32"/>
			<rt_info>
				<attribute name="decompression" version="0"/>
			</rt_info>
			<input>
				<port id="0">
					<dim>1</dim>
					<dim>60</dim>
					<dim>1</dim>
					<dim>1</dim>
				</port>
			</input>
			<output>
				<port id="1" precision="FP32">
					<dim>1</dim>
					<dim>60</dim>
					<dim>1</dim>
					<dim>1</dim>
				</port>
			</output>
		</layer>
		<layer id="202" name="landmarks_fc_leye_corner_y_new" type="Add" version="opset1">
			<data auto_broadcast="numpy"/>
			<input>
				<port id="0">
					<dim>1</dim>
					<dim>60</dim>
					<dim>1</dim>
					<dim>1</dim>
				</port>
				<port id="1">
					<dim>1</dim>
					<dim>60</dim>
					<dim>1</dim>
					<dim>1</dim>
				</port>
			</input>
			<output>
				<port id="2" precision="FP32" names="landmarks_fc_leye_corner_y_new">
					<dim>1</dim>
					<dim>60</dim>
					<dim>1</dim>
					<dim>1</dim>
				</port>
			</output>
		</layer>
		<layer id="203" name="softmax_landmarks_leye_corner_y" type="SoftMax" version="opset8">
			<data axis="1"/>
			<input>
				<port id="0">
					<dim>1</dim>
					<dim>60</dim>
					<dim>1</dim>
					<dim>1</dim>
				</port>
			</input>
			<output>
				<port id="1" precision="FP32" names="softmax_landmarks_leye_corner_y">
					<dim>1</dim>
					<dim>60</dim>
					<dim>1</dim>
					<dim>1</dim>
				</port>
			</output>
		</layer>
		<layer id="204" name="raw_predicts/fq_input_1" type="FakeQuantize" version="opset1">
			<data levels="256" auto_broadcast="numpy"/>
			<input>
				<port id="0">
					<dim>1</dim>
					<dim>60</dim>
					<dim>1</dim>
					<dim>1</dim>
				</port>
				<port id="1"/>
				<port id="2"/>
				<port id="3"/>
				<port id="4"/>
			</input>
			<output>
				<port id="5" precision="FP32">
					<dim>1</dim>
					<dim>60</dim>
					<dim>1</dim>
					<dim>1</dim>
				</port>
			</output>
		</layer>
		<layer id="205" name="4795479918058" type="Const" version="opset1">
			<data offset="16" size="4" shape="" element_type="f32"/>
			<output>
				<port id="0" precision="FP32"/>
			</output>
		</layer>
		<layer id="206" name="4796480018589" type="Const" version="opset1">
			<data offset="20" size="4" shape="" element_type="f32"/>
			<output>
				<port id="0" precision="FP32"/>
			</output>
		</layer>
		<layer id="207" name="4797480117755" type="Const" version="opset1">
			<data offset="16" size="4" shape="" element_type="f32"/>
			<output>
				<port id="0" precision="FP32"/>
			</output>
		</layer>
		<layer id="208" name="4798480217314" type="Const" version="opset1">
			<data offset="20" size="4" shape="" element_type="f32"/>
			<output>
				<port id="0" precision="FP32"/>
			</output>
		</layer>
		<layer id="209" name="landmarks_fc_leye_x_new/WithoutBiases/fq_weights_1/scale1192918241" type="Const" version="opset1">
			<data offset="1648282" size="240" shape="60,1,1,1" element_type="f32"/>
			<output>
				<port id="0" precision="FP32">
					<dim>60</dim>
					<dim>1</dim>
					<dim>1</dim>
					<dim>1</dim>
				</port>
			</output>
		</layer>
		<layer id="210" name="4127489427/restored_convert/quantized1192117992" type="Const" version="opset1">
			<data offset="1648522" size="15360" shape="60,256,1,1" element_type="i8"/>
			<output>
				<port id="0" precision="I8">
					<dim>60</dim>
					<dim>256</dim>
					<dim>1</dim>
					<dim>1</dim>
				</port>
			</output>
		</layer>
		<layer id="211" name="4127489427/restored_convert/quantized/to_f32" type="Convert" version="opset1">
			<data destination_type="f32"/>
			<input>
				<port id="0">
					<dim>60</dim>
					<dim>256</dim>
					<dim>1</dim>
					<dim>1</dim>
				</port>
			</input>
			<output>
				<port id="1" precision="FP32">
					<dim>60</dim>
					<dim>256</dim>
					<dim>1</dim>
					<dim>1</dim>
				</port>
			</output>
		</layer>
		<layer id="212" name="landmarks_fc_leye_x_new/WithoutBiases/fq_weights_1/mulpiply_by_scale" type="Multiply" version="opset1">
			<data auto_broadcast="numpy"/>
			<input>
				<port id="0">
					<dim>60</dim>
					<dim>256</dim>
					<dim>1</dim>
					<dim>1</dim>
				</port>
				<port id="1">
					<dim>60</dim>
					<dim>1</dim>
					<dim>1</dim>
					<dim>1</dim>
				</port>
			</input>
			<output>
				<port id="2" precision="FP32">
					<dim>60</dim>
					<dim>256</dim>
					<dim>1</dim>
					<dim>1</dim>
				</port>
			</output>
		</layer>
		<layer id="213" name="landmarks_fc_leye_x_new/WithoutBiases" type="Convolution" version="opset1">
			<data auto_pad="explicit" strides="1,1" dilations="1,1" pads_begin="0,0" pads_end="0,0"/>
			<input>
				<port id="0">
					<dim>1</dim>
					<dim>256</dim>
					<dim>1</dim>
					<dim>1</dim>
				</port>
				<port id="1">
					<dim>60</dim>
					<dim>256</dim>
					<dim>1</dim>
					<dim>1</dim>
				</port>
			</input>
			<output>
				<port id="2" precision="FP32">
					<dim>1</dim>
					<dim>60</dim>
					<dim>1</dim>
					<dim>1</dim>
				</port>
			</output>
		</layer>
		<layer id="214" name="landmarks_fc_leye_x_new/Dims444375116993" type="Const" version="opset1">
			<data offset="1663882" size="120" shape="1,60,1,1" element_type="f16"/>
			<output>
				<port id="0" precision="FP16">
					<dim>1</dim>
					<dim>60</dim>
					<dim>1</dim>
					<dim>1</dim>
				</port>
			</output>
		</layer>
		<layer id="215" name="landmarks_fc_leye_x_new/Dims44437519428/restored_convert" type="Convert" version="opset1">
			<data destination_type="f32"/>
			<rt_info>
				<attribute name="decompression" version="0"/>
			</rt_info>
			<input>
				<port id="0">
					<dim>1</dim>
					<dim>60</dim>
					<dim>1</dim>
					<dim>1</dim>
				</port>
			</input>
			<output>
				<port id="1" precision="FP32">
					<dim>1</dim>
					<dim>60</dim>
					<dim>1</dim>
					<dim>1</dim>
				</port>
			</output>
		</layer>
		<layer id="216" name="landmarks_fc_leye_x_new" type="Add" version="opset1">
			<data auto_broadcast="numpy"/>
			<input>
				<port id="0">
					<dim>1</dim>
					<dim>60</dim>
					<dim>1</dim>
					<dim>1</dim>
				</port>
				<port id="1">
					<dim>1</dim>
					<dim>60</dim>
					<dim>1</dim>
					<dim>1</dim>
				</port>
			</input>
			<output>
				<port id="2" precision="FP32" names="landmarks_fc_leye_x_new">
					<dim>1</dim>
					<dim>60</dim>
					<dim>1</dim>
					<dim>1</dim>
				</port>
			</output>
		</layer>
		<layer id="217" name="softmax_landmarks_leye_x" type="SoftMax" version="opset8">
			<data axis="1"/>
			<input>
				<port id="0">
					<dim>1</dim>
					<dim>60</dim>
					<dim>1</dim>
					<dim>1</dim>
				</port>
			</input>
			<output>
				<port id="1" precision="FP32" names="softmax_landmarks_leye_x">
					<dim>1</dim>
					<dim>60</dim>
					<dim>1</dim>
					<dim>1</dim>
				</port>
			</output>
		</layer>
		<layer id="218" name="raw_predicts/fq_input_2" type="FakeQuantize" version="opset1">
			<data levels="256" auto_broadcast="numpy"/>
			<input>
				<port id="0">
					<dim>1</dim>
					<dim>60</dim>
					<dim>1</dim>
					<dim>1</dim>
				</port>
				<port id="1"/>
				<port id="2"/>
				<port id="3"/>
				<port id="4"/>
			</input>
			<output>
				<port id="5" precision="FP32">
					<dim>1</dim>
					<dim>60</dim>
					<dim>1</dim>
					<dim>1</dim>
				</port>
			</output>
		</layer>
		<layer id="219" name="4805480918049" type="Const" version="opset1">
			<data offset="16" size="4" shape="" element_type="f32"/>
			<output>
				<port id="0" precision="FP32"/>
			</output>
		</layer>
		<layer id="220" name="4806481017188" type="Const" version="opset1">
			<data offset="20" size="4" shape="" element_type="f32"/>
			<output>
				<port id="0" precision="FP32"/>
			</output>
		</layer>
		<layer id="221" name="4807481116873" type="Const" version="opset1">
			<data offset="16" size="4" shape="" element_type="f32"/>
			<output>
				<port id="0" precision="FP32"/>
			</output>
		</layer>
		<layer id="222" name="4808481217707" type="Const" version="opset1">
			<data offset="20" size="4" shape="" element_type="f32"/>
			<output>
				<port id="0" precision="FP32"/>
			</output>
		</layer>
		<layer id="223" name="landmarks_fc_leye_y_new/WithoutBiases/fq_weights_1/scale1153918172" type="Const" version="opset1">
			<data offset="1664002" size="240" shape="60,1,1,1" element_type="f32"/>
			<output>
				<port id="0" precision="FP32">
					<dim>60</dim>
					<dim>1</dim>
					<dim>1</dim>
					<dim>1</dim>
				</port>
			</output>
		</layer>
		<layer id="224" name="2507559429/restored_convert/quantized1153117194" type="Const" version="opset1">
			<data offset="1664242" size="15360" shape="60,256,1,1" element_type="i8"/>
			<output>
				<port id="0" precision="I8">
					<dim>60</dim>
					<dim>256</dim>
					<dim>1</dim>
					<dim>1</dim>
				</port>
			</output>
		</layer>
		<layer id="225" name="2507559429/restored_convert/quantized/to_f32" type="Convert" version="opset1">
			<data destination_type="f32"/>
			<input>
				<port id="0">
					<dim>60</dim>
					<dim>256</dim>
					<dim>1</dim>
					<dim>1</dim>
				</port>
			</input>
			<output>
				<port id="1" precision="FP32">
					<dim>60</dim>
					<dim>256</dim>
					<dim>1</dim>
					<dim>1</dim>
				</port>
			</output>
		</layer>
		<layer id="226" name="landmarks_fc_leye_y_new/WithoutBiases/fq_weights_1/mulpiply_by_scale" type="Multiply" version="opset1">
			<data auto_broadcast="numpy"/>
			<input>
				<port id="0">
					<dim>60</dim>
					<dim>256</dim>
					<dim>1</dim>
					<dim>1</dim>
				</port>
				<port id="1">
					<dim>60</dim>
					<dim>1</dim>
					<dim>1</dim>
					<dim>1</dim>
				</port>
			</input>
			<output>
				<port id="2" precision="FP32">
					<dim>60</dim>
					<dim>256</dim>
					<dim>1</dim>
					<dim>1</dim>
				</port>
			</output>
		</layer>
		<layer id="227" name="landmarks_fc_leye_y_new/WithoutBiases" type="Convolution" version="opset1">
			<data auto_pad="explicit" strides="1,1" dilations="1,1" pads_begin="0,0" pads_end="0,0"/>
			<input>
				<port id="0">
					<dim>1</dim>
					<dim>256</dim>
					<dim>1</dim>
					<dim>1</dim>
				</port>
				<port id="1">
					<dim>60</dim>
					<dim>256</dim>
					<dim>1</dim>
					<dim>1</dim>
				</port>
			</input>
			<output>
				<port id="2" precision="FP32">
					<dim>1</dim>
					<dim>60</dim>
					<dim>1</dim>
					<dim>1</dim>
				</port>
			</output>
		</layer>
		<layer id="228" name="landmarks_fc_leye_y_new/Dims449775818031" type="Const" version="opset1">
			<data offset="1679602" size="120" shape="1,60,1,1" element_type="f16"/>
			<output>
				<port id="0" precision="FP16">
					<dim>1</dim>
					<dim>60</dim>
					<dim>1</dim>
					<dim>1</dim>
				</port>
			</output>
		</layer>
		<layer id="229" name="landmarks_fc_leye_y_new/Dims44977589430/restored_convert" type="Convert" version="opset1">
			<data destination_type="f32"/>
			<rt_info>
				<attribute name="decompression" version="0"/>
			</rt_info>
			<input>
				<port id="0">
					<dim>1</dim>
					<dim>60</dim>
					<dim>1</dim>
					<dim>1</dim>
				</port>
			</input>
			<output>
				<port id="1" precision="FP32">
					<dim>1</dim>
					<dim>60</dim>
					<dim>1</dim>
					<dim>1</dim>
				</port>
			</output>
		</layer>
		<layer id="230" name="landmarks_fc_leye_y_new" type="Add" version="opset1">
			<data auto_broadcast="numpy"/>
			<input>
				<port id="0">
					<dim>1</dim>
					<dim>60</dim>
					<dim>1</dim>
					<dim>1</dim>
				</port>
				<port id="1">
					<dim>1</dim>
					<dim>60</dim>
					<dim>1</dim>
					<dim>1</dim>
				</port>
			</input>
			<output>
				<port id="2" precision="FP32" names="landmarks_fc_leye_y_new">
					<dim>1</dim>
					<dim>60</dim>
					<dim>1</dim>
					<dim>1</dim>
				</port>
			</output>
		</layer>
		<layer id="231" name="softmax_landmarks_leye_y" type="SoftMax" version="opset8">
			<data axis="1"/>
			<input>
				<port id="0">
					<dim>1</dim>
					<dim>60</dim>
					<dim>1</dim>
					<dim>1</dim>
				</port>
			</input>
			<output>
				<port id="1" precision="FP32" names="softmax_landmarks_leye_y">
					<dim>1</dim>
					<dim>60</dim>
					<dim>1</dim>
					<dim>1</dim>
				</port>
			</output>
		</layer>
		<layer id="232" name="raw_predicts/fq_input_3" type="FakeQuantize" version="opset1">
			<data levels="256" auto_broadcast="numpy"/>
			<input>
				<port id="0">
					<dim>1</dim>
					<dim>60</dim>
					<dim>1</dim>
					<dim>1</dim>
				</port>
				<port id="1"/>
				<port id="2"/>
				<port id="3"/>
				<port id="4"/>
			</input>
			<output>
				<port id="5" precision="FP32">
					<dim>1</dim>
					<dim>60</dim>
					<dim>1</dim>
					<dim>1</dim>
				</port>
			</output>
		</layer>
		<layer id="233" name="4815481917278" type="Const" version="opset1">
			<data offset="16" size="4" shape="" element_type="f32"/>
			<output>
				<port id="0" precision="FP32"/>
			</output>
		</layer>
		<layer id="234" name="4816482018214" type="Const" version="opset1">
			<data offset="20" size="4" shape="" element_type="f32"/>
			<output>
				<port id="0" precision="FP32"/>
			</output>
		</layer>
		<layer id="235" name="4817482117476" type="Const" version="opset1">
			<data offset="16" size="4" shape="" element_type="f32"/>
			<output>
				<port id="0" precision="FP32"/>
			</output>
		</layer>
		<layer id="236" name="4818482218520" type="Const" version="opset1">
			<data offset="20" size="4" shape="" element_type="f32"/>
			<output>
				<port id="0" precision="FP32"/>
			</output>
		</layer>
		<layer id="237" name="2733273717782" type="Const" version="opset1">
			<data offset="16" size="4" shape="" element_type="f32"/>
			<output>
				<port id="0" precision="FP32"/>
			</output>
		</layer>
		<layer id="238" name="2734273817644" type="Const" version="opset1">
			<data offset="1679722" size="4" shape="" element_type="f32"/>
			<output>
				<port id="0" precision="FP32"/>
			</output>
		</layer>
		<layer id="239" name="2735273918553" type="Const" version="opset1">
			<data offset="16" size="4" shape="" element_type="f32"/>
			<output>
				<port id="0" precision="FP32"/>
			</output>
		</layer>
		<layer id="240" name="2736274017017" type="Const" version="opset1">
			<data offset="1679722" size="4" shape="" element_type="f32"/>
			<output>
				<port id="0" precision="FP32"/>
			</output>
		</layer>
		<layer id="241" name="landmarks_conv_reye/WithoutBiases/fq_weights_1/scale1327917215" type="Const" version="opset1">
			<data offset="1679726" size="1024" shape="256,1,1,1" element_type="f32"/>
			<output>
				<port id="0" precision="FP32">
					<dim>256</dim>
					<dim>1</dim>
					<dim>1</dim>
					<dim>1</dim>
				</port>
			</output>
		</layer>
		<layer id="242" name="bn/landmarks_conv_reye/mean/Fused_Mul__copy7629431/restored_convert/quantized1327117737" type="Const" version="opset1">
			<data offset="1680750" size="131072" shape="256,512,1,1" element_type="i8"/>
			<output>
				<port id="0" precision="I8">
					<dim>256</dim>
					<dim>512</dim>
					<dim>1</dim>
					<dim>1</dim>
				</port>
			</output>
		</layer>
		<layer id="243" name="bn/landmarks_conv_reye/mean/Fused_Mul__copy7629431/restored_convert/quantized/to_f32" type="Convert" version="opset1">
			<data destination_type="f32"/>
			<input>
				<port id="0">
					<dim>256</dim>
					<dim>512</dim>
					<dim>1</dim>
					<dim>1</dim>
				</port>
			</input>
			<output>
				<port id="1" precision="FP32">
					<dim>256</dim>
					<dim>512</dim>
					<dim>1</dim>
					<dim>1</dim>
				</port>
			</output>
		</layer>
		<layer id="244" name="landmarks_conv_reye/WithoutBiases/fq_weights_1/mulpiply_by_scale" type="Multiply" version="opset1">
			<data auto_broadcast="numpy"/>
			<input>
				<port id="0">
					<dim>256</dim>
					<dim>512</dim>
					<dim>1</dim>
					<dim>1</dim>
				</port>
				<port id="1">
					<dim>256</dim>
					<dim>1</dim>
					<dim>1</dim>
					<dim>1</dim>
				</port>
			</input>
			<output>
				<port id="2" precision="FP32">
					<dim>256</dim>
					<dim>512</dim>
					<dim>1</dim>
					<dim>1</dim>
				</port>
			</output>
		</layer>
		<layer id="245" name="landmarks_conv_reye/WithoutBiases" type="Convolution" version="opset1">
			<data auto_pad="explicit" strides="1,1" dilations="1,1" pads_begin="0,0" pads_end="0,0"/>
			<input>
				<port id="0">
					<dim>1</dim>
					<dim>512</dim>
					<dim>1</dim>
					<dim>1</dim>
				</port>
				<port id="1">
					<dim>256</dim>
					<dim>512</dim>
					<dim>1</dim>
					<dim>1</dim>
				</port>
			</input>
			<output>
				<port id="2" precision="FP32">
					<dim>1</dim>
					<dim>256</dim>
					<dim>1</dim>
					<dim>1</dim>
				</port>
			</output>
		</layer>
		<layer id="246" name="data_add_7786779176516852" type="Const" version="opset1">
			<data offset="1811822" size="512" shape="1,256,1,1" element_type="f16"/>
			<output>
				<port id="0" precision="FP16">
					<dim>1</dim>
					<dim>256</dim>
					<dim>1</dim>
					<dim>1</dim>
				</port>
			</output>
		</layer>
		<layer id="247" name="data_add_778677917659432/restored_convert" type="Convert" version="opset1">
			<data destination_type="f32"/>
			<rt_info>
				<attribute name="decompression" version="0"/>
			</rt_info>
			<input>
				<port id="0">
					<dim>1</dim>
					<dim>256</dim>
					<dim>1</dim>
					<dim>1</dim>
				</port>
			</input>
			<output>
				<port id="1" precision="FP32">
					<dim>1</dim>
					<dim>256</dim>
					<dim>1</dim>
					<dim>1</dim>
				</port>
			</output>
		</layer>
		<layer id="248" name="landmarks_conv_reye/Fused_Add_" type="Add" version="opset1">
			<data auto_broadcast="numpy"/>
			<input>
				<port id="0">
					<dim>1</dim>
					<dim>256</dim>
					<dim>1</dim>
					<dim>1</dim>
				</port>
				<port id="1">
					<dim>1</dim>
					<dim>256</dim>
					<dim>1</dim>
					<dim>1</dim>
				</port>
			</input>
			<output>
				<port id="2" precision="FP32" names="landmarks_conv_reye">
					<dim>1</dim>
					<dim>256</dim>
					<dim>1</dim>
					<dim>1</dim>
				</port>
			</output>
		</layer>
		<layer id="249" name="relu_reye" type="ReLU" version="opset1">
			<input>
				<port id="0">
					<dim>1</dim>
					<dim>256</dim>
					<dim>1</dim>
					<dim>1</dim>
				</port>
			</input>
			<output>
				<port id="1" precision="FP32" names="landmarks_conv_reye">
					<dim>1</dim>
					<dim>256</dim>
					<dim>1</dim>
					<dim>1</dim>
				</port>
			</output>
		</layer>
		<layer id="250" name="landmarks_fc_reye_corner_x_new/WithoutBiases/fq_input_0" type="FakeQuantize" version="opset1">
			<data levels="256" auto_broadcast="numpy"/>
			<input>
				<port id="0">
					<dim>1</dim>
					<dim>256</dim>
					<dim>1</dim>
					<dim>1</dim>
				</port>
				<port id="1"/>
				<port id="2"/>
				<port id="3"/>
				<port id="4"/>
			</input>
			<output>
				<port id="5" precision="FP32">
					<dim>1</dim>
					<dim>256</dim>
					<dim>1</dim>
					<dim>1</dim>
				</port>
			</output>
		</layer>
		<layer id="251" name="landmarks_fc_reye_x_new/WithoutBiases/fq_weights_1/scale1132917074" type="Const" version="opset1">
			<data offset="1812334" size="240" shape="60,1,1,1" element_type="f32"/>
			<output>
				<port id="0" precision="FP32">
					<dim>60</dim>
					<dim>1</dim>
					<dim>1</dim>
					<dim>1</dim>
				</port>
			</output>
		</layer>
		<layer id="252" name="2147699433/restored_convert/quantized1132118118" type="Const" version="opset1">
			<data offset="1812574" size="15360" shape="60,256,1,1" element_type="i8"/>
			<output>
				<port id="0" precision="I8">
					<dim>60</dim>
					<dim>256</dim>
					<dim>1</dim>
					<dim>1</dim>
				</port>
			</output>
		</layer>
		<layer id="253" name="2147699433/restored_convert/quantized/to_f32" type="Convert" version="opset1">
			<data destination_type="f32"/>
			<input>
				<port id="0">
					<dim>60</dim>
					<dim>256</dim>
					<dim>1</dim>
					<dim>1</dim>
				</port>
			</input>
			<output>
				<port id="1" precision="FP32">
					<dim>60</dim>
					<dim>256</dim>
					<dim>1</dim>
					<dim>1</dim>
				</port>
			</output>
		</layer>
		<layer id="254" name="landmarks_fc_reye_x_new/WithoutBiases/fq_weights_1/mulpiply_by_scale" type="Multiply" version="opset1">
			<data auto_broadcast="numpy"/>
			<input>
				<port id="0">
					<dim>60</dim>
					<dim>256</dim>
					<dim>1</dim>
					<dim>1</dim>
				</port>
				<port id="1">
					<dim>60</dim>
					<dim>1</dim>
					<dim>1</dim>
					<dim>1</dim>
				</port>
			</input>
			<output>
				<port id="2" precision="FP32">
					<dim>60</dim>
					<dim>256</dim>
					<dim>1</dim>
					<dim>1</dim>
				</port>
			</output>
		</layer>
		<layer id="255" name="landmarks_fc_reye_x_new/WithoutBiases" type="Convolution" version="opset1">
			<data auto_pad="explicit" strides="1,1" dilations="1,1" pads_begin="0,0" pads_end="0,0"/>
			<input>
				<port id="0">
					<dim>1</dim>
					<dim>256</dim>
					<dim>1</dim>
					<dim>1</dim>
				</port>
				<port id="1">
					<dim>60</dim>
					<dim>256</dim>
					<dim>1</dim>
					<dim>1</dim>
				</port>
			</input>
			<output>
				<port id="2" precision="FP32">
					<dim>1</dim>
					<dim>60</dim>
					<dim>1</dim>
					<dim>1</dim>
				</port>
			</output>
		</layer>
		<layer id="256" name="landmarks_fc_reye_x_new/Dims447377216837" type="Const" version="opset1">
			<data offset="1827934" size="120" shape="1,60,1,1" element_type="f16"/>
			<output>
				<port id="0" precision="FP16">
					<dim>1</dim>
					<dim>60</dim>
					<dim>1</dim>
					<dim>1</dim>
				</port>
			</output>
		</layer>
		<layer id="257" name="landmarks_fc_reye_x_new/Dims44737729434/restored_convert" type="Convert" version="opset1">
			<data destination_type="f32"/>
			<rt_info>
				<attribute name="decompression" version="0"/>
			</rt_info>
			<input>
				<port id="0">
					<dim>1</dim>
					<dim>60</dim>
					<dim>1</dim>
					<dim>1</dim>
				</port>
			</input>
			<output>
				<port id="1" precision="FP32">
					<dim>1</dim>
					<dim>60</dim>
					<dim>1</dim>
					<dim>1</dim>
				</port>
			</output>
		</layer>
		<layer id="258" name="landmarks_fc_reye_x_new" type="Add" version="opset1">
			<data auto_broadcast="numpy"/>
			<input>
				<port id="0">
					<dim>1</dim>
					<dim>60</dim>
					<dim>1</dim>
					<dim>1</dim>
				</port>
				<port id="1">
					<dim>1</dim>
					<dim>60</dim>
					<dim>1</dim>
					<dim>1</dim>
				</port>
			</input>
			<output>
				<port id="2" precision="FP32" names="landmarks_fc_reye_x_new">
					<dim>1</dim>
					<dim>60</dim>
					<dim>1</dim>
					<dim>1</dim>
				</port>
			</output>
		</layer>
		<layer id="259" name="softmax_landmarks_reye_x" type="SoftMax" version="opset8">
			<data axis="1"/>
			<input>
				<port id="0">
					<dim>1</dim>
					<dim>60</dim>
					<dim>1</dim>
					<dim>1</dim>
				</port>
			</input>
			<output>
				<port id="1" precision="FP32" names="softmax_landmarks_reye_x">
					<dim>1</dim>
					<dim>60</dim>
					<dim>1</dim>
					<dim>1</dim>
				</port>
			</output>
		</layer>
		<layer id="260" name="raw_predicts/fq_input_4" type="FakeQuantize" version="opset1">
			<data levels="256" auto_broadcast="numpy"/>
			<input>
				<port id="0">
					<dim>1</dim>
					<dim>60</dim>
					<dim>1</dim>
					<dim>1</dim>
				</port>
				<port id="1"/>
				<port id="2"/>
				<port id="3"/>
				<port id="4"/>
			</input>
			<output>
				<port id="5" precision="FP32">
					<dim>1</dim>
					<dim>60</dim>
					<dim>1</dim>
					<dim>1</dim>
				</port>
			</output>
		</layer>
		<layer id="261" name="4825482917611" type="Const" version="opset1">
			<data offset="16" size="4" shape="" element_type="f32"/>
			<output>
				<port id="0" precision="FP32"/>
			</output>
		</layer>
		<layer id="262" name="4826483017491" type="Const" version="opset1">
			<data offset="20" size="4" shape="" element_type="f32"/>
			<output>
				<port id="0" precision="FP32"/>
			</output>
		</layer>
		<layer id="263" name="4827483118013" type="Const" version="opset1">
			<data offset="16" size="4" shape="" element_type="f32"/>
			<output>
				<port id="0" precision="FP32"/>
			</output>
		</layer>
		<layer id="264" name="4828483217197" type="Const" version="opset1">
			<data offset="20" size="4" shape="" element_type="f32"/>
			<output>
				<port id="0" precision="FP32"/>
			</output>
		</layer>
		<layer id="265" name="landmarks_fc_reye_y_new/WithoutBiases/fq_weights_1/scale1315918556" type="Const" version="opset1">
			<data offset="1828054" size="240" shape="60,1,1,1" element_type="f32"/>
			<output>
				<port id="0" precision="FP32">
					<dim>60</dim>
					<dim>1</dim>
					<dim>1</dim>
					<dim>1</dim>
				</port>
			</output>
		</layer>
		<layer id="266" name="2127769435/restored_convert/quantized1315116792" type="Const" version="opset1">
			<data offset="1828294" size="15360" shape="60,256,1,1" element_type="i8"/>
			<output>
				<port id="0" precision="I8">
					<dim>60</dim>
					<dim>256</dim>
					<dim>1</dim>
					<dim>1</dim>
				</port>
			</output>
		</layer>
		<layer id="267" name="2127769435/restored_convert/quantized/to_f32" type="Convert" version="opset1">
			<data destination_type="f32"/>
			<input>
				<port id="0">
					<dim>60</dim>
					<dim>256</dim>
					<dim>1</dim>
					<dim>1</dim>
				</port>
			</input>
			<output>
				<port id="1" precision="FP32">
					<dim>60</dim>
					<dim>256</dim>
					<dim>1</dim>
					<dim>1</dim>
				</port>
			</output>
		</layer>
		<layer id="268" name="landmarks_fc_reye_y_new/WithoutBiases/fq_weights_1/mulpiply_by_scale" type="Multiply" version="opset1">
			<data auto_broadcast="numpy"/>
			<input>
				<port id="0">
					<dim>60</dim>
					<dim>256</dim>
					<dim>1</dim>
					<dim>1</dim>
				</port>
				<port id="1">
					<dim>60</dim>
					<dim>1</dim>
					<dim>1</dim>
					<dim>1</dim>
				</port>
			</input>
			<output>
				<port id="2" precision="FP32">
					<dim>60</dim>
					<dim>256</dim>
					<dim>1</dim>
					<dim>1</dim>
				</port>
			</output>
		</layer>
		<layer id="269" name="landmarks_fc_reye_y_new/WithoutBiases" type="Convolution" version="opset1">
			<data auto_pad="explicit" strides="1,1" dilations="1,1" pads_begin="0,0" pads_end="0,0"/>
			<input>
				<port id="0">
					<dim>1</dim>
					<dim>256</dim>
					<dim>1</dim>
					<dim>1</dim>
				</port>
				<port id="1">
					<dim>60</dim>
					<dim>256</dim>
					<dim>1</dim>
					<dim>1</dim>
				</port>
			</input>
			<output>
				<port id="2" precision="FP32">
					<dim>1</dim>
					<dim>60</dim>
					<dim>1</dim>
					<dim>1</dim>
				</port>
			</output>
		</layer>
		<layer id="270" name="landmarks_fc_reye_y_new/Dims446777917275" type="Const" version="opset1">
			<data offset="1843654" size="120" shape="1,60,1,1" element_type="f16"/>
			<output>
				<port id="0" precision="FP16">
					<dim>1</dim>
					<dim>60</dim>
					<dim>1</dim>
					<dim>1</dim>
				</port>
			</output>
		</layer>
		<layer id="271" name="landmarks_fc_reye_y_new/Dims44677799436/restored_convert" type="Convert" version="opset1">
			<data destination_type="f32"/>
			<rt_info>
				<attribute name="decompression" version="0"/>
			</rt_info>
			<input>
				<port id="0">
					<dim>1</dim>
					<dim>60</dim>
					<dim>1</dim>
					<dim>1</dim>
				</port>
			</input>
			<output>
				<port id="1" precision="FP32">
					<dim>1</dim>
					<dim>60</dim>
					<dim>1</dim>
					<dim>1</dim>
				</port>
			</output>
		</layer>
		<layer id="272" name="landmarks_fc_reye_y_new" type="Add" version="opset1">
			<data auto_broadcast="numpy"/>
			<input>
				<port id="0">
					<dim>1</dim>
					<dim>60</dim>
					<dim>1</dim>
					<dim>1</dim>
				</port>
				<port id="1">
					<dim>1</dim>
					<dim>60</dim>
					<dim>1</dim>
					<dim>1</dim>
				</port>
			</input>
			<output>
				<port id="2" precision="FP32" names="landmarks_fc_reye_y_new">
					<dim>1</dim>
					<dim>60</dim>
					<dim>1</dim>
					<dim>1</dim>
				</port>
			</output>
		</layer>
		<layer id="273" name="softmax_landmarks_reye_y" type="SoftMax" version="opset8">
			<data axis="1"/>
			<input>
				<port id="0">
					<dim>1</dim>
					<dim>60</dim>
					<dim>1</dim>
					<dim>1</dim>
				</port>
			</input>
			<output>
				<port id="1" precision="FP32" names="softmax_landmarks_reye_y">
					<dim>1</dim>
					<dim>60</dim>
					<dim>1</dim>
					<dim>1</dim>
				</port>
			</output>
		</layer>
		<layer id="274" name="raw_predicts/fq_input_5" type="FakeQuantize" version="opset1">
			<data levels="256" auto_broadcast="numpy"/>
			<input>
				<port id="0">
					<dim>1</dim>
					<dim>60</dim>
					<dim>1</dim>
					<dim>1</dim>
				</port>
				<port id="1"/>
				<port id="2"/>
				<port id="3"/>
				<port id="4"/>
			</input>
			<output>
				<port id="5" precision="FP32">
					<dim>1</dim>
					<dim>60</dim>
					<dim>1</dim>
					<dim>1</dim>
				</port>
			</output>
		</layer>
		<layer id="275" name="4835483917260" type="Const" version="opset1">
			<data offset="16" size="4" shape="" element_type="f32"/>
			<output>
				<port id="0" precision="FP32"/>
			</output>
		</layer>
		<layer id="276" name="4836484018328" type="Const" version="opset1">
			<data offset="20" size="4" shape="" element_type="f32"/>
			<output>
				<port id="0" precision="FP32"/>
			</output>
		</layer>
		<layer id="277" name="4837484117734" type="Const" version="opset1">
			<data offset="16" size="4" shape="" element_type="f32"/>
			<output>
				<port id="0" precision="FP32"/>
			</output>
		</layer>
		<layer id="278" name="4838484217242" type="Const" version="opset1">
			<data offset="20" size="4" shape="" element_type="f32"/>
			<output>
				<port id="0" precision="FP32"/>
			</output>
		</layer>
		<layer id="279" name="landmarks_fc_reye_corner_x_new/WithoutBiases/fq_weights_1/scale1120918181" type="Const" version="opset1">
			<data offset="1843774" size="240" shape="60,1,1,1" element_type="f32"/>
			<output>
				<port id="0" precision="FP32">
					<dim>60</dim>
					<dim>1</dim>
					<dim>1</dim>
					<dim>1</dim>
				</port>
			</output>
		</layer>
		<layer id="280" name="3047839437/restored_convert/quantized1120117386" type="Const" version="opset1">
			<data offset="1844014" size="15360" shape="60,256,1,1" element_type="i8"/>
			<output>
				<port id="0" precision="I8">
					<dim>60</dim>
					<dim>256</dim>
					<dim>1</dim>
					<dim>1</dim>
				</port>
			</output>
		</layer>
		<layer id="281" name="3047839437/restored_convert/quantized/to_f32" type="Convert" version="opset1">
			<data destination_type="f32"/>
			<input>
				<port id="0">
					<dim>60</dim>
					<dim>256</dim>
					<dim>1</dim>
					<dim>1</dim>
				</port>
			</input>
			<output>
				<port id="1" precision="FP32">
					<dim>60</dim>
					<dim>256</dim>
					<dim>1</dim>
					<dim>1</dim>
				</port>
			</output>
		</layer>
		<layer id="282" name="landmarks_fc_reye_corner_x_new/WithoutBiases/fq_weights_1/mulpiply_by_scale" type="Multiply" version="opset1">
			<data auto_broadcast="numpy"/>
			<input>
				<port id="0">
					<dim>60</dim>
					<dim>256</dim>
					<dim>1</dim>
					<dim>1</dim>
				</port>
				<port id="1">
					<dim>60</dim>
					<dim>1</dim>
					<dim>1</dim>
					<dim>1</dim>
				</port>
			</input>
			<output>
				<port id="2" precision="FP32">
					<dim>60</dim>
					<dim>256</dim>
					<dim>1</dim>
					<dim>1</dim>
				</port>
			</output>
		</layer>
		<layer id="283" name="landmarks_fc_reye_corner_x_new/WithoutBiases" type="Convolution" version="opset1">
			<data auto_pad="explicit" strides="1,1" dilations="1,1" pads_begin="0,0" pads_end="0,0"/>
			<input>
				<port id="0">
					<dim>1</dim>
					<dim>256</dim>
					<dim>1</dim>
					<dim>1</dim>
				</port>
				<port id="1">
					<dim>60</dim>
					<dim>256</dim>
					<dim>1</dim>
					<dim>1</dim>
				</port>
			</input>
			<output>
				<port id="2" precision="FP32">
					<dim>1</dim>
					<dim>60</dim>
					<dim>1</dim>
					<dim>1</dim>
				</port>
			</output>
		</layer>
		<layer id="284" name="landmarks_fc_reye_corner_x_new/Dims461778618184" type="Const" version="opset1">
			<data offset="1859374" size="120" shape="1,60,1,1" element_type="f16"/>
			<output>
				<port id="0" precision="FP16">
					<dim>1</dim>
					<dim>60</dim>
					<dim>1</dim>
					<dim>1</dim>
				</port>
			</output>
		</layer>
		<layer id="285" name="landmarks_fc_reye_corner_x_new/Dims46177869438/restored_convert" type="Convert" version="opset1">
			<data destination_type="f32"/>
			<rt_info>
				<attribute name="decompression" version="0"/>
			</rt_info>
			<input>
				<port id="0">
					<dim>1</dim>
					<dim>60</dim>
					<dim>1</dim>
					<dim>1</dim>
				</port>
			</input>
			<output>
				<port id="1" precision="FP32">
					<dim>1</dim>
					<dim>60</dim>
					<dim>1</dim>
					<dim>1</dim>
				</port>
			</output>
		</layer>
		<layer id="286" name="landmarks_fc_reye_corner_x_new" type="Add" version="opset1">
			<data auto_broadcast="numpy"/>
			<input>
				<port id="0">
					<dim>1</dim>
					<dim>60</dim>
					<dim>1</dim>
					<dim>1</dim>
				</port>
				<port id="1">
					<dim>1</dim>
					<dim>60</dim>
					<dim>1</dim>
					<dim>1</dim>
				</port>
			</input>
			<output>
				<port id="2" precision="FP32" names="landmarks_fc_reye_corner_x_new">
					<dim>1</dim>
					<dim>60</dim>
					<dim>1</dim>
					<dim>1</dim>
				</port>
			</output>
		</layer>
		<layer id="287" name="softmax_landmarks_reye_corner_x" type="SoftMax" version="opset8">
			<data axis="1"/>
			<input>
				<port id="0">
					<dim>1</dim>
					<dim>60</dim>
					<dim>1</dim>
					<dim>1</dim>
				</port>
			</input>
			<output>
				<port id="1" precision="FP32" names="softmax_landmarks_reye_corner_x">
					<dim>1</dim>
					<dim>60</dim>
					<dim>1</dim>
					<dim>1</dim>
				</port>
			</output>
		</layer>
		<layer id="288" name="raw_predicts/fq_input_6" type="FakeQuantize" version="opset1">
			<data levels="256" auto_broadcast="numpy"/>
			<input>
				<port id="0">
					<dim>1</dim>
					<dim>60</dim>
					<dim>1</dim>
					<dim>1</dim>
				</port>
				<port id="1"/>
				<port id="2"/>
				<port id="3"/>
				<port id="4"/>
			</input>
			<output>
				<port id="5" precision="FP32">
					<dim>1</dim>
					<dim>60</dim>
					<dim>1</dim>
					<dim>1</dim>
				</port>
			</output>
		</layer>
		<layer id="289" name="4845484916930" type="Const" version="opset1">
			<data offset="16" size="4" shape="" element_type="f32"/>
			<output>
				<port id="0" precision="FP32"/>
			</output>
		</layer>
		<layer id="290" name="4846485017344" type="Const" version="opset1">
			<data offset="20" size="4" shape="" element_type="f32"/>
			<output>
				<port id="0" precision="FP32"/>
			</output>
		</layer>
		<layer id="291" name="4847485118409" type="Const" version="opset1">
			<data offset="16" size="4" shape="" element_type="f32"/>
			<output>
				<port id="0" precision="FP32"/>
			</output>
		</layer>
		<layer id="292" name="4848485218457" type="Const" version="opset1">
			<data offset="20" size="4" shape="" element_type="f32"/>
			<output>
				<port id="0" precision="FP32"/>
			</output>
		</layer>
		<layer id="293" name="landmarks_fc_reye_corner_y_new/WithoutBiases/fq_weights_1/scale1189917530" type="Const" version="opset1">
			<data offset="1859494" size="240" shape="60,1,1,1" element_type="f32"/>
			<output>
				<port id="0" precision="FP32">
					<dim>60</dim>
					<dim>1</dim>
					<dim>1</dim>
					<dim>1</dim>
				</port>
			</output>
		</layer>
		<layer id="294" name="4427909439/restored_convert/quantized1189116849" type="Const" version="opset1">
			<data offset="1859734" size="15360" shape="60,256,1,1" element_type="i8"/>
			<output>
				<port id="0" precision="I8">
					<dim>60</dim>
					<dim>256</dim>
					<dim>1</dim>
					<dim>1</dim>
				</port>
			</output>
		</layer>
		<layer id="295" name="4427909439/restored_convert/quantized/to_f32" type="Convert" version="opset1">
			<data destination_type="f32"/>
			<input>
				<port id="0">
					<dim>60</dim>
					<dim>256</dim>
					<dim>1</dim>
					<dim>1</dim>
				</port>
			</input>
			<output>
				<port id="1" precision="FP32">
					<dim>60</dim>
					<dim>256</dim>
					<dim>1</dim>
					<dim>1</dim>
				</port>
			</output>
		</layer>
		<layer id="296" name="landmarks_fc_reye_corner_y_new/WithoutBiases/fq_weights_1/mulpiply_by_scale" type="Multiply" version="opset1">
			<data auto_broadcast="numpy"/>
			<input>
				<port id="0">
					<dim>60</dim>
					<dim>256</dim>
					<dim>1</dim>
					<dim>1</dim>
				</port>
				<port id="1">
					<dim>60</dim>
					<dim>1</dim>
					<dim>1</dim>
					<dim>1</dim>
				</port>
			</input>
			<output>
				<port id="2" precision="FP32">
					<dim>60</dim>
					<dim>256</dim>
					<dim>1</dim>
					<dim>1</dim>
				</port>
			</output>
		</layer>
		<layer id="297" name="landmarks_fc_reye_corner_y_new/WithoutBiases" type="Convolution" version="opset1">
			<data auto_pad="explicit" strides="1,1" dilations="1,1" pads_begin="0,0" pads_end="0,0"/>
			<input>
				<port id="0">
					<dim>1</dim>
					<dim>256</dim>
					<dim>1</dim>
					<dim>1</dim>
				</port>
				<port id="1">
					<dim>60</dim>
					<dim>256</dim>
					<dim>1</dim>
					<dim>1</dim>
				</port>
			</input>
			<output>
				<port id="2" precision="FP32">
					<dim>1</dim>
					<dim>60</dim>
					<dim>1</dim>
					<dim>1</dim>
				</port>
			</output>
		</layer>
		<layer id="298" name="landmarks_fc_reye_corner_y_new/Dims470179317506" type="Const" version="opset1">
			<data offset="1875094" size="120" shape="1,60,1,1" element_type="f16"/>
			<output>
				<port id="0" precision="FP16">
					<dim>1</dim>
					<dim>60</dim>
					<dim>1</dim>
					<dim>1</dim>
				</port>
			</output>
		</layer>
		<layer id="299" name="landmarks_fc_reye_corner_y_new/Dims47017939440/restored_convert" type="Convert" version="opset1">
			<data destination_type="f32"/>
			<rt_info>
				<attribute name="decompression" version="0"/>
			</rt_info>
			<input>
				<port id="0">
					<dim>1</dim>
					<dim>60</dim>
					<dim>1</dim>
					<dim>1</dim>
				</port>
			</input>
			<output>
				<port id="1" precision="FP32">
					<dim>1</dim>
					<dim>60</dim>
					<dim>1</dim>
					<dim>1</dim>
				</port>
			</output>
		</layer>
		<layer id="300" name="landmarks_fc_reye_corner_y_new" type="Add" version="opset1">
			<data auto_broadcast="numpy"/>
			<input>
				<port id="0">
					<dim>1</dim>
					<dim>60</dim>
					<dim>1</dim>
					<dim>1</dim>
				</port>
				<port id="1">
					<dim>1</dim>
					<dim>60</dim>
					<dim>1</dim>
					<dim>1</dim>
				</port>
			</input>
			<output>
				<port id="2" precision="FP32" names="landmarks_fc_reye_corner_y_new">
					<dim>1</dim>
					<dim>60</dim>
					<dim>1</dim>
					<dim>1</dim>
				</port>
			</output>
		</layer>
		<layer id="301" name="softmax_landmarks_reye_corner_y" type="SoftMax" version="opset8">
			<data axis="1"/>
			<input>
				<port id="0">
					<dim>1</dim>
					<dim>60</dim>
					<dim>1</dim>
					<dim>1</dim>
				</port>
			</input>
			<output>
				<port id="1" precision="FP32" names="softmax_landmarks_reye_corner_y">
					<dim>1</dim>
					<dim>60</dim>
					<dim>1</dim>
					<dim>1</dim>
				</port>
			</output>
		</layer>
		<layer id="302" name="raw_predicts/fq_input_7" type="FakeQuantize" version="opset1">
			<data levels="256" auto_broadcast="numpy"/>
			<input>
				<port id="0">
					<dim>1</dim>
					<dim>60</dim>
					<dim>1</dim>
					<dim>1</dim>
				</port>
				<port id="1"/>
				<port id="2"/>
				<port id="3"/>
				<port id="4"/>
			</input>
			<output>
				<port id="5" precision="FP32">
					<dim>1</dim>
					<dim>60</dim>
					<dim>1</dim>
					<dim>1</dim>
				</port>
			</output>
		</layer>
		<layer id="303" name="4855485918250" type="Const" version="opset1">
			<data offset="16" size="4" shape="" element_type="f32"/>
			<output>
				<port id="0" precision="FP32"/>
			</output>
		</layer>
		<layer id="304" name="4856486017317" type="Const" version="opset1">
			<data offset="20" size="4" shape="" element_type="f32"/>
			<output>
				<port id="0" precision="FP32"/>
			</output>
		</layer>
		<layer id="305" name="4857486117179" type="Const" version="opset1">
			<data offset="16" size="4" shape="" element_type="f32"/>
			<output>
				<port id="0" precision="FP32"/>
			</output>
		</layer>
		<layer id="306" name="4858486216711" type="Const" version="opset1">
			<data offset="20" size="4" shape="" element_type="f32"/>
			<output>
				<port id="0" precision="FP32"/>
			</output>
		</layer>
		<layer id="307" name="2993299717161" type="Const" version="opset1">
			<data offset="16" size="4" shape="" element_type="f32"/>
			<output>
				<port id="0" precision="FP32"/>
			</output>
		</layer>
		<layer id="308" name="2994299817926" type="Const" version="opset1">
			<data offset="1875214" size="4" shape="" element_type="f32"/>
			<output>
				<port id="0" precision="FP32"/>
			</output>
		</layer>
		<layer id="309" name="2995299918253" type="Const" version="opset1">
			<data offset="16" size="4" shape="" element_type="f32"/>
			<output>
				<port id="0" precision="FP32"/>
			</output>
		</layer>
		<layer id="310" name="2996300017890" type="Const" version="opset1">
			<data offset="1875214" size="4" shape="" element_type="f32"/>
			<output>
				<port id="0" precision="FP32"/>
			</output>
		</layer>
		<layer id="311" name="landmarks_conv_lnose/WithoutBiases/fq_weights_1/scale1198918034" type="Const" version="opset1">
			<data offset="1875218" size="1024" shape="256,1,1,1" element_type="f32"/>
			<output>
				<port id="0" precision="FP32">
					<dim>256</dim>
					<dim>1</dim>
					<dim>1</dim>
					<dim>1</dim>
				</port>
			</output>
		</layer>
		<layer id="312" name="bn/landmarks_conv_lnose/mean/Fused_Mul__copy7979441/restored_convert/quantized1198118262" type="Const" version="opset1">
			<data offset="1876242" size="131072" shape="256,512,1,1" element_type="i8"/>
			<output>
				<port id="0" precision="I8">
					<dim>256</dim>
					<dim>512</dim>
					<dim>1</dim>
					<dim>1</dim>
				</port>
			</output>
		</layer>
		<layer id="313" name="bn/landmarks_conv_lnose/mean/Fused_Mul__copy7979441/restored_convert/quantized/to_f32" type="Convert" version="opset1">
			<data destination_type="f32"/>
			<input>
				<port id="0">
					<dim>256</dim>
					<dim>512</dim>
					<dim>1</dim>
					<dim>1</dim>
				</port>
			</input>
			<output>
				<port id="1" precision="FP32">
					<dim>256</dim>
					<dim>512</dim>
					<dim>1</dim>
					<dim>1</dim>
				</port>
			</output>
		</layer>
		<layer id="314" name="landmarks_conv_lnose/WithoutBiases/fq_weights_1/mulpiply_by_scale" type="Multiply" version="opset1">
			<data auto_broadcast="numpy"/>
			<input>
				<port id="0">
					<dim>256</dim>
					<dim>512</dim>
					<dim>1</dim>
					<dim>1</dim>
				</port>
				<port id="1">
					<dim>256</dim>
					<dim>1</dim>
					<dim>1</dim>
					<dim>1</dim>
				</port>
			</input>
			<output>
				<port id="2" precision="FP32">
					<dim>256</dim>
					<dim>512</dim>
					<dim>1</dim>
					<dim>1</dim>
				</port>
			</output>
		</layer>
		<layer id="315" name="landmarks_conv_lnose/WithoutBiases" type="Convolution" version="opset1">
			<data auto_pad="explicit" strides="1,1" dilations="1,1" pads_begin="0,0" pads_end="0,0"/>
			<input>
				<port id="0">
					<dim>1</dim>
					<dim>512</dim>
					<dim>1</dim>
					<dim>1</dim>
				</port>
				<port id="1">
					<dim>256</dim>
					<dim>512</dim>
					<dim>1</dim>
					<dim>1</dim>
				</port>
			</input>
			<output>
				<port id="2" precision="FP32">
					<dim>1</dim>
					<dim>256</dim>
					<dim>1</dim>
					<dim>1</dim>
				</port>
			</output>
		</layer>
		<layer id="316" name="data_add_7778778380017914" type="Const" version="opset1">
			<data offset="2007314" size="512" shape="1,256,1,1" element_type="f16"/>
			<output>
				<port id="0" precision="FP16">
					<dim>1</dim>
					<dim>256</dim>
					<dim>1</dim>
					<dim>1</dim>
				</port>
			</output>
		</layer>
		<layer id="317" name="data_add_777877838009442/restored_convert" type="Convert" version="opset1">
			<data destination_type="f32"/>
			<rt_info>
				<attribute name="decompression" version="0"/>
			</rt_info>
			<input>
				<port id="0">
					<dim>1</dim>
					<dim>256</dim>
					<dim>1</dim>
					<dim>1</dim>
				</port>
			</input>
			<output>
				<port id="1" precision="FP32">
					<dim>1</dim>
					<dim>256</dim>
					<dim>1</dim>
					<dim>1</dim>
				</port>
			</output>
		</layer>
		<layer id="318" name="landmarks_conv_lnose/Fused_Add_" type="Add" version="opset1">
			<data auto_broadcast="numpy"/>
			<input>
				<port id="0">
					<dim>1</dim>
					<dim>256</dim>
					<dim>1</dim>
					<dim>1</dim>
				</port>
				<port id="1">
					<dim>1</dim>
					<dim>256</dim>
					<dim>1</dim>
					<dim>1</dim>
				</port>
			</input>
			<output>
				<port id="2" precision="FP32" names="landmarks_conv_lnose">
					<dim>1</dim>
					<dim>256</dim>
					<dim>1</dim>
					<dim>1</dim>
				</port>
			</output>
		</layer>
		<layer id="319" name="relu_lnose" type="ReLU" version="opset1">
			<input>
				<port id="0">
					<dim>1</dim>
					<dim>256</dim>
					<dim>1</dim>
					<dim>1</dim>
				</port>
			</input>
			<output>
				<port id="1" precision="FP32" names="landmarks_conv_lnose">
					<dim>1</dim>
					<dim>256</dim>
					<dim>1</dim>
					<dim>1</dim>
				</port>
			</output>
		</layer>
		<layer id="320" name="landmarks_fc_lnose_x_new/WithoutBiases/fq_input_0" type="FakeQuantize" version="opset1">
			<data levels="256" auto_broadcast="numpy"/>
			<input>
				<port id="0">
					<dim>1</dim>
					<dim>256</dim>
					<dim>1</dim>
					<dim>1</dim>
				</port>
				<port id="1"/>
				<port id="2"/>
				<port id="3"/>
				<port id="4"/>
			</input>
			<output>
				<port id="5" precision="FP32">
					<dim>1</dim>
					<dim>256</dim>
					<dim>1</dim>
					<dim>1</dim>
				</port>
			</output>
		</layer>
		<layer id="321" name="landmarks_fc_nose_bottom_x_new/WithoutBiases/fq_weights_1/scale1294918508" type="Const" version="opset1">
			<data offset="2007826" size="240" shape="60,1,1,1" element_type="f32"/>
			<output>
				<port id="0" precision="FP32">
					<dim>60</dim>
					<dim>1</dim>
					<dim>1</dim>
					<dim>1</dim>
				</port>
			</output>
		</layer>
		<layer id="322" name="2528049443/restored_convert/quantized1294118526" type="Const" version="opset1">
			<data offset="2008066" size="15360" shape="60,256,1,1" element_type="i8"/>
			<output>
				<port id="0" precision="I8">
					<dim>60</dim>
					<dim>256</dim>
					<dim>1</dim>
					<dim>1</dim>
				</port>
			</output>
		</layer>
		<layer id="323" name="2528049443/restored_convert/quantized/to_f32" type="Convert" version="opset1">
			<data destination_type="f32"/>
			<input>
				<port id="0">
					<dim>60</dim>
					<dim>256</dim>
					<dim>1</dim>
					<dim>1</dim>
				</port>
			</input>
			<output>
				<port id="1" precision="FP32">
					<dim>60</dim>
					<dim>256</dim>
					<dim>1</dim>
					<dim>1</dim>
				</port>
			</output>
		</layer>
		<layer id="324" name="landmarks_fc_nose_bottom_x_new/WithoutBiases/fq_weights_1/mulpiply_by_scale" type="Multiply" version="opset1">
			<data auto_broadcast="numpy"/>
			<input>
				<port id="0">
					<dim>60</dim>
					<dim>256</dim>
					<dim>1</dim>
					<dim>1</dim>
				</port>
				<port id="1">
					<dim>60</dim>
					<dim>1</dim>
					<dim>1</dim>
					<dim>1</dim>
				</port>
			</input>
			<output>
				<port id="2" precision="FP32">
					<dim>60</dim>
					<dim>256</dim>
					<dim>1</dim>
					<dim>1</dim>
				</port>
			</output>
		</layer>
		<layer id="325" name="landmarks_fc_nose_bottom_x_new/WithoutBiases" type="Convolution" version="opset1">
			<data auto_pad="explicit" strides="1,1" dilations="1,1" pads_begin="0,0" pads_end="0,0"/>
			<input>
				<port id="0">
					<dim>1</dim>
					<dim>256</dim>
					<dim>1</dim>
					<dim>1</dim>
				</port>
				<port id="1">
					<dim>60</dim>
					<dim>256</dim>
					<dim>1</dim>
					<dim>1</dim>
				</port>
			</input>
			<output>
				<port id="2" precision="FP32">
					<dim>1</dim>
					<dim>60</dim>
					<dim>1</dim>
					<dim>1</dim>
				</port>
			</output>
		</layer>
		<layer id="326" name="landmarks_fc_nose_bottom_x_new/Dims432980718394" type="Const" version="opset1">
			<data offset="2023426" size="120" shape="1,60,1,1" element_type="f16"/>
			<output>
				<port id="0" precision="FP16">
					<dim>1</dim>
					<dim>60</dim>
					<dim>1</dim>
					<dim>1</dim>
				</port>
			</output>
		</layer>
		<layer id="327" name="landmarks_fc_nose_bottom_x_new/Dims43298079444/restored_convert" type="Convert" version="opset1">
			<data destination_type="f32"/>
			<rt_info>
				<attribute name="decompression" version="0"/>
			</rt_info>
			<input>
				<port id="0">
					<dim>1</dim>
					<dim>60</dim>
					<dim>1</dim>
					<dim>1</dim>
				</port>
			</input>
			<output>
				<port id="1" precision="FP32">
					<dim>1</dim>
					<dim>60</dim>
					<dim>1</dim>
					<dim>1</dim>
				</port>
			</output>
		</layer>
		<layer id="328" name="landmarks_fc_nose_bottom_x_new" type="Add" version="opset1">
			<data auto_broadcast="numpy"/>
			<input>
				<port id="0">
					<dim>1</dim>
					<dim>60</dim>
					<dim>1</dim>
					<dim>1</dim>
				</port>
				<port id="1">
					<dim>1</dim>
					<dim>60</dim>
					<dim>1</dim>
					<dim>1</dim>
				</port>
			</input>
			<output>
				<port id="2" precision="FP32" names="landmarks_fc_nose_bottom_x_new">
					<dim>1</dim>
					<dim>60</dim>
					<dim>1</dim>
					<dim>1</dim>
				</port>
			</output>
		</layer>
		<layer id="329" name="softmax_landmarks_nose_bottom_x" type="SoftMax" version="opset8">
			<data axis="1"/>
			<input>
				<port id="0">
					<dim>1</dim>
					<dim>60</dim>
					<dim>1</dim>
					<dim>1</dim>
				</port>
			</input>
			<output>
				<port id="1" precision="FP32" names="softmax_landmarks_nose_bottom_x">
					<dim>1</dim>
					<dim>60</dim>
					<dim>1</dim>
					<dim>1</dim>
				</port>
			</output>
		</layer>
		<layer id="330" name="raw_predicts/fq_input_8" type="FakeQuantize" version="opset1">
			<data levels="256" auto_broadcast="numpy"/>
			<input>
				<port id="0">
					<dim>1</dim>
					<dim>60</dim>
					<dim>1</dim>
					<dim>1</dim>
				</port>
				<port id="1"/>
				<port id="2"/>
				<port id="3"/>
				<port id="4"/>
			</input>
			<output>
				<port id="5" precision="FP32">
					<dim>1</dim>
					<dim>60</dim>
					<dim>1</dim>
					<dim>1</dim>
				</port>
			</output>
		</layer>
		<layer id="331" name="4865486917230" type="Const" version="opset1">
			<data offset="16" size="4" shape="" element_type="f32"/>
			<output>
				<port id="0" precision="FP32"/>
			</output>
		</layer>
		<layer id="332" name="4866487017884" type="Const" version="opset1">
			<data offset="20" size="4" shape="" element_type="f32"/>
			<output>
				<port id="0" precision="FP32"/>
			</output>
		</layer>
		<layer id="333" name="4867487117149" type="Const" version="opset1">
			<data offset="16" size="4" shape="" element_type="f32"/>
			<output>
				<port id="0" precision="FP32"/>
			</output>
		</layer>
		<layer id="334" name="4868487217917" type="Const" version="opset1">
			<data offset="20" size="4" shape="" element_type="f32"/>
			<output>
				<port id="0" precision="FP32"/>
			</output>
		</layer>
		<layer id="335" name="landmarks_fc_nose_bottom_y_new/WithoutBiases/fq_weights_1/scale1219917716" type="Const" version="opset1">
			<data offset="2023546" size="240" shape="60,1,1,1" element_type="f32"/>
			<output>
				<port id="0" precision="FP32">
					<dim>60</dim>
					<dim>1</dim>
					<dim>1</dim>
					<dim>1</dim>
				</port>
			</output>
		</layer>
		<layer id="336" name="2308119445/restored_convert/quantized1219118562" type="Const" version="opset1">
			<data offset="2023786" size="15360" shape="60,256,1,1" element_type="i8"/>
			<output>
				<port id="0" precision="I8">
					<dim>60</dim>
					<dim>256</dim>
					<dim>1</dim>
					<dim>1</dim>
				</port>
			</output>
		</layer>
		<layer id="337" name="2308119445/restored_convert/quantized/to_f32" type="Convert" version="opset1">
			<data destination_type="f32"/>
			<input>
				<port id="0">
					<dim>60</dim>
					<dim>256</dim>
					<dim>1</dim>
					<dim>1</dim>
				</port>
			</input>
			<output>
				<port id="1" precision="FP32">
					<dim>60</dim>
					<dim>256</dim>
					<dim>1</dim>
					<dim>1</dim>
				</port>
			</output>
		</layer>
		<layer id="338" name="landmarks_fc_nose_bottom_y_new/WithoutBiases/fq_weights_1/mulpiply_by_scale" type="Multiply" version="opset1">
			<data auto_broadcast="numpy"/>
			<input>
				<port id="0">
					<dim>60</dim>
					<dim>256</dim>
					<dim>1</dim>
					<dim>1</dim>
				</port>
				<port id="1">
					<dim>60</dim>
					<dim>1</dim>
					<dim>1</dim>
					<dim>1</dim>
				</port>
			</input>
			<output>
				<port id="2" precision="FP32">
					<dim>60</dim>
					<dim>256</dim>
					<dim>1</dim>
					<dim>1</dim>
				</port>
			</output>
		</layer>
		<layer id="339" name="landmarks_fc_nose_bottom_y_new/WithoutBiases" type="Convolution" version="opset1">
			<data auto_pad="explicit" strides="1,1" dilations="1,1" pads_begin="0,0" pads_end="0,0"/>
			<input>
				<port id="0">
					<dim>1</dim>
					<dim>256</dim>
					<dim>1</dim>
					<dim>1</dim>
				</port>
				<port id="1">
					<dim>60</dim>
					<dim>256</dim>
					<dim>1</dim>
					<dim>1</dim>
				</port>
			</input>
			<output>
				<port id="2" precision="FP32">
					<dim>1</dim>
					<dim>60</dim>
					<dim>1</dim>
					<dim>1</dim>
				</port>
			</output>
		</layer>
		<layer id="340" name="landmarks_fc_nose_bottom_y_new/Dims473181416948" type="Const" version="opset1">
			<data offset="2039146" size="120" shape="1,60,1,1" element_type="f16"/>
			<output>
				<port id="0" precision="FP16">
					<dim>1</dim>
					<dim>60</dim>
					<dim>1</dim>
					<dim>1</dim>
				</port>
			</output>
		</layer>
		<layer id="341" name="landmarks_fc_nose_bottom_y_new/Dims47318149446/restored_convert" type="Convert" version="opset1">
			<data destination_type="f32"/>
			<rt_info>
				<attribute name="decompression" version="0"/>
			</rt_info>
			<input>
				<port id="0">
					<dim>1</dim>
					<dim>60</dim>
					<dim>1</dim>
					<dim>1</dim>
				</port>
			</input>
			<output>
				<port id="1" precision="FP32">
					<dim>1</dim>
					<dim>60</dim>
					<dim>1</dim>
					<dim>1</dim>
				</port>
			</output>
		</layer>
		<layer id="342" name="landmarks_fc_nose_bottom_y_new" type="Add" version="opset1">
			<data auto_broadcast="numpy"/>
			<input>
				<port id="0">
					<dim>1</dim>
					<dim>60</dim>
					<dim>1</dim>
					<dim>1</dim>
				</port>
				<port id="1">
					<dim>1</dim>
					<dim>60</dim>
					<dim>1</dim>
					<dim>1</dim>
				</port>
			</input>
			<output>
				<port id="2" precision="FP32" names="landmarks_fc_nose_bottom_y_new">
					<dim>1</dim>
					<dim>60</dim>
					<dim>1</dim>
					<dim>1</dim>
				</port>
			</output>
		</layer>
		<layer id="343" name="softmax_landmarks_nose_bottom_y" type="SoftMax" version="opset8">
			<data axis="1"/>
			<input>
				<port id="0">
					<dim>1</dim>
					<dim>60</dim>
					<dim>1</dim>
					<dim>1</dim>
				</port>
			</input>
			<output>
				<port id="1" precision="FP32" names="softmax_landmarks_nose_bottom_y">
					<dim>1</dim>
					<dim>60</dim>
					<dim>1</dim>
					<dim>1</dim>
				</port>
			</output>
		</layer>
		<layer id="344" name="raw_predicts/fq_input_9" type="FakeQuantize" version="opset1">
			<data levels="256" auto_broadcast="numpy"/>
			<input>
				<port id="0">
					<dim>1</dim>
					<dim>60</dim>
					<dim>1</dim>
					<dim>1</dim>
				</port>
				<port id="1"/>
				<port id="2"/>
				<port id="3"/>
				<port id="4"/>
			</input>
			<output>
				<port id="5" precision="FP32">
					<dim>1</dim>
					<dim>60</dim>
					<dim>1</dim>
					<dim>1</dim>
				</port>
			</output>
		</layer>
		<layer id="345" name="4875487917584" type="Const" version="opset1">
			<data offset="16" size="4" shape="" element_type="f32"/>
			<output>
				<port id="0" precision="FP32"/>
			</output>
		</layer>
		<layer id="346" name="4876488017020" type="Const" version="opset1">
			<data offset="20" size="4" shape="" element_type="f32"/>
			<output>
				<port id="0" precision="FP32"/>
			</output>
		</layer>
		<layer id="347" name="4877488117437" type="Const" version="opset1">
			<data offset="16" size="4" shape="" element_type="f32"/>
			<output>
				<port id="0" precision="FP32"/>
			</output>
		</layer>
		<layer id="348" name="4878488218310" type="Const" version="opset1">
			<data offset="20" size="4" shape="" element_type="f32"/>
			<output>
				<port id="0" precision="FP32"/>
			</output>
		</layer>
		<layer id="349" name="landmarks_fc_nose_tip_x_new/WithoutBiases/fq_weights_1/scale1282916705" type="Const" version="opset1">
			<data offset="2039266" size="240" shape="60,1,1,1" element_type="f32"/>
			<output>
				<port id="0" precision="FP32">
					<dim>60</dim>
					<dim>1</dim>
					<dim>1</dim>
					<dim>1</dim>
				</port>
			</output>
		</layer>
		<layer id="350" name="2788189447/restored_convert/quantized1282117290" type="Const" version="opset1">
			<data offset="2039506" size="15360" shape="60,256,1,1" element_type="i8"/>
			<output>
				<port id="0" precision="I8">
					<dim>60</dim>
					<dim>256</dim>
					<dim>1</dim>
					<dim>1</dim>
				</port>
			</output>
		</layer>
		<layer id="351" name="2788189447/restored_convert/quantized/to_f32" type="Convert" version="opset1">
			<data destination_type="f32"/>
			<input>
				<port id="0">
					<dim>60</dim>
					<dim>256</dim>
					<dim>1</dim>
					<dim>1</dim>
				</port>
			</input>
			<output>
				<port id="1" precision="FP32">
					<dim>60</dim>
					<dim>256</dim>
					<dim>1</dim>
					<dim>1</dim>
				</port>
			</output>
		</layer>
		<layer id="352" name="landmarks_fc_nose_tip_x_new/WithoutBiases/fq_weights_1/mulpiply_by_scale" type="Multiply" version="opset1">
			<data auto_broadcast="numpy"/>
			<input>
				<port id="0">
					<dim>60</dim>
					<dim>256</dim>
					<dim>1</dim>
					<dim>1</dim>
				</port>
				<port id="1">
					<dim>60</dim>
					<dim>1</dim>
					<dim>1</dim>
					<dim>1</dim>
				</port>
			</input>
			<output>
				<port id="2" precision="FP32">
					<dim>60</dim>
					<dim>256</dim>
					<dim>1</dim>
					<dim>1</dim>
				</port>
			</output>
		</layer>
		<layer id="353" name="landmarks_fc_nose_tip_x_new/WithoutBiases" type="Convolution" version="opset1">
			<data auto_pad="explicit" strides="1,1" dilations="1,1" pads_begin="0,0" pads_end="0,0"/>
			<input>
				<port id="0">
					<dim>1</dim>
					<dim>256</dim>
					<dim>1</dim>
					<dim>1</dim>
				</port>
				<port id="1">
					<dim>60</dim>
					<dim>256</dim>
					<dim>1</dim>
					<dim>1</dim>
				</port>
			</input>
			<output>
				<port id="2" precision="FP32">
					<dim>1</dim>
					<dim>60</dim>
					<dim>1</dim>
					<dim>1</dim>
				</port>
			</output>
		</layer>
		<layer id="354" name="landmarks_fc_nose_tip_x_new/Dims434782117971" type="Const" version="opset1">
			<data offset="2054866" size="120" shape="1,60,1,1" element_type="f16"/>
			<output>
				<port id="0" precision="FP16">
					<dim>1</dim>
					<dim>60</dim>
					<dim>1</dim>
					<dim>1</dim>
				</port>
			</output>
		</layer>
		<layer id="355" name="landmarks_fc_nose_tip_x_new/Dims43478219448/restored_convert" type="Convert" version="opset1">
			<data destination_type="f32"/>
			<rt_info>
				<attribute name="decompression" version="0"/>
			</rt_info>
			<input>
				<port id="0">
					<dim>1</dim>
					<dim>60</dim>
					<dim>1</dim>
					<dim>1</dim>
				</port>
			</input>
			<output>
				<port id="1" precision="FP32">
					<dim>1</dim>
					<dim>60</dim>
					<dim>1</dim>
					<dim>1</dim>
				</port>
			</output>
		</layer>
		<layer id="356" name="landmarks_fc_nose_tip_x_new" type="Add" version="opset1">
			<data auto_broadcast="numpy"/>
			<input>
				<port id="0">
					<dim>1</dim>
					<dim>60</dim>
					<dim>1</dim>
					<dim>1</dim>
				</port>
				<port id="1">
					<dim>1</dim>
					<dim>60</dim>
					<dim>1</dim>
					<dim>1</dim>
				</port>
			</input>
			<output>
				<port id="2" precision="FP32" names="landmarks_fc_nose_tip_x_new">
					<dim>1</dim>
					<dim>60</dim>
					<dim>1</dim>
					<dim>1</dim>
				</port>
			</output>
		</layer>
		<layer id="357" name="softmax_landmarks_nose_tip_x" type="SoftMax" version="opset8">
			<data axis="1"/>
			<input>
				<port id="0">
					<dim>1</dim>
					<dim>60</dim>
					<dim>1</dim>
					<dim>1</dim>
				</port>
			</input>
			<output>
				<port id="1" precision="FP32" names="softmax_landmarks_nose_tip_x">
					<dim>1</dim>
					<dim>60</dim>
					<dim>1</dim>
					<dim>1</dim>
				</port>
			</output>
		</layer>
		<layer id="358" name="raw_predicts/fq_input_10" type="FakeQuantize" version="opset1">
			<data levels="256" auto_broadcast="numpy"/>
			<input>
				<port id="0">
					<dim>1</dim>
					<dim>60</dim>
					<dim>1</dim>
					<dim>1</dim>
				</port>
				<port id="1"/>
				<port id="2"/>
				<port id="3"/>
				<port id="4"/>
			</input>
			<output>
				<port id="5" precision="FP32">
					<dim>1</dim>
					<dim>60</dim>
					<dim>1</dim>
					<dim>1</dim>
				</port>
			</output>
		</layer>
		<layer id="359" name="4885488917938" type="Const" version="opset1">
			<data offset="16" size="4" shape="" element_type="f32"/>
			<output>
				<port id="0" precision="FP32"/>
			</output>
		</layer>
		<layer id="360" name="4886489017140" type="Const" version="opset1">
			<data offset="20" size="4" shape="" element_type="f32"/>
			<output>
				<port id="0" precision="FP32"/>
			</output>
		</layer>
		<layer id="361" name="4887489116840" type="Const" version="opset1">
			<data offset="16" size="4" shape="" element_type="f32"/>
			<output>
				<port id="0" precision="FP32"/>
			</output>
		</layer>
		<layer id="362" name="4888489217326" type="Const" version="opset1">
			<data offset="20" size="4" shape="" element_type="f32"/>
			<output>
				<port id="0" precision="FP32"/>
			</output>
		</layer>
		<layer id="363" name="landmarks_fc_nose_tip_y_new/WithoutBiases/fq_weights_1/scale1258917296" type="Const" version="opset1">
			<data offset="2054986" size="240" shape="60,1,1,1" element_type="f32"/>
			<output>
				<port id="0" precision="FP32">
					<dim>60</dim>
					<dim>1</dim>
					<dim>1</dim>
					<dim>1</dim>
				</port>
			</output>
		</layer>
		<layer id="364" name="3808259449/restored_convert/quantized1258118298" type="Const" version="opset1">
			<data offset="2055226" size="15360" shape="60,256,1,1" element_type="i8"/>
			<output>
				<port id="0" precision="I8">
					<dim>60</dim>
					<dim>256</dim>
					<dim>1</dim>
					<dim>1</dim>
				</port>
			</output>
		</layer>
		<layer id="365" name="3808259449/restored_convert/quantized/to_f32" type="Convert" version="opset1">
			<data destination_type="f32"/>
			<input>
				<port id="0">
					<dim>60</dim>
					<dim>256</dim>
					<dim>1</dim>
					<dim>1</dim>
				</port>
			</input>
			<output>
				<port id="1" precision="FP32">
					<dim>60</dim>
					<dim>256</dim>
					<dim>1</dim>
					<dim>1</dim>
				</port>
			</output>
		</layer>
		<layer id="366" name="landmarks_fc_nose_tip_y_new/WithoutBiases/fq_weights_1/mulpiply_by_scale" type="Multiply" version="opset1">
			<data auto_broadcast="numpy"/>
			<input>
				<port id="0">
					<dim>60</dim>
					<dim>256</dim>
					<dim>1</dim>
					<dim>1</dim>
				</port>
				<port id="1">
					<dim>60</dim>
					<dim>1</dim>
					<dim>1</dim>
					<dim>1</dim>
				</port>
			</input>
			<output>
				<port id="2" precision="FP32">
					<dim>60</dim>
					<dim>256</dim>
					<dim>1</dim>
					<dim>1</dim>
				</port>
			</output>
		</layer>
		<layer id="367" name="landmarks_fc_nose_tip_y_new/WithoutBiases" type="Convolution" version="opset1">
			<data auto_pad="explicit" strides="1,1" dilations="1,1" pads_begin="0,0" pads_end="0,0"/>
			<input>
				<port id="0">
					<dim>1</dim>
					<dim>256</dim>
					<dim>1</dim>
					<dim>1</dim>
				</port>
				<port id="1">
					<dim>60</dim>
					<dim>256</dim>
					<dim>1</dim>
					<dim>1</dim>
				</port>
			</input>
			<output>
				<port id="2" precision="FP32">
					<dim>1</dim>
					<dim>60</dim>
					<dim>1</dim>
					<dim>1</dim>
				</port>
			</output>
		</layer>
		<layer id="368" name="landmarks_fc_nose_tip_y_new/Dims455182818343" type="Const" version="opset1">
			<data offset="2070586" size="120" shape="1,60,1,1" element_type="f16"/>
			<output>
				<port id="0" precision="FP16">
					<dim>1</dim>
					<dim>60</dim>
					<dim>1</dim>
					<dim>1</dim>
				</port>
			</output>
		</layer>
		<layer id="369" name="landmarks_fc_nose_tip_y_new/Dims45518289450/restored_convert" type="Convert" version="opset1">
			<data destination_type="f32"/>
			<rt_info>
				<attribute name="decompression" version="0"/>
			</rt_info>
			<input>
				<port id="0">
					<dim>1</dim>
					<dim>60</dim>
					<dim>1</dim>
					<dim>1</dim>
				</port>
			</input>
			<output>
				<port id="1" precision="FP32">
					<dim>1</dim>
					<dim>60</dim>
					<dim>1</dim>
					<dim>1</dim>
				</port>
			</output>
		</layer>
		<layer id="370" name="landmarks_fc_nose_tip_y_new" type="Add" version="opset1">
			<data auto_broadcast="numpy"/>
			<input>
				<port id="0">
					<dim>1</dim>
					<dim>60</dim>
					<dim>1</dim>
					<dim>1</dim>
				</port>
				<port id="1">
					<dim>1</dim>
					<dim>60</dim>
					<dim>1</dim>
					<dim>1</dim>
				</port>
			</input>
			<output>
				<port id="2" precision="FP32" names="landmarks_fc_nose_tip_y_new">
					<dim>1</dim>
					<dim>60</dim>
					<dim>1</dim>
					<dim>1</dim>
				</port>
			</output>
		</layer>
		<layer id="371" name="softmax_landmarks_nose_tip_y" type="SoftMax" version="opset8">
			<data axis="1"/>
			<input>
				<port id="0">
					<dim>1</dim>
					<dim>60</dim>
					<dim>1</dim>
					<dim>1</dim>
				</port>
			</input>
			<output>
				<port id="1" precision="FP32" names="softmax_landmarks_nose_tip_y">
					<dim>1</dim>
					<dim>60</dim>
					<dim>1</dim>
					<dim>1</dim>
				</port>
			</output>
		</layer>
		<layer id="372" name="raw_predicts/fq_input_11" type="FakeQuantize" version="opset1">
			<data levels="256" auto_broadcast="numpy"/>
			<input>
				<port id="0">
					<dim>1</dim>
					<dim>60</dim>
					<dim>1</dim>
					<dim>1</dim>
				</port>
				<port id="1"/>
				<port id="2"/>
				<port id="3"/>
				<port id="4"/>
			</input>
			<output>
				<port id="5" precision="FP32">
					<dim>1</dim>
					<dim>60</dim>
					<dim>1</dim>
					<dim>1</dim>
				</port>
			</output>
		</layer>
		<layer id="373" name="4895489917458" type="Const" version="opset1">
			<data offset="16" size="4" shape="" element_type="f32"/>
			<output>
				<port id="0" precision="FP32"/>
			</output>
		</layer>
		<layer id="374" name="4896490018325" type="Const" version="opset1">
			<data offset="20" size="4" shape="" element_type="f32"/>
			<output>
				<port id="0" precision="FP32"/>
			</output>
		</layer>
		<layer id="375" name="4897490117152" type="Const" version="opset1">
			<data offset="16" size="4" shape="" element_type="f32"/>
			<output>
				<port id="0" precision="FP32"/>
			</output>
		</layer>
		<layer id="376" name="4898490217623" type="Const" version="opset1">
			<data offset="20" size="4" shape="" element_type="f32"/>
			<output>
				<port id="0" precision="FP32"/>
			</output>
		</layer>
		<layer id="377" name="landmarks_fc_lnose_x_new/WithoutBiases/fq_weights_1/scale1159917824" type="Const" version="opset1">
			<data offset="2070706" size="240" shape="60,1,1,1" element_type="f32"/>
			<output>
				<port id="0" precision="FP32">
					<dim>60</dim>
					<dim>1</dim>
					<dim>1</dim>
					<dim>1</dim>
				</port>
			</output>
		</layer>
		<layer id="378" name="3028329451/restored_convert/quantized1159118100" type="Const" version="opset1">
			<data offset="2070946" size="15360" shape="60,256,1,1" element_type="i8"/>
			<output>
				<port id="0" precision="I8">
					<dim>60</dim>
					<dim>256</dim>
					<dim>1</dim>
					<dim>1</dim>
				</port>
			</output>
		</layer>
		<layer id="379" name="3028329451/restored_convert/quantized/to_f32" type="Convert" version="opset1">
			<data destination_type="f32"/>
			<input>
				<port id="0">
					<dim>60</dim>
					<dim>256</dim>
					<dim>1</dim>
					<dim>1</dim>
				</port>
			</input>
			<output>
				<port id="1" precision="FP32">
					<dim>60</dim>
					<dim>256</dim>
					<dim>1</dim>
					<dim>1</dim>
				</port>
			</output>
		</layer>
		<layer id="380" name="landmarks_fc_lnose_x_new/WithoutBiases/fq_weights_1/mulpiply_by_scale" type="Multiply" version="opset1">
			<data auto_broadcast="numpy"/>
			<input>
				<port id="0">
					<dim>60</dim>
					<dim>256</dim>
					<dim>1</dim>
					<dim>1</dim>
				</port>
				<port id="1">
					<dim>60</dim>
					<dim>1</dim>
					<dim>1</dim>
					<dim>1</dim>
				</port>
			</input>
			<output>
				<port id="2" precision="FP32">
					<dim>60</dim>
					<dim>256</dim>
					<dim>1</dim>
					<dim>1</dim>
				</port>
			</output>
		</layer>
		<layer id="381" name="landmarks_fc_lnose_x_new/WithoutBiases" type="Convolution" version="opset1">
			<data auto_pad="explicit" strides="1,1" dilations="1,1" pads_begin="0,0" pads_end="0,0"/>
			<input>
				<port id="0">
					<dim>1</dim>
					<dim>256</dim>
					<dim>1</dim>
					<dim>1</dim>
				</port>
				<port id="1">
					<dim>60</dim>
					<dim>256</dim>
					<dim>1</dim>
					<dim>1</dim>
				</port>
			</input>
			<output>
				<port id="2" precision="FP32">
					<dim>1</dim>
					<dim>60</dim>
					<dim>1</dim>
					<dim>1</dim>
				</port>
			</output>
		</layer>
		<layer id="382" name="landmarks_fc_lnose_x_new/Dims451583517047" type="Const" version="opset1">
			<data offset="2086306" size="120" shape="1,60,1,1" element_type="f16"/>
			<output>
				<port id="0" precision="FP16">
					<dim>1</dim>
					<dim>60</dim>
					<dim>1</dim>
					<dim>1</dim>
				</port>
			</output>
		</layer>
		<layer id="383" name="landmarks_fc_lnose_x_new/Dims45158359452/restored_convert" type="Convert" version="opset1">
			<data destination_type="f32"/>
			<rt_info>
				<attribute name="decompression" version="0"/>
			</rt_info>
			<input>
				<port id="0">
					<dim>1</dim>
					<dim>60</dim>
					<dim>1</dim>
					<dim>1</dim>
				</port>
			</input>
			<output>
				<port id="1" precision="FP32">
					<dim>1</dim>
					<dim>60</dim>
					<dim>1</dim>
					<dim>1</dim>
				</port>
			</output>
		</layer>
		<layer id="384" name="landmarks_fc_lnose_x_new" type="Add" version="opset1">
			<data auto_broadcast="numpy"/>
			<input>
				<port id="0">
					<dim>1</dim>
					<dim>60</dim>
					<dim>1</dim>
					<dim>1</dim>
				</port>
				<port id="1">
					<dim>1</dim>
					<dim>60</dim>
					<dim>1</dim>
					<dim>1</dim>
				</port>
			</input>
			<output>
				<port id="2" precision="FP32" names="landmarks_fc_lnose_x_new">
					<dim>1</dim>
					<dim>60</dim>
					<dim>1</dim>
					<dim>1</dim>
				</port>
			</output>
		</layer>
		<layer id="385" name="softmax_landmarks_lnose_x" type="SoftMax" version="opset8">
			<data axis="1"/>
			<input>
				<port id="0">
					<dim>1</dim>
					<dim>60</dim>
					<dim>1</dim>
					<dim>1</dim>
				</port>
			</input>
			<output>
				<port id="1" precision="FP32" names="softmax_landmarks_lnose_x">
					<dim>1</dim>
					<dim>60</dim>
					<dim>1</dim>
					<dim>1</dim>
				</port>
			</output>
		</layer>
		<layer id="386" name="raw_predicts/fq_input_12" type="FakeQuantize" version="opset1">
			<data levels="256" auto_broadcast="numpy"/>
			<input>
				<port id="0">
					<dim>1</dim>
					<dim>60</dim>
					<dim>1</dim>
					<dim>1</dim>
				</port>
				<port id="1"/>
				<port id="2"/>
				<port id="3"/>
				<port id="4"/>
			</input>
			<output>
				<port id="5" precision="FP32">
					<dim>1</dim>
					<dim>60</dim>
					<dim>1</dim>
					<dim>1</dim>
				</port>
			</output>
		</layer>
		<layer id="387" name="4905490916981" type="Const" version="opset1">
			<data offset="16" size="4" shape="" element_type="f32"/>
			<output>
				<port id="0" precision="FP32"/>
			</output>
		</layer>
		<layer id="388" name="4906491018529" type="Const" version="opset1">
			<data offset="20" size="4" shape="" element_type="f32"/>
			<output>
				<port id="0" precision="FP32"/>
			</output>
		</layer>
		<layer id="389" name="4907491118286" type="Const" version="opset1">
			<data offset="16" size="4" shape="" element_type="f32"/>
			<output>
				<port id="0" precision="FP32"/>
			</output>
		</layer>
		<layer id="390" name="4908491216915" type="Const" version="opset1">
			<data offset="20" size="4" shape="" element_type="f32"/>
			<output>
				<port id="0" precision="FP32"/>
			</output>
		</layer>
		<layer id="391" name="landmarks_fc_lnose_y_new/WithoutBiases/fq_weights_1/scale1126917683" type="Const" version="opset1">
			<data offset="2086426" size="240" shape="60,1,1,1" element_type="f32"/>
			<output>
				<port id="0" precision="FP32">
					<dim>60</dim>
					<dim>1</dim>
					<dim>1</dim>
					<dim>1</dim>
				</port>
			</output>
		</layer>
		<layer id="392" name="3828399453/restored_convert/quantized1126116738" type="Const" version="opset1">
			<data offset="2086666" size="15360" shape="60,256,1,1" element_type="i8"/>
			<output>
				<port id="0" precision="I8">
					<dim>60</dim>
					<dim>256</dim>
					<dim>1</dim>
					<dim>1</dim>
				</port>
			</output>
		</layer>
		<layer id="393" name="3828399453/restored_convert/quantized/to_f32" type="Convert" version="opset1">
			<data destination_type="f32"/>
			<input>
				<port id="0">
					<dim>60</dim>
					<dim>256</dim>
					<dim>1</dim>
					<dim>1</dim>
				</port>
			</input>
			<output>
				<port id="1" precision="FP32">
					<dim>60</dim>
					<dim>256</dim>
					<dim>1</dim>
					<dim>1</dim>
				</port>
			</output>
		</layer>
		<layer id="394" name="landmarks_fc_lnose_y_new/WithoutBiases/fq_weights_1/mulpiply_by_scale" type="Multiply" version="opset1">
			<data auto_broadcast="numpy"/>
			<input>
				<port id="0">
					<dim>60</dim>
					<dim>256</dim>
					<dim>1</dim>
					<dim>1</dim>
				</port>
				<port id="1">
					<dim>60</dim>
					<dim>1</dim>
					<dim>1</dim>
					<dim>1</dim>
				</port>
			</input>
			<output>
				<port id="2" precision="FP32">
					<dim>60</dim>
					<dim>256</dim>
					<dim>1</dim>
					<dim>1</dim>
				</port>
			</output>
		</layer>
		<layer id="395" name="landmarks_fc_lnose_y_new/WithoutBiases" type="Convolution" version="opset1">
			<data auto_pad="explicit" strides="1,1" dilations="1,1" pads_begin="0,0" pads_end="0,0"/>
			<input>
				<port id="0">
					<dim>1</dim>
					<dim>256</dim>
					<dim>1</dim>
					<dim>1</dim>
				</port>
				<port id="1">
					<dim>60</dim>
					<dim>256</dim>
					<dim>1</dim>
					<dim>1</dim>
				</port>
			</input>
			<output>
				<port id="2" precision="FP32">
					<dim>1</dim>
					<dim>60</dim>
					<dim>1</dim>
					<dim>1</dim>
				</port>
			</output>
		</layer>
		<layer id="396" name="landmarks_fc_lnose_y_new/Dims466584217614" type="Const" version="opset1">
			<data offset="2102026" size="120" shape="1,60,1,1" element_type="f16"/>
			<output>
				<port id="0" precision="FP16">
					<dim>1</dim>
					<dim>60</dim>
					<dim>1</dim>
					<dim>1</dim>
				</port>
			</output>
		</layer>
		<layer id="397" name="landmarks_fc_lnose_y_new/Dims46658429454/restored_convert" type="Convert" version="opset1">
			<data destination_type="f32"/>
			<rt_info>
				<attribute name="decompression" version="0"/>
			</rt_info>
			<input>
				<port id="0">
					<dim>1</dim>
					<dim>60</dim>
					<dim>1</dim>
					<dim>1</dim>
				</port>
			</input>
			<output>
				<port id="1" precision="FP32">
					<dim>1</dim>
					<dim>60</dim>
					<dim>1</dim>
					<dim>1</dim>
				</port>
			</output>
		</layer>
		<layer id="398" name="landmarks_fc_lnose_y_new" type="Add" version="opset1">
			<data auto_broadcast="numpy"/>
			<input>
				<port id="0">
					<dim>1</dim>
					<dim>60</dim>
					<dim>1</dim>
					<dim>1</dim>
				</port>
				<port id="1">
					<dim>1</dim>
					<dim>60</dim>
					<dim>1</dim>
					<dim>1</dim>
				</port>
			</input>
			<output>
				<port id="2" precision="FP32" names="landmarks_fc_lnose_y_new">
					<dim>1</dim>
					<dim>60</dim>
					<dim>1</dim>
					<dim>1</dim>
				</port>
			</output>
		</layer>
		<layer id="399" name="softmax_landmarks_lnose_y" type="SoftMax" version="opset8">
			<data axis="1"/>
			<input>
				<port id="0">
					<dim>1</dim>
					<dim>60</dim>
					<dim>1</dim>
					<dim>1</dim>
				</port>
			</input>
			<output>
				<port id="1" precision="FP32" names="softmax_landmarks_lnose_y">
					<dim>1</dim>
					<dim>60</dim>
					<dim>1</dim>
					<dim>1</dim>
				</port>
			</output>
		</layer>
		<layer id="400" name="raw_predicts/fq_input_13" type="FakeQuantize" version="opset1">
			<data levels="256" auto_broadcast="numpy"/>
			<input>
				<port id="0">
					<dim>1</dim>
					<dim>60</dim>
					<dim>1</dim>
					<dim>1</dim>
				</port>
				<port id="1"/>
				<port id="2"/>
				<port id="3"/>
				<port id="4"/>
			</input>
…
		<edge from-layer="705" from-port="1" to-layer="706" to-port="1"/>
		<edge from-layer="706" from-port="2" to-layer="707" to-port="0"/>
		<edge from-layer="707" from-port="1" to-layer="708" to-port="0"/>
		<edge from-layer="695" from-port="0" to-layer="708" to-port="1"/>
		<edge from-layer="696" from-port="0" to-layer="708" to-port="2"/>
		<edge from-layer="697" from-port="0" to-layer="708" to-port="3"/>
		<edge from-layer="698" from-port="0" to-layer="708" to-port="4"/>
		<edge from-layer="714" from-port="0" to-layer="715" to-port="0"/>
		<edge from-layer="715" from-port="1" to-layer="716" to-port="0"/>
		<edge from-layer="713" from-port="0" to-layer="716" to-port="1"/>
		<edge from-layer="670" from-port="5" to-layer="717" to-port="0"/>
		<edge from-layer="716" from-port="2" to-layer="717" to-port="1"/>
		<edge from-layer="718" from-port="0" to-layer="719" to-port="0"/>
		<edge from-layer="717" from-port="2" to-layer="720" to-port="0"/>
		<edge from-layer="719" from-port="1" to-layer="720" to-port="1"/>
		<edge from-layer="720" from-port="2" to-layer="721" to-port="0"/>
		<edge from-layer="721" from-port="1" to-layer="722" to-port="0"/>
		<edge from-layer="709" from-port="0" to-layer="722" to-port="1"/>
		<edge from-layer="710" from-port="0" to-layer="722" to-port="2"/>
		<edge from-layer="711" from-port="0" to-layer="722" to-port="3"/>
		<edge from-layer="712" from-port="0" to-layer="722" to-port="4"/>
		<edge from-layer="728" from-port="0" to-layer="729" to-port="0"/>
		<edge from-layer="729" from-port="1" to-layer="730" to-port="0"/>
		<edge from-layer="727" from-port="0" to-layer="730" to-port="1"/>
		<edge from-layer="670" from-port="5" to-layer="731" to-port="0"/>
		<edge from-layer="730" from-port="2" to-layer="731" to-port="1"/>
		<edge from-layer="732" from-port="0" to-layer="733" to-port="0"/>
		<edge from-layer="731" from-port="2" to-layer="734" to-port="0"/>
		<edge from-layer="733" from-port="1" to-layer="734" to-port="1"/>
		<edge from-layer="734" from-port="2" to-layer="735" to-port="0"/>
		<edge from-layer="735" from-port="1" to-layer="736" to-port="0"/>
		<edge from-layer="723" from-port="0" to-layer="736" to-port="1"/>
		<edge from-layer="724" from-port="0" to-layer="736" to-port="2"/>
		<edge from-layer="725" from-port="0" to-layer="736" to-port="3"/>
		<edge from-layer="726" from-port="0" to-layer="736" to-port="4"/>
		<edge from-layer="742" from-port="0" to-layer="743" to-port="0"/>
		<edge from-layer="743" from-port="1" to-layer="744" to-port="0"/>
		<edge from-layer="741" from-port="0" to-layer="744" to-port="1"/>
		<edge from-layer="670" from-port="5" to-layer="745" to-port="0"/>
		<edge from-layer="744" from-port="2" to-layer="745" to-port="1"/>
		<edge from-layer="746" from-port="0" to-layer="747" to-port="0"/>
		<edge from-layer="745" from-port="2" to-layer="748" to-port="0"/>
		<edge from-layer="747" from-port="1" to-layer="748" to-port="1"/>
		<edge from-layer="748" from-port="2" to-layer="749" to-port="0"/>
		<edge from-layer="749" from-port="1" to-layer="750" to-port="0"/>
		<edge from-layer="737" from-port="0" to-layer="750" to-port="1"/>
		<edge from-layer="738" from-port="0" to-layer="750" to-port="2"/>
		<edge from-layer="739" from-port="0" to-layer="750" to-port="3"/>
		<edge from-layer="740" from-port="0" to-layer="750" to-port="4"/>
		<edge from-layer="760" from-port="0" to-layer="761" to-port="0"/>
		<edge from-layer="761" from-port="1" to-layer="762" to-port="0"/>
		<edge from-layer="759" from-port="0" to-layer="762" to-port="1"/>
		<edge from-layer="170" from-port="5" to-layer="763" to-port="0"/>
		<edge from-layer="762" from-port="2" to-layer="763" to-port="1"/>
		<edge from-layer="764" from-port="0" to-layer="765" to-port="0"/>
		<edge from-layer="763" from-port="2" to-layer="766" to-port="0"/>
		<edge from-layer="765" from-port="1" to-layer="766" to-port="1"/>
		<edge from-layer="766" from-port="2" to-layer="767" to-port="0"/>
		<edge from-layer="767" from-port="1" to-layer="768" to-port="0"/>
		<edge from-layer="755" from-port="0" to-layer="768" to-port="1"/>
		<edge from-layer="756" from-port="0" to-layer="768" to-port="2"/>
		<edge from-layer="757" from-port="0" to-layer="768" to-port="3"/>
		<edge from-layer="758" from-port="0" to-layer="768" to-port="4"/>
		<edge from-layer="770" from-port="0" to-layer="771" to-port="0"/>
		<edge from-layer="771" from-port="1" to-layer="772" to-port="0"/>
		<edge from-layer="769" from-port="0" to-layer="772" to-port="1"/>
		<edge from-layer="768" from-port="5" to-layer="773" to-port="0"/>
		<edge from-layer="772" from-port="2" to-layer="773" to-port="1"/>
		<edge from-layer="774" from-port="0" to-layer="775" to-port="0"/>
		<edge from-layer="773" from-port="2" to-layer="776" to-port="0"/>
		<edge from-layer="775" from-port="1" to-layer="776" to-port="1"/>
		<edge from-layer="776" from-port="2" to-layer="777" to-port="0"/>
		<edge from-layer="777" from-port="1" to-layer="778" to-port="0"/>
		<edge from-layer="751" from-port="0" to-layer="778" to-port="1"/>
		<edge from-layer="752" from-port="0" to-layer="778" to-port="2"/>
		<edge from-layer="753" from-port="0" to-layer="778" to-port="3"/>
		<edge from-layer="754" from-port="0" to-layer="778" to-port="4"/>
		<edge from-layer="784" from-port="0" to-layer="785" to-port="0"/>
		<edge from-layer="785" from-port="1" to-layer="786" to-port="0"/>
		<edge from-layer="783" from-port="0" to-layer="786" to-port="1"/>
		<edge from-layer="768" from-port="5" to-layer="787" to-port="0"/>
		<edge from-layer="786" from-port="2" to-layer="787" to-port="1"/>
		<edge from-layer="788" from-port="0" to-layer="789" to-port="0"/>
		<edge from-layer="787" from-port="2" to-layer="790" to-port="0"/>
		<edge from-layer="789" from-port="1" to-layer="790" to-port="1"/>
		<edge from-layer="790" from-port="2" to-layer="791" to-port="0"/>
		<edge from-layer="791" from-port="1" to-layer="792" to-port="0"/>
		<edge from-layer="779" from-port="0" to-layer="792" to-port="1"/>
		<edge from-layer="780" from-port="0" to-layer="792" to-port="2"/>
		<edge from-layer="781" from-port="0" to-layer="792" to-port="3"/>
		<edge from-layer="782" from-port="0" to-layer="792" to-port="4"/>
		<edge from-layer="798" from-port="0" to-layer="799" to-port="0"/>
		<edge from-layer="799" from-port="1" to-layer="800" to-port="0"/>
		<edge from-layer="797" from-port="0" to-layer="800" to-port="1"/>
		<edge from-layer="768" from-port="5" to-layer="801" to-port="0"/>
		<edge from-layer="800" from-port="2" to-layer="801" to-port="1"/>
		<edge from-layer="802" from-port="0" to-layer="803" to-port="0"/>
		<edge from-layer="801" from-port="2" to-layer="804" to-port="0"/>
		<edge from-layer="803" from-port="1" to-layer="804" to-port="1"/>
		<edge from-layer="804" from-port="2" to-layer="805" to-port="0"/>
		<edge from-layer="805" from-port="1" to-layer="806" to-port="0"/>
		<edge from-layer="793" from-port="0" to-layer="806" to-port="1"/>
		<edge from-layer="794" from-port="0" to-layer="806" to-port="2"/>
		<edge from-layer="795" from-port="0" to-layer="806" to-port="3"/>
		<edge from-layer="796" from-port="0" to-layer="806" to-port="4"/>
		<edge from-layer="812" from-port="0" to-layer="813" to-port="0"/>
		<edge from-layer="813" from-port="1" to-layer="814" to-port="0"/>
		<edge from-layer="811" from-port="0" to-layer="814" to-port="1"/>
		<edge from-layer="768" from-port="5" to-layer="815" to-port="0"/>
		<edge from-layer="814" from-port="2" to-layer="815" to-port="1"/>
		<edge from-layer="816" from-port="0" to-layer="817" to-port="0"/>
		<edge from-layer="815" from-port="2" to-layer="818" to-port="0"/>
		<edge from-layer="817" from-port="1" to-layer="818" to-port="1"/>
		<edge from-layer="818" from-port="2" to-layer="819" to-port="0"/>
		<edge from-layer="819" from-port="1" to-layer="820" to-port="0"/>
		<edge from-layer="807" from-port="0" to-layer="820" to-port="1"/>
		<edge from-layer="808" from-port="0" to-layer="820" to-port="2"/>
		<edge from-layer="809" from-port="0" to-layer="820" to-port="3"/>
		<edge from-layer="810" from-port="0" to-layer="820" to-port="4"/>
		<edge from-layer="826" from-port="0" to-layer="827" to-port="0"/>
		<edge from-layer="827" from-port="1" to-layer="828" to-port="0"/>
		<edge from-layer="825" from-port="0" to-layer="828" to-port="1"/>
		<edge from-layer="768" from-port="5" to-layer="829" to-port="0"/>
		<edge from-layer="828" from-port="2" to-layer="829" to-port="1"/>
		<edge from-layer="830" from-port="0" to-layer="831" to-port="0"/>
		<edge from-layer="829" from-port="2" to-layer="832" to-port="0"/>
		<edge from-layer="831" from-port="1" to-layer="832" to-port="1"/>
		<edge from-layer="832" from-port="2" to-layer="833" to-port="0"/>
		<edge from-layer="833" from-port="1" to-layer="834" to-port="0"/>
		<edge from-layer="821" from-port="0" to-layer="834" to-port="1"/>
		<edge from-layer="822" from-port="0" to-layer="834" to-port="2"/>
		<edge from-layer="823" from-port="0" to-layer="834" to-port="3"/>
		<edge from-layer="824" from-port="0" to-layer="834" to-port="4"/>
		<edge from-layer="840" from-port="0" to-layer="841" to-port="0"/>
		<edge from-layer="841" from-port="1" to-layer="842" to-port="0"/>
		<edge from-layer="839" from-port="0" to-layer="842" to-port="1"/>
		<edge from-layer="768" from-port="5" to-layer="843" to-port="0"/>
		<edge from-layer="842" from-port="2" to-layer="843" to-port="1"/>
		<edge from-layer="844" from-port="0" to-layer="845" to-port="0"/>
		<edge from-layer="843" from-port="2" to-layer="846" to-port="0"/>
		<edge from-layer="845" from-port="1" to-layer="846" to-port="1"/>
		<edge from-layer="846" from-port="2" to-layer="847" to-port="0"/>
		<edge from-layer="847" from-port="1" to-layer="848" to-port="0"/>
		<edge from-layer="835" from-port="0" to-layer="848" to-port="1"/>
		<edge from-layer="836" from-port="0" to-layer="848" to-port="2"/>
		<edge from-layer="837" from-port="0" to-layer="848" to-port="3"/>
		<edge from-layer="838" from-port="0" to-layer="848" to-port="4"/>
		<edge from-layer="854" from-port="0" to-layer="855" to-port="0"/>
		<edge from-layer="855" from-port="1" to-layer="856" to-port="0"/>
		<edge from-layer="853" from-port="0" to-layer="856" to-port="1"/>
		<edge from-layer="768" from-port="5" to-layer="857" to-port="0"/>
		<edge from-layer="856" from-port="2" to-layer="857" to-port="1"/>
		<edge from-layer="858" from-port="0" to-layer="859" to-port="0"/>
		<edge from-layer="857" from-port="2" to-layer="860" to-port="0"/>
		<edge from-layer="859" from-port="1" to-layer="860" to-port="1"/>
		<edge from-layer="860" from-port="2" to-layer="861" to-port="0"/>
		<edge from-layer="861" from-port="1" to-layer="862" to-port="0"/>
		<edge from-layer="849" from-port="0" to-layer="862" to-port="1"/>
		<edge from-layer="850" from-port="0" to-layer="862" to-port="2"/>
		<edge from-layer="851" from-port="0" to-layer="862" to-port="3"/>
		<edge from-layer="852" from-port="0" to-layer="862" to-port="4"/>
		<edge from-layer="868" from-port="0" to-layer="869" to-port="0"/>
		<edge from-layer="869" from-port="1" to-layer="870" to-port="0"/>
		<edge from-layer="867" from-port="0" to-layer="870" to-port="1"/>
		<edge from-layer="768" from-port="5" to-layer="871" to-port="0"/>
		<edge from-layer="870" from-port="2" to-layer="871" to-port="1"/>
		<edge from-layer="872" from-port="0" to-layer="873" to-port="0"/>
		<edge from-layer="871" from-port="2" to-layer="874" to-port="0"/>
		<edge from-layer="873" from-port="1" to-layer="874" to-port="1"/>
		<edge from-layer="874" from-port="2" to-layer="875" to-port="0"/>
		<edge from-layer="875" from-port="1" to-layer="876" to-port="0"/>
		<edge from-layer="863" from-port="0" to-layer="876" to-port="1"/>
		<edge from-layer="864" from-port="0" to-layer="876" to-port="2"/>
		<edge from-layer="865" from-port="0" to-layer="876" to-port="3"/>
		<edge from-layer="866" from-port="0" to-layer="876" to-port="4"/>
		<edge from-layer="882" from-port="0" to-layer="883" to-port="0"/>
		<edge from-layer="883" from-port="1" to-layer="884" to-port="0"/>
		<edge from-layer="881" from-port="0" to-layer="884" to-port="1"/>
		<edge from-layer="768" from-port="5" to-layer="885" to-port="0"/>
		<edge from-layer="884" from-port="2" to-layer="885" to-port="1"/>
		<edge from-layer="886" from-port="0" to-layer="887" to-port="0"/>
		<edge from-layer="885" from-port="2" to-layer="888" to-port="0"/>
		<edge from-layer="887" from-port="1" to-layer="888" to-port="1"/>
		<edge from-layer="888" from-port="2" to-layer="889" to-port="0"/>
		<edge from-layer="889" from-port="1" to-layer="890" to-port="0"/>
		<edge from-layer="877" from-port="0" to-layer="890" to-port="1"/>
		<edge from-layer="878" from-port="0" to-layer="890" to-port="2"/>
		<edge from-layer="879" from-port="0" to-layer="890" to-port="3"/>
		<edge from-layer="880" from-port="0" to-layer="890" to-port="4"/>
		<edge from-layer="896" from-port="0" to-layer="897" to-port="0"/>
		<edge from-layer="897" from-port="1" to-layer="898" to-port="0"/>
		<edge from-layer="895" from-port="0" to-layer="898" to-port="1"/>
		<edge from-layer="768" from-port="5" to-layer="899" to-port="0"/>
		<edge from-layer="898" from-port="2" to-layer="899" to-port="1"/>
		<edge from-layer="900" from-port="0" to-layer="901" to-port="0"/>
		<edge from-layer="899" from-port="2" to-layer="902" to-port="0"/>
		<edge from-layer="901" from-port="1" to-layer="902" to-port="1"/>
		<edge from-layer="902" from-port="2" to-layer="903" to-port="0"/>
		<edge from-layer="903" from-port="1" to-layer="904" to-port="0"/>
		<edge from-layer="891" from-port="0" to-layer="904" to-port="1"/>
		<edge from-layer="892" from-port="0" to-layer="904" to-port="2"/>
		<edge from-layer="893" from-port="0" to-layer="904" to-port="3"/>
		<edge from-layer="894" from-port="0" to-layer="904" to-port="4"/>
		<edge from-layer="910" from-port="0" to-layer="911" to-port="0"/>
		<edge from-layer="911" from-port="1" to-layer="912" to-port="0"/>
		<edge from-layer="909" from-port="0" to-layer="912" to-port="1"/>
		<edge from-layer="768" from-port="5" to-layer="913" to-port="0"/>
		<edge from-layer="912" from-port="2" to-layer="913" to-port="1"/>
		<edge from-layer="914" from-port="0" to-layer="915" to-port="0"/>
		<edge from-layer="913" from-port="2" to-layer="916" to-port="0"/>
		<edge from-layer="915" from-port="1" to-layer="916" to-port="1"/>
		<edge from-layer="916" from-port="2" to-layer="917" to-port="0"/>
		<edge from-layer="917" from-port="1" to-layer="918" to-port="0"/>
		<edge from-layer="905" from-port="0" to-layer="918" to-port="1"/>
		<edge from-layer="906" from-port="0" to-layer="918" to-port="2"/>
		<edge from-layer="907" from-port="0" to-layer="918" to-port="3"/>
		<edge from-layer="908" from-port="0" to-layer="918" to-port="4"/>
		<edge from-layer="924" from-port="0" to-layer="925" to-port="0"/>
		<edge from-layer="925" from-port="1" to-layer="926" to-port="0"/>
		<edge from-layer="923" from-port="0" to-layer="926" to-port="1"/>
		<edge from-layer="768" from-port="5" to-layer="927" to-port="0"/>
		<edge from-layer="926" from-port="2" to-layer="927" to-port="1"/>
		<edge from-layer="928" from-port="0" to-layer="929" to-port="0"/>
		<edge from-layer="927" from-port="2" to-layer="930" to-port="0"/>
		<edge from-layer="929" from-port="1" to-layer="930" to-port="1"/>
		<edge from-layer="930" from-port="2" to-layer="931" to-port="0"/>
		<edge from-layer="931" from-port="1" to-layer="932" to-port="0"/>
		<edge from-layer="919" from-port="0" to-layer="932" to-port="1"/>
		<edge from-layer="920" from-port="0" to-layer="932" to-port="2"/>
		<edge from-layer="921" from-port="0" to-layer="932" to-port="3"/>
		<edge from-layer="922" from-port="0" to-layer="932" to-port="4"/>
		<edge from-layer="938" from-port="0" to-layer="939" to-port="0"/>
		<edge from-layer="939" from-port="1" to-layer="940" to-port="0"/>
		<edge from-layer="937" from-port="0" to-layer="940" to-port="1"/>
		<edge from-layer="768" from-port="5" to-layer="941" to-port="0"/>
		<edge from-layer="940" from-port="2" to-layer="941" to-port="1"/>
		<edge from-layer="942" from-port="0" to-layer="943" to-port="0"/>
		<edge from-layer="941" from-port="2" to-layer="944" to-port="0"/>
		<edge from-layer="943" from-port="1" to-layer="944" to-port="1"/>
		<edge from-layer="944" from-port="2" to-layer="945" to-port="0"/>
		<edge from-layer="945" from-port="1" to-layer="946" to-port="0"/>
		<edge from-layer="933" from-port="0" to-layer="946" to-port="1"/>
		<edge from-layer="934" from-port="0" to-layer="946" to-port="2"/>
		<edge from-layer="935" from-port="0" to-layer="946" to-port="3"/>
		<edge from-layer="936" from-port="0" to-layer="946" to-port="4"/>
		<edge from-layer="952" from-port="0" to-layer="953" to-port="0"/>
		<edge from-layer="953" from-port="1" to-layer="954" to-port="0"/>
		<edge from-layer="951" from-port="0" to-layer="954" to-port="1"/>
		<edge from-layer="768" from-port="5" to-layer="955" to-port="0"/>
		<edge from-layer="954" from-port="2" to-layer="955" to-port="1"/>
		<edge from-layer="956" from-port="0" to-layer="957" to-port="0"/>
		<edge from-layer="955" from-port="2" to-layer="958" to-port="0"/>
		<edge from-layer="957" from-port="1" to-layer="958" to-port="1"/>
		<edge from-layer="958" from-port="2" to-layer="959" to-port="0"/>
		<edge from-layer="959" from-port="1" to-layer="960" to-port="0"/>
		<edge from-layer="947" from-port="0" to-layer="960" to-port="1"/>
		<edge from-layer="948" from-port="0" to-layer="960" to-port="2"/>
		<edge from-layer="949" from-port="0" to-layer="960" to-port="3"/>
		<edge from-layer="950" from-port="0" to-layer="960" to-port="4"/>
		<edge from-layer="966" from-port="0" to-layer="967" to-port="0"/>
		<edge from-layer="967" from-port="1" to-layer="968" to-port="0"/>
		<edge from-layer="965" from-port="0" to-layer="968" to-port="1"/>
		<edge from-layer="768" from-port="5" to-layer="969" to-port="0"/>
		<edge from-layer="968" from-port="2" to-layer="969" to-port="1"/>
		<edge from-layer="970" from-port="0" to-layer="971" to-port="0"/>
		<edge from-layer="969" from-port="2" to-layer="972" to-port="0"/>
		<edge from-layer="971" from-port="1" to-layer="972" to-port="1"/>
		<edge from-layer="972" from-port="2" to-layer="973" to-port="0"/>
		<edge from-layer="973" from-port="1" to-layer="974" to-port="0"/>
		<edge from-layer="961" from-port="0" to-layer="974" to-port="1"/>
		<edge from-layer="962" from-port="0" to-layer="974" to-port="2"/>
		<edge from-layer="963" from-port="0" to-layer="974" to-port="3"/>
		<edge from-layer="964" from-port="0" to-layer="974" to-port="4"/>
		<edge from-layer="980" from-port="0" to-layer="981" to-port="0"/>
		<edge from-layer="981" from-port="1" to-layer="982" to-port="0"/>
		<edge from-layer="979" from-port="0" to-layer="982" to-port="1"/>
		<edge from-layer="768" from-port="5" to-layer="983" to-port="0"/>
		<edge from-layer="982" from-port="2" to-layer="983" to-port="1"/>
		<edge from-layer="984" from-port="0" to-layer="985" to-port="0"/>
		<edge from-layer="983" from-port="2" to-layer="986" to-port="0"/>
		<edge from-layer="985" from-port="1" to-layer="986" to-port="1"/>
		<edge from-layer="986" from-port="2" to-layer="987" to-port="0"/>
		<edge from-layer="987" from-port="1" to-layer="988" to-port="0"/>
		<edge from-layer="975" from-port="0" to-layer="988" to-port="1"/>
		<edge from-layer="976" from-port="0" to-layer="988" to-port="2"/>
		<edge from-layer="977" from-port="0" to-layer="988" to-port="3"/>
		<edge from-layer="978" from-port="0" to-layer="988" to-port="4"/>
		<edge from-layer="994" from-port="0" to-layer="995" to-port="0"/>
		<edge from-layer="995" from-port="1" to-layer="996" to-port="0"/>
		<edge from-layer="993" from-port="0" to-layer="996" to-port="1"/>
		<edge from-layer="768" from-port="5" to-layer="997" to-port="0"/>
		<edge from-layer="996" from-port="2" to-layer="997" to-port="1"/>
		<edge from-layer="998" from-port="0" to-layer="999" to-port="0"/>
		<edge from-layer="997" from-port="2" to-layer="1000" to-port="0"/>
		<edge from-layer="999" from-port="1" to-layer="1000" to-port="1"/>
		<edge from-layer="1000" from-port="2" to-layer="1001" to-port="0"/>
		<edge from-layer="1001" from-port="1" to-layer="1002" to-port="0"/>
		<edge from-layer="989" from-port="0" to-layer="1002" to-port="1"/>
		<edge from-layer="990" from-port="0" to-layer="1002" to-port="2"/>
		<edge from-layer="991" from-port="0" to-layer="1002" to-port="3"/>
		<edge from-layer="992" from-port="0" to-layer="1002" to-port="4"/>
		<edge from-layer="1008" from-port="0" to-layer="1009" to-port="0"/>
		<edge from-layer="1009" from-port="1" to-layer="1010" to-port="0"/>
		<edge from-layer="1007" from-port="0" to-layer="1010" to-port="1"/>
		<edge from-layer="768" from-port="5" to-layer="1011" to-port="0"/>
		<edge from-layer="1010" from-port="2" to-layer="1011" to-port="1"/>
		<edge from-layer="1012" from-port="0" to-layer="1013" to-port="0"/>
		<edge from-layer="1011" from-port="2" to-layer="1014" to-port="0"/>
		<edge from-layer="1013" from-port="1" to-layer="1014" to-port="1"/>
		<edge from-layer="1014" from-port="2" to-layer="1015" to-port="0"/>
		<edge from-layer="1015" from-port="1" to-layer="1016" to-port="0"/>
		<edge from-layer="1003" from-port="0" to-layer="1016" to-port="1"/>
		<edge from-layer="1004" from-port="0" to-layer="1016" to-port="2"/>
		<edge from-layer="1005" from-port="0" to-layer="1016" to-port="3"/>
		<edge from-layer="1006" from-port="0" to-layer="1016" to-port="4"/>
		<edge from-layer="1022" from-port="0" to-layer="1023" to-port="0"/>
		<edge from-layer="1023" from-port="1" to-layer="1024" to-port="0"/>
		<edge from-layer="1021" from-port="0" to-layer="1024" to-port="1"/>
		<edge from-layer="768" from-port="5" to-layer="1025" to-port="0"/>
		<edge from-layer="1024" from-port="2" to-layer="1025" to-port="1"/>
		<edge from-layer="1026" from-port="0" to-layer="1027" to-port="0"/>
		<edge from-layer="1025" from-port="2" to-layer="1028" to-port="0"/>
		<edge from-layer="1027" from-port="1" to-layer="1028" to-port="1"/>
		<edge from-layer="1028" from-port="2" to-layer="1029" to-port="0"/>
		<edge from-layer="1029" from-port="1" to-layer="1030" to-port="0"/>
		<edge from-layer="1017" from-port="0" to-layer="1030" to-port="1"/>
		<edge from-layer="1018" from-port="0" to-layer="1030" to-port="2"/>
		<edge from-layer="1019" from-port="0" to-layer="1030" to-port="3"/>
		<edge from-layer="1020" from-port="0" to-layer="1030" to-port="4"/>
		<edge from-layer="1036" from-port="0" to-layer="1037" to-port="0"/>
		<edge from-layer="1037" from-port="1" to-layer="1038" to-port="0"/>
		<edge from-layer="1035" from-port="0" to-layer="1038" to-port="1"/>
		<edge from-layer="768" from-port="5" to-layer="1039" to-port="0"/>
		<edge from-layer="1038" from-port="2" to-layer="1039" to-port="1"/>
		<edge from-layer="1040" from-port="0" to-layer="1041" to-port="0"/>
		<edge from-layer="1039" from-port="2" to-layer="1042" to-port="0"/>
		<edge from-layer="1041" from-port="1" to-layer="1042" to-port="1"/>
		<edge from-layer="1042" from-port="2" to-layer="1043" to-port="0"/>
		<edge from-layer="1043" from-port="1" to-layer="1044" to-port="0"/>
		<edge from-layer="1031" from-port="0" to-layer="1044" to-port="1"/>
		<edge from-layer="1032" from-port="0" to-layer="1044" to-port="2"/>
		<edge from-layer="1033" from-port="0" to-layer="1044" to-port="3"/>
		<edge from-layer="1034" from-port="0" to-layer="1044" to-port="4"/>
		<edge from-layer="1050" from-port="0" to-layer="1051" to-port="0"/>
		<edge from-layer="1051" from-port="1" to-layer="1052" to-port="0"/>
		<edge from-layer="1049" from-port="0" to-layer="1052" to-port="1"/>
		<edge from-layer="768" from-port="5" to-layer="1053" to-port="0"/>
		<edge from-layer="1052" from-port="2" to-layer="1053" to-port="1"/>
		<edge from-layer="1054" from-port="0" to-layer="1055" to-port="0"/>
		<edge from-layer="1053" from-port="2" to-layer="1056" to-port="0"/>
		<edge from-layer="1055" from-port="1" to-layer="1056" to-port="1"/>
		<edge from-layer="1056" from-port="2" to-layer="1057" to-port="0"/>
		<edge from-layer="1057" from-port="1" to-layer="1058" to-port="0"/>
		<edge from-layer="1045" from-port="0" to-layer="1058" to-port="1"/>
		<edge from-layer="1046" from-port="0" to-layer="1058" to-port="2"/>
		<edge from-layer="1047" from-port="0" to-layer="1058" to-port="3"/>
		<edge from-layer="1048" from-port="0" to-layer="1058" to-port="4"/>
		<edge from-layer="1064" from-port="0" to-layer="1065" to-port="0"/>
		<edge from-layer="1065" from-port="1" to-layer="1066" to-port="0"/>
		<edge from-layer="1063" from-port="0" to-layer="1066" to-port="1"/>
		<edge from-layer="768" from-port="5" to-layer="1067" to-port="0"/>
		<edge from-layer="1066" from-port="2" to-layer="1067" to-port="1"/>
		<edge from-layer="1068" from-port="0" to-layer="1069" to-port="0"/>
		<edge from-layer="1067" from-port="2" to-layer="1070" to-port="0"/>
		<edge from-layer="1069" from-port="1" to-layer="1070" to-port="1"/>
		<edge from-layer="1070" from-port="2" to-layer="1071" to-port="0"/>
		<edge from-layer="1071" from-port="1" to-layer="1072" to-port="0"/>
		<edge from-layer="1059" from-port="0" to-layer="1072" to-port="1"/>
		<edge from-layer="1060" from-port="0" to-layer="1072" to-port="2"/>
		<edge from-layer="1061" from-port="0" to-layer="1072" to-port="3"/>
		<edge from-layer="1062" from-port="0" to-layer="1072" to-port="4"/>
		<edge from-layer="1078" from-port="0" to-layer="1079" to-port="0"/>
		<edge from-layer="1079" from-port="1" to-layer="1080" to-port="0"/>
		<edge from-layer="1077" from-port="0" to-layer="1080" to-port="1"/>
		<edge from-layer="768" from-port="5" to-layer="1081" to-port="0"/>
		<edge from-layer="1080" from-port="2" to-layer="1081" to-port="1"/>
		<edge from-layer="1082" from-port="0" to-layer="1083" to-port="0"/>
		<edge from-layer="1081" from-port="2" to-layer="1084" to-port="0"/>
		<edge from-layer="1083" from-port="1" to-layer="1084" to-port="1"/>
		<edge from-layer="1084" from-port="2" to-layer="1085" to-port="0"/>
		<edge from-layer="1085" from-port="1" to-layer="1086" to-port="0"/>
		<edge from-layer="1073" from-port="0" to-layer="1086" to-port="1"/>
		<edge from-layer="1074" from-port="0" to-layer="1086" to-port="2"/>
		<edge from-layer="1075" from-port="0" to-layer="1086" to-port="3"/>
		<edge from-layer="1076" from-port="0" to-layer="1086" to-port="4"/>
		<edge from-layer="1092" from-port="0" to-layer="1093" to-port="0"/>
		<edge from-layer="1093" from-port="1" to-layer="1094" to-port="0"/>
		<edge from-layer="1091" from-port="0" to-layer="1094" to-port="1"/>
		<edge from-layer="768" from-port="5" to-layer="1095" to-port="0"/>
		<edge from-layer="1094" from-port="2" to-layer="1095" to-port="1"/>
		<edge from-layer="1096" from-port="0" to-layer="1097" to-port="0"/>
		<edge from-layer="1095" from-port="2" to-layer="1098" to-port="0"/>
		<edge from-layer="1097" from-port="1" to-layer="1098" to-port="1"/>
		<edge from-layer="1098" from-port="2" to-layer="1099" to-port="0"/>
		<edge from-layer="1099" from-port="1" to-layer="1100" to-port="0"/>
		<edge from-layer="1087" from-port="0" to-layer="1100" to-port="1"/>
		<edge from-layer="1088" from-port="0" to-layer="1100" to-port="2"/>
		<edge from-layer="1089" from-port="0" to-layer="1100" to-port="3"/>
		<edge from-layer="1090" from-port="0" to-layer="1100" to-port="4"/>
		<edge from-layer="1106" from-port="0" to-layer="1107" to-port="0"/>
		<edge from-layer="1107" from-port="1" to-layer="1108" to-port="0"/>
		<edge from-layer="1105" from-port="0" to-layer="1108" to-port="1"/>
		<edge from-layer="768" from-port="5" to-layer="1109" to-port="0"/>
		<edge from-layer="1108" from-port="2" to-layer="1109" to-port="1"/>
		<edge from-layer="1110" from-port="0" to-layer="1111" to-port="0"/>
		<edge from-layer="1109" from-port="2" to-layer="1112" to-port="0"/>
		<edge from-layer="1111" from-port="1" to-layer="1112" to-port="1"/>
		<edge from-layer="1112" from-port="2" to-layer="1113" to-port="0"/>
		<edge from-layer="1113" from-port="1" to-layer="1114" to-port="0"/>
		<edge from-layer="1101" from-port="0" to-layer="1114" to-port="1"/>
		<edge from-layer="1102" from-port="0" to-layer="1114" to-port="2"/>
		<edge from-layer="1103" from-port="0" to-layer="1114" to-port="3"/>
		<edge from-layer="1104" from-port="0" to-layer="1114" to-port="4"/>
		<edge from-layer="1120" from-port="0" to-layer="1121" to-port="0"/>
		<edge from-layer="1121" from-port="1" to-layer="1122" to-port="0"/>
		<edge from-layer="1119" from-port="0" to-layer="1122" to-port="1"/>
		<edge from-layer="768" from-port="5" to-layer="1123" to-port="0"/>
		<edge from-layer="1122" from-port="2" to-layer="1123" to-port="1"/>
		<edge from-layer="1124" from-port="0" to-layer="1125" to-port="0"/>
		<edge from-layer="1123" from-port="2" to-layer="1126" to-port="0"/>
		<edge from-layer="1125" from-port="1" to-layer="1126" to-port="1"/>
		<edge from-layer="1126" from-port="2" to-layer="1127" to-port="0"/>
		<edge from-layer="1127" from-port="1" to-layer="1128" to-port="0"/>
		<edge from-layer="1115" from-port="0" to-layer="1128" to-port="1"/>
		<edge from-layer="1116" from-port="0" to-layer="1128" to-port="2"/>
		<edge from-layer="1117" from-port="0" to-layer="1128" to-port="3"/>
		<edge from-layer="1118" from-port="0" to-layer="1128" to-port="4"/>
		<edge from-layer="1134" from-port="0" to-layer="1135" to-port="0"/>
		<edge from-layer="1135" from-port="1" to-layer="1136" to-port="0"/>
		<edge from-layer="1133" from-port="0" to-layer="1136" to-port="1"/>
		<edge from-layer="768" from-port="5" to-layer="1137" to-port="0"/>
		<edge from-layer="1136" from-port="2" to-layer="1137" to-port="1"/>
		<edge from-layer="1138" from-port="0" to-layer="1139" to-port="0"/>
		<edge from-layer="1137" from-port="2" to-layer="1140" to-port="0"/>
		<edge from-layer="1139" from-port="1" to-layer="1140" to-port="1"/>
		<edge from-layer="1140" from-port="2" to-layer="1141" to-port="0"/>
		<edge from-layer="1141" from-port="1" to-layer="1142" to-port="0"/>
		<edge from-layer="1129" from-port="0" to-layer="1142" to-port="1"/>
		<edge from-layer="1130" from-port="0" to-layer="1142" to-port="2"/>
		<edge from-layer="1131" from-port="0" to-layer="1142" to-port="3"/>
		<edge from-layer="1132" from-port="0" to-layer="1142" to-port="4"/>
		<edge from-layer="1148" from-port="0" to-layer="1149" to-port="0"/>
		<edge from-layer="1149" from-port="1" to-layer="1150" to-port="0"/>
		<edge from-layer="1147" from-port="0" to-layer="1150" to-port="1"/>
		<edge from-layer="768" from-port="5" to-layer="1151" to-port="0"/>
		<edge from-layer="1150" from-port="2" to-layer="1151" to-port="1"/>
		<edge from-layer="1152" from-port="0" to-layer="1153" to-port="0"/>
		<edge from-layer="1151" from-port="2" to-layer="1154" to-port="0"/>
		<edge from-layer="1153" from-port="1" to-layer="1154" to-port="1"/>
		<edge from-layer="1154" from-port="2" to-layer="1155" to-port="0"/>
		<edge from-layer="1155" from-port="1" to-layer="1156" to-port="0"/>
		<edge from-layer="1143" from-port="0" to-layer="1156" to-port="1"/>
		<edge from-layer="1144" from-port="0" to-layer="1156" to-port="2"/>
		<edge from-layer="1145" from-port="0" to-layer="1156" to-port="3"/>
		<edge from-layer="1146" from-port="0" to-layer="1156" to-port="4"/>
		<edge from-layer="1162" from-port="0" to-layer="1163" to-port="0"/>
		<edge from-layer="1163" from-port="1" to-layer="1164" to-port="0"/>
		<edge from-layer="1161" from-port="0" to-layer="1164" to-port="1"/>
		<edge from-layer="768" from-port="5" to-layer="1165" to-port="0"/>
		<edge from-layer="1164" from-port="2" to-layer="1165" to-port="1"/>
		<edge from-layer="1166" from-port="0" to-layer="1167" to-port="0"/>
		<edge from-layer="1165" from-port="2" to-layer="1168" to-port="0"/>
		<edge from-layer="1167" from-port="1" to-layer="1168" to-port="1"/>
		<edge from-layer="1168" from-port="2" to-layer="1169" to-port="0"/>
		<edge from-layer="1169" from-port="1" to-layer="1170" to-port="0"/>
		<edge from-layer="1157" from-port="0" to-layer="1170" to-port="1"/>
		<edge from-layer="1158" from-port="0" to-layer="1170" to-port="2"/>
		<edge from-layer="1159" from-port="0" to-layer="1170" to-port="3"/>
		<edge from-layer="1160" from-port="0" to-layer="1170" to-port="4"/>
		<edge from-layer="1176" from-port="0" to-layer="1177" to-port="0"/>
		<edge from-layer="1177" from-port="1" to-layer="1178" to-port="0"/>
		<edge from-layer="1175" from-port="0" to-layer="1178" to-port="1"/>
		<edge from-layer="768" from-port="5" to-layer="1179" to-port="0"/>
		<edge from-layer="1178" from-port="2" to-layer="1179" to-port="1"/>
		<edge from-layer="1180" from-port="0" to-layer="1181" to-port="0"/>
		<edge from-layer="1179" from-port="2" to-layer="1182" to-port="0"/>
		<edge from-layer="1181" from-port="1" to-layer="1182" to-port="1"/>
		<edge from-layer="1182" from-port="2" to-layer="1183" to-port="0"/>
		<edge from-layer="1183" from-port="1" to-layer="1184" to-port="0"/>
		<edge from-layer="1171" from-port="0" to-layer="1184" to-port="1"/>
		<edge from-layer="1172" from-port="0" to-layer="1184" to-port="2"/>
		<edge from-layer="1173" from-port="0" to-layer="1184" to-port="3"/>
		<edge from-layer="1174" from-port="0" to-layer="1184" to-port="4"/>
		<edge from-layer="1190" from-port="0" to-layer="1191" to-port="0"/>
		<edge from-layer="1191" from-port="1" to-layer="1192" to-port="0"/>
		<edge from-layer="1189" from-port="0" to-layer="1192" to-port="1"/>
		<edge from-layer="768" from-port="5" to-layer="1193" to-port="0"/>
		<edge from-layer="1192" from-port="2" to-layer="1193" to-port="1"/>
		<edge from-layer="1194" from-port="0" to-layer="1195" to-port="0"/>
		<edge from-layer="1193" from-port="2" to-layer="1196" to-port="0"/>
		<edge from-layer="1195" from-port="1" to-layer="1196" to-port="1"/>
		<edge from-layer="1196" from-port="2" to-layer="1197" to-port="0"/>
		<edge from-layer="1197" from-port="1" to-layer="1198" to-port="0"/>
		<edge from-layer="1185" from-port="0" to-layer="1198" to-port="1"/>
		<edge from-layer="1186" from-port="0" to-layer="1198" to-port="2"/>
		<edge from-layer="1187" from-port="0" to-layer="1198" to-port="3"/>
		<edge from-layer="1188" from-port="0" to-layer="1198" to-port="4"/>
		<edge from-layer="1204" from-port="0" to-layer="1205" to-port="0"/>
		<edge from-layer="1205" from-port="1" to-layer="1206" to-port="0"/>
		<edge from-layer="1203" from-port="0" to-layer="1206" to-port="1"/>
		<edge from-layer="768" from-port="5" to-layer="1207" to-port="0"/>
		<edge from-layer="1206" from-port="2" to-layer="1207" to-port="1"/>
		<edge from-layer="1208" from-port="0" to-layer="1209" to-port="0"/>
		<edge from-layer="1207" from-port="2" to-layer="1210" to-port="0"/>
		<edge from-layer="1209" from-port="1" to-layer="1210" to-port="1"/>
		<edge from-layer="1210" from-port="2" to-layer="1211" to-port="0"/>
		<edge from-layer="1211" from-port="1" to-layer="1212" to-port="0"/>
		<edge from-layer="1199" from-port="0" to-layer="1212" to-port="1"/>
		<edge from-layer="1200" from-port="0" to-layer="1212" to-port="2"/>
		<edge from-layer="1201" from-port="0" to-layer="1212" to-port="3"/>
		<edge from-layer="1202" from-port="0" to-layer="1212" to-port="4"/>
		<edge from-layer="1218" from-port="0" to-layer="1219" to-port="0"/>
		<edge from-layer="1219" from-port="1" to-layer="1220" to-port="0"/>
		<edge from-layer="1217" from-port="0" to-layer="1220" to-port="1"/>
		<edge from-layer="768" from-port="5" to-layer="1221" to-port="0"/>
		<edge from-layer="1220" from-port="2" to-layer="1221" to-port="1"/>
		<edge from-layer="1222" from-port="0" to-layer="1223" to-port="0"/>
		<edge from-layer="1221" from-port="2" to-layer="1224" to-port="0"/>
		<edge from-layer="1223" from-port="1" to-layer="1224" to-port="1"/>
		<edge from-layer="1224" from-port="2" to-layer="1225" to-port="0"/>
		<edge from-layer="1225" from-port="1" to-layer="1226" to-port="0"/>
		<edge from-layer="1213" from-port="0" to-layer="1226" to-port="1"/>
		<edge from-layer="1214" from-port="0" to-layer="1226" to-port="2"/>
		<edge from-layer="1215" from-port="0" to-layer="1226" to-port="3"/>
		<edge from-layer="1216" from-port="0" to-layer="1226" to-port="4"/>
		<edge from-layer="1232" from-port="0" to-layer="1233" to-port="0"/>
		<edge from-layer="1233" from-port="1" to-layer="1234" to-port="0"/>
		<edge from-layer="1231" from-port="0" to-layer="1234" to-port="1"/>
		<edge from-layer="768" from-port="5" to-layer="1235" to-port="0"/>
		<edge from-layer="1234" from-port="2" to-layer="1235" to-port="1"/>
		<edge from-layer="1236" from-port="0" to-layer="1237" to-port="0"/>
		<edge from-layer="1235" from-port="2" to-layer="1238" to-port="0"/>
		<edge from-layer="1237" from-port="1" to-layer="1238" to-port="1"/>
		<edge from-layer="1238" from-port="2" to-layer="1239" to-port="0"/>
		<edge from-layer="1239" from-port="1" to-layer="1240" to-port="0"/>
		<edge from-layer="1227" from-port="0" to-layer="1240" to-port="1"/>
		<edge from-layer="1228" from-port="0" to-layer="1240" to-port="2"/>
		<edge from-layer="1229" from-port="0" to-layer="1240" to-port="3"/>
		<edge from-layer="1230" from-port="0" to-layer="1240" to-port="4"/>
		<edge from-layer="190" from-port="5" to-layer="1241" to-port="0"/>
		<edge from-layer="204" from-port="5" to-layer="1241" to-port="1"/>
		<edge from-layer="218" from-port="5" to-layer="1241" to-port="2"/>
		<edge from-layer="232" from-port="5" to-layer="1241" to-port="3"/>
		<edge from-layer="260" from-port="5" to-layer="1241" to-port="4"/>
		<edge from-layer="274" from-port="5" to-layer="1241" to-port="5"/>
		<edge from-layer="288" from-port="5" to-layer="1241" to-port="6"/>
		<edge from-layer="302" from-port="5" to-layer="1241" to-port="7"/>
		<edge from-layer="330" from-port="5" to-layer="1241" to-port="8"/>
		<edge from-layer="344" from-port="5" to-layer="1241" to-port="9"/>
		<edge from-layer="358" from-port="5" to-layer="1241" to-port="10"/>
		<edge from-layer="372" from-port="5" to-layer="1241" to-port="11"/>
		<edge from-layer="386" from-port="5" to-layer="1241" to-port="12"/>
		<edge from-layer="400" from-port="5" to-layer="1241" to-port="13"/>
		<edge from-layer="414" from-port="5" to-layer="1241" to-port="14"/>
		<edge from-layer="428" from-port="5" to-layer="1241" to-port="15"/>
		<edge from-layer="456" from-port="5" to-layer="1241" to-port="16"/>
		<edge from-layer="470" from-port="5" to-layer="1241" to-port="17"/>
		<edge from-layer="484" from-port="5" to-layer="1241" to-port="18"/>
		<edge from-layer="498" from-port="5" to-layer="1241" to-port="19"/>
		<edge from-layer="512" from-port="5" to-layer="1241" to-port="20"/>
		<edge from-layer="526" from-port="5" to-layer="1241" to-port="21"/>
		<edge from-layer="540" from-port="5" to-layer="1241" to-port="22"/>
		<edge from-layer="554" from-port="5" to-layer="1241" to-port="23"/>
		<edge from-layer="582" from-port="5" to-layer="1241" to-port="24"/>
		<edge from-layer="596" from-port="5" to-layer="1241" to-port="25"/>
		<edge from-layer="610" from-port="5" to-layer="1241" to-port="26"/>
		<edge from-layer="624" from-port="5" to-layer="1241" to-port="27"/>
		<edge from-layer="638" from-port="5" to-layer="1241" to-port="28"/>
		<edge from-layer="652" from-port="5" to-layer="1241" to-port="29"/>
		<edge from-layer="680" from-port="5" to-layer="1241" to-port="30"/>
		<edge from-layer="694" from-port="5" to-layer="1241" to-port="31"/>
		<edge from-layer="708" from-port="5" to-layer="1241" to-port="32"/>
		<edge from-layer="722" from-port="5" to-layer="1241" to-port="33"/>
		<edge from-layer="736" from-port="5" to-layer="1241" to-port="34"/>
		<edge from-layer="750" from-port="5" to-layer="1241" to-port="35"/>
		<edge from-layer="778" from-port="5" to-layer="1241" to-port="36"/>
		<edge from-layer="792" from-port="5" to-layer="1241" to-port="37"/>
		<edge from-layer="806" from-port="5" to-layer="1241" to-port="38"/>
		<edge from-layer="820" from-port="5" to-layer="1241" to-port="39"/>
		<edge from-layer="834" from-port="5" to-layer="1241" to-port="40"/>
		<edge from-layer="848" from-port="5" to-layer="1241" to-port="41"/>
		<edge from-layer="862" from-port="5" to-layer="1241" to-port="42"/>
		<edge from-layer="876" from-port="5" to-layer="1241" to-port="43"/>
		<edge from-layer="890" from-port="5" to-layer="1241" to-port="44"/>
		<edge from-layer="904" from-port="5" to-layer="1241" to-port="45"/>
		<edge from-layer="918" from-port="5" to-layer="1241" to-port="46"/>
		<edge from-layer="932" from-port="5" to-layer="1241" to-port="47"/>
		<edge from-layer="946" from-port="5" to-layer="1241" to-port="48"/>
		<edge from-layer="960" from-port="5" to-layer="1241" to-port="49"/>
		<edge from-layer="974" from-port="5" to-layer="1241" to-port="50"/>
		<edge from-layer="988" from-port="5" to-layer="1241" to-port="51"/>
		<edge from-layer="1002" from-port="5" to-layer="1241" to-port="52"/>
		<edge from-layer="1016" from-port="5" to-layer="1241" to-port="53"/>
		<edge from-layer="1030" from-port="5" to-layer="1241" to-port="54"/>
		<edge from-layer="1044" from-port="5" to-layer="1241" to-port="55"/>
		<edge from-layer="1058" from-port="5" to-layer="1241" to-port="56"/>
		<edge from-layer="1072" from-port="5" to-layer="1241" to-port="57"/>
		<edge from-layer="1086" from-port="5" to-layer="1241" to-port="58"/>
		<edge from-layer="1100" from-port="5" to-layer="1241" to-port="59"/>
		<edge from-layer="1114" from-port="5" to-layer="1241" to-port="60"/>
		<edge from-layer="1128" from-port="5" to-layer="1241" to-port="61"/>
		<edge from-layer="1142" from-port="5" to-layer="1241" to-port="62"/>
		<edge from-layer="1156" from-port="5" to-layer="1241" to-port="63"/>
		<edge from-layer="1170" from-port="5" to-layer="1241" to-port="64"/>
		<edge from-layer="1184" from-port="5" to-layer="1241" to-port="65"/>
		<edge from-layer="1198" from-port="5" to-layer="1241" to-port="66"/>
		<edge from-layer="1212" from-port="5" to-layer="1241" to-port="67"/>
		<edge from-layer="1226" from-port="5" to-layer="1241" to-port="68"/>
		<edge from-layer="1240" from-port="5" to-layer="1241" to-port="69"/>
		<edge from-layer="1243" from-port="0" to-layer="1244" to-port="0"/>
		<edge from-layer="1244" from-port="1" to-layer="1245" to-port="0"/>
		<edge from-layer="1242" from-port="0" to-layer="1245" to-port="1"/>
		<edge from-layer="1241" from-port="70" to-layer="1246" to-port="0"/>
		<edge from-layer="1245" from-port="2" to-layer="1246" to-port="1"/>
		<edge from-layer="1247" from-port="0" to-layer="1248" to-port="0"/>
		<edge from-layer="1246" from-port="2" to-layer="1249" to-port="0"/>
		<edge from-layer="1248" from-port="1" to-layer="1249" to-port="1"/>
		<edge from-layer="1249" from-port="2" to-layer="1250" to-port="0"/>
		<edge from-layer="1251" from-port="0" to-layer="1252" to-port="0"/>
		<edge from-layer="1250" from-port="1" to-layer="1253" to-port="0"/>
		<edge from-layer="1252" from-port="1" to-layer="1253" to-port="1"/>
		<edge from-layer="1254" from-port="0" to-layer="1255" to-port="0"/>
		<edge from-layer="1253" from-port="2" to-layer="1256" to-port="0"/>
		<edge from-layer="1255" from-port="1" to-layer="1256" to-port="1"/>
		<edge from-layer="1256" from-port="2" to-layer="1257" to-port="0"/>
		<edge from-layer="4" from-port="0" to-layer="1257" to-port="1"/>
		<edge from-layer="5" from-port="0" to-layer="1257" to-port="2"/>
		<edge from-layer="6" from-port="0" to-layer="1257" to-port="3"/>
		<edge from-layer="7" from-port="0" to-layer="1257" to-port="4"/>
		<edge from-layer="1259" from-port="0" to-layer="1260" to-port="0"/>
		<edge from-layer="1260" from-port="1" to-layer="1261" to-port="0"/>
		<edge from-layer="1258" from-port="0" to-layer="1261" to-port="1"/>
		<edge from-layer="1257" from-port="5" to-layer="1262" to-port="0"/>
		<edge from-layer="1261" from-port="2" to-layer="1262" to-port="1"/>
		<edge from-layer="1263" from-port="0" to-layer="1264" to-port="0"/>
		<edge from-layer="1262" from-port="2" to-layer="1265" to-port="0"/>
		<edge from-layer="1264" from-port="1" to-layer="1265" to-port="1"/>
		<edge from-layer="1265" from-port="2" to-layer="1266" to-port="0"/>
		<edge from-layer="1267" from-port="0" to-layer="1268" to-port="0"/>
		<edge from-layer="1266" from-port="1" to-layer="1269" to-port="0"/>
		<edge from-layer="1268" from-port="1" to-layer="1269" to-port="1"/>
		<edge from-layer="1270" from-port="0" to-layer="1271" to-port="0"/>
		<edge from-layer="1269" from-port="2" to-layer="1272" to-port="0"/>
		<edge from-layer="1271" from-port="1" to-layer="1272" to-port="1"/>
		<edge from-layer="1272" from-port="2" to-layer="1273" to-port="0"/>
		<edge from-layer="0" from-port="0" to-layer="1273" to-port="1"/>
		<edge from-layer="1" from-port="0" to-layer="1273" to-port="2"/>
		<edge from-layer="2" from-port="0" to-layer="1273" to-port="3"/>
		<edge from-layer="3" from-port="0" to-layer="1273" to-port="4"/>
		<edge from-layer="1275" from-port="0" to-layer="1276" to-port="0"/>
		<edge from-layer="1276" from-port="1" to-layer="1277" to-port="0"/>
		<edge from-layer="1274" from-port="0" to-layer="1277" to-port="1"/>
		<edge from-layer="1273" from-port="5" to-layer="1278" to-port="0"/>
		<edge from-layer="1277" from-port="2" to-layer="1278" to-port="1"/>
		<edge from-layer="1279" from-port="0" to-layer="1280" to-port="0"/>
		<edge from-layer="1278" from-port="2" to-layer="1281" to-port="0"/>
		<edge from-layer="1280" from-port="1" to-layer="1281" to-port="1"/>
		<edge from-layer="1281" from-port="2" to-layer="1283" to-port="0"/>
		<edge from-layer="1282" from-port="0" to-layer="1283" to-port="1"/>
		<edge from-layer="1283" from-port="2" to-layer="1284" to-port="0"/>
	</edges>
	<rt_info>
		<MO_version value="custom_HEAD_0250f62d11102ae97a35803756f079090876ddc1"/>
		<Runtime_version value="2023.0.0-10367-0250f62d111-HEAD"/>
		<conversion_parameters>
			<caffe_parser_path value="DIR"/>
			<framework value="caffe"/>
			<input value="data"/>
			<input_model value="DIR/facial-landmarks-35-adas-0002.caffemodel"/>
			<input_proto value="DIR/facial-landmarks-35-adas-0002.prototxt"/>
			<input_shape value="[1,3,60,60]"/>
			<layout value="data(nchw)"/>
			<mean_values value="data[120.0,110.0,104.0]"/>
			<model_name value="facial-landmarks-35-adas-0002"/>
			<output value="align_fc3"/>
			<output_dir value="DIR"/>
			<scale_values value="data[255.0]"/>
		</conversion_parameters>
		<legacy_frontend value="True"/>
		<quantization_parameters>
			<cli_params>
				<ac_config value="None"/>
				<data_source value="None"/>
				<direct_dump value="True"/>
				<engine value="None"/>
				<evaluate value="False"/>
				<keep_uncompressed_weights value="False"/>
				<log_level value="INFO"/>
				<max_drop value="None"/>
				<model value="None"/>
				<name value="None"/>
				<output_dir value="PATH"/>
				<pbar value="False"/>
				<preset value="None"/>
				<quantize value="None"/>
				<stream_output value="False"/>
				<weights value="None"/>
			</cli_params>
			<config value="{
		'compression': {
			'algorithms': [
				{
					'name': 'DefaultQuantization',
					'params': {
						'num_samples_for_tuning': 2000,
						'preset': 'performance',
						'stat_subset_size': 300,
						'use_fast_bias': false,
						'use_layerwise_tuning': false
					}
				}
			],
			'dump_intermediate_model': true,
			'target_device': 'ANY'
		},
		'engine': {
			'models': [
				{
					'name': 'facial-landmarks-35-adas-0002',
					'launchers': [
						{
							'framework': 'openvino',
							'adapter': 'landmarks_regression',
							'device': 'cpu'
						}
					],
					'datasets': [
						{
							'name': 'facial_landmarks_35',
							'data_source': 'PATH',
							'annotation_conversion': {
								'converter': 'facial_landmarks_35',
								'data_dir': 'PATH'
							},
							'annotation': 'PATH',
							'metrics': [
								{
									'type': 'normed_error',
									'calculate_std': true,
									'percentile': 90,
									'presenter': 'print_vector',
									'reference': {
										'90th percentile': 0.143,
										'mean': 0.106,
										'std': 0.038
									}
								}
							],
							'_command_line_mapping': {
								'data_dir': 'PATH'
							}
						}
					]
				}
			],
			'stat_requests_number': null,
			'eval_requests_number': null,
			'type': 'accuracy_checker'
		}
	}"/>
			<version value="invalid version"/>
		</quantization_parameters>
	</rt_info>
	<quantization_parameters>
		<config>{
		'compression': {
			'algorithms': [
				{
					'name': 'DefaultQuantization',
					'params': {
						'num_samples_for_tuning': 2000,
						'preset': 'performance',
						'stat_subset_size': 300,
						'use_fast_bias': false,
						'use_layerwise_tuning': false
					}
				}
			],
			'dump_intermediate_model': true,
			'target_device': 'ANY'
		},
		'engine': {
			'models': [
				{
					'name': 'facial-landmarks-35-adas-0002',
					'launchers': [
						{
							'framework': 'openvino',
							'adapter': 'landmarks_regression',
							'device': 'cpu'
						}
					],
					'datasets': [
						{
							'name': 'facial_landmarks_35',
							'data_source': 'PATH',
							'annotation_conversion': {
								'converter': 'facial_landmarks_35',
								'data_dir': 'PATH'
							},
							'annotation': 'PATH',
							'metrics': [
								{
									'type': 'normed_error',
									'calculate_std': true,
									'percentile': 90,
									'presenter': 'print_vector',
									'reference': {
										'90th percentile': 0.143,
										'mean': 0.106,
										'std': 0.038
									}
								}
							],
							'_command_line_mapping': {
								'data_dir': 'PATH'
							}
						}
					]
				}
			],
			'stat_requests_number': null,
			'eval_requests_number': null,
			'type': 'accuracy_checker'
		}
	}</config>
		<version value="invalid version"/>
		<cli_params value="{'quantize': None, 'preset': None, 'model': None, 'weights': None, 'name': None, 'engine': None, 'ac_config': None, 'max_drop': None, 'evaluate': False, 'output_dir': 'PATH', 'direct_dump': True, 'log_level': 'INFO', 'pbar': False, 'stream_output': False, 'keep_uncompressed_weights': False, 'data_source': None}"/>
	</quantization_parameters>
</net>
