<?xml version="1.0" ?>
<net name="torch-jit-export" version="11">
	<layers>
		<layer id="540" name="input.1" type="Parameter" version="opset1">
			<data shape="1,3,64,64" element_type="f32"/>
			<rt_info>
				<attribute name="old_api_map_element_type" version="0" value="f16"/>
			</rt_info>
			<output>
				<port id="0" precision="FP32" names="input.1">
					<dim>1</dim>
					<dim>3</dim>
					<dim>64</dim>
					<dim>64</dim>
					<rt_info>
						<attribute name="layout" version="0" layout="[N,C,H,W]"/>
					</rt_info>
				</port>
			</output>
		</layer>
		<layer id="0" name="128911289576658" type="Const" version="opset1">
			<data offset="0" size="4" shape="" element_type="f32"/>
			<output>
				<port id="0" precision="FP32"/>
			</output>
		</layer>
		<layer id="1" name="128921289679544" type="Const" version="opset1">
			<data offset="4" size="4" shape="" element_type="f32"/>
			<output>
				<port id="0" precision="FP32"/>
			</output>
		</layer>
		<layer id="2" name="128931289785559" type="Const" version="opset1">
			<data offset="0" size="4" shape="" element_type="f32"/>
			<output>
				<port id="0" precision="FP32"/>
			</output>
		</layer>
		<layer id="3" name="128941289879625" type="Const" version="opset1">
			<data offset="4" size="4" shape="" element_type="f32"/>
			<output>
				<port id="0" precision="FP32"/>
			</output>
		</layer>
		<layer id="4" name="255332553779337" type="Const" version="opset1">
			<data offset="0" size="4" shape="" element_type="f32"/>
			<output>
				<port id="0" precision="FP32"/>
			</output>
		</layer>
		<layer id="5" name="255342553880474" type="Const" version="opset1">
			<data offset="8" size="4" shape="" element_type="f32"/>
			<output>
				<port id="0" precision="FP32"/>
			</output>
		</layer>
		<layer id="6" name="255352553982748" type="Const" version="opset1">
			<data offset="0" size="4" shape="" element_type="f32"/>
			<output>
				<port id="0" precision="FP32"/>
			</output>
		</layer>
		<layer id="7" name="255362554083192" type="Const" version="opset1">
			<data offset="8" size="4" shape="" element_type="f32"/>
			<output>
				<port id="0" precision="FP32"/>
			</output>
		</layer>
		<layer id="8" name="153911539579148" type="Const" version="opset1">
			<data offset="12" size="4" shape="" element_type="f32"/>
			<output>
				<port id="0" precision="FP32"/>
			</output>
		</layer>
		<layer id="9" name="153921539680783" type="Const" version="opset1">
			<data offset="16" size="4" shape="" element_type="f32"/>
			<output>
				<port id="0" precision="FP32"/>
			</output>
		</layer>
		<layer id="10" name="153931539782082" type="Const" version="opset1">
			<data offset="12" size="4" shape="" element_type="f32"/>
			<output>
				<port id="0" precision="FP32"/>
			</output>
		</layer>
		<layer id="11" name="153941539877594" type="Const" version="opset1">
			<data offset="16" size="4" shape="" element_type="f32"/>
			<output>
				<port id="0" precision="FP32"/>
			</output>
		</layer>
		<layer id="12" name="128111281576013" type="Const" version="opset1">
			<data offset="20" size="4" shape="" element_type="f32"/>
			<output>
				<port id="0" precision="FP32"/>
			</output>
		</layer>
		<layer id="13" name="128121281685346" type="Const" version="opset1">
			<data offset="24" size="4" shape="" element_type="f32"/>
			<output>
				<port id="0" precision="FP32"/>
			</output>
		</layer>
		<layer id="14" name="128131281776523" type="Const" version="opset1">
			<data offset="20" size="4" shape="" element_type="f32"/>
			<output>
				<port id="0" precision="FP32"/>
			</output>
		</layer>
		<layer id="15" name="128141281882505" type="Const" version="opset1">
			<data offset="24" size="4" shape="" element_type="f32"/>
			<output>
				<port id="0" precision="FP32"/>
			</output>
		</layer>
		<layer id="16" name="190711907580672" type="Const" version="opset1">
			<data offset="0" size="4" shape="" element_type="f32"/>
			<output>
				<port id="0" precision="FP32"/>
			</output>
		</layer>
		<layer id="17" name="190721907681986" type="Const" version="opset1">
			<data offset="28" size="4" shape="" element_type="f32"/>
			<output>
				<port id="0" precision="FP32"/>
			</output>
		</layer>
		<layer id="18" name="190731907785724" type="Const" version="opset1">
			<data offset="0" size="4" shape="" element_type="f32"/>
			<output>
				<port id="0" precision="FP32"/>
			</output>
		</layer>
		<layer id="19" name="190741907879478" type="Const" version="opset1">
			<data offset="28" size="4" shape="" element_type="f32"/>
			<output>
				<port id="0" precision="FP32"/>
			</output>
		</layer>
		<layer id="20" name="189211892579208" type="Const" version="opset1">
			<data offset="32" size="4" shape="" element_type="f32"/>
			<output>
				<port id="0" precision="FP32"/>
			</output>
		</layer>
		<layer id="21" name="189221892682835" type="Const" version="opset1">
			<data offset="36" size="4" shape="" element_type="f32"/>
			<output>
				<port id="0" precision="FP32"/>
			</output>
		</layer>
		<layer id="22" name="189231892777465" type="Const" version="opset1">
			<data offset="32" size="4" shape="" element_type="f32"/>
			<output>
				<port id="0" precision="FP32"/>
			</output>
		</layer>
		<layer id="23" name="189241892877966" type="Const" version="opset1">
			<data offset="36" size="4" shape="" element_type="f32"/>
			<output>
				<port id="0" precision="FP32"/>
			</output>
		</layer>
		<layer id="24" name="174711747585712" type="Const" version="opset1">
			<data offset="0" size="4" shape="" element_type="f32"/>
			<output>
				<port id="0" precision="FP32"/>
			</output>
		</layer>
		<layer id="25" name="174721747681311" type="Const" version="opset1">
			<data offset="40" size="4" shape="" element_type="f32"/>
			<output>
				<port id="0" precision="FP32"/>
			</output>
		</layer>
		<layer id="26" name="174731747780405" type="Const" version="opset1">
			<data offset="0" size="4" shape="" element_type="f32"/>
			<output>
				<port id="0" precision="FP32"/>
			</output>
		</layer>
		<layer id="27" name="174741747885562" type="Const" version="opset1">
			<data offset="40" size="4" shape="" element_type="f32"/>
			<output>
				<port id="0" precision="FP32"/>
			</output>
		</layer>
		<layer id="28" name="189311893582355" type="Const" version="opset1">
			<data offset="0" size="4" shape="" element_type="f32"/>
			<output>
				<port id="0" precision="FP32"/>
			</output>
		</layer>
		<layer id="29" name="189321893676814" type="Const" version="opset1">
			<data offset="44" size="4" shape="" element_type="f32"/>
			<output>
				<port id="0" precision="FP32"/>
			</output>
		</layer>
		<layer id="30" name="189331893783504" type="Const" version="opset1">
			<data offset="0" size="4" shape="" element_type="f32"/>
			<output>
				<port id="0" precision="FP32"/>
			</output>
		</layer>
		<layer id="31" name="189341893879415" type="Const" version="opset1">
			<data offset="44" size="4" shape="" element_type="f32"/>
			<output>
				<port id="0" precision="FP32"/>
			</output>
		</layer>
		<layer id="32" name="166611666584053" type="Const" version="opset1">
			<data offset="48" size="4" shape="" element_type="f32"/>
			<output>
				<port id="0" precision="FP32"/>
			</output>
		</layer>
		<layer id="33" name="166621666684227" type="Const" version="opset1">
			<data offset="52" size="4" shape="" element_type="f32"/>
			<output>
				<port id="0" precision="FP32"/>
			</output>
		</layer>
		<layer id="34" name="166631666780660" type="Const" version="opset1">
			<data offset="48" size="4" shape="" element_type="f32"/>
			<output>
				<port id="0" precision="FP32"/>
			</output>
		</layer>
		<layer id="35" name="166641666881896" type="Const" version="opset1">
			<data offset="52" size="4" shape="" element_type="f32"/>
			<output>
				<port id="0" precision="FP32"/>
			</output>
		</layer>
		<layer id="36" name="150711507579433" type="Const" version="opset1">
			<data offset="0" size="4" shape="" element_type="f32"/>
			<output>
				<port id="0" precision="FP32"/>
			</output>
		</layer>
		<layer id="37" name="150721507680609" type="Const" version="opset1">
			<data offset="56" size="4" shape="" element_type="f32"/>
			<output>
				<port id="0" precision="FP32"/>
			</output>
		</layer>
		<layer id="38" name="150731507780984" type="Const" version="opset1">
			<data offset="0" size="4" shape="" element_type="f32"/>
			<output>
				<port id="0" precision="FP32"/>
			</output>
		</layer>
		<layer id="39" name="150741507880522" type="Const" version="opset1">
			<data offset="56" size="4" shape="" element_type="f32"/>
			<output>
				<port id="0" precision="FP32"/>
			</output>
		</layer>
		<layer id="40" name="166711667583201" type="Const" version="opset1">
			<data offset="0" size="4" shape="" element_type="f32"/>
			<output>
				<port id="0" precision="FP32"/>
			</output>
		</layer>
		<layer id="41" name="166721667679772" type="Const" version="opset1">
			<data offset="60" size="4" shape="" element_type="f32"/>
			<output>
				<port id="0" precision="FP32"/>
			</output>
		</layer>
		<layer id="42" name="166731667785520" type="Const" version="opset1">
			<data offset="0" size="4" shape="" element_type="f32"/>
			<output>
				<port id="0" precision="FP32"/>
			</output>
		</layer>
		<layer id="43" name="166741667883675" type="Const" version="opset1">
			<data offset="60" size="4" shape="" element_type="f32"/>
			<output>
				<port id="0" precision="FP32"/>
			</output>
		</layer>
		<layer id="44" name="159411594576406" type="Const" version="opset1">
			<data offset="64" size="4" shape="" element_type="f32"/>
			<output>
				<port id="0" precision="FP32"/>
			</output>
		</layer>
		<layer id="45" name="159421594685295" type="Const" version="opset1">
			<data offset="68" size="4" shape="" element_type="f32"/>
			<output>
				<port id="0" precision="FP32"/>
			</output>
		</layer>
		<layer id="46" name="159431594777834" type="Const" version="opset1">
			<data offset="64" size="4" shape="" element_type="f32"/>
			<output>
				<port id="0" precision="FP32"/>
			</output>
		</layer>
		<layer id="47" name="159441594879928" type="Const" version="opset1">
			<data offset="68" size="4" shape="" element_type="f32"/>
			<output>
				<port id="0" precision="FP32"/>
			</output>
		</layer>
		<layer id="48" name="143111431577444" type="Const" version="opset1">
			<data offset="0" size="4" shape="" element_type="f32"/>
			<output>
				<port id="0" precision="FP32"/>
			</output>
		</layer>
		<layer id="49" name="143121431682526" type="Const" version="opset1">
			<data offset="72" size="4" shape="" element_type="f32"/>
			<output>
				<port id="0" precision="FP32"/>
			</output>
		</layer>
		<layer id="50" name="143131431785157" type="Const" version="opset1">
			<data offset="0" size="4" shape="" element_type="f32"/>
			<output>
				<port id="0" precision="FP32"/>
			</output>
		</layer>
		<layer id="51" name="143141431876529" type="Const" version="opset1">
			<data offset="72" size="4" shape="" element_type="f32"/>
			<output>
				<port id="0" precision="FP32"/>
			</output>
		</layer>
		<layer id="52" name="159511595577606" type="Const" version="opset1">
			<data offset="0" size="4" shape="" element_type="f32"/>
			<output>
				<port id="0" precision="FP32"/>
			</output>
		</layer>
		<layer id="53" name="159521595684005" type="Const" version="opset1">
			<data offset="76" size="4" shape="" element_type="f32"/>
			<output>
				<port id="0" precision="FP32"/>
			</output>
		</layer>
		<layer id="54" name="159531595778848" type="Const" version="opset1">
			<data offset="0" size="4" shape="" element_type="f32"/>
			<output>
				<port id="0" precision="FP32"/>
			</output>
		</layer>
		<layer id="55" name="159541595883561" type="Const" version="opset1">
			<data offset="76" size="4" shape="" element_type="f32"/>
			<output>
				<port id="0" precision="FP32"/>
			</output>
		</layer>
		<layer id="56" name="189011890582484" type="Const" version="opset1">
			<data offset="80" size="4" shape="" element_type="f32"/>
			<output>
				<port id="0" precision="FP32"/>
			</output>
		</layer>
		<layer id="57" name="189021890682361" type="Const" version="opset1">
			<data offset="84" size="4" shape="" element_type="f32"/>
			<output>
				<port id="0" precision="FP32"/>
			</output>
		</layer>
		<layer id="58" name="189031890778005" type="Const" version="opset1">
			<data offset="80" size="4" shape="" element_type="f32"/>
			<output>
				<port id="0" precision="FP32"/>
			</output>
		</layer>
		<layer id="59" name="189041890881218" type="Const" version="opset1">
			<data offset="84" size="4" shape="" element_type="f32"/>
			<output>
				<port id="0" precision="FP32"/>
			</output>
		</layer>
		<layer id="60" name="141911419580525" type="Const" version="opset1">
			<data offset="0" size="4" shape="" element_type="f32"/>
			<output>
				<port id="0" precision="FP32"/>
			</output>
		</layer>
		<layer id="61" name="141921419680780" type="Const" version="opset1">
			<data offset="88" size="4" shape="" element_type="f32"/>
			<output>
				<port id="0" precision="FP32"/>
			</output>
		</layer>
		<layer id="62" name="141931419776037" type="Const" version="opset1">
			<data offset="0" size="4" shape="" element_type="f32"/>
			<output>
				<port id="0" precision="FP32"/>
			</output>
		</layer>
		<layer id="63" name="141941419883468" type="Const" version="opset1">
			<data offset="88" size="4" shape="" element_type="f32"/>
			<output>
				<port id="0" precision="FP32"/>
			</output>
		</layer>
		<layer id="64" name="189111891584503" type="Const" version="opset1">
			<data offset="0" size="4" shape="" element_type="f32"/>
			<output>
				<port id="0" precision="FP32"/>
			</output>
		</layer>
		<layer id="65" name="189121891681449" type="Const" version="opset1">
			<data offset="92" size="4" shape="" element_type="f32"/>
			<output>
				<port id="0" precision="FP32"/>
			</output>
		</layer>
		<layer id="66" name="189131891781227" type="Const" version="opset1">
			<data offset="0" size="4" shape="" element_type="f32"/>
			<output>
				<port id="0" precision="FP32"/>
			</output>
		</layer>
		<layer id="67" name="189141891882316" type="Const" version="opset1">
			<data offset="92" size="4" shape="" element_type="f32"/>
			<output>
				<port id="0" precision="FP32"/>
			</output>
		</layer>
		<layer id="68" name="154811548577447" type="Const" version="opset1">
			<data offset="96" size="4" shape="" element_type="f32"/>
			<output>
				<port id="0" precision="FP32"/>
			</output>
		</layer>
		<layer id="69" name="154821548680360" type="Const" version="opset1">
			<data offset="100" size="4" shape="" element_type="f32"/>
			<output>
				<port id="0" precision="FP32"/>
			</output>
		</layer>
		<layer id="70" name="154831548781092" type="Const" version="opset1">
			<data offset="96" size="4" shape="" element_type="f32"/>
			<output>
				<port id="0" precision="FP32"/>
			</output>
		</layer>
		<layer id="71" name="154841548878074" type="Const" version="opset1">
			<data offset="100" size="4" shape="" element_type="f32"/>
			<output>
				<port id="0" precision="FP32"/>
			</output>
		</layer>
		<layer id="72" name="122911229579538" type="Const" version="opset1">
			<data offset="104" size="4" shape="" element_type="f32"/>
			<output>
				<port id="0" precision="FP32"/>
			</output>
		</layer>
		<layer id="73" name="122921229676610" type="Const" version="opset1">
			<data offset="108" size="4" shape="" element_type="f32"/>
			<output>
				<port id="0" precision="FP32"/>
			</output>
		</layer>
		<layer id="74" name="122931229778080" type="Const" version="opset1">
			<data offset="104" size="4" shape="" element_type="f32"/>
			<output>
				<port id="0" precision="FP32"/>
			</output>
		</layer>
		<layer id="75" name="122941229883075" type="Const" version="opset1">
			<data offset="108" size="4" shape="" element_type="f32"/>
			<output>
				<port id="0" precision="FP32"/>
			</output>
		</layer>
		<layer id="76" name="180711807580795" type="Const" version="opset1">
			<data offset="0" size="4" shape="" element_type="f32"/>
			<output>
				<port id="0" precision="FP32"/>
			</output>
		</layer>
		<layer id="77" name="180721807685463" type="Const" version="opset1">
			<data offset="112" size="4" shape="" element_type="f32"/>
			<output>
				<port id="0" precision="FP32"/>
			</output>
		</layer>
		<layer id="78" name="180731807785109" type="Const" version="opset1">
			<data offset="0" size="4" shape="" element_type="f32"/>
			<output>
				<port id="0" precision="FP32"/>
			</output>
		</layer>
		<layer id="79" name="180741807883054" type="Const" version="opset1">
			<data offset="112" size="4" shape="" element_type="f32"/>
			<output>
				<port id="0" precision="FP32"/>
			</output>
		</layer>
		<layer id="80" name="131611316581992" type="Const" version="opset1">
			<data offset="116" size="4" shape="" element_type="f32"/>
			<output>
				<port id="0" precision="FP32"/>
			</output>
		</layer>
		<layer id="81" name="131621316678155" type="Const" version="opset1">
			<data offset="120" size="4" shape="" element_type="f32"/>
			<output>
				<port id="0" precision="FP32"/>
			</output>
		</layer>
		<layer id="82" name="131631316777528" type="Const" version="opset1">
			<data offset="116" size="4" shape="" element_type="f32"/>
			<output>
				<port id="0" precision="FP32"/>
			</output>
		</layer>
		<layer id="83" name="131641316881695" type="Const" version="opset1">
			<data offset="120" size="4" shape="" element_type="f32"/>
			<output>
				<port id="0" precision="FP32"/>
			</output>
		</layer>
		<layer id="84" name="185311853583774" type="Const" version="opset1">
			<data offset="0" size="4" shape="" element_type="f32"/>
			<output>
				<port id="0" precision="FP32"/>
			</output>
		</layer>
		<layer id="85" name="185321853679577" type="Const" version="opset1">
			<data offset="124" size="4" shape="" element_type="f32"/>
			<output>
				<port id="0" precision="FP32"/>
			</output>
		</layer>
		<layer id="86" name="185331853782010" type="Const" version="opset1">
			<data offset="0" size="4" shape="" element_type="f32"/>
			<output>
				<port id="0" precision="FP32"/>
			</output>
		</layer>
		<layer id="87" name="185341853882727" type="Const" version="opset1">
			<data offset="124" size="4" shape="" element_type="f32"/>
			<output>
				<port id="0" precision="FP32"/>
			</output>
		</layer>
		<layer id="88" name="131711317578623" type="Const" version="opset1">
			<data offset="0" size="4" shape="" element_type="f32"/>
			<output>
				<port id="0" precision="FP32"/>
			</output>
		</layer>
		<layer id="89" name="131721317678803" type="Const" version="opset1">
			<data offset="128" size="4" shape="" element_type="f32"/>
			<output>
				<port id="0" precision="FP32"/>
			</output>
		</layer>
		<layer id="90" name="131731317780903" type="Const" version="opset1">
			<data offset="0" size="4" shape="" element_type="f32"/>
			<output>
				<port id="0" precision="FP32"/>
			</output>
		</layer>
		<layer id="91" name="131741317879682" type="Const" version="opset1">
			<data offset="128" size="4" shape="" element_type="f32"/>
			<output>
				<port id="0" precision="FP32"/>
			</output>
		</layer>
		<layer id="92" name="112711127577831" type="Const" version="opset1">
			<data offset="132" size="4" shape="" element_type="f32"/>
			<output>
				<port id="0" precision="FP32"/>
			</output>
		</layer>
		<layer id="93" name="112721127683933" type="Const" version="opset1">
			<data offset="136" size="4" shape="" element_type="f32"/>
			<output>
				<port id="0" precision="FP32"/>
			</output>
		</layer>
		<layer id="94" name="112731127779454" type="Const" version="opset1">
			<data offset="132" size="4" shape="" element_type="f32"/>
			<output>
				<port id="0" precision="FP32"/>
			</output>
		</layer>
		<layer id="95" name="112741127883264" type="Const" version="opset1">
			<data offset="136" size="4" shape="" element_type="f32"/>
			<output>
				<port id="0" precision="FP32"/>
			</output>
		</layer>
		<layer id="96" name="136211362577396" type="Const" version="opset1">
			<data offset="0" size="4" shape="" element_type="f32"/>
			<output>
				<port id="0" precision="FP32"/>
			</output>
		</layer>
		<layer id="97" name="136221362677927" type="Const" version="opset1">
			<data offset="140" size="4" shape="" element_type="f32"/>
			<output>
				<port id="0" precision="FP32"/>
			</output>
		</layer>
		<layer id="98" name="136231362776556" type="Const" version="opset1">
			<data offset="0" size="4" shape="" element_type="f32"/>
			<output>
				<port id="0" precision="FP32"/>
			</output>
		</layer>
		<layer id="99" name="136241362884326" type="Const" version="opset1">
			<data offset="140" size="4" shape="" element_type="f32"/>
			<output>
				<port id="0" precision="FP32"/>
			</output>
		</layer>
		<layer id="100" name="112811128585451" type="Const" version="opset1">
			<data offset="0" size="4" shape="" element_type="f32"/>
			<output>
				<port id="0" precision="FP32"/>
			</output>
		</layer>
		<layer id="101" name="112821128680300" type="Const" version="opset1">
			<data offset="144" size="4" shape="" element_type="f32"/>
			<output>
				<port id="0" precision="FP32"/>
			</output>
		</layer>
		<layer id="102" name="112831128781881" type="Const" version="opset1">
			<data offset="0" size="4" shape="" element_type="f32"/>
			<output>
				<port id="0" precision="FP32"/>
			</output>
		</layer>
		<layer id="103" name="112841128879559" type="Const" version="opset1">
			<data offset="144" size="4" shape="" element_type="f32"/>
			<output>
				<port id="0" precision="FP32"/>
			</output>
		</layer>
		<layer id="104" name="204312043578743" type="Const" version="opset1">
			<data offset="148" size="4" shape="" element_type="f32"/>
			<output>
				<port id="0" precision="FP32"/>
			</output>
		</layer>
		<layer id="105" name="204322043675758" type="Const" version="opset1">
			<data offset="152" size="4" shape="" element_type="f32"/>
			<output>
				<port id="0" precision="FP32"/>
			</output>
		</layer>
		<layer id="106" name="204332043781848" type="Const" version="opset1">
			<data offset="148" size="4" shape="" element_type="f32"/>
			<output>
				<port id="0" precision="FP32"/>
			</output>
		</layer>
		<layer id="107" name="204342043882667" type="Const" version="opset1">
			<data offset="152" size="4" shape="" element_type="f32"/>
			<output>
				<port id="0" precision="FP32"/>
			</output>
		</layer>
		<layer id="108" name="142911429584446" type="Const" version="opset1">
			<data offset="0" size="4" shape="" element_type="f32"/>
			<output>
				<port id="0" precision="FP32"/>
			</output>
		</layer>
		<layer id="109" name="142921429683051" type="Const" version="opset1">
			<data offset="156" size="4" shape="" element_type="f32"/>
			<output>
				<port id="0" precision="FP32"/>
			</output>
		</layer>
		<layer id="110" name="142931429776625" type="Const" version="opset1">
			<data offset="0" size="4" shape="" element_type="f32"/>
			<output>
				<port id="0" precision="FP32"/>
			</output>
		</layer>
		<layer id="111" name="142941429877300" type="Const" version="opset1">
			<data offset="156" size="4" shape="" element_type="f32"/>
			<output>
				<port id="0" precision="FP32"/>
			</output>
		</layer>
		<layer id="112" name="204412044584608" type="Const" version="opset1">
			<data offset="0" size="4" shape="" element_type="f32"/>
			<output>
				<port id="0" precision="FP32"/>
			</output>
		</layer>
		<layer id="113" name="204422044677441" type="Const" version="opset1">
			<data offset="160" size="4" shape="" element_type="f32"/>
			<output>
				<port id="0" precision="FP32"/>
			</output>
		</layer>
		<layer id="114" name="204432044779325" type="Const" version="opset1">
			<data offset="0" size="4" shape="" element_type="f32"/>
			<output>
				<port id="0" precision="FP32"/>
			</output>
		</layer>
		<layer id="115" name="204442044878839" type="Const" version="opset1">
			<data offset="160" size="4" shape="" element_type="f32"/>
			<output>
				<port id="0" precision="FP32"/>
			</output>
		</layer>
		<layer id="116" name="192211922577540" type="Const" version="opset1">
			<data offset="164" size="4" shape="" element_type="f32"/>
			<output>
				<port id="0" precision="FP32"/>
			</output>
		</layer>
		<layer id="117" name="192221922685313" type="Const" version="opset1">
			<data offset="168" size="4" shape="" element_type="f32"/>
			<output>
				<port id="0" precision="FP32"/>
			</output>
		</layer>
		<layer id="118" name="192231922777249" type="Const" version="opset1">
			<data offset="164" size="4" shape="" element_type="f32"/>
			<output>
				<port id="0" precision="FP32"/>
			</output>
		</layer>
		<layer id="119" name="192241922878113" type="Const" version="opset1">
			<data offset="168" size="4" shape="" element_type="f32"/>
			<output>
				<port id="0" precision="FP32"/>
			</output>
		</layer>
		<layer id="120" name="187011870578500" type="Const" version="opset1">
			<data offset="0" size="4" shape="" element_type="f32"/>
			<output>
				<port id="0" precision="FP32"/>
			</output>
		</layer>
		<layer id="121" name="187021870679145" type="Const" version="opset1">
			<data offset="172" size="4" shape="" element_type="f32"/>
			<output>
				<port id="0" precision="FP32"/>
			</output>
		</layer>
		<layer id="122" name="187031870782829" type="Const" version="opset1">
			<data offset="0" size="4" shape="" element_type="f32"/>
			<output>
				<port id="0" precision="FP32"/>
			</output>
		</layer>
		<layer id="123" name="187041870883660" type="Const" version="opset1">
			<data offset="172" size="4" shape="" element_type="f32"/>
			<output>
				<port id="0" precision="FP32"/>
			</output>
		</layer>
		<layer id="124" name="192311923576220" type="Const" version="opset1">
			<data offset="0" size="4" shape="" element_type="f32"/>
			<output>
				<port id="0" precision="FP32"/>
			</output>
		</layer>
		<layer id="125" name="192321923676328" type="Const" version="opset1">
			<data offset="176" size="4" shape="" element_type="f32"/>
			<output>
				<port id="0" precision="FP32"/>
			</output>
		</layer>
		<layer id="126" name="192331923785349" type="Const" version="opset1">
			<data offset="0" size="4" shape="" element_type="f32"/>
			<output>
				<port id="0" precision="FP32"/>
			</output>
		</layer>
		<layer id="127" name="192341923884656" type="Const" version="opset1">
			<data offset="176" size="4" shape="" element_type="f32"/>
			<output>
				<port id="0" precision="FP32"/>
			</output>
		</layer>
		<layer id="128" name="185111851577600" type="Const" version="opset1">
			<data offset="180" size="4" shape="" element_type="f32"/>
			<output>
				<port id="0" precision="FP32"/>
			</output>
		</layer>
		<layer id="129" name="185121851680819" type="Const" version="opset1">
			<data offset="184" size="4" shape="" element_type="f32"/>
			<output>
				<port id="0" precision="FP32"/>
			</output>
		</layer>
		<layer id="130" name="185131851776781" type="Const" version="opset1">
			<data offset="180" size="4" shape="" element_type="f32"/>
			<output>
				<port id="0" precision="FP32"/>
			</output>
		</layer>
		<layer id="131" name="185141851882676" type="Const" version="opset1">
			<data offset="184" size="4" shape="" element_type="f32"/>
			<output>
				<port id="0" precision="FP32"/>
			</output>
		</layer>
		<layer id="132" name="134811348578149" type="Const" version="opset1">
			<data offset="188" size="4" shape="" element_type="f32"/>
			<output>
				<port id="0" precision="FP32"/>
			</output>
		</layer>
		<layer id="133" name="134821348682799" type="Const" version="opset1">
			<data offset="192" size="4" shape="" element_type="f32"/>
			<output>
				<port id="0" precision="FP32"/>
			</output>
		</layer>
		<layer id="134" name="134831348780705" type="Const" version="opset1">
			<data offset="188" size="4" shape="" element_type="f32"/>
			<output>
				<port id="0" precision="FP32"/>
			</output>
		</layer>
		<layer id="135" name="134841348884170" type="Const" version="opset1">
			<data offset="192" size="4" shape="" element_type="f32"/>
			<output>
				<port id="0" precision="FP32"/>
			</output>
		</layer>
		<layer id="136" name="167611676585250" type="Const" version="opset1">
			<data offset="0" size="4" shape="" element_type="f32"/>
			<output>
				<port id="0" precision="FP32"/>
			</output>
		</layer>
		<layer id="137" name="167621676675854" type="Const" version="opset1">
			<data offset="196" size="4" shape="" element_type="f32"/>
			<output>
				<port id="0" precision="FP32"/>
			</output>
		</layer>
		<layer id="138" name="167631676785385" type="Const" version="opset1">
			<data offset="0" size="4" shape="" element_type="f32"/>
			<output>
				<port id="0" precision="FP32"/>
			</output>
		</layer>
		<layer id="139" name="167641676876766" type="Const" version="opset1">
			<data offset="196" size="4" shape="" element_type="f32"/>
			<output>
				<port id="0" precision="FP32"/>
			</output>
		</layer>
		<layer id="140" name="107811078578701" type="Const" version="opset1">
			<data offset="200" size="4" shape="" element_type="f32"/>
			<output>
				<port id="0" precision="FP32"/>
			</output>
		</layer>
		<layer id="141" name="107821078675962" type="Const" version="opset1">
			<data offset="204" size="4" shape="" element_type="f32"/>
			<output>
				<port id="0" precision="FP32"/>
			</output>
		</layer>
		<layer id="142" name="107831078779715" type="Const" version="opset1">
			<data offset="200" size="4" shape="" element_type="f32"/>
			<output>
				<port id="0" precision="FP32"/>
			</output>
		</layer>
		<layer id="143" name="107841078885190" type="Const" version="opset1">
			<data offset="204" size="4" shape="" element_type="f32"/>
			<output>
				<port id="0" precision="FP32"/>
			</output>
		</layer>
		<layer id="144" name="118111181577210" type="Const" version="opset1">
			<data offset="0" size="4" shape="" element_type="f32"/>
			<output>
				<port id="0" precision="FP32"/>
			</output>
		</layer>
		<layer id="145" name="118121181678668" type="Const" version="opset1">
			<data offset="208" size="4" shape="" element_type="f32"/>
			<output>
				<port id="0" precision="FP32"/>
			</output>
		</layer>
		<layer id="146" name="118131181781320" type="Const" version="opset1">
			<data offset="0" size="4" shape="" element_type="f32"/>
			<output>
				<port id="0" precision="FP32"/>
			</output>
		</layer>
		<layer id="147" name="118141181878956" type="Const" version="opset1">
			<data offset="208" size="4" shape="" element_type="f32"/>
			<output>
				<port id="0" precision="FP32"/>
			</output>
		</layer>
		<layer id="148" name="107911079582709" type="Const" version="opset1">
			<data offset="0" size="4" shape="" element_type="f32"/>
			<output>
				<port id="0" precision="FP32"/>
			</output>
		</layer>
		<layer id="149" name="107921079678782" type="Const" version="opset1">
			<data offset="212" size="4" shape="" element_type="f32"/>
			<output>
				<port id="0" precision="FP32"/>
			</output>
		</layer>
		<layer id="150" name="107931079785634" type="Const" version="opset1">
			<data offset="0" size="4" shape="" element_type="f32"/>
			<output>
				<port id="0" precision="FP32"/>
			</output>
		</layer>
		<layer id="151" name="107941079877609" type="Const" version="opset1">
			<data offset="212" size="4" shape="" element_type="f32"/>
			<output>
				<port id="0" precision="FP32"/>
			</output>
		</layer>
		<layer id="152" name="120911209577909" type="Const" version="opset1">
			<data offset="216" size="4" shape="" element_type="f32"/>
			<output>
				<port id="0" precision="FP32"/>
			</output>
		</layer>
		<layer id="153" name="120921209681173" type="Const" version="opset1">
			<data offset="220" size="4" shape="" element_type="f32"/>
			<output>
				<port id="0" precision="FP32"/>
			</output>
		</layer>
		<layer id="154" name="120931209784197" type="Const" version="opset1">
			<data offset="216" size="4" shape="" element_type="f32"/>
			<output>
				<port id="0" precision="FP32"/>
			</output>
		</layer>
		<layer id="155" name="120941209884230" type="Const" version="opset1">
			<data offset="220" size="4" shape="" element_type="f32"/>
			<output>
				<port id="0" precision="FP32"/>
			</output>
		</layer>
		<layer id="156" name="131811318585097" type="Const" version="opset1">
			<data offset="0" size="4" shape="" element_type="f32"/>
			<output>
				<port id="0" precision="FP32"/>
			</output>
		</layer>
		<layer id="157" name="131821318676907" type="Const" version="opset1">
			<data offset="224" size="4" shape="" element_type="f32"/>
			<output>
				<port id="0" precision="FP32"/>
			</output>
		</layer>
		<layer id="158" name="131831318779700" type="Const" version="opset1">
			<data offset="0" size="4" shape="" element_type="f32"/>
			<output>
				<port id="0" precision="FP32"/>
			</output>
		</layer>
		<layer id="159" name="131841318883720" type="Const" version="opset1">
			<data offset="224" size="4" shape="" element_type="f32"/>
			<output>
				<port id="0" precision="FP32"/>
			</output>
		</layer>
		<layer id="160" name="121011210581323" type="Const" version="opset1">
			<data offset="0" size="4" shape="" element_type="f32"/>
			<output>
				<port id="0" precision="FP32"/>
			</output>
		</layer>
		<layer id="161" name="121021210683552" type="Const" version="opset1">
			<data offset="228" size="4" shape="" element_type="f32"/>
			<output>
				<port id="0" precision="FP32"/>
			</output>
		</layer>
		<layer id="162" name="121031210783969" type="Const" version="opset1">
			<data offset="0" size="4" shape="" element_type="f32"/>
			<output>
				<port id="0" precision="FP32"/>
			</output>
		</layer>
		<layer id="163" name="121041210880174" type="Const" version="opset1">
			<data offset="228" size="4" shape="" element_type="f32"/>
			<output>
				<port id="0" precision="FP32"/>
			</output>
		</layer>
		<layer id="164" name="133511335578392" type="Const" version="opset1">
			<data offset="232" size="4" shape="" element_type="f32"/>
			<output>
				<port id="0" precision="FP32"/>
			</output>
		</layer>
		<layer id="165" name="133521335676571" type="Const" version="opset1">
			<data offset="236" size="4" shape="" element_type="f32"/>
			<output>
				<port id="0" precision="FP32"/>
			</output>
		</layer>
		<layer id="166" name="133531335777870" type="Const" version="opset1">
			<data offset="232" size="4" shape="" element_type="f32"/>
			<output>
				<port id="0" precision="FP32"/>
			</output>
		</layer>
		<layer id="167" name="133541335876199" type="Const" version="opset1">
			<data offset="236" size="4" shape="" element_type="f32"/>
			<output>
				<port id="0" precision="FP32"/>
			</output>
		</layer>
		<layer id="168" name="194811948577069" type="Const" version="opset1">
			<data offset="0" size="4" shape="" element_type="f32"/>
			<output>
				<port id="0" precision="FP32"/>
			</output>
		</layer>
		<layer id="169" name="194821948682976" type="Const" version="opset1">
			<data offset="240" size="4" shape="" element_type="f32"/>
			<output>
				<port id="0" precision="FP32"/>
			</output>
		</layer>
		<layer id="170" name="194831948783021" type="Const" version="opset1">
			<data offset="0" size="4" shape="" element_type="f32"/>
			<output>
				<port id="0" precision="FP32"/>
			</output>
		</layer>
		<layer id="171" name="194841948885514" type="Const" version="opset1">
			<data offset="240" size="4" shape="" element_type="f32"/>
			<output>
				<port id="0" precision="FP32"/>
			</output>
		</layer>
		<layer id="172" name="133611336576724" type="Const" version="opset1">
			<data offset="0" size="4" shape="" element_type="f32"/>
			<output>
				<port id="0" precision="FP32"/>
			</output>
		</layer>
		<layer id="173" name="133621336681260" type="Const" version="opset1">
			<data offset="244" size="4" shape="" element_type="f32"/>
			<output>
				<port id="0" precision="FP32"/>
			</output>
		</layer>
		<layer id="174" name="133631336780621" type="Const" version="opset1">
			<data offset="0" size="4" shape="" element_type="f32"/>
			<output>
				<port id="0" precision="FP32"/>
			</output>
		</layer>
		<layer id="175" name="133641336877762" type="Const" version="opset1">
			<data offset="244" size="4" shape="" element_type="f32"/>
			<output>
				<port id="0" precision="FP32"/>
			</output>
		</layer>
		<layer id="176" name="134611346583048" type="Const" version="opset1">
			<data offset="248" size="4" shape="" element_type="f32"/>
			<output>
				<port id="0" precision="FP32"/>
			</output>
		</layer>
		<layer id="177" name="134621346683339" type="Const" version="opset1">
			<data offset="252" size="4" shape="" element_type="f32"/>
			<output>
				<port id="0" precision="FP32"/>
			</output>
		</layer>
		<layer id="178" name="134631346777876" type="Const" version="opset1">
			<data offset="248" size="4" shape="" element_type="f32"/>
			<output>
				<port id="0" precision="FP32"/>
			</output>
		</layer>
		<layer id="179" name="134641346882097" type="Const" version="opset1">
			<data offset="252" size="4" shape="" element_type="f32"/>
			<output>
				<port id="0" precision="FP32"/>
			</output>
		</layer>
		<layer id="180" name="139711397585322" type="Const" version="opset1">
			<data offset="0" size="4" shape="" element_type="f32"/>
			<output>
				<port id="0" precision="FP32"/>
			</output>
		</layer>
		<layer id="181" name="139721397676550" type="Const" version="opset1">
			<data offset="256" size="4" shape="" element_type="f32"/>
			<output>
				<port id="0" precision="FP32"/>
			</output>
		</layer>
		<layer id="182" name="139731397776121" type="Const" version="opset1">
			<data offset="0" size="4" shape="" element_type="f32"/>
			<output>
				<port id="0" precision="FP32"/>
			</output>
		</layer>
		<layer id="183" name="139741397878962" type="Const" version="opset1">
			<data offset="256" size="4" shape="" element_type="f32"/>
			<output>
				<port id="0" precision="FP32"/>
			</output>
		</layer>
		<layer id="184" name="134711347577363" type="Const" version="opset1">
			<data offset="0" size="4" shape="" element_type="f32"/>
			<output>
				<port id="0" precision="FP32"/>
			</output>
		</layer>
		<layer id="185" name="134721347681734" type="Const" version="opset1">
			<data offset="260" size="4" shape="" element_type="f32"/>
			<output>
				<port id="0" precision="FP32"/>
			</output>
		</layer>
		<layer id="186" name="134731347779190" type="Const" version="opset1">
			<data offset="0" size="4" shape="" element_type="f32"/>
			<output>
				<port id="0" precision="FP32"/>
			</output>
		</layer>
		<layer id="187" name="134741347881125" type="Const" version="opset1">
			<data offset="260" size="4" shape="" element_type="f32"/>
			<output>
				<port id="0" precision="FP32"/>
			</output>
		</layer>
		<layer id="188" name="202712027580075" type="Const" version="opset1">
			<data offset="264" size="4" shape="" element_type="f32"/>
			<output>
				<port id="0" precision="FP32"/>
			</output>
		</layer>
		<layer id="189" name="202722027678236" type="Const" version="opset1">
			<data offset="268" size="4" shape="" element_type="f32"/>
			<output>
				<port id="0" precision="FP32"/>
			</output>
		</layer>
		<layer id="190" name="202732027782487" type="Const" version="opset1">
			<data offset="264" size="4" shape="" element_type="f32"/>
			<output>
				<port id="0" precision="FP32"/>
			</output>
		</layer>
		<layer id="191" name="202742027882781" type="Const" version="opset1">
			<data offset="268" size="4" shape="" element_type="f32"/>
			<output>
				<port id="0" precision="FP32"/>
			</output>
		</layer>
		<layer id="192" name="111411114579244" type="Const" version="opset1">
			<data offset="0" size="4" shape="" element_type="f32"/>
			<output>
				<port id="0" precision="FP32"/>
			</output>
		</layer>
		<layer id="193" name="111421114678329" type="Const" version="opset1">
			<data offset="272" size="4" shape="" element_type="f32"/>
			<output>
				<port id="0" precision="FP32"/>
			</output>
		</layer>
		<layer id="194" name="111431114776247" type="Const" version="opset1">
			<data offset="0" size="4" shape="" element_type="f32"/>
			<output>
				<port id="0" precision="FP32"/>
			</output>
		</layer>
		<layer id="195" name="111441114876526" type="Const" version="opset1">
			<data offset="272" size="4" shape="" element_type="f32"/>
			<output>
				<port id="0" precision="FP32"/>
			</output>
		</layer>
		<layer id="196" name="165211652578563" type="Const" version="opset1">
			<data offset="276" size="4" shape="" element_type="f32"/>
			<output>
				<port id="0" precision="FP32"/>
			</output>
		</layer>
		<layer id="197" name="165221652680813" type="Const" version="opset1">
			<data offset="280" size="4" shape="" element_type="f32"/>
			<output>
				<port id="0" precision="FP32"/>
			</output>
		</layer>
		<layer id="198" name="165231652777801" type="Const" version="opset1">
			<data offset="276" size="4" shape="" element_type="f32"/>
			<output>
				<port id="0" precision="FP32"/>
			</output>
		</layer>
		<layer id="199" name="165241652875980" type="Const" version="opset1">
			<data offset="280" size="4" shape="" element_type="f32"/>
			<output>
				<port id="0" precision="FP32"/>
			</output>
		</layer>
		<layer id="200" name="183411834581326" type="Const" version="opset1">
			<data offset="0" size="4" shape="" element_type="f32"/>
			<output>
				<port id="0" precision="FP32"/>
			</output>
		</layer>
		<layer id="201" name="183421834679241" type="Const" version="opset1">
			<data offset="284" size="4" shape="" element_type="f32"/>
			<output>
				<port id="0" precision="FP32"/>
			</output>
		</layer>
		<layer id="202" name="183431834776661" type="Const" version="opset1">
			<data offset="0" size="4" shape="" element_type="f32"/>
			<output>
				<port id="0" precision="FP32"/>
			</output>
		</layer>
		<layer id="203" name="183441834884755" type="Const" version="opset1">
			<data offset="284" size="4" shape="" element_type="f32"/>
			<output>
				<port id="0" precision="FP32"/>
			</output>
		</layer>
		<layer id="204" name="165311653581035" type="Const" version="opset1">
			<data offset="0" size="4" shape="" element_type="f32"/>
			<output>
				<port id="0" precision="FP32"/>
			</output>
		</layer>
		<layer id="205" name="165321653684791" type="Const" version="opset1">
			<data offset="288" size="4" shape="" element_type="f32"/>
			<output>
				<port id="0" precision="FP32"/>
			</output>
		</layer>
		<layer id="206" name="165331653783519" type="Const" version="opset1">
			<data offset="0" size="4" shape="" element_type="f32"/>
			<output>
				<port id="0" precision="FP32"/>
			</output>
		</layer>
		<layer id="207" name="165341653883657" type="Const" version="opset1">
			<data offset="288" size="4" shape="" element_type="f32"/>
			<output>
				<port id="0" precision="FP32"/>
			</output>
		</layer>
		<layer id="208" name="188611886583213" type="Const" version="opset1">
			<data offset="292" size="4" shape="" element_type="f32"/>
			<output>
				<port id="0" precision="FP32"/>
			</output>
		</layer>
		<layer id="209" name="188621886678347" type="Const" version="opset1">
			<data offset="296" size="4" shape="" element_type="f32"/>
			<output>
				<port id="0" precision="FP32"/>
			</output>
		</layer>
		<layer id="210" name="188631886784038" type="Const" version="opset1">
			<data offset="292" size="4" shape="" element_type="f32"/>
			<output>
				<port id="0" precision="FP32"/>
			</output>
		</layer>
		<layer id="211" name="188641886876595" type="Const" version="opset1">
			<data offset="296" size="4" shape="" element_type="f32"/>
			<output>
				<port id="0" precision="FP32"/>
			</output>
		</layer>
		<layer id="212" name="137111371580666" type="Const" version="opset1">
			<data offset="0" size="4" shape="" element_type="f32"/>
			<output>
				<port id="0" precision="FP32"/>
			</output>
		</layer>
		<layer id="213" name="137121371680828" type="Const" version="opset1">
			<data offset="300" size="4" shape="" element_type="f32"/>
			<output>
				<port id="0" precision="FP32"/>
			</output>
		</layer>
		<layer id="214" name="137131371780270" type="Const" version="opset1">
			<data offset="0" size="4" shape="" element_type="f32"/>
			<output>
				<port id="0" precision="FP32"/>
			</output>
		</layer>
		<layer id="215" name="137141371882892" type="Const" version="opset1">
			<data offset="300" size="4" shape="" element_type="f32"/>
			<output>
				<port id="0" precision="FP32"/>
			</output>
		</layer>
		<layer id="216" name="188711887577846" type="Const" version="opset1">
			<data offset="0" size="4" shape="" element_type="f32"/>
			<output>
				<port id="0" precision="FP32"/>
			</output>
		</layer>
		<layer id="217" name="188721887677888" type="Const" version="opset1">
			<data offset="304" size="4" shape="" element_type="f32"/>
			<output>
				<port id="0" precision="FP32"/>
			</output>
		</layer>
		<layer id="218" name="188731887784557" type="Const" version="opset1">
			<data offset="0" size="4" shape="" element_type="f32"/>
			<output>
				<port id="0" precision="FP32"/>
			</output>
		</layer>
		<layer id="219" name="188741887877978" type="Const" version="opset1">
			<data offset="304" size="4" shape="" element_type="f32"/>
			<output>
				<port id="0" precision="FP32"/>
			</output>
		</layer>
		<layer id="220" name="170911709575812" type="Const" version="opset1">
			<data offset="308" size="4" shape="" element_type="f32"/>
			<output>
				<port id="0" precision="FP32"/>
			</output>
		</layer>
		<layer id="221" name="170921709682190" type="Const" version="opset1">
			<data offset="312" size="4" shape="" element_type="f32"/>
			<output>
				<port id="0" precision="FP32"/>
			</output>
		</layer>
		<layer id="222" name="170931709779193" type="Const" version="opset1">
			<data offset="308" size="4" shape="" element_type="f32"/>
			<output>
				<port id="0" precision="FP32"/>
			</output>
		</layer>
		<layer id="223" name="170941709883846" type="Const" version="opset1">
			<data offset="312" size="4" shape="" element_type="f32"/>
			<output>
				<port id="0" precision="FP32"/>
			</output>
		</layer>
		<layer id="224" name="196011960583135" type="Const" version="opset1">
			<data offset="0" size="4" shape="" element_type="f32"/>
			<output>
				<port id="0" precision="FP32"/>
			</output>
		</layer>
		<layer id="225" name="196021960681620" type="Const" version="opset1">
			<data offset="316" size="4" shape="" element_type="f32"/>
			<output>
				<port id="0" precision="FP32"/>
			</output>
		</layer>
		<layer id="226" name="196031960783087" type="Const" version="opset1">
			<data offset="0" size="4" shape="" element_type="f32"/>
			<output>
				<port id="0" precision="FP32"/>
			</output>
		</layer>
		<layer id="227" name="196041960883486" type="Const" version="opset1">
			<data offset="316" size="4" shape="" element_type="f32"/>
			<output>
				<port id="0" precision="FP32"/>
			</output>
		</layer>
		<layer id="228" name="171011710579025" type="Const" version="opset1">
			<data offset="0" size="4" shape="" element_type="f32"/>
			<output>
				<port id="0" precision="FP32"/>
			</output>
		</layer>
		<layer id="229" name="171021710679790" type="Const" version="opset1">
			<data offset="320" size="4" shape="" element_type="f32"/>
			<output>
				<port id="0" precision="FP32"/>
			</output>
		</layer>
		<layer id="230" name="171031710784515" type="Const" version="opset1">
			<data offset="0" size="4" shape="" element_type="f32"/>
			<output>
				<port id="0" precision="FP32"/>
			</output>
		</layer>
		<layer id="231" name="171041710875755" type="Const" version="opset1">
			<data offset="320" size="4" shape="" element_type="f32"/>
			<output>
				<port id="0" precision="FP32"/>
			</output>
		</layer>
		<layer id="232" name="118311183583150" type="Const" version="opset1">
			<data offset="324" size="4" shape="" element_type="f32"/>
			<output>
				<port id="0" precision="FP32"/>
			</output>
		</layer>
		<layer id="233" name="118321183684374" type="Const" version="opset1">
			<data offset="328" size="4" shape="" element_type="f32"/>
			<output>
				<port id="0" precision="FP32"/>
			</output>
		</layer>
		<layer id="234" name="118331183780753" type="Const" version="opset1">
			<data offset="324" size="4" shape="" element_type="f32"/>
			<output>
				<port id="0" precision="FP32"/>
			</output>
		</layer>
		<layer id="235" name="118341183883102" type="Const" version="opset1">
			<data offset="328" size="4" shape="" element_type="f32"/>
			<output>
				<port id="0" precision="FP32"/>
			</output>
		</layer>
		<layer id="236" name="146511465582265" type="Const" version="opset1">
			<data offset="0" size="4" shape="" element_type="f32"/>
			<output>
				<port id="0" precision="FP32"/>
			</output>
		</layer>
		<layer id="237" name="146521465679778" type="Const" version="opset1">
			<data offset="332" size="4" shape="" element_type="f32"/>
			<output>
				<port id="0" precision="FP32"/>
			</output>
		</layer>
		<layer id="238" name="146531465784434" type="Const" version="opset1">
			<data offset="0" size="4" shape="" element_type="f32"/>
			<output>
				<port id="0" precision="FP32"/>
			</output>
		</layer>
		<layer id="239" name="146541465876856" type="Const" version="opset1">
			<data offset="332" size="4" shape="" element_type="f32"/>
			<output>
				<port id="0" precision="FP32"/>
			</output>
		</layer>
		<layer id="240" name="118411184582292" type="Const" version="opset1">
			<data offset="0" size="4" shape="" element_type="f32"/>
			<output>
				<port id="0" precision="FP32"/>
			</output>
		</layer>
		<layer id="241" name="118421184676253" type="Const" version="opset1">
			<data offset="336" size="4" shape="" element_type="f32"/>
			<output>
				<port id="0" precision="FP32"/>
			</output>
		</layer>
		<layer id="242" name="118431184780639" type="Const" version="opset1">
			<data offset="0" size="4" shape="" element_type="f32"/>
			<output>
				<port id="0" precision="FP32"/>
			</output>
		</layer>
		<layer id="243" name="118441184877375" type="Const" version="opset1">
			<data offset="336" size="4" shape="" element_type="f32"/>
			<output>
				<port id="0" precision="FP32"/>
			</output>
		</layer>
		<layer id="244" name="134411344575944" type="Const" version="opset1">
			<data offset="340" size="4" shape="" element_type="f32"/>
			<output>
				<port id="0" precision="FP32"/>
			</output>
		</layer>
		<layer id="245" name="134421344683807" type="Const" version="opset1">
			<data offset="344" size="4" shape="" element_type="f32"/>
			<output>
				<port id="0" precision="FP32"/>
			</output>
		</layer>
		<layer id="246" name="134431344781728" type="Const" version="opset1">
			<data offset="340" size="4" shape="" element_type="f32"/>
			<output>
				<port id="0" precision="FP32"/>
			</output>
		</layer>
		<layer id="247" name="134441344877459" type="Const" version="opset1">
			<data offset="344" size="4" shape="" element_type="f32"/>
			<output>
				<port id="0" precision="FP32"/>
			</output>
		</layer>
		<layer id="248" name="186811868581503" type="Const" version="opset1">
			<data offset="0" size="4" shape="" element_type="f32"/>
			<output>
				<port id="0" precision="FP32"/>
			</output>
		</layer>
		<layer id="249" name="186821868684047" type="Const" version="opset1">
			<data offset="348" size="4" shape="" element_type="f32"/>
			<output>
				<port id="0" precision="FP32"/>
			</output>
		</layer>
		<layer id="250" name="186831868776133" type="Const" version="opset1">
			<data offset="0" size="4" shape="" element_type="f32"/>
			<output>
				<port id="0" precision="FP32"/>
			</output>
		</layer>
		<layer id="251" name="186841868877726" type="Const" version="opset1">
			<data offset="348" size="4" shape="" element_type="f32"/>
			<output>
				<port id="0" precision="FP32"/>
			</output>
		</layer>
		<layer id="252" name="140711407580687" type="Const" version="opset1">
			<data offset="352" size="4" shape="" element_type="f32"/>
			<output>
				<port id="0" precision="FP32"/>
			</output>
		</layer>
		<layer id="253" name="140721407679091" type="Const" version="opset1">
			<data offset="356" size="4" shape="" element_type="f32"/>
			<output>
				<port id="0" precision="FP32"/>
			</output>
		</layer>
		<layer id="254" name="140731407781851" type="Const" version="opset1">
			<data offset="352" size="4" shape="" element_type="f32"/>
			<output>
				<port id="0" precision="FP32"/>
			</output>
		</layer>
		<layer id="255" name="140741407877537" type="Const" version="opset1">
			<data offset="356" size="4" shape="" element_type="f32"/>
			<output>
				<port id="0" precision="FP32"/>
			</output>
		</layer>
		<layer id="256" name="111811118582697" type="Const" version="opset1">
			<data offset="0" size="4" shape="" element_type="f32"/>
			<output>
				<port id="0" precision="FP32"/>
			</output>
		</layer>
		<layer id="257" name="111821118680456" type="Const" version="opset1">
			<data offset="360" size="4" shape="" element_type="f32"/>
			<output>
				<port id="0" precision="FP32"/>
			</output>
		</layer>
		<layer id="258" name="111831118776721" type="Const" version="opset1">
			<data offset="0" size="4" shape="" element_type="f32"/>
			<output>
				<port id="0" precision="FP32"/>
			</output>
		</layer>
		<layer id="259" name="111841118880384" type="Const" version="opset1">
			<data offset="360" size="4" shape="" element_type="f32"/>
			<output>
				<port id="0" precision="FP32"/>
			</output>
		</layer>
		<layer id="260" name="140811408580738" type="Const" version="opset1">
			<data offset="0" size="4" shape="" element_type="f32"/>
			<output>
				<port id="0" precision="FP32"/>
			</output>
		</layer>
		<layer id="261" name="140821408677342" type="Const" version="opset1">
			<data offset="364" size="4" shape="" element_type="f32"/>
			<output>
				<port id="0" precision="FP32"/>
			</output>
		</layer>
		<layer id="262" name="140831408779817" type="Const" version="opset1">
			<data offset="0" size="4" shape="" element_type="f32"/>
			<output>
				<port id="0" precision="FP32"/>
			</output>
		</layer>
		<layer id="263" name="140841408885229" type="Const" version="opset1">
			<data offset="364" size="4" shape="" element_type="f32"/>
			<output>
				<port id="0" precision="FP32"/>
			</output>
		</layer>
		<layer id="264" name="124711247578566" type="Const" version="opset1">
			<data offset="368" size="4" shape="" element_type="f32"/>
			<output>
				<port id="0" precision="FP32"/>
			</output>
		</layer>
		<layer id="265" name="124721247679391" type="Const" version="opset1">
			<data offset="372" size="4" shape="" element_type="f32"/>
			<output>
				<port id="0" precision="FP32"/>
			</output>
		</layer>
		<layer id="266" name="124731247780216" type="Const" version="opset1">
			<data offset="368" size="4" shape="" element_type="f32"/>
			<output>
				<port id="0" precision="FP32"/>
			</output>
		</layer>
		<layer id="267" name="124741247879436" type="Const" version="opset1">
			<data offset="372" size="4" shape="" element_type="f32"/>
			<output>
				<port id="0" precision="FP32"/>
			</output>
		</layer>
		<layer id="268" name="133111331583966" type="Const" version="opset1">
			<data offset="0" size="4" shape="" element_type="f32"/>
			<output>
				<port id="0" precision="FP32"/>
			</output>
		</layer>
		<layer id="269" name="133121331681899" type="Const" version="opset1">
			<data offset="376" size="4" shape="" element_type="f32"/>
			<output>
				<port id="0" precision="FP32"/>
			</output>
		</layer>
		<layer id="270" name="133131331781803" type="Const" version="opset1">
			<data offset="0" size="4" shape="" element_type="f32"/>
			<output>
				<port id="0" precision="FP32"/>
			</output>
		</layer>
		<layer id="271" name="133141331876757" type="Const" version="opset1">
			<data offset="376" size="4" shape="" element_type="f32"/>
			<output>
				<port id="0" precision="FP32"/>
			</output>
		</layer>
		<layer id="272" name="124811248580099" type="Const" version="opset1">
			<data offset="0" size="4" shape="" element_type="f32"/>
			<output>
				<port id="0" precision="FP32"/>
			</output>
		</layer>
		<layer id="273" name="124821248683156" type="Const" version="opset1">
			<data offset="380" size="4" shape="" element_type="f32"/>
			<output>
				<port id="0" precision="FP32"/>
			</output>
		</layer>
		<layer id="274" name="124831248782493" type="Const" version="opset1">
			<data offset="0" size="4" shape="" element_type="f32"/>
			<output>
				<port id="0" precision="FP32"/>
			</output>
		</layer>
		<layer id="275" name="124841248884659" type="Const" version="opset1">
			<data offset="380" size="4" shape="" element_type="f32"/>
			<output>
				<port id="0" precision="FP32"/>
			</output>
		</layer>
		<layer id="276" name="129311293585628" type="Const" version="opset1">
			<data offset="384" size="4" shape="" element_type="f32"/>
			<output>
				<port id="0" precision="FP32"/>
			</output>
		</layer>
		<layer id="277" name="129321293677873" type="Const" version="opset1">
			<data offset="388" size="4" shape="" element_type="f32"/>
			<output>
				<port id="0" precision="FP32"/>
			</output>
		</layer>
		<layer id="278" name="129331293779709" type="Const" version="opset1">
			<data offset="384" size="4" shape="" element_type="f32"/>
			<output>
				<port id="0" precision="FP32"/>
			</output>
		</layer>
		<layer id="279" name="129341293882052" type="Const" version="opset1">
			<data offset="388" size="4" shape="" element_type="f32"/>
			<output>
				<port id="0" precision="FP32"/>
			</output>
		</layer>
		<layer id="280" name="151311513580963" type="Const" version="opset1">
			<data offset="0" size="4" shape="" element_type="f32"/>
			<output>
				<port id="0" precision="FP32"/>
			</output>
		</layer>
		<layer id="281" name="151321513682013" type="Const" version="opset1">
			<data offset="392" size="4" shape="" element_type="f32"/>
			<output>
				<port id="0" precision="FP32"/>
			</output>
		</layer>
		<layer id="282" name="151331513777855" type="Const" version="opset1">
			<data offset="0" size="4" shape="" element_type="f32"/>
			<output>
				<port id="0" precision="FP32"/>
			</output>
		</layer>
		<layer id="283" name="151341513884173" type="Const" version="opset1">
			<data offset="392" size="4" shape="" element_type="f32"/>
			<output>
				<port id="0" precision="FP32"/>
			</output>
		</layer>
		<layer id="284" name="129411294581683" type="Const" version="opset1">
			<data offset="0" size="4" shape="" element_type="f32"/>
			<output>
				<port id="0" precision="FP32"/>
			</output>
		</layer>
		<layer id="285" name="129421294684968" type="Const" version="opset1">
			<data offset="396" size="4" shape="" element_type="f32"/>
			<output>
				<port id="0" precision="FP32"/>
			</output>
		</layer>
		<layer id="286" name="129431294785421" type="Const" version="opset1">
			<data offset="0" size="4" shape="" element_type="f32"/>
			<output>
				<port id="0" precision="FP32"/>
			</output>
		</layer>
		<layer id="287" name="129441294883045" type="Const" version="opset1">
			<data offset="396" size="4" shape="" element_type="f32"/>
			<output>
				<port id="0" precision="FP32"/>
			</output>
		</layer>
		<layer id="288" name="148611486584725" type="Const" version="opset1">
			<data offset="400" size="4" shape="" element_type="f32"/>
			<output>
				<port id="0" precision="FP32"/>
			</output>
		</layer>
		<layer id="289" name="148621486680510" type="Const" version="opset1">
			<data offset="404" size="4" shape="" element_type="f32"/>
			<output>
				<port id="0" precision="FP32"/>
			</output>
		</layer>
		<layer id="290" name="148631486783984" type="Const" version="opset1">
			<data offset="400" size="4" shape="" element_type="f32"/>
			<output>
				<port id="0" precision="FP32"/>
			</output>
		</layer>
		<layer id="291" name="148641486876616" type="Const" version="opset1">
			<data offset="404" size="4" shape="" element_type="f32"/>
			<output>
				<port id="0" precision="FP32"/>
			</output>
		</layer>
		<layer id="292" name="131111311583483" type="Const" version="opset1">
			<data offset="0" size="4" shape="" element_type="f32"/>
			<output>
				<port id="0" precision="FP32"/>
			</output>
		</layer>
		<layer id="293" name="131121311684932" type="Const" version="opset1">
			<data offset="408" size="4" shape="" element_type="f32"/>
			<output>
				<port id="0" precision="FP32"/>
			</output>
		</layer>
		<layer id="294" name="131131311780471" type="Const" version="opset1">
			<data offset="0" size="4" shape="" element_type="f32"/>
			<output>
				<port id="0" precision="FP32"/>
			</output>
		</layer>
		<layer id="295" name="131141311880210" type="Const" version="opset1">
			<data offset="408" size="4" shape="" element_type="f32"/>
			<output>
				<port id="0" precision="FP32"/>
			</output>
		</layer>
		<layer id="296" name="148711487579631" type="Const" version="opset1">
			<data offset="0" size="4" shape="" element_type="f32"/>
			<output>
				<port id="0" precision="FP32"/>
			</output>
		</layer>
		<layer id="297" name="148721487680381" type="Const" version="opset1">
			<data offset="412" size="4" shape="" element_type="f32"/>
			<output>
				<port id="0" precision="FP32"/>
			</output>
		</layer>
		<layer id="298" name="148731487777501" type="Const" version="opset1">
			<data offset="0" size="4" shape="" element_type="f32"/>
			<output>
				<port id="0" precision="FP32"/>
			</output>
		</layer>
		<layer id="299" name="148741487885010" type="Const" version="opset1">
			<data offset="412" size="4" shape="" element_type="f32"/>
			<output>
				<port id="0" precision="FP32"/>
			</output>
		</layer>
		<layer id="300" name="188411884581725" type="Const" version="opset1">
			<data offset="416" size="4" shape="" element_type="f32"/>
			<output>
				<port id="0" precision="FP32"/>
			</output>
		</layer>
		<layer id="301" name="188421884680594" type="Const" version="opset1">
			<data offset="420" size="4" shape="" element_type="f32"/>
			<output>
				<port id="0" precision="FP32"/>
			</output>
		</layer>
		<layer id="302" name="188431884780858" type="Const" version="opset1">
			<data offset="416" size="4" shape="" element_type="f32"/>
			<output>
				<port id="0" precision="FP32"/>
			</output>
		</layer>
		<layer id="303" name="188441884883243" type="Const" version="opset1">
			<data offset="420" size="4" shape="" element_type="f32"/>
			<output>
				<port id="0" precision="FP32"/>
			</output>
		</layer>
		<layer id="304" name="117311173579724" type="Const" version="opset1">
			<data offset="0" size="4" shape="" element_type="f32"/>
			<output>
				<port id="0" precision="FP32"/>
			</output>
		</layer>
		<layer id="305" name="117321173676373" type="Const" version="opset1">
			<data offset="424" size="4" shape="" element_type="f32"/>
			<output>
				<port id="0" precision="FP32"/>
			</output>
		</layer>
		<layer id="306" name="117331173785478" type="Const" version="opset1">
			<data offset="0" size="4" shape="" element_type="f32"/>
			<output>
				<port id="0" precision="FP32"/>
			</output>
		</layer>
		<layer id="307" name="117341173884920" type="Const" version="opset1">
			<data offset="424" size="4" shape="" element_type="f32"/>
			<output>
				<port id="0" precision="FP32"/>
			</output>
		</layer>
		<layer id="308" name="136411364580528" type="Const" version="opset1">
			<data offset="428" size="4" shape="" element_type="f32"/>
			<output>
				<port id="0" precision="FP32"/>
			</output>
		</layer>
		<layer id="309" name="136421364683618" type="Const" version="opset1">
			<data offset="432" size="4" shape="" element_type="f32"/>
			<output>
				<port id="0" precision="FP32"/>
			</output>
		</layer>
		<layer id="310" name="136431364778167" type="Const" version="opset1">
			<data offset="428" size="4" shape="" element_type="f32"/>
			<output>
				<port id="0" precision="FP32"/>
			</output>
		</layer>
		<layer id="311" name="136441364876070" type="Const" version="opset1">
			<data offset="432" size="4" shape="" element_type="f32"/>
			<output>
				<port id="0" precision="FP32"/>
			</output>
		</layer>
		<layer id="312" name="129911299580141" type="Const" version="opset1">
			<data offset="0" size="4" shape="" element_type="f32"/>
			<output>
				<port id="0" precision="FP32"/>
			</output>
		</layer>
		<layer id="313" name="129921299676955" type="Const" version="opset1">
			<data offset="436" size="4" shape="" element_type="f32"/>
			<output>
				<port id="0" precision="FP32"/>
			</output>
		</layer>
		<layer id="314" name="129931299779988" type="Const" version="opset1">
			<data offset="0" size="4" shape="" element_type="f32"/>
			<output>
				<port id="0" precision="FP32"/>
			</output>
		</layer>
		<layer id="315" name="129941299880627" type="Const" version="opset1">
			<data offset="436" size="4" shape="" element_type="f32"/>
			<output>
				<port id="0" precision="FP32"/>
			</output>
		</layer>
		<layer id="316" name="136511365582859" type="Const" version="opset1">
			<data offset="0" size="4" shape="" element_type="f32"/>
			<output>
				<port id="0" precision="FP32"/>
			</output>
		</layer>
		<layer id="317" name="136521365685532" type="Const" version="opset1">
			<data offset="440" size="4" shape="" element_type="f32"/>
			<output>
				<port id="0" precision="FP32"/>
			</output>
		</layer>
		<layer id="318" name="136531365785508" type="Const" version="opset1">
			<data offset="0" size="4" shape="" element_type="f32"/>
			<output>
				<port id="0" precision="FP32"/>
			</output>
		</layer>
		<layer id="319" name="136541365879502" type="Const" version="opset1">
			<data offset="440" size="4" shape="" element_type="f32"/>
			<output>
				<port id="0" precision="FP32"/>
			</output>
		</layer>
		<layer id="320" name="157011570583366" type="Const" version="opset1">
			<data offset="444" size="4" shape="" element_type="f32"/>
			<output>
				<port id="0" precision="FP32"/>
			</output>
		</layer>
		<layer id="321" name="157021570677162" type="Const" version="opset1">
			<data offset="448" size="4" shape="" element_type="f32"/>
			<output>
				<port id="0" precision="FP32"/>
			</output>
		</layer>
		<layer id="322" name="157031570783402" type="Const" version="opset1">
			<data offset="444" size="4" shape="" element_type="f32"/>
			<output>
				<port id="0" precision="FP32"/>
			</output>
		</layer>
		<layer id="323" name="157041570882259" type="Const" version="opset1">
			<data offset="448" size="4" shape="" element_type="f32"/>
			<output>
				<port id="0" precision="FP32"/>
			</output>
		</layer>
		<layer id="324" name="120311203577066" type="Const" version="opset1">
			<data offset="0" size="4" shape="" element_type="f32"/>
			<output>
				<port id="0" precision="FP32"/>
			</output>
		</layer>
		<layer id="325" name="120321203685271" type="Const" version="opset1">
			<data offset="452" size="4" shape="" element_type="f32"/>
			<output>
				<port id="0" precision="FP32"/>
			</output>
		</layer>
		<layer id="326" name="120331203782523" type="Const" version="opset1">
			<data offset="0" size="4" shape="" element_type="f32"/>
			<output>
				<port id="0" precision="FP32"/>
			</output>
		</layer>
		<layer id="327" name="120341203885181" type="Const" version="opset1">
			<data offset="452" size="4" shape="" element_type="f32"/>
			<output>
				<port id="0" precision="FP32"/>
			</output>
		</layer>
		<layer id="328" name="157111571584938" type="Const" version="opset1">
			<data offset="0" size="4" shape="" element_type="f32"/>
			<output>
				<port id="0" precision="FP32"/>
			</output>
		</layer>
		<layer id="329" name="157121571682970" type="Const" version="opset1">
			<data offset="456" size="4" shape="" element_type="f32"/>
			<output>
				<port id="0" precision="FP32"/>
			</output>
		</layer>
		<layer id="330" name="157131571776118" type="Const" version="opset1">
			<data offset="0" size="4" shape="" element_type="f32"/>
			<output>
				<port id="0" precision="FP32"/>
			</output>
		</layer>
		<layer id="331" name="157141571877255" type="Const" version="opset1">
			<data offset="456" size="4" shape="" element_type="f32"/>
			<output>
				<port id="0" precision="FP32"/>
			</output>
		</layer>
		<layer id="332" name="178111781580891" type="Const" version="opset1">
			<data offset="460" size="4" shape="" element_type="f32"/>
			<output>
				<port id="0" precision="FP32"/>
			</output>
		</layer>
		<layer id="333" name="178121781684521" type="Const" version="opset1">
			<data offset="464" size="4" shape="" element_type="f32"/>
			<output>
				<port id="0" precision="FP32"/>
			</output>
		</layer>
		<layer id="334" name="178131781776001" type="Const" version="opset1">
			<data offset="460" size="4" shape="" element_type="f32"/>
			<output>
				<port id="0" precision="FP32"/>
			</output>
		</layer>
		<layer id="335" name="178141781884596" type="Const" version="opset1">
			<data offset="464" size="4" shape="" element_type="f32"/>
			<output>
				<port id="0" precision="FP32"/>
			</output>
		</layer>
		<layer id="336" name="110211102584584" type="Const" version="opset1">
			<data offset="0" size="4" shape="" element_type="f32"/>
			<output>
				<port id="0" precision="FP32"/>
			</output>
		</layer>
		<layer id="337" name="110221102683114" type="Const" version="opset1">
			<data offset="468" size="4" shape="" element_type="f32"/>
			<output>
				<port id="0" precision="FP32"/>
			</output>
		</layer>
		<layer id="338" name="110231102782679" type="Const" version="opset1">
			<data offset="0" size="4" shape="" element_type="f32"/>
			<output>
				<port id="0" precision="FP32"/>
			</output>
		</layer>
		<layer id="339" name="110241102877096" type="Const" version="opset1">
			<data offset="468" size="4" shape="" element_type="f32"/>
			<output>
				<port id="0" precision="FP32"/>
			</output>
		</layer>
		<layer id="340" name="178211782583300" type="Const" version="opset1">
			<data offset="0" size="4" shape="" element_type="f32"/>
			<output>
				<port id="0" precision="FP32"/>
			</output>
		</layer>
		<layer id="341" name="178221782685613" type="Const" version="opset1">
			<data offset="472" size="4" shape="" element_type="f32"/>
			<output>
				<port id="0" precision="FP32"/>
			</output>
		</layer>
		<layer id="342" name="178231782778554" type="Const" version="opset1">
			<data offset="0" size="4" shape="" element_type="f32"/>
			<output>
				<port id="0" precision="FP32"/>
			</output>
		</layer>
		<layer id="343" name="178241782884050" type="Const" version="opset1">
			<data offset="472" size="4" shape="" element_type="f32"/>
			<output>
				<port id="0" precision="FP32"/>
			</output>
		</layer>
		<layer id="344" name="182011820576544" type="Const" version="opset1">
			<data offset="476" size="4" shape="" element_type="f32"/>
			<output>
				<port id="0" precision="FP32"/>
			</output>
		</layer>
		<layer id="345" name="182021820680555" type="Const" version="opset1">
			<data offset="480" size="4" shape="" element_type="f32"/>
			<output>
				<port id="0" precision="FP32"/>
			</output>
		</layer>
		<layer id="346" name="182031820779052" type="Const" version="opset1">
			<data offset="476" size="4" shape="" element_type="f32"/>
			<output>
				<port id="0" precision="FP32"/>
			</output>
		</layer>
		<layer id="347" name="182041820877738" type="Const" version="opset1">
			<data offset="480" size="4" shape="" element_type="f32"/>
			<output>
				<port id="0" precision="FP32"/>
			</output>
		</layer>
		<layer id="348" name="164711647580741" type="Const" version="opset1">
			<data offset="0" size="4" shape="" element_type="f32"/>
			<output>
				<port id="0" precision="FP32"/>
			</output>
		</layer>
		<layer id="349" name="164721647682661" type="Const" version="opset1">
			<data offset="484" size="4" shape="" element_type="f32"/>
			<output>
				<port id="0" precision="FP32"/>
			</output>
		</layer>
		<layer id="350" name="164731647777813" type="Const" version="opset1">
			<data offset="0" size="4" shape="" element_type="f32"/>
			<output>
				<port id="0" precision="FP32"/>
			</output>
		</layer>
		<layer id="351" name="164741647881041" type="Const" version="opset1">
			<data offset="484" size="4" shape="" element_type="f32"/>
			<output>
				<port id="0" precision="FP32"/>
			</output>
		</layer>
		<layer id="352" name="182111821579517" type="Const" version="opset1">
			<data offset="0" size="4" shape="" element_type="f32"/>
			<output>
				<port id="0" precision="FP32"/>
			</output>
		</layer>
		<layer id="353" name="182121821684548" type="Const" version="opset1">
			<data offset="488" size="4" shape="" element_type="f32"/>
			<output>
				<port id="0" precision="FP32"/>
			</output>
		</layer>
		<layer id="354" name="182131821776787" type="Const" version="opset1">
			<data offset="0" size="4" shape="" element_type="f32"/>
			<output>
				<port id="0" precision="FP32"/>
			</output>
		</layer>
		<layer id="355" name="182141821880453" type="Const" version="opset1">
			<data offset="488" size="4" shape="" element_type="f32"/>
			<output>
				<port id="0" precision="FP32"/>
			</output>
		</layer>
		<layer id="356" name="155311553584254" type="Const" version="opset1">
			<data offset="492" size="4" shape="" element_type="f32"/>
			<output>
				<port id="0" precision="FP32"/>
			</output>
		</layer>
		<layer id="357" name="155321553675989" type="Const" version="opset1">
			<data offset="496" size="4" shape="" element_type="f32"/>
			<output>
				<port id="0" precision="FP32"/>
			</output>
		</layer>
		<layer id="358" name="155331553784377" type="Const" version="opset1">
			<data offset="492" size="4" shape="" element_type="f32"/>
			<output>
				<port id="0" precision="FP32"/>
			</output>
		</layer>
		<layer id="359" name="155341553876421" type="Const" version="opset1">
			<data offset="496" size="4" shape="" element_type="f32"/>
			<output>
				<port id="0" precision="FP32"/>
			</output>
		</layer>
		<layer id="360" name="144311443579376" type="Const" version="opset1">
			<data offset="0" size="4" shape="" element_type="f32"/>
			<output>
				<port id="0" precision="FP32"/>
			</output>
		</layer>
		<layer id="361" name="144321443679172" type="Const" version="opset1">
			<data offset="500" size="4" shape="" element_type="f32"/>
			<output>
				<port id="0" precision="FP32"/>
			</output>
		</layer>
		<layer id="362" name="144331443776583" type="Const" version="opset1">
			<data offset="0" size="4" shape="" element_type="f32"/>
			<output>
				<port id="0" precision="FP32"/>
			</output>
		</layer>
		<layer id="363" name="144341443876190" type="Const" version="opset1">
			<data offset="500" size="4" shape="" element_type="f32"/>
			<output>
				<port id="0" precision="FP32"/>
			</output>
		</layer>
		<layer id="364" name="121311213582217" type="Const" version="opset1">
			<data offset="504" size="4" shape="" element_type="f32"/>
			<output>
				<port id="0" precision="FP32"/>
			</output>
		</layer>
		<layer id="365" name="121321213679043" type="Const" version="opset1">
			<data offset="508" size="4" shape="" element_type="f32"/>
			<output>
				<port id="0" precision="FP32"/>
			</output>
		</layer>
		<layer id="366" name="121331213783690" type="Const" version="opset1">
			<data offset="504" size="4" shape="" element_type="f32"/>
			<output>
				<port id="0" precision="FP32"/>
			</output>
		</layer>
		<layer id="367" name="121341213884146" type="Const" version="opset1">
			<data offset="508" size="4" shape="" element_type="f32"/>
			<output>
				<port id="0" precision="FP32"/>
			</output>
		</layer>
		<layer id="368" name="190511905581908" type="Const" version="opset1">
			<data offset="0" size="4" shape="" element_type="f32"/>
			<output>
				<port id="0" precision="FP32"/>
			</output>
		</layer>
		<layer id="369" name="190521905684371" type="Const" version="opset1">
			<data offset="512" size="4" shape="" element_type="f32"/>
			<output>
				<port id="0" precision="FP32"/>
			</output>
		</layer>
		<layer id="370" name="190531905785433" type="Const" version="opset1">
			<data offset="0" size="4" shape="" element_type="f32"/>
			<output>
				<port id="0" precision="FP32"/>
			</output>
		</layer>
		<layer id="371" name="190541905883306" type="Const" version="opset1">
			<data offset="512" size="4" shape="" element_type="f32"/>
			<output>
				<port id="0" precision="FP32"/>
			</output>
		</layer>
		<layer id="372" name="121411214576589" type="Const" version="opset1">
			<data offset="0" size="4" shape="" element_type="f32"/>
			<output>
				<port id="0" precision="FP32"/>
			</output>
		</layer>
		<layer id="373" name="121421214682703" type="Const" version="opset1">
			<data offset="516" size="4" shape="" element_type="f32"/>
			<output>
				<port id="0" precision="FP32"/>
			</output>
		</layer>
		<layer id="374" name="121431214775950" type="Const" version="opset1">
			<data offset="0" size="4" shape="" element_type="f32"/>
			<output>
				<port id="0" precision="FP32"/>
			</output>
		</layer>
		<layer id="375" name="121441214881998" type="Const" version="opset1">
			<data offset="516" size="4" shape="" element_type="f32"/>
			<output>
				<port id="0" precision="FP32"/>
			</output>
		</layer>
		<layer id="376" name="154311543578191" type="Const" version="opset1">
			<data offset="520" size="4" shape="" element_type="f32"/>
			<output>
				<port id="0" precision="FP32"/>
			</output>
		</layer>
		<layer id="377" name="154321543677933" type="Const" version="opset1">
			<data offset="524" size="4" shape="" element_type="f32"/>
			<output>
				<port id="0" precision="FP32"/>
			</output>
		</layer>
		<layer id="378" name="154331543782142" type="Const" version="opset1">
			<data offset="520" size="4" shape="" element_type="f32"/>
			<output>
				<port id="0" precision="FP32"/>
			</output>
		</layer>
		<layer id="379" name="154341543876685" type="Const" version="opset1">
			<data offset="524" size="4" shape="" element_type="f32"/>
			<output>
				<port id="0" precision="FP32"/>
			</output>
		</layer>
		<layer id="380" name="142711427579532" type="Const" version="opset1">
			<data offset="0" size="4" shape="" element_type="f32"/>
			<output>
				<port id="0" precision="FP32"/>
			</output>
		</layer>
		<layer id="381" name="142721427679799" type="Const" version="opset1">
			<data offset="528" size="4" shape="" element_type="f32"/>
			<output>
				<port id="0" precision="FP32"/>
			</output>
		</layer>
		<layer id="382" name="142731427781182" type="Const" version="opset1">
			<data offset="0" size="4" shape="" element_type="f32"/>
			<output>
				<port id="0" precision="FP32"/>
			</output>
		</layer>
		<layer id="383" name="142741427885232" type="Const" version="opset1">
			<data offset="528" size="4" shape="" element_type="f32"/>
			<output>
				<port id="0" precision="FP32"/>
			</output>
		</layer>
		<layer id="384" name="154411544578794" type="Const" version="opset1">
			<data offset="0" size="4" shape="" element_type="f32"/>
			<output>
				<port id="0" precision="FP32"/>
			</output>
		</layer>
		<layer id="385" name="154421544683039" type="Const" version="opset1">
			<data offset="532" size="4" shape="" element_type="f32"/>
			<output>
				<port id="0" precision="FP32"/>
			</output>
		</layer>
		<layer id="386" name="154431544777462" type="Const" version="opset1">
			<data offset="0" size="4" shape="" element_type="f32"/>
			<output>
				<port id="0" precision="FP32"/>
			</output>
		</layer>
		<layer id="387" name="154441544877498" type="Const" version="opset1">
			<data offset="532" size="4" shape="" element_type="f32"/>
			<output>
				<port id="0" precision="FP32"/>
			</output>
		</layer>
		<layer id="388" name="197811978576046" type="Const" version="opset1">
			<data offset="536" size="4" shape="" element_type="f32"/>
			<output>
				<port id="0" precision="FP32"/>
			</output>
		</layer>
		<layer id="389" name="197821978677579" type="Const" version="opset1">
			<data offset="540" size="4" shape="" element_type="f32"/>
			<output>
				<port id="0" precision="FP32"/>
			</output>
		</layer>
		<layer id="390" name="197831978782334" type="Const" version="opset1">
			<data offset="536" size="4" shape="" element_type="f32"/>
			<output>
				<port id="0" precision="FP32"/>
			</output>
		</layer>
		<layer id="391" name="197841978881383" type="Const" version="opset1">
			<data offset="540" size="4" shape="" element_type="f32"/>
			<output>
				<port id="0" precision="FP32"/>
			</output>
		</layer>
		<layer id="392" name="127311273585808" type="Const" version="opset1">
			<data offset="0" size="4" shape="" element_type="f32"/>
			<output>
				<port id="0" precision="FP32"/>
			</output>
		</layer>
		<layer id="393" name="127321273681761" type="Const" version="opset1">
			<data offset="544" size="4" shape="" element_type="f32"/>
			<output>
				<port id="0" precision="FP32"/>
			</output>
		</layer>
		<layer id="394" name="127331273779859" type="Const" version="opset1">
			<data offset="0" size="4" shape="" element_type="f32"/>
			<output>
				<port id="0" precision="FP32"/>
			</output>
		</layer>
		<layer id="395" name="127341273877663" type="Const" version="opset1">
			<data offset="544" size="4" shape="" element_type="f32"/>
			<output>
				<port id="0" precision="FP32"/>
			</output>
		</layer>
		<layer id="396" name="197911979578905" type="Const" version="opset1">
			<data offset="0" size="4" shape="" element_type="f32"/>
			<output>
				<port id="0" precision="FP32"/>
			</output>
		</layer>
		<layer id="397" name="197921979678692" type="Const" version="opset1">
			<data offset="548" size="4" shape="" element_type="f32"/>
			<output>
				<port id="0" precision="FP32"/>
			</output>
		</layer>
		<layer id="398" name="197931979777525" type="Const" version="opset1">
			<data offset="0" size="4" shape="" element_type="f32"/>
			<output>
				<port id="0" precision="FP32"/>
			</output>
		</layer>
		<layer id="399" name="197941979879181" type="Const" version="opset1">
			<data offset="548" size="4" shape="" element_type="f32"/>
			<output>
				<port id="0" precision="FP32"/>
			</output>
		</layer>
		<layer id="400" name="178311783580021" type="Const" version="opset1">
			<data offset="552" size="4" shape="" element_type="f32"/>
			<output>
				<port id="0" precision="FP32"/>
			</output>
		</layer>
		<layer id="401" name="178321783685256" type="Const" version="opset1">
			<data offset="556" size="4" shape="" element_type="f32"/>
			<output>
				<port id="0" precision="FP32"/>
			</output>
		</layer>
		<layer id="402" name="178331783776568" type="Const" version="opset1">
			<data offset="552" size="4" shape="" element_type="f32"/>
			<output>
				<port id="0" precision="FP32"/>
			</output>
		</layer>
		<layer id="403" name="178341783885241" type="Const" version="opset1">
			<data offset="556" size="4" shape="" element_type="f32"/>
			<output>
				<port id="0" precision="FP32"/>
			</output>
		</layer>
		<layer id="404" name="165411654579253" type="Const" version="opset1">
			<data offset="0" size="4" shape="" element_type="f32"/>
			<output>
				<port id="0" precision="FP32"/>
			</output>
		</layer>
		<layer id="405" name="165421654680807" type="Const" version="opset1">
			<data offset="560" size="4" shape="" element_type="f32"/>
			<output>
				<port id="0" precision="FP32"/>
			</output>
		</layer>
		<layer id="406" name="165431654782325" type="Const" version="opset1">
			<data offset="0" size="4" shape="" element_type="f32"/>
			<output>
				<port id="0" precision="FP32"/>
			</output>
		</layer>
		<layer id="407" name="165441654877765" type="Const" version="opset1">
			<data offset="560" size="4" shape="" element_type="f32"/>
			<output>
				<port id="0" precision="FP32"/>
			</output>
		</layer>
		<layer id="408" name="178411784580114" type="Const" version="opset1">
			<data offset="0" size="4" shape="" element_type="f32"/>
			<output>
				<port id="0" precision="FP32"/>
			</output>
		</layer>
		<layer id="409" name="178421784680144" type="Const" version="opset1">
			<data offset="564" size="4" shape="" element_type="f32"/>
			<output>
				<port id="0" precision="FP32"/>
			</output>
		</layer>
		<layer id="410" name="178431784776061" type="Const" version="opset1">
			<data offset="0" size="4" shape="" element_type="f32"/>
			<output>
				<port id="0" precision="FP32"/>
			</output>
		</layer>
		<layer id="411" name="178441784884605" type="Const" version="opset1">
			<data offset="564" size="4" shape="" element_type="f32"/>
			<output>
				<port id="0" precision="FP32"/>
			</output>
		</layer>
		<layer id="412" name="141511415580330" type="Const" version="opset1">
			<data offset="0" size="4" shape="" element_type="f32"/>
			<output>
				<port id="0" precision="FP32"/>
			</output>
		</layer>
		<layer id="413" name="141521415680252" type="Const" version="opset1">
			<data offset="568" size="4" shape="" element_type="f32"/>
			<output>
				<port id="0" precision="FP32"/>
			</output>
		</layer>
		<layer id="414" name="141531415778317" type="Const" version="opset1">
			<data offset="0" size="4" shape="" element_type="f32"/>
			<output>
				<port id="0" precision="FP32"/>
			</output>
		</layer>
		<layer id="415" name="141541415882490" type="Const" version="opset1">
			<data offset="568" size="4" shape="" element_type="f32"/>
			<output>
				<port id="0" precision="FP32"/>
			</output>
		</layer>
		<layer id="416" name="164511645581533" type="Const" version="opset1">
			<data offset="572" size="4" shape="" element_type="f32"/>
			<output>
				<port id="0" precision="FP32"/>
			</output>
		</layer>
		<layer id="417" name="164521645676244" type="Const" version="opset1">
			<data offset="576" size="4" shape="" element_type="f32"/>
			<output>
				<port id="0" precision="FP32"/>
			</output>
		</layer>
		<layer id="418" name="164531645783915" type="Const" version="opset1">
			<data offset="572" size="4" shape="" element_type="f32"/>
			<output>
				<port id="0" precision="FP32"/>
			</output>
		</layer>
		<layer id="419" name="164541645882637" type="Const" version="opset1">
			<data offset="576" size="4" shape="" element_type="f32"/>
			<output>
				<port id="0" precision="FP32"/>
			</output>
		</layer>
		<layer id="420" name="205112051578551" type="Const" version="opset1">
			<data offset="0" size="4" shape="" element_type="f32"/>
			<output>
				<port id="0" precision="FP32"/>
			</output>
		</layer>
		<layer id="421" name="205122051679262" type="Const" version="opset1">
			<data offset="580" size="4" shape="" element_type="f32"/>
			<output>
				<port id="0" precision="FP32"/>
			</output>
		</layer>
		<layer id="422" name="205132051776886" type="Const" version="opset1">
			<data offset="0" size="4" shape="" element_type="f32"/>
			<output>
				<port id="0" precision="FP32"/>
			</output>
		</layer>
		<layer id="423" name="205142051878560" type="Const" version="opset1">
			<data offset="580" size="4" shape="" element_type="f32"/>
			<output>
				<port id="0" precision="FP32"/>
			</output>
		</layer>
		<layer id="424" name="164611646579730" type="Const" version="opset1">
			<data offset="0" size="4" shape="" element_type="f32"/>
			<output>
				<port id="0" precision="FP32"/>
			</output>
		</layer>
		<layer id="425" name="164621646683621" type="Const" version="opset1">
			<data offset="584" size="4" shape="" element_type="f32"/>
			<output>
				<port id="0" precision="FP32"/>
			</output>
		</layer>
		<layer id="426" name="164631646783444" type="Const" version="opset1">
			<data offset="0" size="4" shape="" element_type="f32"/>
			<output>
				<port id="0" precision="FP32"/>
			</output>
		</layer>
		<layer id="427" name="164641646881743" type="Const" version="opset1">
			<data offset="584" size="4" shape="" element_type="f32"/>
			<output>
				<port id="0" precision="FP32"/>
			</output>
		</layer>
		<layer id="428" name="140511405584770" type="Const" version="opset1">
			<data offset="588" size="4" shape="" element_type="f32"/>
			<output>
				<port id="0" precision="FP32"/>
			</output>
		</layer>
		<layer id="429" name="140521405684299" type="Const" version="opset1">
			<data offset="592" size="4" shape="" element_type="f32"/>
			<output>
				<port id="0" precision="FP32"/>
			</output>
		</layer>
		<layer id="430" name="140531405779427" type="Const" version="opset1">
			<data offset="588" size="4" shape="" element_type="f32"/>
			<output>
				<port id="0" precision="FP32"/>
			</output>
		</layer>
		<layer id="431" name="140541405885631" type="Const" version="opset1">
			<data offset="592" size="4" shape="" element_type="f32"/>
			<output>
				<port id="0" precision="FP32"/>
			</output>
		</layer>
		<layer id="432" name="195811958582091" type="Const" version="opset1">
			<data offset="0" size="4" shape="" element_type="f32"/>
			<output>
				<port id="0" precision="FP32"/>
			</output>
		</layer>
		<layer id="433" name="195821958678305" type="Const" version="opset1">
			<data offset="596" size="4" shape="" element_type="f32"/>
			<output>
				<port id="0" precision="FP32"/>
			</output>
		</layer>
		<layer id="434" name="195831958778593" type="Const" version="opset1">
			<data offset="0" size="4" shape="" element_type="f32"/>
			<output>
				<port id="0" precision="FP32"/>
			</output>
		</layer>
		<layer id="435" name="195841958883603" type="Const" version="opset1">
			<data offset="596" size="4" shape="" element_type="f32"/>
			<output>
				<port id="0" precision="FP32"/>
			</output>
		</layer>
		<layer id="436" name="140611406579991" type="Const" version="opset1">
			<data offset="0" size="4" shape="" element_type="f32"/>
			<output>
				<port id="0" precision="FP32"/>
			</output>
		</layer>
		<layer id="437" name="140621406683072" type="Const" version="opset1">
			<data offset="600" size="4" shape="" element_type="f32"/>
			<output>
				<port id="0" precision="FP32"/>
			</output>
		</layer>
		<layer id="438" name="140631406784185" type="Const" version="opset1">
			<data offset="0" size="4" shape="" element_type="f32"/>
			<output>
				<port id="0" precision="FP32"/>
			</output>
		</layer>
		<layer id="439" name="140641406876022" type="Const" version="opset1">
			<data offset="600" size="4" shape="" element_type="f32"/>
			<output>
				<port id="0" precision="FP32"/>
			</output>
		</layer>
		<layer id="440" name="116011160577333" type="Const" version="opset1">
			<data offset="604" size="4" shape="" element_type="f32"/>
			<output>
				<port id="0" precision="FP32"/>
			</output>
		</layer>
		<layer id="441" name="116021160685814" type="Const" version="opset1">
			<data offset="608" size="4" shape="" element_type="f32"/>
			<output>
				<port id="0" precision="FP32"/>
			</output>
		</layer>
		<layer id="442" name="116031160779103" type="Const" version="opset1">
			<data offset="604" size="4" shape="" element_type="f32"/>
			<output>
				<port id="0" precision="FP32"/>
			</output>
		</layer>
		<layer id="443" name="116041160878434" type="Const" version="opset1">
			<data offset="608" size="4" shape="" element_type="f32"/>
			<output>
				<port id="0" precision="FP32"/>
			</output>
		</layer>
		<layer id="444" name="175911759578233" type="Const" version="opset1">
			<data offset="0" size="4" shape="" element_type="f32"/>
			<output>
				<port id="0" precision="FP32"/>
			</output>
		</layer>
		<layer id="445" name="175921759683837" type="Const" version="opset1">
			<data offset="612" size="4" shape="" element_type="f32"/>
			<output>
				<port id="0" precision="FP32"/>
			</output>
		</layer>
		<layer id="446" name="175931759782379" type="Const" version="opset1">
			<data offset="0" size="4" shape="" element_type="f32"/>
			<output>
				<port id="0" precision="FP32"/>
			</output>
		</layer>
		<layer id="447" name="175941759882577" type="Const" version="opset1">
			<data offset="612" size="4" shape="" element_type="f32"/>
			<output>
				<port id="0" precision="FP32"/>
			</output>
		</layer>
		<layer id="448" name="116111161580702" type="Const" version="opset1">
			<data offset="0" size="4" shape="" element_type="f32"/>
			<output>
				<port id="0" precision="FP32"/>
			</output>
		</layer>
		<layer id="449" name="116121161677168" type="Const" version="opset1">
			<data offset="616" size="4" shape="" element_type="f32"/>
			<output>
				<port id="0" precision="FP32"/>
			</output>
		</layer>
		<layer id="450" name="116131161778581" type="Const" version="opset1">
			<data offset="0" size="4" shape="" element_type="f32"/>
			<output>
				<port id="0" precision="FP32"/>
			</output>
		</layer>
		<layer id="451" name="116141161877084" type="Const" version="opset1">
			<data offset="616" size="4" shape="" element_type="f32"/>
			<output>
				<port id="0" precision="FP32"/>
			</output>
		</layer>
		<layer id="452" name="200012000577717" type="Const" version="opset1">
			<data offset="620" size="4" shape="" element_type="f32"/>
			<output>
				<port id="0" precision="FP32"/>
			</output>
		</layer>
		<layer id="453" name="200022000676109" type="Const" version="opset1">
			<data offset="624" size="4" shape="" element_type="f32"/>
			<output>
				<port id="0" precision="FP32"/>
			</output>
		</layer>
		<layer id="454" name="200032000782964" type="Const" version="opset1">
			<data offset="620" size="4" shape="" element_type="f32"/>
			<output>
				<port id="0" precision="FP32"/>
			</output>
		</layer>
		<layer id="455" name="200042000876325" type="Const" version="opset1">
			<data offset="624" size="4" shape="" element_type="f32"/>
			<output>
				<port id="0" precision="FP32"/>
			</output>
		</layer>
		<layer id="456" name="192011920578983" type="Const" version="opset1">
			<data offset="0" size="4" shape="" element_type="f32"/>
			<output>
				<port id="0" precision="FP32"/>
			</output>
		</layer>
		<layer id="457" name="192021920685334" type="Const" version="opset1">
			<data offset="628" size="4" shape="" element_type="f32"/>
			<output>
				<port id="0" precision="FP32"/>
			</output>
		</layer>
		<layer id="458" name="192031920784122" type="Const" version="opset1">
			<data offset="0" size="4" shape="" element_type="f32"/>
			<output>
				<port id="0" precision="FP32"/>
			</output>
		</layer>
		<layer id="459" name="192041920878770" type="Const" version="opset1">
			<data offset="628" size="4" shape="" element_type="f32"/>
			<output>
				<port id="0" precision="FP32"/>
			</output>
		</layer>
		<layer id="460" name="200112001583210" type="Const" version="opset1">
			<data offset="0" size="4" shape="" element_type="f32"/>
			<output>
				<port id="0" precision="FP32"/>
			</output>
		</layer>
		<layer id="461" name="200122001678719" type="Const" version="opset1">
			<data offset="632" size="4" shape="" element_type="f32"/>
			<output>
				<port id="0" precision="FP32"/>
			</output>
		</layer>
		<layer id="462" name="200132001784485" type="Const" version="opset1">
			<data offset="0" size="4" shape="" element_type="f32"/>
			<output>
				<port id="0" precision="FP32"/>
			</output>
		</layer>
		<layer id="463" name="200142001885622" type="Const" version="opset1">
			<data offset="632" size="4" shape="" element_type="f32"/>
			<output>
				<port id="0" precision="FP32"/>
			</output>
		</layer>
		<layer id="464" name="147211472582499" type="Const" version="opset1">
			<data offset="0" size="4" shape="" element_type="f32"/>
			<output>
				<port id="0" precision="FP32"/>
			</output>
		</layer>
		<layer id="465" name="147221472680657" type="Const" version="opset1">
			<data offset="636" size="4" shape="" element_type="f32"/>
			<output>
				<port id="0" precision="FP32"/>
			</output>
		</layer>
		<layer id="466" name="147231472782397" type="Const" version="opset1">
			<data offset="0" size="4" shape="" element_type="f32"/>
			<output>
				<port id="0" precision="FP32"/>
			</output>
		</layer>
		<layer id="467" name="147241472884059" type="Const" version="opset1">
			<data offset="636" size="4" shape="" element_type="f32"/>
			<output>
				<port id="0" precision="FP32"/>
			</output>
		</layer>
		<layer id="468" name="188211882585103" type="Const" version="opset1">
			<data offset="640" size="4" shape="" element_type="f32"/>
			<output>
				<port id="0" precision="FP32"/>
			</output>
		</layer>
		<layer id="469" name="188221882682412" type="Const" version="opset1">
			<data offset="644" size="4" shape="" element_type="f32"/>
			<output>
				<port id="0" precision="FP32"/>
			</output>
		</layer>
		<layer id="470" name="188231882785490" type="Const" version="opset1">
			<data offset="640" size="4" shape="" element_type="f32"/>
			<output>
				<port id="0" precision="FP32"/>
			</output>
		</layer>
		<layer id="471" name="188241882880777" type="Const" version="opset1">
			<data offset="644" size="4" shape="" element_type="f32"/>
			<output>
				<port id="0" precision="FP32"/>
			</output>
		</layer>
		<layer id="472" name="191611916579031" type="Const" version="opset1">
			<data offset="0" size="4" shape="" element_type="f32"/>
			<output>
				<port id="0" precision="FP32"/>
			</output>
		</layer>
		<layer id="473" name="191621916678122" type="Const" version="opset1">
			<data offset="648" size="4" shape="" element_type="f32"/>
			<output>
				<port id="0" precision="FP32"/>
			</output>
		</layer>
		<layer id="474" name="191631916778290" type="Const" version="opset1">
			<data offset="0" size="4" shape="" element_type="f32"/>
			<output>
				<port id="0" precision="FP32"/>
			</output>
		</layer>
		<layer id="475" name="191641916879604" type="Const" version="opset1">
			<data offset="648" size="4" shape="" element_type="f32"/>
			<output>
				<port id="0" precision="FP32"/>
			</output>
		</layer>
		<layer id="476" name="119111191577948" type="Const" version="opset1">
			<data offset="0" size="4" shape="" element_type="f32"/>
			<output>
				<port id="0" precision="FP32"/>
			</output>
		</layer>
		<layer id="477" name="119121191683930" type="Const" version="opset1">
			<data offset="652" size="4" shape="" element_type="f32"/>
			<output>
				<port id="0" precision="FP32"/>
			</output>
		</layer>
		<layer id="478" name="119131191782988" type="Const" version="opset1">
			<data offset="0" size="4" shape="" element_type="f32"/>
			<output>
				<port id="0" precision="FP32"/>
			</output>
		</layer>
		<layer id="479" name="119141191876508" type="Const" version="opset1">
			<data offset="652" size="4" shape="" element_type="f32"/>
			<output>
				<port id="0" precision="FP32"/>
			</output>
		</layer>
		<layer id="480" name="188311883576295" type="Const" version="opset1">
			<data offset="0" size="4" shape="" element_type="f32"/>
			<output>
				<port id="0" precision="FP32"/>
			</output>
		</layer>
		<layer id="481" name="188321883683987" type="Const" version="opset1">
			<data offset="656" size="4" shape="" element_type="f32"/>
			<output>
				<port id="0" precision="FP32"/>
			</output>
		</layer>
		<layer id="482" name="188331883781497" type="Const" version="opset1">
			<data offset="0" size="4" shape="" element_type="f32"/>
			<output>
				<port id="0" precision="FP32"/>
			</output>
		</layer>
		<layer id="483" name="188341883882979" type="Const" version="opset1">
			<data offset="656" size="4" shape="" element_type="f32"/>
			<output>
				<port id="0" precision="FP32"/>
			</output>
		</layer>
		<layer id="484" name="146911469580378" type="Const" version="opset1">
			<data offset="660" size="4" shape="" element_type="f32"/>
			<output>
				<port id="0" precision="FP32"/>
			</output>
		</layer>
		<layer id="485" name="146921469678281" type="Const" version="opset1">
			<data offset="664" size="4" shape="" element_type="f32"/>
			<output>
				<port id="0" precision="FP32"/>
			</output>
		</layer>
		<layer id="486" name="146931469778869" type="Const" version="opset1">
			<data offset="660" size="4" shape="" element_type="f32"/>
			<output>
				<port id="0" precision="FP32"/>
			</output>
		</layer>
		<layer id="487" name="146941469885676" type="Const" version="opset1">
			<data offset="664" size="4" shape="" element_type="f32"/>
			<output>
				<port id="0" precision="FP32"/>
			</output>
		</layer>
		<layer id="488" name="145511455576112" type="Const" version="opset1">
			<data offset="0" size="4" shape="" element_type="f32"/>
			<output>
				<port id="0" precision="FP32"/>
			</output>
		</layer>
		<layer id="489" name="145521455681797" type="Const" version="opset1">
			<data offset="668" size="4" shape="" element_type="f32"/>
			<output>
				<port id="0" precision="FP32"/>
			</output>
		</layer>
		<layer id="490" name="145531455785787" type="Const" version="opset1">
			<data offset="0" size="4" shape="" element_type="f32"/>
			<output>
				<port id="0" precision="FP32"/>
			</output>
		</layer>
		<layer id="491" name="145541455876799" type="Const" version="opset1">
			<data offset="668" size="4" shape="" element_type="f32"/>
			<output>
				<port id="0" precision="FP32"/>
			</output>
		</layer>
		<layer id="492" name="190011900584278" type="Const" version="opset1">
			<data offset="0" size="4" shape="" element_type="f32"/>
			<output>
				<port id="0" precision="FP32"/>
			</output>
		</layer>
		<layer id="493" name="190021900677552" type="Const" version="opset1">
			<data offset="672" size="4" shape="" element_type="f32"/>
			<output>
				<port id="0" precision="FP32"/>
			</output>
		</layer>
		<layer id="494" name="190031900776040" type="Const" version="opset1">
			<data offset="0" size="4" shape="" element_type="f32"/>
			<output>
				<port id="0" precision="FP32"/>
			</output>
		</layer>
		<layer id="495" name="190041900880693" type="Const" version="opset1">
			<data offset="672" size="4" shape="" element_type="f32"/>
			<output>
				<port id="0" precision="FP32"/>
			</output>
		</layer>
		<layer id="496" name="147011470584974" type="Const" version="opset1">
			<data offset="0" size="4" shape="" element_type="f32"/>
			<output>
				<port id="0" precision="FP32"/>
			</output>
		</layer>
		<layer id="497" name="147021470677174" type="Const" version="opset1">
			<data offset="676" size="4" shape="" element_type="f32"/>
			<output>
				<port id="0" precision="FP32"/>
			</output>
		</layer>
		<layer id="498" name="147031470776454" type="Const" version="opset1">
			<data offset="0" size="4" shape="" element_type="f32"/>
			<output>
				<port id="0" precision="FP32"/>
			</output>
		</layer>
		<layer id="499" name="147041470884362" type="Const" version="opset1">
			<data offset="676" size="4" shape="" element_type="f32"/>
			<output>
				<port id="0" precision="FP32"/>
			</output>
		</layer>
		<layer id="500" name="115411154579070" type="Const" version="opset1">
			<data offset="680" size="4" shape="" element_type="f32"/>
			<output>
				<port id="0" precision="FP32"/>
			</output>
		</layer>
		<layer id="501" name="115421154678308" type="Const" version="opset1">
			<data offset="684" size="4" shape="" element_type="f32"/>
			<output>
				<port id="0" precision="FP32"/>
			</output>
		</layer>
		<layer id="502" name="115431154780669" type="Const" version="opset1">
			<data offset="680" size="4" shape="" element_type="f32"/>
			<output>
				<port id="0" precision="FP32"/>
			</output>
		</layer>
		<layer id="503" name="115441154879835" type="Const" version="opset1">
			<data offset="684" size="4" shape="" element_type="f32"/>
			<output>
				<port id="0" precision="FP32"/>
			</output>
		</layer>
		<layer id="504" name="151911519585772" type="Const" version="opset1">
			<data offset="0" size="4" shape="" element_type="f32"/>
			<output>
				<port id="0" precision="FP32"/>
			</output>
		</layer>
		<layer id="505" name="151921519684125" type="Const" version="opset1">
			<data offset="688" size="4" shape="" element_type="f32"/>
			<output>
				<port id="0" precision="FP32"/>
			</output>
		</layer>
		<layer id="506" name="151931519781404" type="Const" version="opset1">
			<data offset="0" size="4" shape="" element_type="f32"/>
			<output>
				<port id="0" precision="FP32"/>
			</output>
		</layer>
		<layer id="507" name="151941519880168" type="Const" version="opset1">
			<data offset="688" size="4" shape="" element_type="f32"/>
			<output>
				<port id="0" precision="FP32"/>
			</output>
		</layer>
		<layer id="508" name="117911179584035" type="Const" version="opset1">
			<data offset="0" size="4" shape="" element_type="f32"/>
			<output>
				<port id="0" precision="FP32"/>
			</output>
		</layer>
		<layer id="509" name="117921179682019" type="Const" version="opset1">
			<data offset="692" size="4" shape="" element_type="f32"/>
			<output>
				<port id="0" precision="FP32"/>
			</output>
		</layer>
		<layer id="510" name="117931179780915" type="Const" version="opset1">
			<data offset="0" size="4" shape="" element_type="f32"/>
			<output>
				<port id="0" precision="FP32"/>
			</output>
		</layer>
		<layer id="511" name="117941179884413" type="Const" version="opset1">
			<data offset="692" size="4" shape="" element_type="f32"/>
			<output>
				<port id="0" precision="FP32"/>
			</output>
		</layer>
		<layer id="512" name="115511155585376" type="Const" version="opset1">
			<data offset="0" size="4" shape="" element_type="f32"/>
			<output>
				<port id="0" precision="FP32"/>
			</output>
		</layer>
		<layer id="513" name="115521155680699" type="Const" version="opset1">
			<data offset="696" size="4" shape="" element_type="f32"/>
			<output>
				<port id="0" precision="FP32"/>
			</output>
		</layer>
		<layer id="514" name="115531155782508" type="Const" version="opset1">
			<data offset="0" size="4" shape="" element_type="f32"/>
			<output>
				<port id="0" precision="FP32"/>
			</output>
		</layer>
		<layer id="515" name="115541155884437" type="Const" version="opset1">
			<data offset="696" size="4" shape="" element_type="f32"/>
			<output>
				<port id="0" precision="FP32"/>
			</output>
		</layer>
		<layer id="516" name="180511805576577" type="Const" version="opset1">
			<data offset="700" size="4" shape="" element_type="f32"/>
			<output>
				<port id="0" precision="FP32"/>
			</output>
		</layer>
		<layer id="517" name="180521805680765" type="Const" version="opset1">
			<data offset="704" size="4" shape="" element_type="f32"/>
			<output>
				<port id="0" precision="FP32"/>
			</output>
		</layer>
		<layer id="518" name="180531805781473" type="Const" version="opset1">
			<data offset="700" size="4" shape="" element_type="f32"/>
			<output>
				<port id="0" precision="FP32"/>
			</output>
		</layer>
		<layer id="519" name="180541805885175" type="Const" version="opset1">
			<data offset="704" size="4" shape="" element_type="f32"/>
			<output>
				<port id="0" precision="FP32"/>
			</output>
		</layer>
		<layer id="520" name="161911619576016" type="Const" version="opset1">
			<data offset="0" size="4" shape="" element_type="f32"/>
			<output>
				<port id="0" precision="FP32"/>
			</output>
		</layer>
		<layer id="521" name="161921619679265" type="Const" version="opset1">
			<data offset="708" size="4" shape="" element_type="f32"/>
			<output>
				<port id="0" precision="FP32"/>
			</output>
		</layer>
		<layer id="522" name="161931619778515" type="Const" version="opset1">
			<data offset="0" size="4" shape="" element_type="f32"/>
			<output>
				<port id="0" precision="FP32"/>
			</output>
		</layer>
		<layer id="523" name="161941619885568" type="Const" version="opset1">
			<data offset="708" size="4" shape="" element_type="f32"/>
			<output>
				<port id="0" precision="FP32"/>
			</output>
		</layer>
		<layer id="524" name="129111291584560" type="Const" version="opset1">
			<data offset="0" size="4" shape="" element_type="f32"/>
			<output>
				<port id="0" precision="FP32"/>
			</output>
		</layer>
		<layer id="525" name="129121291683918" type="Const" version="opset1">
			<data offset="712" size="4" shape="" element_type="f32"/>
			<output>
				<port id="0" precision="FP32"/>
			</output>
		</layer>
		<layer id="526" name="129131291781782" type="Const" version="opset1">
			<data offset="0" size="4" shape="" element_type="f32"/>
			<output>
				<port id="0" precision="FP32"/>
			</output>
		</layer>
		<layer id="527" name="129141291885625" type="Const" version="opset1">
			<data offset="712" size="4" shape="" element_type="f32"/>
			<output>
				<port id="0" precision="FP32"/>
			</output>
		</layer>
		<layer id="528" name="142311423579613" type="Const" version="opset1">
			<data offset="0" size="4" shape="" element_type="f32"/>
			<output>
				<port id="0" precision="FP32"/>
			</output>
		</layer>
		<layer id="529" name="142321423680918" type="Const" version="opset1">
			<data offset="716" size="4" shape="" element_type="f32"/>
			<output>
				<port id="0" precision="FP32"/>
			</output>
		</layer>
		<layer id="530" name="142331423781101" type="Const" version="opset1">
			<data offset="0" size="4" shape="" element_type="f32"/>
			<output>
				<port id="0" precision="FP32"/>
			</output>
		</layer>
		<layer id="531" name="142341423884116" type="Const" version="opset1">
			<data offset="716" size="4" shape="" element_type="f32"/>
			<output>
				<port id="0" precision="FP32"/>
			</output>
		</layer>
		<layer id="532" name="182211822582271" type="Const" version="opset1">
			<data offset="0" size="4" shape="" element_type="f32"/>
			<output>
				<port id="0" precision="FP32"/>
			</output>
		</layer>
		<layer id="533" name="182221822681926" type="Const" version="opset1">
			<data offset="720" size="4" shape="" element_type="f32"/>
			<output>
				<port id="0" precision="FP32"/>
			</output>
		</layer>
		<layer id="534" name="182231822777954" type="Const" version="opset1">
			<data offset="0" size="4" shape="" element_type="f32"/>
			<output>
				<port id="0" precision="FP32"/>
			</output>
		</layer>
		<layer id="535" name="182241822884977" type="Const" version="opset1">
			<data offset="720" size="4" shape="" element_type="f32"/>
			<output>
				<port id="0" precision="FP32"/>
			</output>
		</layer>
		<layer id="536" name="174011740580438" type="Const" version="opset1">
			<data offset="0" size="4" shape="" element_type="f32"/>
			<output>
				<port id="0" precision="FP32"/>
			</output>
		</layer>
		<layer id="537" name="174021740685664" type="Const" version="opset1">
			<data offset="724" size="4" shape="" element_type="f32"/>
			<output>
				<port id="0" precision="FP32"/>
			</output>
		</layer>
		<layer id="538" name="174031740777531" type="Const" version="opset1">
			<data offset="0" size="4" shape="" element_type="f32"/>
			<output>
				<port id="0" precision="FP32"/>
			</output>
		</layer>
		<layer id="539" name="174041740878110" type="Const" version="opset1">
			<data offset="724" size="4" shape="" element_type="f32"/>
			<output>
				<port id="0" precision="FP32"/>
			</output>
		</layer>
		<layer id="541" name="Multiply_77000/fq_input_0" type="FakeQuantize" version="opset1">
			<data levels="256" auto_broadcast="numpy"/>
			<input>
				<port id="0">
					<dim>1</dim>
					<dim>3</dim>
					<dim>64</dim>
					<dim>64</dim>
				</port>
				<port id="1"/>
				<port id="2"/>
				<port id="3"/>
				<port id="4"/>
			</input>
			<output>
				<port id="5" precision="FP32">
					<dim>1</dim>
					<dim>3</dim>
					<dim>64</dim>
					<dim>64</dim>
				</port>
			</output>
		</layer>
		<layer id="542" name="Multiply_77000/fq_weights_1/scale5068782973" type="Const" version="opset1">
			<data offset="728" size="256" shape="64,1,1,1" element_type="f32"/>
			<output>
				<port id="0" precision="FP32">
					<dim>64</dim>
					<dim>1</dim>
					<dim>1</dim>
					<dim>1</dim>
				</port>
			</output>
		</layer>
		<layer id="543" name="Gather_89610333143392/restored_convert/quantized5067980285" type="Const" version="opset1">
			<data offset="984" size="1728" shape="64,3,3,3" element_type="i8"/>
			<output>
				<port id="0" precision="I8">
					<dim>64</dim>
					<dim>3</dim>
					<dim>3</dim>
					<dim>3</dim>
				</port>
			</output>
		</layer>
		<layer id="544" name="Gather_89610333143392/restored_convert/quantized/to_f32" type="Convert" version="opset1">
			<data destination_type="f32"/>
			<input>
				<port id="0">
					<dim>64</dim>
					<dim>3</dim>
					<dim>3</dim>
					<dim>3</dim>
				</port>
			</input>
			<output>
				<port id="1" precision="FP32">
					<dim>64</dim>
					<dim>3</dim>
					<dim>3</dim>
					<dim>3</dim>
				</port>
			</output>
		</layer>
		<layer id="545" name="Multiply_77000/fq_weights_1/mulpiply_by_scale" type="Multiply" version="opset1">
			<data auto_broadcast="numpy"/>
			<input>
				<port id="0">
					<dim>64</dim>
					<dim>3</dim>
					<dim>3</dim>
					<dim>3</dim>
				</port>
				<port id="1">
					<dim>64</dim>
					<dim>1</dim>
					<dim>1</dim>
					<dim>1</dim>
				</port>
			</input>
			<output>
				<port id="2" precision="FP32">
					<dim>64</dim>
					<dim>3</dim>
					<dim>3</dim>
					<dim>3</dim>
				</port>
			</output>
		</layer>
		<layer id="546" name="Multiply_77000" type="Convolution" version="opset1">
			<data auto_pad="explicit" strides="2,2" dilations="1,1" pads_begin="1,1" pads_end="1,1"/>
			<rt_info>
				<attribute name="preprocessing" version="0"/>
			</rt_info>
			<input>
				<port id="0">
					<dim>1</dim>
					<dim>3</dim>
					<dim>64</dim>
					<dim>64</dim>
				</port>
				<port id="1">
					<dim>64</dim>
					<dim>3</dim>
					<dim>3</dim>
					<dim>3</dim>
				</port>
			</input>
			<output>
				<port id="2" precision="FP32">
					<dim>1</dim>
					<dim>64</dim>
					<dim>32</dim>
					<dim>32</dim>
				</port>
			</output>
		</layer>
		<layer id="547" name="Constant_77005333485310" type="Const" version="opset1">
			<data offset="2712" size="128" shape="1,64,1,1" element_type="f16"/>
			<output>
				<port id="0" precision="FP16">
					<dim>1</dim>
					<dim>64</dim>
					<dim>1</dim>
					<dim>1</dim>
				</port>
			</output>
		</layer>
		<layer id="548" name="Constant_77005333443393/restored_convert" type="Convert" version="opset1">
			<data destination_type="f32"/>
			<rt_info>
				<attribute name="decompression" version="0"/>
			</rt_info>
			<input>
				<port id="0">
					<dim>1</dim>
					<dim>64</dim>
					<dim>1</dim>
					<dim>1</dim>
				</port>
			</input>
			<output>
				<port id="1" precision="FP32">
					<dim>1</dim>
					<dim>64</dim>
					<dim>1</dim>
					<dim>1</dim>
				</port>
			</output>
		</layer>
		<layer id="549" name="BatchNormalization_1" type="Add" version="opset1">
			<data auto_broadcast="numpy"/>
			<input>
				<port id="0">
					<dim>1</dim>
					<dim>64</dim>
					<dim>32</dim>
					<dim>32</dim>
				</port>
				<port id="1">
					<dim>1</dim>
					<dim>64</dim>
					<dim>1</dim>
					<dim>1</dim>
				</port>
			</input>
			<output>
				<port id="2" precision="FP32" names="1841">
					<dim>1</dim>
					<dim>64</dim>
					<dim>32</dim>
					<dim>32</dim>
				</port>
			</output>
		</layer>
		<layer id="550" name="Relu_2" type="ReLU" version="opset1">
			<input>
				<port id="0">
					<dim>1</dim>
					<dim>64</dim>
					<dim>32</dim>
					<dim>32</dim>
				</port>
			</input>
			<output>
				<port id="1" precision="FP32" names="1842">
					<dim>1</dim>
					<dim>64</dim>
					<dim>32</dim>
					<dim>32</dim>
				</port>
			</output>
		</layer>
		<layer id="551" name="Multiply_77007/fq_input_0" type="FakeQuantize" version="opset1">
			<data levels="256" auto_broadcast="numpy"/>
			<input>
				<port id="0">
					<dim>1</dim>
					<dim>64</dim>
					<dim>32</dim>
					<dim>32</dim>
				</port>
				<port id="1"/>
				<port id="2"/>
				<port id="3"/>
				<port id="4"/>
			</input>
			<output>
				<port id="5" precision="FP32">
					<dim>1</dim>
					<dim>64</dim>
					<dim>32</dim>
					<dim>32</dim>
				</port>
			</output>
		</layer>
		<layer id="552" name="Multiply_77007/fq_weights_1/scale5029777186" type="Const" version="opset1">
			<data offset="2840" size="256" shape="64,1,1,1" element_type="f32"/>
			<output>
				<port id="0" precision="FP32">
					<dim>64</dim>
					<dim>1</dim>
					<dim>1</dim>
					<dim>1</dim>
				</port>
			</output>
		</layer>
		<layer id="553" name="Multiply_79167333843394/restored_convert/quantized5028977456" type="Const" version="opset1">
			<data offset="3096" size="36864" shape="64,64,3,3" element_type="i8"/>
			<output>
				<port id="0" precision="I8">
					<dim>64</dim>
					<dim>64</dim>
					<dim>3</dim>
					<dim>3</dim>
				</port>
			</output>
		</layer>
		<layer id="554" name="Multiply_79167333843394/restored_convert/quantized/to_f32" type="Convert" version="opset1">
			<data destination_type="f32"/>
			<input>
				<port id="0">
					<dim>64</dim>
					<dim>64</dim>
					<dim>3</dim>
					<dim>3</dim>
				</port>
			</input>
			<output>
				<port id="1" precision="FP32">
					<dim>64</dim>
					<dim>64</dim>
					<dim>3</dim>
					<dim>3</dim>
				</port>
			</output>
		</layer>
		<layer id="555" name="Multiply_77007/fq_weights_1/mulpiply_by_scale" type="Multiply" version="opset1">
			<data auto_broadcast="numpy"/>
			<input>
				<port id="0">
					<dim>64</dim>
					<dim>64</dim>
					<dim>3</dim>
					<dim>3</dim>
				</port>
				<port id="1">
					<dim>64</dim>
					<dim>1</dim>
					<dim>1</dim>
					<dim>1</dim>
				</port>
			</input>
			<output>
				<port id="2" precision="FP32">
					<dim>64</dim>
					<dim>64</dim>
					<dim>3</dim>
					<dim>3</dim>
				</port>
			</output>
		</layer>
		<layer id="556" name="Multiply_77007" type="Convolution" version="opset1">
			<data auto_pad="explicit" strides="2,2" dilations="1,1" pads_begin="1,1" pads_end="1,1"/>
			<input>
				<port id="0">
					<dim>1</dim>
					<dim>64</dim>
					<dim>32</dim>
					<dim>32</dim>
				</port>
				<port id="1">
					<dim>64</dim>
					<dim>64</dim>
					<dim>3</dim>
					<dim>3</dim>
				</port>
			</input>
			<output>
				<port id="2" precision="FP32">
					<dim>1</dim>
					<dim>64</dim>
					<dim>16</dim>
					<dim>16</dim>
				</port>
			</output>
		</layer>
		<layer id="557" name="Constant_77012334185781" type="Const" version="opset1">
			<data offset="39960" size="128" shape="1,64,1,1" element_type="f16"/>
			<output>
				<port id="0" precision="FP16">
					<dim>1</dim>
					<dim>64</dim>
					<dim>1</dim>
					<dim>1</dim>
				</port>
			</output>
		</layer>
		<layer id="558" name="Constant_77012334143395/restored_convert" type="Convert" version="opset1">
			<data destination_type="f32"/>
			<rt_info>
				<attribute name="decompression" version="0"/>
			</rt_info>
			<input>
				<port id="0">
					<dim>1</dim>
					<dim>64</dim>
					<dim>1</dim>
					<dim>1</dim>
				</port>
			</input>
			<output>
				<port id="1" precision="FP32">
					<dim>1</dim>
					<dim>64</dim>
					<dim>1</dim>
					<dim>1</dim>
				</port>
			</output>
		</layer>
		<layer id="559" name="BatchNormalization_4" type="Add" version="opset1">
			<data auto_broadcast="numpy"/>
			<input>
				<port id="0">
					<dim>1</dim>
					<dim>64</dim>
					<dim>16</dim>
					<dim>16</dim>
				</port>
				<port id="1">
					<dim>1</dim>
					<dim>64</dim>
					<dim>1</dim>
					<dim>1</dim>
				</port>
			</input>
			<output>
				<port id="2" precision="FP32" names="1844">
					<dim>1</dim>
					<dim>64</dim>
					<dim>16</dim>
					<dim>16</dim>
				</port>
			</output>
		</layer>
		<layer id="560" name="Relu_5" type="ReLU" version="opset1">
			<input>
				<port id="0">
					<dim>1</dim>
					<dim>64</dim>
					<dim>16</dim>
					<dim>16</dim>
				</port>
			</input>
			<output>
				<port id="1" precision="FP32" names="1845">
					<dim>1</dim>
					<dim>64</dim>
					<dim>16</dim>
					<dim>16</dim>
				</port>
			</output>
		</layer>
		<layer id="561" name="Multiply_77014/fq_input_0" type="FakeQuantize" version="opset1">
			<data levels="256" auto_broadcast="numpy"/>
			<input>
				<port id="0">
					<dim>1</dim>
					<dim>64</dim>
					<dim>16</dim>
					<dim>16</dim>
				</port>
				<port id="1"/>
				<port id="2"/>
				<port id="3"/>
				<port id="4"/>
			</input>
			<output>
				<port id="5" precision="FP32">
					<dim>1</dim>
					<dim>64</dim>
					<dim>16</dim>
					<dim>16</dim>
				</port>
			</output>
		</layer>
		<layer id="562" name="Multiply_77014/fq_weights_1/scale5233779889" type="Const" version="opset1">
			<data offset="40088" size="256" shape="64,1,1,1" element_type="f32"/>
			<output>
				<port id="0" precision="FP32">
					<dim>64</dim>
					<dim>1</dim>
					<dim>1</dim>
					<dim>1</dim>
				</port>
			</output>
		</layer>
		<layer id="563" name="Multiply_79176334543396/restored_convert/quantized5232984998" type="Const" version="opset1">
			<data offset="40344" size="4096" shape="64,64,1,1" element_type="i8"/>
			<output>
				<port id="0" precision="I8">
					<dim>64</dim>
					<dim>64</dim>
					<dim>1</dim>
					<dim>1</dim>
				</port>
			</output>
		</layer>
		<layer id="564" name="Multiply_79176334543396/restored_convert/quantized/to_f32" type="Convert" version="opset1">
			<data destination_type="f32"/>
			<input>
				<port id="0">
					<dim>64</dim>
					<dim>64</dim>
					<dim>1</dim>
					<dim>1</dim>
				</port>
			</input>
			<output>
				<port id="1" precision="FP32">
					<dim>64</dim>
					<dim>64</dim>
					<dim>1</dim>
					<dim>1</dim>
				</port>
			</output>
		</layer>
		<layer id="565" name="Multiply_77014/fq_weights_1/mulpiply_by_scale" type="Multiply" version="opset1">
			<data auto_broadcast="numpy"/>
			<input>
				<port id="0">
					<dim>64</dim>
					<dim>64</dim>
					<dim>1</dim>
					<dim>1</dim>
				</port>
				<port id="1">
					<dim>64</dim>
					<dim>1</dim>
					<dim>1</dim>
					<dim>1</dim>
				</port>
			</input>
			<output>
				<port id="2" precision="FP32">
					<dim>64</dim>
					<dim>64</dim>
					<dim>1</dim>
					<dim>1</dim>
				</port>
			</output>
		</layer>
		<layer id="566" name="Multiply_77014" type="Convolution" version="opset1">
			<data auto_pad="explicit" strides="1,1" dilations="1,1" pads_begin="0,0" pads_end="0,0"/>
			<input>
				<port id="0">
					<dim>1</dim>
					<dim>64</dim>
					<dim>16</dim>
					<dim>16</dim>
				</port>
				<port id="1">
					<dim>64</dim>
					<dim>64</dim>
					<dim>1</dim>
					<dim>1</dim>
				</port>
			</input>
			<output>
				<port id="2" precision="FP32">
					<dim>1</dim>
					<dim>64</dim>
					<dim>16</dim>
					<dim>16</dim>
				</port>
			</output>
		</layer>
		<layer id="567" name="Constant_77019334876949" type="Const" version="opset1">
			<data offset="44440" size="128" shape="1,64,1,1" element_type="f16"/>
			<output>
				<port id="0" precision="FP16">
					<dim>1</dim>
					<dim>64</dim>
					<dim>1</dim>
					<dim>1</dim>
				</port>
			</output>
		</layer>
		<layer id="568" name="Constant_77019334843397/restored_convert" type="Convert" version="opset1">
			<data destination_type="f32"/>
			<rt_info>
				<attribute name="decompression" version="0"/>
			</rt_info>
			<input>
				<port id="0">
					<dim>1</dim>
					<dim>64</dim>
					<dim>1</dim>
					<dim>1</dim>
				</port>
			</input>
			<output>
				<port id="1" precision="FP32">
					<dim>1</dim>
					<dim>64</dim>
					<dim>1</dim>
					<dim>1</dim>
				</port>
			</output>
		</layer>
		<layer id="569" name="BatchNormalization_7" type="Add" version="opset1">
			<data auto_broadcast="numpy"/>
			<input>
				<port id="0">
					<dim>1</dim>
					<dim>64</dim>
					<dim>16</dim>
					<dim>16</dim>
				</port>
				<port id="1">
					<dim>1</dim>
					<dim>64</dim>
					<dim>1</dim>
					<dim>1</dim>
				</port>
			</input>
			<output>
				<port id="2" precision="FP32" names="1847">
					<dim>1</dim>
					<dim>64</dim>
					<dim>16</dim>
					<dim>16</dim>
				</port>
			</output>
		</layer>
		<layer id="570" name="Relu_8" type="ReLU" version="opset1">
			<input>
				<port id="0">
					<dim>1</dim>
					<dim>64</dim>
					<dim>16</dim>
					<dim>16</dim>
				</port>
			</input>
			<output>
				<port id="1" precision="FP32" names="1848">
					<dim>1</dim>
					<dim>64</dim>
					<dim>16</dim>
					<dim>16</dim>
				</port>
			</output>
		</layer>
		<layer id="571" name="Multiply_77021/fq_input_0" type="FakeQuantize" version="opset1">
			<data levels="256" auto_broadcast="numpy"/>
			<input>
				<port id="0">
					<dim>1</dim>
					<dim>64</dim>
					<dim>16</dim>
					<dim>16</dim>
				</port>
				<port id="1"/>
				<port id="2"/>
				<port id="3"/>
				<port id="4"/>
			</input>
			<output>
				<port id="5" precision="FP32">
					<dim>1</dim>
					<dim>64</dim>
					<dim>16</dim>
					<dim>16</dim>
				</port>
			</output>
		</layer>
		<layer id="572" name="Multiply_77021/fq_weights_1/scale5290776343" type="Const" version="opset1">
			<data offset="44568" size="256" shape="64,1,1,1" element_type="f32"/>
			<output>
				<port id="0" precision="FP32">
					<dim>64</dim>
					<dim>1</dim>
					<dim>1</dim>
					<dim>1</dim>
				</port>
			</output>
		</layer>
		<layer id="573" name="Multiply_79185335243398/restored_convert/quantized5289982457" type="Const" version="opset1">
			<data offset="44824" size="36864" shape="64,64,3,3" element_type="i8"/>
			<output>
				<port id="0" precision="I8">
					<dim>64</dim>
					<dim>64</dim>
					<dim>3</dim>
					<dim>3</dim>
				</port>
			</output>
		</layer>
		<layer id="574" name="Multiply_79185335243398/restored_convert/quantized/to_f32" type="Convert" version="opset1">
			<data destination_type="f32"/>
			<input>
				<port id="0">
					<dim>64</dim>
					<dim>64</dim>
					<dim>3</dim>
					<dim>3</dim>
				</port>
			</input>
			<output>
				<port id="1" precision="FP32">
					<dim>64</dim>
					<dim>64</dim>
					<dim>3</dim>
					<dim>3</dim>
				</port>
			</output>
		</layer>
		<layer id="575" name="Multiply_77021/fq_weights_1/mulpiply_by_scale" type="Multiply" version="opset1">
			<data auto_broadcast="numpy"/>
			<input>
				<port id="0">
					<dim>64</dim>
					<dim>64</dim>
					<dim>3</dim>
					<dim>3</dim>
				</port>
				<port id="1">
					<dim>64</dim>
					<dim>1</dim>
					<dim>1</dim>
					<dim>1</dim>
				</port>
			</input>
			<output>
				<port id="2" precision="FP32">
					<dim>64</dim>
					<dim>64</dim>
					<dim>3</dim>
					<dim>3</dim>
				</port>
			</output>
		</layer>
		<layer id="576" name="Multiply_77021" type="Convolution" version="opset1">
			<data auto_pad="explicit" strides="1,1" dilations="1,1" pads_begin="1,1" pads_end="1,1"/>
			<input>
				<port id="0">
					<dim>1</dim>
					<dim>64</dim>
					<dim>16</dim>
					<dim>16</dim>
				</port>
				<port id="1">
					<dim>64</dim>
					<dim>64</dim>
					<dim>3</dim>
					<dim>3</dim>
				</port>
			</input>
			<output>
				<port id="2" precision="FP32">
					<dim>1</dim>
					<dim>64</dim>
					<dim>16</dim>
					<dim>16</dim>
				</port>
			</output>
		</layer>
		<layer id="577" name="Constant_77026335581365" type="Const" version="opset1">
			<data offset="81688" size="128" shape="1,64,1,1" element_type="f16"/>
			<output>
				<port id="0" precision="FP16">
					<dim>1</dim>
					<dim>64</dim>
					<dim>1</dim>
					<dim>1</dim>
				</port>
			</output>
		</layer>
		<layer id="578" name="Constant_77026335543399/restored_convert" type="Convert" version="opset1">
			<data destination_type="f32"/>
			<rt_info>
				<attribute name="decompression" version="0"/>
			</rt_info>
			<input>
				<port id="0">
					<dim>1</dim>
					<dim>64</dim>
					<dim>1</dim>
					<dim>1</dim>
				</port>
			</input>
			<output>
				<port id="1" precision="FP32">
					<dim>1</dim>
					<dim>64</dim>
					<dim>1</dim>
					<dim>1</dim>
				</port>
			</output>
		</layer>
		<layer id="579" name="BatchNormalization_10" type="Add" version="opset1">
			<data auto_broadcast="numpy"/>
			<input>
				<port id="0">
					<dim>1</dim>
					<dim>64</dim>
					<dim>16</dim>
					<dim>16</dim>
				</port>
				<port id="1">
					<dim>1</dim>
					<dim>64</dim>
					<dim>1</dim>
					<dim>1</dim>
				</port>
			</input>
			<output>
				<port id="2" precision="FP32" names="1850">
					<dim>1</dim>
					<dim>64</dim>
					<dim>16</dim>
					<dim>16</dim>
				</port>
			</output>
		</layer>
		<layer id="580" name="Relu_11" type="ReLU" version="opset1">
			<input>
				<port id="0">
					<dim>1</dim>
					<dim>64</dim>
					<dim>16</dim>
					<dim>16</dim>
				</port>
			</input>
			<output>
				<port id="1" precision="FP32" names="1851">
					<dim>1</dim>
					<dim>64</dim>
					<dim>16</dim>
					<dim>16</dim>
				</port>
			</output>
		</layer>
		<layer id="581" name="Multiply_77028/fq_input_0" type="FakeQuantize" version="opset1">
			<data levels="256" auto_broadcast="numpy"/>
			<input>
				<port id="0">
					<dim>1</dim>
					<dim>64</dim>
					<dim>16</dim>
					<dim>16</dim>
				</port>
				<port id="1"/>
				<port id="2"/>
				<port id="3"/>
				<port id="4"/>
			</input>
			<output>
				<port id="5" precision="FP32">
					<dim>1</dim>
					<dim>64</dim>
					<dim>16</dim>
					<dim>16</dim>
				</port>
			</output>
		</layer>
		<layer id="582" name="Multiply_77028/fq_weights_1/scale5230784329" type="Const" version="opset1">
			<data offset="81816" size="1024" shape="256,1,1,1" element_type="f32"/>
			<output>
				<port id="0" precision="FP32">
					<dim>256</dim>
					<dim>1</dim>
					<dim>1</dim>
					<dim>1</dim>
				</port>
			</output>
		</layer>
		<layer id="583" name="Multiply_79194335943400/restored_convert/quantized5229980603" type="Const" version="opset1">
			<data offset="82840" size="16384" shape="256,64,1,1" element_type="i8"/>
			<output>
				<port id="0" precision="I8">
					<dim>256</dim>
					<dim>64</dim>
					<dim>1</dim>
					<dim>1</dim>
				</port>
			</output>
		</layer>
		<layer id="584" name="Multiply_79194335943400/restored_convert/quantized/to_f32" type="Convert" version="opset1">
			<data destination_type="f32"/>
			<input>
				<port id="0">
					<dim>256</dim>
					<dim>64</dim>
					<dim>1</dim>
					<dim>1</dim>
				</port>
			</input>
			<output>
				<port id="1" precision="FP32">
					<dim>256</dim>
					<dim>64</dim>
					<dim>1</dim>
					<dim>1</dim>
				</port>
			</output>
		</layer>
		<layer id="585" name="Multiply_77028/fq_weights_1/mulpiply_by_scale" type="Multiply" version="opset1">
			<data auto_broadcast="numpy"/>
			<input>
				<port id="0">
					<dim>256</dim>
					<dim>64</dim>
					<dim>1</dim>
					<dim>1</dim>
				</port>
				<port id="1">
					<dim>256</dim>
					<dim>1</dim>
					<dim>1</dim>
					<dim>1</dim>
				</port>
			</input>
			<output>
				<port id="2" precision="FP32">
					<dim>256</dim>
					<dim>64</dim>
					<dim>1</dim>
					<dim>1</dim>
				</port>
			</output>
		</layer>
		<layer id="586" name="Multiply_77028" type="Convolution" version="opset1">
			<data auto_pad="explicit" strides="1,1" dilations="1,1" pads_begin="0,0" pads_end="0,0"/>
			<input>
				<port id="0">
					<dim>1</dim>
					<dim>64</dim>
					<dim>16</dim>
					<dim>16</dim>
				</port>
				<port id="1">
					<dim>256</dim>
					<dim>64</dim>
					<dim>1</dim>
					<dim>1</dim>
				</port>
			</input>
			<output>
				<port id="2" precision="FP32">
					<dim>1</dim>
					<dim>256</dim>
					<dim>16</dim>
					<dim>16</dim>
				</port>
			</output>
		</layer>
		<layer id="587" name="Constant_77033336276169" type="Const" version="opset1">
			<data offset="99224" size="512" shape="1,256,1,1" element_type="f16"/>
			<output>
				<port id="0" precision="FP16">
					<dim>1</dim>
					<dim>256</dim>
					<dim>1</dim>
					<dim>1</dim>
				</port>
			</output>
		</layer>
		<layer id="588" name="Constant_77033336243401/restored_convert" type="Convert" version="opset1">
			<data destination_type="f32"/>
			<rt_info>
				<attribute name="decompression" version="0"/>
			</rt_info>
			<input>
				<port id="0">
					<dim>1</dim>
					<dim>256</dim>
					<dim>1</dim>
					<dim>1</dim>
				</port>
			</input>
			<output>
				<port id="1" precision="FP32">
					<dim>1</dim>
					<dim>256</dim>
					<dim>1</dim>
					<dim>1</dim>
				</port>
			</output>
		</layer>
		<layer id="589" name="BatchNormalization_13" type="Add" version="opset1">
			<data auto_broadcast="numpy"/>
			<input>
				<port id="0">
					<dim>1</dim>
					<dim>256</dim>
					<dim>16</dim>
					<dim>16</dim>
				</port>
				<port id="1">
					<dim>1</dim>
					<dim>256</dim>
					<dim>1</dim>
					<dim>1</dim>
				</port>
			</input>
			<output>
				<port id="2" precision="FP32" names="1853">
					<dim>1</dim>
					<dim>256</dim>
					<dim>16</dim>
					<dim>16</dim>
				</port>
			</output>
		</layer>
		<layer id="590" name="Add_16/fq_input_0" type="FakeQuantize" version="opset1">
			<data levels="256" auto_broadcast="numpy"/>
			<input>
				<port id="0">
					<dim>1</dim>
					<dim>256</dim>
					<dim>16</dim>
					<dim>16</dim>
				</port>
				<port id="1"/>
				<port id="2"/>
				<port id="3"/>
				<port id="4"/>
			</input>
			<output>
				<port id="5" precision="FP32">
					<dim>1</dim>
					<dim>256</dim>
					<dim>16</dim>
					<dim>16</dim>
				</port>
			</output>
		</layer>
		<layer id="591" name="180611806583954" type="Const" version="opset1">
			<data offset="99736" size="4" shape="" element_type="f32"/>
			<output>
				<port id="0" precision="FP32"/>
			</output>
		</layer>
		<layer id="592" name="180621806682319" type="Const" version="opset1">
			<data offset="99740" size="4" shape="" element_type="f32"/>
			<output>
				<port id="0" precision="FP32"/>
			</output>
		</layer>
		<layer id="593" name="180631806783957" type="Const" version="opset1">
			<data offset="99736" size="4" shape="" element_type="f32"/>
			<output>
				<port id="0" precision="FP32"/>
			</output>
		</layer>
		<layer id="594" name="180641806884509" type="Const" version="opset1">
			<data offset="99740" size="4" shape="" element_type="f32"/>
			<output>
				<port id="0" precision="FP32"/>
			</output>
		</layer>
		<layer id="595" name="Multiply_77035/fq_weights_1/scale5353781596" type="Const" version="opset1">
			<data offset="99744" size="1024" shape="256,1,1,1" element_type="f32"/>
			<output>
				<port id="0" precision="FP32">
					<dim>256</dim>
					<dim>1</dim>
					<dim>1</dim>
					<dim>1</dim>
				</port>
			</output>
		</layer>
		<layer id="596" name="Multiply_79203336543402/restored_convert/quantized5352981137" type="Const" version="opset1">
			<data offset="100768" size="16384" shape="256,64,1,1" element_type="i8"/>
			<output>
				<port id="0" precision="I8">
					<dim>256</dim>
					<dim>64</dim>
					<dim>1</dim>
					<dim>1</dim>
				</port>
			</output>
		</layer>
		<layer id="597" name="Multiply_79203336543402/restored_convert/quantized/to_f32" type="Convert" version="opset1">
			<data destination_type="f32"/>
			<input>
				<port id="0">
					<dim>256</dim>
					<dim>64</dim>
					<dim>1</dim>
					<dim>1</dim>
				</port>
			</input>
			<output>
				<port id="1" precision="FP32">
					<dim>256</dim>
					<dim>64</dim>
					<dim>1</dim>
					<dim>1</dim>
				</port>
			</output>
		</layer>
		<layer id="598" name="Multiply_77035/fq_weights_1/mulpiply_by_scale" type="Multiply" version="opset1">
			<data auto_broadcast="numpy"/>
			<input>
				<port id="0">
					<dim>256</dim>
					<dim>64</dim>
					<dim>1</dim>
					<dim>1</dim>
				</port>
				<port id="1">
					<dim>256</dim>
					<dim>1</dim>
					<dim>1</dim>
					<dim>1</dim>
				</port>
			</input>
			<output>
				<port id="2" precision="FP32">
					<dim>256</dim>
					<dim>64</dim>
					<dim>1</dim>
					<dim>1</dim>
				</port>
			</output>
		</layer>
		<layer id="599" name="Multiply_77035" type="Convolution" version="opset1">
			<data auto_pad="explicit" strides="1,1" dilations="1,1" pads_begin="0,0" pads_end="0,0"/>
			<input>
				<port id="0">
					<dim>1</dim>
					<dim>64</dim>
					<dim>16</dim>
					<dim>16</dim>
				</port>
				<port id="1">
					<dim>256</dim>
					<dim>64</dim>
					<dim>1</dim>
					<dim>1</dim>
				</port>
			</input>
			<output>
				<port id="2" precision="FP32">
					<dim>1</dim>
					<dim>256</dim>
					<dim>16</dim>
					<dim>16</dim>
				</port>
			</output>
		</layer>
		<layer id="600" name="Constant_77040336884647" type="Const" version="opset1">
			<data offset="117152" size="512" shape="1,256,1,1" element_type="f16"/>
			<output>
				<port id="0" precision="FP16">
					<dim>1</dim>
					<dim>256</dim>
					<dim>1</dim>
					<dim>1</dim>
				</port>
			</output>
		</layer>
		<layer id="601" name="Constant_77040336843403/restored_convert" type="Convert" version="opset1">
			<data destination_type="f32"/>
			<rt_info>
				<attribute name="decompression" version="0"/>
			</rt_info>
			<input>
				<port id="0">
					<dim>1</dim>
					<dim>256</dim>
					<dim>1</dim>
					<dim>1</dim>
				</port>
			</input>
			<output>
				<port id="1" precision="FP32">
					<dim>1</dim>
					<dim>256</dim>
					<dim>1</dim>
					<dim>1</dim>
				</port>
			</output>
		</layer>
		<layer id="602" name="BatchNormalization_15" type="Add" version="opset1">
			<data auto_broadcast="numpy"/>
			<input>
				<port id="0">
					<dim>1</dim>
					<dim>256</dim>
					<dim>16</dim>
					<dim>16</dim>
				</port>
				<port id="1">
					<dim>1</dim>
					<dim>256</dim>
					<dim>1</dim>
					<dim>1</dim>
				</port>
			</input>
			<output>
				<port id="2" precision="FP32" names="1855">
					<dim>1</dim>
					<dim>256</dim>
					<dim>16</dim>
					<dim>16</dim>
				</port>
			</output>
		</layer>
		<layer id="603" name="Add_16/fq_input_1" type="FakeQuantize" version="opset1">
			<data levels="256" auto_broadcast="numpy"/>
			<input>
				<port id="0">
					<dim>1</dim>
					<dim>256</dim>
					<dim>16</dim>
					<dim>16</dim>
				</port>
				<port id="1"/>
				<port id="2"/>
				<port id="3"/>
				<port id="4"/>
			</input>
			<output>
				<port id="5" precision="FP32">
					<dim>1</dim>
					<dim>256</dim>
					<dim>16</dim>
					<dim>16</dim>
				</port>
			</output>
		</layer>
		<layer id="604" name="Add_16" type="Add" version="opset1">
			<data auto_broadcast="numpy"/>
			<input>
				<port id="0">
					<dim>1</dim>
					<dim>256</dim>
					<dim>16</dim>
					<dim>16</dim>
				</port>
				<port id="1">
					<dim>1</dim>
					<dim>256</dim>
					<dim>16</dim>
					<dim>16</dim>
				</port>
			</input>
			<output>
				<port id="2" precision="FP32" names="1856">
					<dim>1</dim>
					<dim>256</dim>
					<dim>16</dim>
					<dim>16</dim>
				</port>
			</output>
		</layer>
		<layer id="605" name="Relu_17" type="ReLU" version="opset1">
			<input>
				<port id="0">
					<dim>1</dim>
					<dim>256</dim>
					<dim>16</dim>
					<dim>16</dim>
				</port>
			</input>
			<output>
				<port id="1" precision="FP32" names="1857">
					<dim>1</dim>
					<dim>256</dim>
					<dim>16</dim>
					<dim>16</dim>
				</port>
			</output>
		</layer>
		<layer id="606" name="Add_26/fq_input_1" type="FakeQuantize" version="opset1">
			<data levels="256" auto_broadcast="numpy"/>
			<input>
				<port id="0">
					<dim>1</dim>
					<dim>256</dim>
					<dim>16</dim>
					<dim>16</dim>
				</port>
				<port id="1"/>
				<port id="2"/>
				<port id="3"/>
				<port id="4"/>
			</input>
			<output>
				<port id="5" precision="FP32">
					<dim>1</dim>
					<dim>256</dim>
					<dim>16</dim>
					<dim>16</dim>
				</port>
			</output>
		</layer>
		<layer id="607" name="Multiply_77042/fq_weights_1/scale5131778737" type="Const" version="opset1">
			<data offset="117664" size="256" shape="64,1,1,1" element_type="f32"/>
			<output>
				<port id="0" precision="FP32">
					<dim>64</dim>
					<dim>1</dim>
					<dim>1</dim>
					<dim>1</dim>
				</port>
			</output>
		</layer>
		<layer id="608" name="Multiply_79212337343404/restored_convert/quantized5130979295" type="Const" version="opset1">
			<data offset="117920" size="16384" shape="64,256,1,1" element_type="i8"/>
			<output>
				<port id="0" precision="I8">
					<dim>64</dim>
					<dim>256</dim>
					<dim>1</dim>
					<dim>1</dim>
				</port>
			</output>
		</layer>
		<layer id="609" name="Multiply_79212337343404/restored_convert/quantized/to_f32" type="Convert" version="opset1">
			<data destination_type="f32"/>
			<input>
				<port id="0">
					<dim>64</dim>
					<dim>256</dim>
					<dim>1</dim>
					<dim>1</dim>
				</port>
			</input>
			<output>
				<port id="1" precision="FP32">
					<dim>64</dim>
					<dim>256</dim>
					<dim>1</dim>
					<dim>1</dim>
				</port>
			</output>
		</layer>
		<layer id="610" name="Multiply_77042/fq_weights_1/mulpiply_by_scale" type="Multiply" version="opset1">
			<data auto_broadcast="numpy"/>
			<input>
				<port id="0">
					<dim>64</dim>
					<dim>256</dim>
					<dim>1</dim>
					<dim>1</dim>
				</port>
				<port id="1">
					<dim>64</dim>
					<dim>1</dim>
					<dim>1</dim>
					<dim>1</dim>
				</port>
			</input>
			<output>
				<port id="2" precision="FP32">
					<dim>64</dim>
					<dim>256</dim>
					<dim>1</dim>
					<dim>1</dim>
				</port>
			</output>
		</layer>
		<layer id="611" name="Multiply_77042" type="Convolution" version="opset1">
			<data auto_pad="explicit" strides="1,1" dilations="1,1" pads_begin="0,0" pads_end="0,0"/>
			<input>
				<port id="0">
					<dim>1</dim>
					<dim>256</dim>
					<dim>16</dim>
					<dim>16</dim>
				</port>
				<port id="1">
					<dim>64</dim>
					<dim>256</dim>
					<dim>1</dim>
					<dim>1</dim>
				</port>
			</input>
			<output>
				<port id="2" precision="FP32">
					<dim>1</dim>
					<dim>64</dim>
					<dim>16</dim>
					<dim>16</dim>
				</port>
			</output>
		</layer>
		<layer id="612" name="Constant_77047337678458" type="Const" version="opset1">
			<data offset="134304" size="128" shape="1,64,1,1" element_type="f16"/>
			<output>
				<port id="0" precision="FP16">
					<dim>1</dim>
					<dim>64</dim>
					<dim>1</dim>
					<dim>1</dim>
				</port>
			</output>
		</layer>
		<layer id="613" name="Constant_77047337643405/restored_convert" type="Convert" version="opset1">
			<data destination_type="f32"/>
			<rt_info>
				<attribute name="decompression" version="0"/>
			</rt_info>
			<input>
				<port id="0">
					<dim>1</dim>
					<dim>64</dim>
					<dim>1</dim>
					<dim>1</dim>
				</port>
			</input>
			<output>
				<port id="1" precision="FP32">
					<dim>1</dim>
					<dim>64</dim>
					<dim>1</dim>
					<dim>1</dim>
				</port>
			</output>
		</layer>
		<layer id="614" name="BatchNormalization_19" type="Add" version="opset1">
			<data auto_broadcast="numpy"/>
			<input>
				<port id="0">
					<dim>1</dim>
					<dim>64</dim>
					<dim>16</dim>
					<dim>16</dim>
				</port>
				<port id="1">
					<dim>1</dim>
					<dim>64</dim>
					<dim>1</dim>
					<dim>1</dim>
				</port>
			</input>
			<output>
				<port id="2" precision="FP32" names="1859">
					<dim>1</dim>
					<dim>64</dim>
					<dim>16</dim>
					<dim>16</dim>
				</port>
			</output>
		</layer>
		<layer id="615" name="Relu_20" type="ReLU" version="opset1">
			<input>
				<port id="0">
					<dim>1</dim>
					<dim>64</dim>
					<dim>16</dim>
					<dim>16</dim>
				</port>
			</input>
			<output>
				<port id="1" precision="FP32" names="1860">
					<dim>1</dim>
					<dim>64</dim>
					<dim>16</dim>
					<dim>16</dim>
				</port>
			</output>
		</layer>
		<layer id="616" name="Multiply_77049/fq_input_0" type="FakeQuantize" version="opset1">
			<data levels="256" auto_broadcast="numpy"/>
			<input>
				<port id="0">
					<dim>1</dim>
					<dim>64</dim>
					<dim>16</dim>
					<dim>16</dim>
				</port>
				<port id="1"/>
				<port id="2"/>
				<port id="3"/>
				<port id="4"/>
			</input>
			<output>
				<port id="5" precision="FP32">
					<dim>1</dim>
					<dim>64</dim>
					<dim>16</dim>
					<dim>16</dim>
				</port>
			</output>
		</layer>
		<layer id="617" name="Multiply_77049/fq_weights_1/scale5218780069" type="Const" version="opset1">
			<data offset="134432" size="256" shape="64,1,1,1" element_type="f32"/>
			<output>
				<port id="0" precision="FP32">
					<dim>64</dim>
					<dim>1</dim>
					<dim>1</dim>
					<dim>1</dim>
				</port>
			</output>
		</layer>
		<layer id="618" name="Multiply_79221338043406/restored_convert/quantized5217985424" type="Const" version="opset1">
			<data offset="134688" size="36864" shape="64,64,3,3" element_type="i8"/>
			<output>
				<port id="0" precision="I8">
					<dim>64</dim>
					<dim>64</dim>
					<dim>3</dim>
					<dim>3</dim>
				</port>
			</output>
		</layer>
		<layer id="619" name="Multiply_79221338043406/restored_convert/quantized/to_f32" type="Convert" version="opset1">
			<data destination_type="f32"/>
			<input>
				<port id="0">
					<dim>64</dim>
					<dim>64</dim>
					<dim>3</dim>
					<dim>3</dim>
				</port>
			</input>
			<output>
				<port id="1" precision="FP32">
					<dim>64</dim>
					<dim>64</dim>
					<dim>3</dim>
					<dim>3</dim>
				</port>
			</output>
		</layer>
		<layer id="620" name="Multiply_77049/fq_weights_1/mulpiply_by_scale" type="Multiply" version="opset1">
			<data auto_broadcast="numpy"/>
			<input>
				<port id="0">
					<dim>64</dim>
					<dim>64</dim>
					<dim>3</dim>
					<dim>3</dim>
				</port>
				<port id="1">
					<dim>64</dim>
					<dim>1</dim>
					<dim>1</dim>
					<dim>1</dim>
				</port>
			</input>
			<output>
				<port id="2" precision="FP32">
					<dim>64</dim>
					<dim>64</dim>
					<dim>3</dim>
					<dim>3</dim>
				</port>
			</output>
		</layer>
		<layer id="621" name="Multiply_77049" type="Convolution" version="opset1">
			<data auto_pad="explicit" strides="1,1" dilations="1,1" pads_begin="1,1" pads_end="1,1"/>
			<input>
				<port id="0">
					<dim>1</dim>
					<dim>64</dim>
					<dim>16</dim>
					<dim>16</dim>
				</port>
				<port id="1">
					<dim>64</dim>
					<dim>64</dim>
					<dim>3</dim>
					<dim>3</dim>
				</port>
			</input>
			<output>
				<port id="2" precision="FP32">
					<dim>1</dim>
					<dim>64</dim>
					<dim>16</dim>
					<dim>16</dim>
				</port>
			</output>
		</layer>
		<layer id="622" name="Constant_77054338385178" type="Const" version="opset1">
			<data offset="171552" size="128" shape="1,64,1,1" element_type="f16"/>
			<output>
				<port id="0" precision="FP16">
					<dim>1</dim>
					<dim>64</dim>
					<dim>1</dim>
					<dim>1</dim>
				</port>
			</output>
		</layer>
		<layer id="623" name="Constant_77054338343407/restored_convert" type="Convert" version="opset1">
			<data destination_type="f32"/>
			<rt_info>
				<attribute name="decompression" version="0"/>
			</rt_info>
			<input>
				<port id="0">
					<dim>1</dim>
					<dim>64</dim>
					<dim>1</dim>
					<dim>1</dim>
				</port>
			</input>
			<output>
				<port id="1" precision="FP32">
					<dim>1</dim>
					<dim>64</dim>
					<dim>1</dim>
					<dim>1</dim>
				</port>
			</output>
		</layer>
		<layer id="624" name="BatchNormalization_22" type="Add" version="opset1">
			<data auto_broadcast="numpy"/>
			<input>
				<port id="0">
					<dim>1</dim>
					<dim>64</dim>
					<dim>16</dim>
					<dim>16</dim>
				</port>
				<port id="1">
					<dim>1</dim>
					<dim>64</dim>
					<dim>1</dim>
					<dim>1</dim>
				</port>
			</input>
			<output>
				<port id="2" precision="FP32" names="1862">
					<dim>1</dim>
					<dim>64</dim>
					<dim>16</dim>
					<dim>16</dim>
				</port>
			</output>
		</layer>
		<layer id="625" name="Relu_23" type="ReLU" version="opset1">
			<input>
				<port id="0">
					<dim>1</dim>
					<dim>64</dim>
					<dim>16</dim>
					<dim>16</dim>
				</port>
			</input>
			<output>
				<port id="1" precision="FP32" names="1863">
					<dim>1</dim>
					<dim>64</dim>
					<dim>16</dim>
					<dim>16</dim>
				</port>
			</output>
		</layer>
		<layer id="626" name="Multiply_77056/fq_input_0" type="FakeQuantize" version="opset1">
			<data levels="256" auto_broadcast="numpy"/>
			<input>
				<port id="0">
					<dim>1</dim>
					<dim>64</dim>
					<dim>16</dim>
					<dim>16</dim>
				</port>
				<port id="1"/>
				<port id="2"/>
				<port id="3"/>
				<port id="4"/>
			</input>
			<output>
				<port id="5" precision="FP32">
					<dim>1</dim>
					<dim>64</dim>
					<dim>16</dim>
					<dim>16</dim>
				</port>
			</output>
		</layer>
		<layer id="627" name="Multiply_77056/fq_weights_1/scale5392778938" type="Const" version="opset1">
			<data offset="171680" size="1024" shape="256,1,1,1" element_type="f32"/>
			<output>
				<port id="0" precision="FP32">
					<dim>256</dim>
					<dim>1</dim>
					<dim>1</dim>
					<dim>1</dim>
				</port>
			</output>
		</layer>
		<layer id="628" name="Multiply_79230338743408/restored_convert/quantized5391979205" type="Const" version="opset1">
			<data offset="172704" size="16384" shape="256,64,1,1" element_type="i8"/>
			<output>
				<port id="0" precision="I8">
					<dim>256</dim>
					<dim>64</dim>
					<dim>1</dim>
					<dim>1</dim>
				</port>
			</output>
		</layer>
		<layer id="629" name="Multiply_79230338743408/restored_convert/quantized/to_f32" type="Convert" version="opset1">
			<data destination_type="f32"/>
			<input>
				<port id="0">
					<dim>256</dim>
					<dim>64</dim>
					<dim>1</dim>
					<dim>1</dim>
				</port>
			</input>
			<output>
				<port id="1" precision="FP32">
					<dim>256</dim>
					<dim>64</dim>
					<dim>1</dim>
					<dim>1</dim>
				</port>
			</output>
		</layer>
		<layer id="630" name="Multiply_77056/fq_weights_1/mulpiply_by_scale" type="Multiply" version="opset1">
			<data auto_broadcast="numpy"/>
			<input>
				<port id="0">
					<dim>256</dim>
					<dim>64</dim>
					<dim>1</dim>
					<dim>1</dim>
				</port>
				<port id="1">
					<dim>256</dim>
					<dim>1</dim>
					<dim>1</dim>
					<dim>1</dim>
				</port>
			</input>
			<output>
				<port id="2" precision="FP32">
					<dim>256</dim>
					<dim>64</dim>
					<dim>1</dim>
					<dim>1</dim>
				</port>
			</output>
		</layer>
		<layer id="631" name="Multiply_77056" type="Convolution" version="opset1">
			<data auto_pad="explicit" strides="1,1" dilations="1,1" pads_begin="0,0" pads_end="0,0"/>
			<input>
				<port id="0">
					<dim>1</dim>
					<dim>64</dim>
					<dim>16</dim>
					<dim>16</dim>
				</port>
				<port id="1">
					<dim>256</dim>
					<dim>64</dim>
					<dim>1</dim>
					<dim>1</dim>
				</port>
			</input>
			<output>
				<port id="2" precision="FP32">
					<dim>1</dim>
					<dim>256</dim>
					<dim>16</dim>
					<dim>16</dim>
				</port>
			</output>
		</layer>
…
		<edge from-layer="5949" from-port="2" to-layer="5950" to-port="0"/>
		<edge from-layer="5824" from-port="0" to-layer="5950" to-port="1"/>
		<edge from-layer="5825" from-port="0" to-layer="5950" to-port="2"/>
		<edge from-layer="5826" from-port="0" to-layer="5950" to-port="3"/>
		<edge from-layer="5827" from-port="0" to-layer="5950" to-port="4"/>
		<edge from-layer="5950" from-port="5" to-layer="5951" to-port="0"/>
		<edge from-layer="5931" from-port="5" to-layer="5951" to-port="1"/>
		<edge from-layer="5951" from-port="2" to-layer="5952" to-port="0"/>
		<edge from-layer="5952" from-port="1" to-layer="5953" to-port="0"/>
		<edge from-layer="5820" from-port="0" to-layer="5953" to-port="1"/>
		<edge from-layer="5821" from-port="0" to-layer="5953" to-port="2"/>
		<edge from-layer="5822" from-port="0" to-layer="5953" to-port="3"/>
		<edge from-layer="5823" from-port="0" to-layer="5953" to-port="4"/>
		<edge from-layer="5955" from-port="0" to-layer="5956" to-port="0"/>
		<edge from-layer="5956" from-port="1" to-layer="5957" to-port="0"/>
		<edge from-layer="5954" from-port="0" to-layer="5957" to-port="1"/>
		<edge from-layer="5953" from-port="5" to-layer="5958" to-port="0"/>
		<edge from-layer="5957" from-port="2" to-layer="5958" to-port="1"/>
		<edge from-layer="5959" from-port="0" to-layer="5960" to-port="0"/>
		<edge from-layer="5958" from-port="2" to-layer="5961" to-port="0"/>
		<edge from-layer="5960" from-port="1" to-layer="5961" to-port="1"/>
		<edge from-layer="5961" from-port="2" to-layer="5962" to-port="0"/>
		<edge from-layer="5962" from-port="1" to-layer="5963" to-port="0"/>
		<edge from-layer="5816" from-port="0" to-layer="5963" to-port="1"/>
		<edge from-layer="5817" from-port="0" to-layer="5963" to-port="2"/>
		<edge from-layer="5818" from-port="0" to-layer="5963" to-port="3"/>
		<edge from-layer="5819" from-port="0" to-layer="5963" to-port="4"/>
		<edge from-layer="5965" from-port="0" to-layer="5966" to-port="0"/>
		<edge from-layer="5966" from-port="1" to-layer="5967" to-port="0"/>
		<edge from-layer="5964" from-port="0" to-layer="5967" to-port="1"/>
		<edge from-layer="5963" from-port="5" to-layer="5968" to-port="0"/>
		<edge from-layer="5967" from-port="2" to-layer="5968" to-port="1"/>
		<edge from-layer="5969" from-port="0" to-layer="5970" to-port="0"/>
		<edge from-layer="5968" from-port="2" to-layer="5971" to-port="0"/>
		<edge from-layer="5970" from-port="1" to-layer="5971" to-port="1"/>
		<edge from-layer="5971" from-port="2" to-layer="5972" to-port="0"/>
		<edge from-layer="5812" from-port="0" to-layer="5972" to-port="1"/>
		<edge from-layer="5813" from-port="0" to-layer="5972" to-port="2"/>
		<edge from-layer="5814" from-port="0" to-layer="5972" to-port="3"/>
		<edge from-layer="5815" from-port="0" to-layer="5972" to-port="4"/>
		<edge from-layer="5972" from-port="5" to-layer="5973" to-port="0"/>
		<edge from-layer="5953" from-port="5" to-layer="5973" to-port="1"/>
		<edge from-layer="5973" from-port="2" to-layer="5974" to-port="0"/>
		<edge from-layer="5974" from-port="1" to-layer="5975" to-port="0"/>
		<edge from-layer="5808" from-port="0" to-layer="5975" to-port="1"/>
		<edge from-layer="5809" from-port="0" to-layer="5975" to-port="2"/>
		<edge from-layer="5810" from-port="0" to-layer="5975" to-port="3"/>
		<edge from-layer="5811" from-port="0" to-layer="5975" to-port="4"/>
		<edge from-layer="5977" from-port="0" to-layer="5978" to-port="0"/>
		<edge from-layer="5978" from-port="1" to-layer="5979" to-port="0"/>
		<edge from-layer="5976" from-port="0" to-layer="5979" to-port="1"/>
		<edge from-layer="5975" from-port="5" to-layer="5980" to-port="0"/>
		<edge from-layer="5979" from-port="2" to-layer="5980" to-port="1"/>
		<edge from-layer="5981" from-port="0" to-layer="5982" to-port="0"/>
		<edge from-layer="5980" from-port="2" to-layer="5983" to-port="0"/>
		<edge from-layer="5982" from-port="1" to-layer="5983" to-port="1"/>
		<edge from-layer="5983" from-port="2" to-layer="5984" to-port="0"/>
		<edge from-layer="5984" from-port="1" to-layer="5985" to-port="0"/>
		<edge from-layer="5804" from-port="0" to-layer="5985" to-port="1"/>
		<edge from-layer="5805" from-port="0" to-layer="5985" to-port="2"/>
		<edge from-layer="5806" from-port="0" to-layer="5985" to-port="3"/>
		<edge from-layer="5807" from-port="0" to-layer="5985" to-port="4"/>
		<edge from-layer="5987" from-port="0" to-layer="5988" to-port="0"/>
		<edge from-layer="5988" from-port="1" to-layer="5989" to-port="0"/>
		<edge from-layer="5986" from-port="0" to-layer="5989" to-port="1"/>
		<edge from-layer="5985" from-port="5" to-layer="5990" to-port="0"/>
		<edge from-layer="5989" from-port="2" to-layer="5990" to-port="1"/>
		<edge from-layer="5991" from-port="0" to-layer="5992" to-port="0"/>
		<edge from-layer="5990" from-port="2" to-layer="5993" to-port="0"/>
		<edge from-layer="5992" from-port="1" to-layer="5993" to-port="1"/>
		<edge from-layer="5993" from-port="2" to-layer="5994" to-port="0"/>
		<edge from-layer="5800" from-port="0" to-layer="5994" to-port="1"/>
		<edge from-layer="5801" from-port="0" to-layer="5994" to-port="2"/>
		<edge from-layer="5802" from-port="0" to-layer="5994" to-port="3"/>
		<edge from-layer="5803" from-port="0" to-layer="5994" to-port="4"/>
		<edge from-layer="5994" from-port="5" to-layer="5995" to-port="0"/>
		<edge from-layer="5975" from-port="5" to-layer="5995" to-port="1"/>
		<edge from-layer="5995" from-port="2" to-layer="5996" to-port="0"/>
		<edge from-layer="5996" from-port="1" to-layer="5997" to-port="0"/>
		<edge from-layer="5796" from-port="0" to-layer="5997" to-port="1"/>
		<edge from-layer="5797" from-port="0" to-layer="5997" to-port="2"/>
		<edge from-layer="5798" from-port="0" to-layer="5997" to-port="3"/>
		<edge from-layer="5799" from-port="0" to-layer="5997" to-port="4"/>
		<edge from-layer="5999" from-port="0" to-layer="6000" to-port="0"/>
		<edge from-layer="6000" from-port="1" to-layer="6001" to-port="0"/>
		<edge from-layer="5998" from-port="0" to-layer="6001" to-port="1"/>
		<edge from-layer="5997" from-port="5" to-layer="6002" to-port="0"/>
		<edge from-layer="6001" from-port="2" to-layer="6002" to-port="1"/>
		<edge from-layer="6003" from-port="0" to-layer="6004" to-port="0"/>
		<edge from-layer="6002" from-port="2" to-layer="6005" to-port="0"/>
		<edge from-layer="6004" from-port="1" to-layer="6005" to-port="1"/>
		<edge from-layer="6005" from-port="2" to-layer="6006" to-port="0"/>
		<edge from-layer="6006" from-port="1" to-layer="6007" to-port="0"/>
		<edge from-layer="5792" from-port="0" to-layer="6007" to-port="1"/>
		<edge from-layer="5793" from-port="0" to-layer="6007" to-port="2"/>
		<edge from-layer="5794" from-port="0" to-layer="6007" to-port="3"/>
		<edge from-layer="5795" from-port="0" to-layer="6007" to-port="4"/>
		<edge from-layer="6009" from-port="0" to-layer="6010" to-port="0"/>
		<edge from-layer="6010" from-port="1" to-layer="6011" to-port="0"/>
		<edge from-layer="6008" from-port="0" to-layer="6011" to-port="1"/>
		<edge from-layer="6007" from-port="5" to-layer="6012" to-port="0"/>
		<edge from-layer="6011" from-port="2" to-layer="6012" to-port="1"/>
		<edge from-layer="6013" from-port="0" to-layer="6014" to-port="0"/>
		<edge from-layer="6012" from-port="2" to-layer="6015" to-port="0"/>
		<edge from-layer="6014" from-port="1" to-layer="6015" to-port="1"/>
		<edge from-layer="6015" from-port="2" to-layer="6016" to-port="0"/>
		<edge from-layer="5788" from-port="0" to-layer="6016" to-port="1"/>
		<edge from-layer="5789" from-port="0" to-layer="6016" to-port="2"/>
		<edge from-layer="5790" from-port="0" to-layer="6016" to-port="3"/>
		<edge from-layer="5791" from-port="0" to-layer="6016" to-port="4"/>
		<edge from-layer="6016" from-port="5" to-layer="6017" to-port="0"/>
		<edge from-layer="5997" from-port="5" to-layer="6017" to-port="1"/>
		<edge from-layer="6017" from-port="2" to-layer="6018" to-port="0"/>
		<edge from-layer="6018" from-port="1" to-layer="6019" to-port="0"/>
		<edge from-layer="5784" from-port="0" to-layer="6019" to-port="1"/>
		<edge from-layer="5785" from-port="0" to-layer="6019" to-port="2"/>
		<edge from-layer="5786" from-port="0" to-layer="6019" to-port="3"/>
		<edge from-layer="5787" from-port="0" to-layer="6019" to-port="4"/>
		<edge from-layer="6021" from-port="0" to-layer="6022" to-port="0"/>
		<edge from-layer="6022" from-port="1" to-layer="6023" to-port="0"/>
		<edge from-layer="6020" from-port="0" to-layer="6023" to-port="1"/>
		<edge from-layer="6019" from-port="5" to-layer="6024" to-port="0"/>
		<edge from-layer="6023" from-port="2" to-layer="6024" to-port="1"/>
		<edge from-layer="6025" from-port="0" to-layer="6026" to-port="0"/>
		<edge from-layer="6024" from-port="2" to-layer="6027" to-port="0"/>
		<edge from-layer="6026" from-port="1" to-layer="6027" to-port="1"/>
		<edge from-layer="6027" from-port="2" to-layer="6028" to-port="0"/>
		<edge from-layer="6028" from-port="1" to-layer="6032" to-port="0"/>
		<edge from-layer="6029" from-port="0" to-layer="6032" to-port="1"/>
		<edge from-layer="6030" from-port="0" to-layer="6032" to-port="2"/>
		<edge from-layer="6031" from-port="0" to-layer="6032" to-port="3"/>
		<edge from-layer="6028" from-port="1" to-layer="6035" to-port="0"/>
		<edge from-layer="6033" from-port="0" to-layer="6035" to-port="1"/>
		<edge from-layer="6034" from-port="0" to-layer="6035" to-port="2"/>
		<edge from-layer="6035" from-port="3" to-layer="6036" to-port="0"/>
		<edge from-layer="6036" from-port="1" to-layer="6038" to-port="0"/>
		<edge from-layer="6037" from-port="0" to-layer="6038" to-port="1"/>
		<edge from-layer="6038" from-port="2" to-layer="6039" to-port="0"/>
		<edge from-layer="6039" from-port="1" to-layer="6041" to-port="0"/>
		<edge from-layer="6040" from-port="0" to-layer="6041" to-port="1"/>
		<edge from-layer="6028" from-port="1" to-layer="6044" to-port="0"/>
		<edge from-layer="6042" from-port="0" to-layer="6044" to-port="1"/>
		<edge from-layer="6043" from-port="0" to-layer="6044" to-port="2"/>
		<edge from-layer="6044" from-port="3" to-layer="6045" to-port="0"/>
		<edge from-layer="6045" from-port="1" to-layer="6047" to-port="0"/>
		<edge from-layer="6046" from-port="0" to-layer="6047" to-port="1"/>
		<edge from-layer="6047" from-port="2" to-layer="6048" to-port="0"/>
		<edge from-layer="6048" from-port="1" to-layer="6050" to-port="0"/>
		<edge from-layer="6049" from-port="0" to-layer="6050" to-port="1"/>
		<edge from-layer="6041" from-port="2" to-layer="6051" to-port="0"/>
		<edge from-layer="6050" from-port="2" to-layer="6051" to-port="1"/>
		<edge from-layer="6051" from-port="2" to-layer="6052" to-port="0"/>
		<edge from-layer="6032" from-port="4" to-layer="6053" to-port="0"/>
		<edge from-layer="6052" from-port="1" to-layer="6053" to-port="1"/>
		<edge from-layer="6053" from-port="2" to-layer="6054" to-port="0"/>
		<edge from-layer="6028" from-port="1" to-layer="6055" to-port="0"/>
		<edge from-layer="6054" from-port="1" to-layer="6056" to-port="0"/>
		<edge from-layer="6055" from-port="1" to-layer="6056" to-port="1"/>
		<edge from-layer="6056" from-port="2" to-layer="6058" to-port="0"/>
		<edge from-layer="6057" from-port="0" to-layer="6058" to-port="1"/>
		<edge from-layer="6027" from-port="2" to-layer="6063" to-port="0"/>
		<edge from-layer="6059" from-port="0" to-layer="6063" to-port="1"/>
		<edge from-layer="6060" from-port="0" to-layer="6063" to-port="2"/>
		<edge from-layer="6061" from-port="0" to-layer="6063" to-port="3"/>
		<edge from-layer="6062" from-port="0" to-layer="6063" to-port="4"/>
		<edge from-layer="6063" from-port="5" to-layer="6064" to-port="0"/>
		<edge from-layer="6053" from-port="2" to-layer="6064" to-port="1"/>
		<edge from-layer="6058" from-port="2" to-layer="6064" to-port="2"/>
		<edge from-layer="6064" from-port="3" to-layer="6065" to-port="0"/>
		<edge from-layer="5780" from-port="0" to-layer="6065" to-port="1"/>
		<edge from-layer="5781" from-port="0" to-layer="6065" to-port="2"/>
		<edge from-layer="5782" from-port="0" to-layer="6065" to-port="3"/>
		<edge from-layer="5783" from-port="0" to-layer="6065" to-port="4"/>
		<edge from-layer="5779" from-port="5" to-layer="6066" to-port="0"/>
		<edge from-layer="6065" from-port="5" to-layer="6066" to-port="1"/>
		<edge from-layer="6066" from-port="2" to-layer="6067" to-port="0"/>
		<edge from-layer="6067" from-port="1" to-layer="6068" to-port="0"/>
		<edge from-layer="6068" from-port="1" to-layer="6072" to-port="0"/>
		<edge from-layer="6069" from-port="0" to-layer="6072" to-port="1"/>
		<edge from-layer="6070" from-port="0" to-layer="6072" to-port="2"/>
		<edge from-layer="6071" from-port="0" to-layer="6072" to-port="3"/>
		<edge from-layer="6072" from-port="4" to-layer="6074" to-port="0"/>
		<edge from-layer="6073" from-port="0" to-layer="6074" to-port="1"/>
		<edge from-layer="6074" from-port="2" to-layer="6075" to-port="0"/>
		<edge from-layer="6068" from-port="1" to-layer="6076" to-port="0"/>
		<edge from-layer="6075" from-port="1" to-layer="6077" to-port="0"/>
		<edge from-layer="6076" from-port="1" to-layer="6077" to-port="1"/>
		<edge from-layer="6077" from-port="2" to-layer="6079" to-port="0"/>
		<edge from-layer="6078" from-port="0" to-layer="6079" to-port="1"/>
		<edge from-layer="6067" from-port="1" to-layer="6084" to-port="0"/>
		<edge from-layer="6080" from-port="0" to-layer="6084" to-port="1"/>
		<edge from-layer="6081" from-port="0" to-layer="6084" to-port="2"/>
		<edge from-layer="6082" from-port="0" to-layer="6084" to-port="3"/>
		<edge from-layer="6083" from-port="0" to-layer="6084" to-port="4"/>
		<edge from-layer="6084" from-port="5" to-layer="6085" to-port="0"/>
		<edge from-layer="6074" from-port="2" to-layer="6085" to-port="1"/>
		<edge from-layer="6079" from-port="2" to-layer="6085" to-port="2"/>
		<edge from-layer="6085" from-port="3" to-layer="6086" to-port="0"/>
		<edge from-layer="4" from-port="0" to-layer="6086" to-port="1"/>
		<edge from-layer="5" from-port="0" to-layer="6086" to-port="2"/>
		<edge from-layer="6" from-port="0" to-layer="6086" to-port="3"/>
		<edge from-layer="7" from-port="0" to-layer="6086" to-port="4"/>
		<edge from-layer="6104" from-port="0" to-layer="6105" to-port="0"/>
		<edge from-layer="6105" from-port="1" to-layer="6106" to-port="0"/>
		<edge from-layer="6103" from-port="0" to-layer="6106" to-port="1"/>
		<edge from-layer="5162" from-port="5" to-layer="6107" to-port="0"/>
		<edge from-layer="6106" from-port="2" to-layer="6107" to-port="1"/>
		<edge from-layer="6108" from-port="0" to-layer="6109" to-port="0"/>
		<edge from-layer="6107" from-port="2" to-layer="6110" to-port="0"/>
		<edge from-layer="6109" from-port="1" to-layer="6110" to-port="1"/>
		<edge from-layer="6110" from-port="2" to-layer="6111" to-port="0"/>
		<edge from-layer="6099" from-port="0" to-layer="6111" to-port="1"/>
		<edge from-layer="6100" from-port="0" to-layer="6111" to-port="2"/>
		<edge from-layer="6101" from-port="0" to-layer="6111" to-port="3"/>
		<edge from-layer="6102" from-port="0" to-layer="6111" to-port="4"/>
		<edge from-layer="6111" from-port="5" to-layer="6112" to-port="0"/>
		<edge from-layer="5434" from-port="5" to-layer="6112" to-port="1"/>
		<edge from-layer="6112" from-port="2" to-layer="6113" to-port="0"/>
		<edge from-layer="6095" from-port="0" to-layer="6113" to-port="1"/>
		<edge from-layer="6096" from-port="0" to-layer="6113" to-port="2"/>
		<edge from-layer="6097" from-port="0" to-layer="6113" to-port="3"/>
		<edge from-layer="6098" from-port="0" to-layer="6113" to-port="4"/>
		<edge from-layer="6119" from-port="0" to-layer="6120" to-port="0"/>
		<edge from-layer="6120" from-port="1" to-layer="6121" to-port="0"/>
		<edge from-layer="6118" from-port="0" to-layer="6121" to-port="1"/>
		<edge from-layer="5731" from-port="5" to-layer="6122" to-port="0"/>
		<edge from-layer="6121" from-port="2" to-layer="6122" to-port="1"/>
		<edge from-layer="6123" from-port="0" to-layer="6124" to-port="0"/>
		<edge from-layer="6122" from-port="2" to-layer="6125" to-port="0"/>
		<edge from-layer="6124" from-port="1" to-layer="6125" to-port="1"/>
		<edge from-layer="6125" from-port="2" to-layer="6126" to-port="0"/>
		<edge from-layer="6126" from-port="1" to-layer="6130" to-port="0"/>
		<edge from-layer="6127" from-port="0" to-layer="6130" to-port="1"/>
		<edge from-layer="6128" from-port="0" to-layer="6130" to-port="2"/>
		<edge from-layer="6129" from-port="0" to-layer="6130" to-port="3"/>
		<edge from-layer="6126" from-port="1" to-layer="6133" to-port="0"/>
		<edge from-layer="6131" from-port="0" to-layer="6133" to-port="1"/>
		<edge from-layer="6132" from-port="0" to-layer="6133" to-port="2"/>
		<edge from-layer="6133" from-port="3" to-layer="6134" to-port="0"/>
		<edge from-layer="6134" from-port="1" to-layer="6136" to-port="0"/>
		<edge from-layer="6135" from-port="0" to-layer="6136" to-port="1"/>
		<edge from-layer="6136" from-port="2" to-layer="6137" to-port="0"/>
		<edge from-layer="6137" from-port="1" to-layer="6139" to-port="0"/>
		<edge from-layer="6138" from-port="0" to-layer="6139" to-port="1"/>
		<edge from-layer="6126" from-port="1" to-layer="6142" to-port="0"/>
		<edge from-layer="6140" from-port="0" to-layer="6142" to-port="1"/>
		<edge from-layer="6141" from-port="0" to-layer="6142" to-port="2"/>
		<edge from-layer="6142" from-port="3" to-layer="6143" to-port="0"/>
		<edge from-layer="6143" from-port="1" to-layer="6145" to-port="0"/>
		<edge from-layer="6144" from-port="0" to-layer="6145" to-port="1"/>
		<edge from-layer="6145" from-port="2" to-layer="6146" to-port="0"/>
		<edge from-layer="6146" from-port="1" to-layer="6148" to-port="0"/>
		<edge from-layer="6147" from-port="0" to-layer="6148" to-port="1"/>
		<edge from-layer="6139" from-port="2" to-layer="6149" to-port="0"/>
		<edge from-layer="6148" from-port="2" to-layer="6149" to-port="1"/>
		<edge from-layer="6149" from-port="2" to-layer="6150" to-port="0"/>
		<edge from-layer="6130" from-port="4" to-layer="6151" to-port="0"/>
		<edge from-layer="6150" from-port="1" to-layer="6151" to-port="1"/>
		<edge from-layer="6151" from-port="2" to-layer="6152" to-port="0"/>
		<edge from-layer="6126" from-port="1" to-layer="6153" to-port="0"/>
		<edge from-layer="6152" from-port="1" to-layer="6154" to-port="0"/>
		<edge from-layer="6153" from-port="1" to-layer="6154" to-port="1"/>
		<edge from-layer="6154" from-port="2" to-layer="6156" to-port="0"/>
		<edge from-layer="6155" from-port="0" to-layer="6156" to-port="1"/>
		<edge from-layer="6125" from-port="2" to-layer="6161" to-port="0"/>
		<edge from-layer="6157" from-port="0" to-layer="6161" to-port="1"/>
		<edge from-layer="6158" from-port="0" to-layer="6161" to-port="2"/>
		<edge from-layer="6159" from-port="0" to-layer="6161" to-port="3"/>
		<edge from-layer="6160" from-port="0" to-layer="6161" to-port="4"/>
		<edge from-layer="6161" from-port="5" to-layer="6162" to-port="0"/>
		<edge from-layer="6151" from-port="2" to-layer="6162" to-port="1"/>
		<edge from-layer="6156" from-port="2" to-layer="6162" to-port="2"/>
		<edge from-layer="6162" from-port="3" to-layer="6163" to-port="0"/>
		<edge from-layer="6114" from-port="0" to-layer="6163" to-port="1"/>
		<edge from-layer="6115" from-port="0" to-layer="6163" to-port="2"/>
		<edge from-layer="6116" from-port="0" to-layer="6163" to-port="3"/>
		<edge from-layer="6117" from-port="0" to-layer="6163" to-port="4"/>
		<edge from-layer="6113" from-port="5" to-layer="6164" to-port="0"/>
		<edge from-layer="6163" from-port="5" to-layer="6164" to-port="1"/>
		<edge from-layer="6164" from-port="2" to-layer="6165" to-port="0"/>
		<edge from-layer="6091" from-port="0" to-layer="6165" to-port="1"/>
		<edge from-layer="6092" from-port="0" to-layer="6165" to-port="2"/>
		<edge from-layer="6093" from-port="0" to-layer="6165" to-port="3"/>
		<edge from-layer="6094" from-port="0" to-layer="6165" to-port="4"/>
		<edge from-layer="6171" from-port="0" to-layer="6172" to-port="0"/>
		<edge from-layer="6172" from-port="1" to-layer="6173" to-port="0"/>
		<edge from-layer="6170" from-port="0" to-layer="6173" to-port="1"/>
		<edge from-layer="6019" from-port="5" to-layer="6174" to-port="0"/>
		<edge from-layer="6173" from-port="2" to-layer="6174" to-port="1"/>
		<edge from-layer="6175" from-port="0" to-layer="6176" to-port="0"/>
		<edge from-layer="6174" from-port="2" to-layer="6177" to-port="0"/>
		<edge from-layer="6176" from-port="1" to-layer="6177" to-port="1"/>
		<edge from-layer="6177" from-port="2" to-layer="6178" to-port="0"/>
		<edge from-layer="6178" from-port="1" to-layer="6182" to-port="0"/>
		<edge from-layer="6179" from-port="0" to-layer="6182" to-port="1"/>
		<edge from-layer="6180" from-port="0" to-layer="6182" to-port="2"/>
		<edge from-layer="6181" from-port="0" to-layer="6182" to-port="3"/>
		<edge from-layer="6178" from-port="1" to-layer="6185" to-port="0"/>
		<edge from-layer="6183" from-port="0" to-layer="6185" to-port="1"/>
		<edge from-layer="6184" from-port="0" to-layer="6185" to-port="2"/>
		<edge from-layer="6185" from-port="3" to-layer="6186" to-port="0"/>
		<edge from-layer="6186" from-port="1" to-layer="6188" to-port="0"/>
		<edge from-layer="6187" from-port="0" to-layer="6188" to-port="1"/>
		<edge from-layer="6188" from-port="2" to-layer="6189" to-port="0"/>
		<edge from-layer="6189" from-port="1" to-layer="6191" to-port="0"/>
		<edge from-layer="6190" from-port="0" to-layer="6191" to-port="1"/>
		<edge from-layer="6178" from-port="1" to-layer="6194" to-port="0"/>
		<edge from-layer="6192" from-port="0" to-layer="6194" to-port="1"/>
		<edge from-layer="6193" from-port="0" to-layer="6194" to-port="2"/>
		<edge from-layer="6194" from-port="3" to-layer="6195" to-port="0"/>
		<edge from-layer="6195" from-port="1" to-layer="6197" to-port="0"/>
		<edge from-layer="6196" from-port="0" to-layer="6197" to-port="1"/>
		<edge from-layer="6197" from-port="2" to-layer="6198" to-port="0"/>
		<edge from-layer="6198" from-port="1" to-layer="6200" to-port="0"/>
		<edge from-layer="6199" from-port="0" to-layer="6200" to-port="1"/>
		<edge from-layer="6191" from-port="2" to-layer="6201" to-port="0"/>
		<edge from-layer="6200" from-port="2" to-layer="6201" to-port="1"/>
		<edge from-layer="6201" from-port="2" to-layer="6202" to-port="0"/>
		<edge from-layer="6182" from-port="4" to-layer="6203" to-port="0"/>
		<edge from-layer="6202" from-port="1" to-layer="6203" to-port="1"/>
		<edge from-layer="6203" from-port="2" to-layer="6204" to-port="0"/>
		<edge from-layer="6178" from-port="1" to-layer="6205" to-port="0"/>
		<edge from-layer="6204" from-port="1" to-layer="6206" to-port="0"/>
		<edge from-layer="6205" from-port="1" to-layer="6206" to-port="1"/>
		<edge from-layer="6206" from-port="2" to-layer="6208" to-port="0"/>
		<edge from-layer="6207" from-port="0" to-layer="6208" to-port="1"/>
		<edge from-layer="6177" from-port="2" to-layer="6213" to-port="0"/>
		<edge from-layer="6209" from-port="0" to-layer="6213" to-port="1"/>
		<edge from-layer="6210" from-port="0" to-layer="6213" to-port="2"/>
		<edge from-layer="6211" from-port="0" to-layer="6213" to-port="3"/>
		<edge from-layer="6212" from-port="0" to-layer="6213" to-port="4"/>
		<edge from-layer="6213" from-port="5" to-layer="6214" to-port="0"/>
		<edge from-layer="6203" from-port="2" to-layer="6214" to-port="1"/>
		<edge from-layer="6208" from-port="2" to-layer="6214" to-port="2"/>
		<edge from-layer="6214" from-port="3" to-layer="6215" to-port="0"/>
		<edge from-layer="6166" from-port="0" to-layer="6215" to-port="1"/>
		<edge from-layer="6167" from-port="0" to-layer="6215" to-port="2"/>
		<edge from-layer="6168" from-port="0" to-layer="6215" to-port="3"/>
		<edge from-layer="6169" from-port="0" to-layer="6215" to-port="4"/>
		<edge from-layer="6165" from-port="5" to-layer="6216" to-port="0"/>
		<edge from-layer="6215" from-port="5" to-layer="6216" to-port="1"/>
		<edge from-layer="6216" from-port="2" to-layer="6217" to-port="0"/>
		<edge from-layer="6217" from-port="1" to-layer="6218" to-port="0"/>
		<edge from-layer="6218" from-port="1" to-layer="6222" to-port="0"/>
		<edge from-layer="6219" from-port="0" to-layer="6222" to-port="1"/>
		<edge from-layer="6220" from-port="0" to-layer="6222" to-port="2"/>
		<edge from-layer="6221" from-port="0" to-layer="6222" to-port="3"/>
		<edge from-layer="6222" from-port="4" to-layer="6224" to-port="0"/>
		<edge from-layer="6223" from-port="0" to-layer="6224" to-port="1"/>
		<edge from-layer="6224" from-port="2" to-layer="6225" to-port="0"/>
		<edge from-layer="6218" from-port="1" to-layer="6226" to-port="0"/>
		<edge from-layer="6225" from-port="1" to-layer="6227" to-port="0"/>
		<edge from-layer="6226" from-port="1" to-layer="6227" to-port="1"/>
		<edge from-layer="6227" from-port="2" to-layer="6229" to-port="0"/>
		<edge from-layer="6228" from-port="0" to-layer="6229" to-port="1"/>
		<edge from-layer="6217" from-port="1" to-layer="6234" to-port="0"/>
		<edge from-layer="6230" from-port="0" to-layer="6234" to-port="1"/>
		<edge from-layer="6231" from-port="0" to-layer="6234" to-port="2"/>
		<edge from-layer="6232" from-port="0" to-layer="6234" to-port="3"/>
		<edge from-layer="6233" from-port="0" to-layer="6234" to-port="4"/>
		<edge from-layer="6234" from-port="5" to-layer="6235" to-port="0"/>
		<edge from-layer="6224" from-port="2" to-layer="6235" to-port="1"/>
		<edge from-layer="6229" from-port="2" to-layer="6235" to-port="2"/>
		<edge from-layer="6235" from-port="3" to-layer="6236" to-port="0"/>
		<edge from-layer="6087" from-port="0" to-layer="6236" to-port="1"/>
		<edge from-layer="6088" from-port="0" to-layer="6236" to-port="2"/>
		<edge from-layer="6089" from-port="0" to-layer="6236" to-port="3"/>
		<edge from-layer="6090" from-port="0" to-layer="6236" to-port="4"/>
		<edge from-layer="6258" from-port="0" to-layer="6259" to-port="0"/>
		<edge from-layer="6259" from-port="1" to-layer="6260" to-port="0"/>
		<edge from-layer="6257" from-port="0" to-layer="6260" to-port="1"/>
		<edge from-layer="5162" from-port="5" to-layer="6261" to-port="0"/>
		<edge from-layer="6260" from-port="2" to-layer="6261" to-port="1"/>
		<edge from-layer="6262" from-port="0" to-layer="6263" to-port="0"/>
		<edge from-layer="6261" from-port="2" to-layer="6264" to-port="0"/>
		<edge from-layer="6263" from-port="1" to-layer="6264" to-port="1"/>
		<edge from-layer="6264" from-port="2" to-layer="6265" to-port="0"/>
		<edge from-layer="6265" from-port="1" to-layer="6266" to-port="0"/>
		<edge from-layer="6253" from-port="0" to-layer="6266" to-port="1"/>
		<edge from-layer="6254" from-port="0" to-layer="6266" to-port="2"/>
		<edge from-layer="6255" from-port="0" to-layer="6266" to-port="3"/>
		<edge from-layer="6256" from-port="0" to-layer="6266" to-port="4"/>
		<edge from-layer="6268" from-port="0" to-layer="6269" to-port="0"/>
		<edge from-layer="6269" from-port="1" to-layer="6270" to-port="0"/>
		<edge from-layer="6267" from-port="0" to-layer="6270" to-port="1"/>
		<edge from-layer="6266" from-port="5" to-layer="6271" to-port="0"/>
		<edge from-layer="6270" from-port="2" to-layer="6271" to-port="1"/>
		<edge from-layer="6272" from-port="0" to-layer="6273" to-port="0"/>
		<edge from-layer="6271" from-port="2" to-layer="6274" to-port="0"/>
		<edge from-layer="6273" from-port="1" to-layer="6274" to-port="1"/>
		<edge from-layer="6274" from-port="2" to-layer="6275" to-port="0"/>
		<edge from-layer="6249" from-port="0" to-layer="6275" to-port="1"/>
		<edge from-layer="6250" from-port="0" to-layer="6275" to-port="2"/>
		<edge from-layer="6251" from-port="0" to-layer="6275" to-port="3"/>
		<edge from-layer="6252" from-port="0" to-layer="6275" to-port="4"/>
		<edge from-layer="6281" from-port="0" to-layer="6282" to-port="0"/>
		<edge from-layer="6282" from-port="1" to-layer="6283" to-port="0"/>
		<edge from-layer="6280" from-port="0" to-layer="6283" to-port="1"/>
		<edge from-layer="5434" from-port="5" to-layer="6284" to-port="0"/>
		<edge from-layer="6283" from-port="2" to-layer="6284" to-port="1"/>
		<edge from-layer="6285" from-port="0" to-layer="6286" to-port="0"/>
		<edge from-layer="6284" from-port="2" to-layer="6287" to-port="0"/>
		<edge from-layer="6286" from-port="1" to-layer="6287" to-port="1"/>
		<edge from-layer="6287" from-port="2" to-layer="6288" to-port="0"/>
		<edge from-layer="6276" from-port="0" to-layer="6288" to-port="1"/>
		<edge from-layer="6277" from-port="0" to-layer="6288" to-port="2"/>
		<edge from-layer="6278" from-port="0" to-layer="6288" to-port="3"/>
		<edge from-layer="6279" from-port="0" to-layer="6288" to-port="4"/>
		<edge from-layer="6275" from-port="5" to-layer="6289" to-port="0"/>
		<edge from-layer="6288" from-port="5" to-layer="6289" to-port="1"/>
		<edge from-layer="6289" from-port="2" to-layer="6290" to-port="0"/>
		<edge from-layer="6245" from-port="0" to-layer="6290" to-port="1"/>
		<edge from-layer="6246" from-port="0" to-layer="6290" to-port="2"/>
		<edge from-layer="6247" from-port="0" to-layer="6290" to-port="3"/>
		<edge from-layer="6248" from-port="0" to-layer="6290" to-port="4"/>
		<edge from-layer="6290" from-port="5" to-layer="6291" to-port="0"/>
		<edge from-layer="5731" from-port="5" to-layer="6291" to-port="1"/>
		<edge from-layer="6291" from-port="2" to-layer="6292" to-port="0"/>
		<edge from-layer="6241" from-port="0" to-layer="6292" to-port="1"/>
		<edge from-layer="6242" from-port="0" to-layer="6292" to-port="2"/>
		<edge from-layer="6243" from-port="0" to-layer="6292" to-port="3"/>
		<edge from-layer="6244" from-port="0" to-layer="6292" to-port="4"/>
		<edge from-layer="6298" from-port="0" to-layer="6299" to-port="0"/>
		<edge from-layer="6299" from-port="1" to-layer="6300" to-port="0"/>
		<edge from-layer="6297" from-port="0" to-layer="6300" to-port="1"/>
		<edge from-layer="6019" from-port="5" to-layer="6301" to-port="0"/>
		<edge from-layer="6300" from-port="2" to-layer="6301" to-port="1"/>
		<edge from-layer="6302" from-port="0" to-layer="6303" to-port="0"/>
		<edge from-layer="6301" from-port="2" to-layer="6304" to-port="0"/>
		<edge from-layer="6303" from-port="1" to-layer="6304" to-port="1"/>
		<edge from-layer="6304" from-port="2" to-layer="6305" to-port="0"/>
		<edge from-layer="6305" from-port="1" to-layer="6309" to-port="0"/>
		<edge from-layer="6306" from-port="0" to-layer="6309" to-port="1"/>
		<edge from-layer="6307" from-port="0" to-layer="6309" to-port="2"/>
		<edge from-layer="6308" from-port="0" to-layer="6309" to-port="3"/>
		<edge from-layer="6305" from-port="1" to-layer="6312" to-port="0"/>
		<edge from-layer="6310" from-port="0" to-layer="6312" to-port="1"/>
		<edge from-layer="6311" from-port="0" to-layer="6312" to-port="2"/>
		<edge from-layer="6312" from-port="3" to-layer="6313" to-port="0"/>
		<edge from-layer="6313" from-port="1" to-layer="6315" to-port="0"/>
		<edge from-layer="6314" from-port="0" to-layer="6315" to-port="1"/>
		<edge from-layer="6315" from-port="2" to-layer="6316" to-port="0"/>
		<edge from-layer="6316" from-port="1" to-layer="6318" to-port="0"/>
		<edge from-layer="6317" from-port="0" to-layer="6318" to-port="1"/>
		<edge from-layer="6305" from-port="1" to-layer="6321" to-port="0"/>
		<edge from-layer="6319" from-port="0" to-layer="6321" to-port="1"/>
		<edge from-layer="6320" from-port="0" to-layer="6321" to-port="2"/>
		<edge from-layer="6321" from-port="3" to-layer="6322" to-port="0"/>
		<edge from-layer="6322" from-port="1" to-layer="6324" to-port="0"/>
		<edge from-layer="6323" from-port="0" to-layer="6324" to-port="1"/>
		<edge from-layer="6324" from-port="2" to-layer="6325" to-port="0"/>
		<edge from-layer="6325" from-port="1" to-layer="6327" to-port="0"/>
		<edge from-layer="6326" from-port="0" to-layer="6327" to-port="1"/>
		<edge from-layer="6318" from-port="2" to-layer="6328" to-port="0"/>
		<edge from-layer="6327" from-port="2" to-layer="6328" to-port="1"/>
		<edge from-layer="6328" from-port="2" to-layer="6329" to-port="0"/>
		<edge from-layer="6309" from-port="4" to-layer="6330" to-port="0"/>
		<edge from-layer="6329" from-port="1" to-layer="6330" to-port="1"/>
		<edge from-layer="6330" from-port="2" to-layer="6331" to-port="0"/>
		<edge from-layer="6305" from-port="1" to-layer="6332" to-port="0"/>
		<edge from-layer="6331" from-port="1" to-layer="6333" to-port="0"/>
		<edge from-layer="6332" from-port="1" to-layer="6333" to-port="1"/>
		<edge from-layer="6333" from-port="2" to-layer="6335" to-port="0"/>
		<edge from-layer="6334" from-port="0" to-layer="6335" to-port="1"/>
		<edge from-layer="6304" from-port="2" to-layer="6340" to-port="0"/>
		<edge from-layer="6336" from-port="0" to-layer="6340" to-port="1"/>
		<edge from-layer="6337" from-port="0" to-layer="6340" to-port="2"/>
		<edge from-layer="6338" from-port="0" to-layer="6340" to-port="3"/>
		<edge from-layer="6339" from-port="0" to-layer="6340" to-port="4"/>
		<edge from-layer="6340" from-port="5" to-layer="6341" to-port="0"/>
		<edge from-layer="6330" from-port="2" to-layer="6341" to-port="1"/>
		<edge from-layer="6335" from-port="2" to-layer="6341" to-port="2"/>
		<edge from-layer="6341" from-port="3" to-layer="6342" to-port="0"/>
		<edge from-layer="6293" from-port="0" to-layer="6342" to-port="1"/>
		<edge from-layer="6294" from-port="0" to-layer="6342" to-port="2"/>
		<edge from-layer="6295" from-port="0" to-layer="6342" to-port="3"/>
		<edge from-layer="6296" from-port="0" to-layer="6342" to-port="4"/>
		<edge from-layer="6292" from-port="5" to-layer="6343" to-port="0"/>
		<edge from-layer="6342" from-port="5" to-layer="6343" to-port="1"/>
		<edge from-layer="6343" from-port="2" to-layer="6344" to-port="0"/>
		<edge from-layer="6344" from-port="1" to-layer="6345" to-port="0"/>
		<edge from-layer="6345" from-port="1" to-layer="6349" to-port="0"/>
		<edge from-layer="6346" from-port="0" to-layer="6349" to-port="1"/>
		<edge from-layer="6347" from-port="0" to-layer="6349" to-port="2"/>
		<edge from-layer="6348" from-port="0" to-layer="6349" to-port="3"/>
		<edge from-layer="6349" from-port="4" to-layer="6351" to-port="0"/>
		<edge from-layer="6350" from-port="0" to-layer="6351" to-port="1"/>
		<edge from-layer="6351" from-port="2" to-layer="6352" to-port="0"/>
		<edge from-layer="6345" from-port="1" to-layer="6353" to-port="0"/>
		<edge from-layer="6352" from-port="1" to-layer="6354" to-port="0"/>
		<edge from-layer="6353" from-port="1" to-layer="6354" to-port="1"/>
		<edge from-layer="6354" from-port="2" to-layer="6356" to-port="0"/>
		<edge from-layer="6355" from-port="0" to-layer="6356" to-port="1"/>
		<edge from-layer="6344" from-port="1" to-layer="6361" to-port="0"/>
		<edge from-layer="6357" from-port="0" to-layer="6361" to-port="1"/>
		<edge from-layer="6358" from-port="0" to-layer="6361" to-port="2"/>
		<edge from-layer="6359" from-port="0" to-layer="6361" to-port="3"/>
		<edge from-layer="6360" from-port="0" to-layer="6361" to-port="4"/>
		<edge from-layer="6361" from-port="5" to-layer="6362" to-port="0"/>
		<edge from-layer="6351" from-port="2" to-layer="6362" to-port="1"/>
		<edge from-layer="6356" from-port="2" to-layer="6362" to-port="2"/>
		<edge from-layer="6362" from-port="3" to-layer="6363" to-port="0"/>
		<edge from-layer="6237" from-port="0" to-layer="6363" to-port="1"/>
		<edge from-layer="6238" from-port="0" to-layer="6363" to-port="2"/>
		<edge from-layer="6239" from-port="0" to-layer="6363" to-port="3"/>
		<edge from-layer="6240" from-port="0" to-layer="6363" to-port="4"/>
		<edge from-layer="6389" from-port="0" to-layer="6390" to-port="0"/>
		<edge from-layer="6390" from-port="1" to-layer="6391" to-port="0"/>
		<edge from-layer="6388" from-port="0" to-layer="6391" to-port="1"/>
		<edge from-layer="5162" from-port="5" to-layer="6392" to-port="0"/>
		<edge from-layer="6391" from-port="2" to-layer="6392" to-port="1"/>
		<edge from-layer="6393" from-port="0" to-layer="6394" to-port="0"/>
		<edge from-layer="6392" from-port="2" to-layer="6395" to-port="0"/>
		<edge from-layer="6394" from-port="1" to-layer="6395" to-port="1"/>
		<edge from-layer="6395" from-port="2" to-layer="6396" to-port="0"/>
		<edge from-layer="6396" from-port="1" to-layer="6397" to-port="0"/>
		<edge from-layer="6384" from-port="0" to-layer="6397" to-port="1"/>
		<edge from-layer="6385" from-port="0" to-layer="6397" to-port="2"/>
		<edge from-layer="6386" from-port="0" to-layer="6397" to-port="3"/>
		<edge from-layer="6387" from-port="0" to-layer="6397" to-port="4"/>
		<edge from-layer="6399" from-port="0" to-layer="6400" to-port="0"/>
		<edge from-layer="6400" from-port="1" to-layer="6401" to-port="0"/>
		<edge from-layer="6398" from-port="0" to-layer="6401" to-port="1"/>
		<edge from-layer="6397" from-port="5" to-layer="6402" to-port="0"/>
		<edge from-layer="6401" from-port="2" to-layer="6402" to-port="1"/>
		<edge from-layer="6403" from-port="0" to-layer="6404" to-port="0"/>
		<edge from-layer="6402" from-port="2" to-layer="6405" to-port="0"/>
		<edge from-layer="6404" from-port="1" to-layer="6405" to-port="1"/>
		<edge from-layer="6405" from-port="2" to-layer="6406" to-port="0"/>
		<edge from-layer="6406" from-port="1" to-layer="6407" to-port="0"/>
		<edge from-layer="6380" from-port="0" to-layer="6407" to-port="1"/>
		<edge from-layer="6381" from-port="0" to-layer="6407" to-port="2"/>
		<edge from-layer="6382" from-port="0" to-layer="6407" to-port="3"/>
		<edge from-layer="6383" from-port="0" to-layer="6407" to-port="4"/>
		<edge from-layer="6409" from-port="0" to-layer="6410" to-port="0"/>
		<edge from-layer="6410" from-port="1" to-layer="6411" to-port="0"/>
		<edge from-layer="6408" from-port="0" to-layer="6411" to-port="1"/>
		<edge from-layer="6407" from-port="5" to-layer="6412" to-port="0"/>
		<edge from-layer="6411" from-port="2" to-layer="6412" to-port="1"/>
		<edge from-layer="6413" from-port="0" to-layer="6414" to-port="0"/>
		<edge from-layer="6412" from-port="2" to-layer="6415" to-port="0"/>
		<edge from-layer="6414" from-port="1" to-layer="6415" to-port="1"/>
		<edge from-layer="6415" from-port="2" to-layer="6416" to-port="0"/>
		<edge from-layer="6376" from-port="0" to-layer="6416" to-port="1"/>
		<edge from-layer="6377" from-port="0" to-layer="6416" to-port="2"/>
		<edge from-layer="6378" from-port="0" to-layer="6416" to-port="3"/>
		<edge from-layer="6379" from-port="0" to-layer="6416" to-port="4"/>
		<edge from-layer="6426" from-port="0" to-layer="6427" to-port="0"/>
		<edge from-layer="6427" from-port="1" to-layer="6428" to-port="0"/>
		<edge from-layer="6425" from-port="0" to-layer="6428" to-port="1"/>
		<edge from-layer="5434" from-port="5" to-layer="6429" to-port="0"/>
		<edge from-layer="6428" from-port="2" to-layer="6429" to-port="1"/>
		<edge from-layer="6430" from-port="0" to-layer="6431" to-port="0"/>
		<edge from-layer="6429" from-port="2" to-layer="6432" to-port="0"/>
		<edge from-layer="6431" from-port="1" to-layer="6432" to-port="1"/>
		<edge from-layer="6432" from-port="2" to-layer="6433" to-port="0"/>
		<edge from-layer="6433" from-port="1" to-layer="6434" to-port="0"/>
		<edge from-layer="6421" from-port="0" to-layer="6434" to-port="1"/>
		<edge from-layer="6422" from-port="0" to-layer="6434" to-port="2"/>
		<edge from-layer="6423" from-port="0" to-layer="6434" to-port="3"/>
		<edge from-layer="6424" from-port="0" to-layer="6434" to-port="4"/>
		<edge from-layer="6436" from-port="0" to-layer="6437" to-port="0"/>
		<edge from-layer="6437" from-port="1" to-layer="6438" to-port="0"/>
		<edge from-layer="6435" from-port="0" to-layer="6438" to-port="1"/>
		<edge from-layer="6434" from-port="5" to-layer="6439" to-port="0"/>
		<edge from-layer="6438" from-port="2" to-layer="6439" to-port="1"/>
		<edge from-layer="6440" from-port="0" to-layer="6441" to-port="0"/>
		<edge from-layer="6439" from-port="2" to-layer="6442" to-port="0"/>
		<edge from-layer="6441" from-port="1" to-layer="6442" to-port="1"/>
		<edge from-layer="6442" from-port="2" to-layer="6443" to-port="0"/>
		<edge from-layer="6417" from-port="0" to-layer="6443" to-port="1"/>
		<edge from-layer="6418" from-port="0" to-layer="6443" to-port="2"/>
		<edge from-layer="6419" from-port="0" to-layer="6443" to-port="3"/>
		<edge from-layer="6420" from-port="0" to-layer="6443" to-port="4"/>
		<edge from-layer="6416" from-port="5" to-layer="6444" to-port="0"/>
		<edge from-layer="6443" from-port="5" to-layer="6444" to-port="1"/>
		<edge from-layer="6444" from-port="2" to-layer="6445" to-port="0"/>
		<edge from-layer="6372" from-port="0" to-layer="6445" to-port="1"/>
		<edge from-layer="6373" from-port="0" to-layer="6445" to-port="2"/>
		<edge from-layer="6374" from-port="0" to-layer="6445" to-port="3"/>
		<edge from-layer="6375" from-port="0" to-layer="6445" to-port="4"/>
		<edge from-layer="6451" from-port="0" to-layer="6452" to-port="0"/>
		<edge from-layer="6452" from-port="1" to-layer="6453" to-port="0"/>
		<edge from-layer="6450" from-port="0" to-layer="6453" to-port="1"/>
		<edge from-layer="5731" from-port="5" to-layer="6454" to-port="0"/>
		<edge from-layer="6453" from-port="2" to-layer="6454" to-port="1"/>
		<edge from-layer="6455" from-port="0" to-layer="6456" to-port="0"/>
		<edge from-layer="6454" from-port="2" to-layer="6457" to-port="0"/>
		<edge from-layer="6456" from-port="1" to-layer="6457" to-port="1"/>
		<edge from-layer="6457" from-port="2" to-layer="6458" to-port="0"/>
		<edge from-layer="6446" from-port="0" to-layer="6458" to-port="1"/>
		<edge from-layer="6447" from-port="0" to-layer="6458" to-port="2"/>
		<edge from-layer="6448" from-port="0" to-layer="6458" to-port="3"/>
		<edge from-layer="6449" from-port="0" to-layer="6458" to-port="4"/>
		<edge from-layer="6445" from-port="5" to-layer="6459" to-port="0"/>
		<edge from-layer="6458" from-port="5" to-layer="6459" to-port="1"/>
		<edge from-layer="6459" from-port="2" to-layer="6460" to-port="0"/>
		<edge from-layer="6368" from-port="0" to-layer="6460" to-port="1"/>
		<edge from-layer="6369" from-port="0" to-layer="6460" to-port="2"/>
		<edge from-layer="6370" from-port="0" to-layer="6460" to-port="3"/>
		<edge from-layer="6371" from-port="0" to-layer="6460" to-port="4"/>
		<edge from-layer="6460" from-port="5" to-layer="6461" to-port="0"/>
		<edge from-layer="6019" from-port="5" to-layer="6461" to-port="1"/>
		<edge from-layer="6461" from-port="2" to-layer="6462" to-port="0"/>
		<edge from-layer="6462" from-port="1" to-layer="6463" to-port="0"/>
		<edge from-layer="6463" from-port="1" to-layer="6467" to-port="0"/>
		<edge from-layer="6464" from-port="0" to-layer="6467" to-port="1"/>
		<edge from-layer="6465" from-port="0" to-layer="6467" to-port="2"/>
		<edge from-layer="6466" from-port="0" to-layer="6467" to-port="3"/>
		<edge from-layer="6467" from-port="4" to-layer="6469" to-port="0"/>
		<edge from-layer="6468" from-port="0" to-layer="6469" to-port="1"/>
		<edge from-layer="6469" from-port="2" to-layer="6470" to-port="0"/>
		<edge from-layer="6463" from-port="1" to-layer="6471" to-port="0"/>
		<edge from-layer="6470" from-port="1" to-layer="6472" to-port="0"/>
		<edge from-layer="6471" from-port="1" to-layer="6472" to-port="1"/>
		<edge from-layer="6472" from-port="2" to-layer="6474" to-port="0"/>
		<edge from-layer="6473" from-port="0" to-layer="6474" to-port="1"/>
		<edge from-layer="6462" from-port="1" to-layer="6479" to-port="0"/>
		<edge from-layer="6475" from-port="0" to-layer="6479" to-port="1"/>
		<edge from-layer="6476" from-port="0" to-layer="6479" to-port="2"/>
		<edge from-layer="6477" from-port="0" to-layer="6479" to-port="3"/>
		<edge from-layer="6478" from-port="0" to-layer="6479" to-port="4"/>
		<edge from-layer="6479" from-port="5" to-layer="6480" to-port="0"/>
		<edge from-layer="6469" from-port="2" to-layer="6480" to-port="1"/>
		<edge from-layer="6474" from-port="2" to-layer="6480" to-port="2"/>
		<edge from-layer="6480" from-port="3" to-layer="6481" to-port="0"/>
		<edge from-layer="6364" from-port="0" to-layer="6481" to-port="1"/>
		<edge from-layer="6365" from-port="0" to-layer="6481" to-port="2"/>
		<edge from-layer="6366" from-port="0" to-layer="6481" to-port="3"/>
		<edge from-layer="6367" from-port="0" to-layer="6481" to-port="4"/>
		<edge from-layer="6086" from-port="5" to-layer="6482" to-port="0"/>
		<edge from-layer="6236" from-port="5" to-layer="6482" to-port="1"/>
		<edge from-layer="6363" from-port="5" to-layer="6482" to-port="2"/>
		<edge from-layer="6481" from-port="5" to-layer="6482" to-port="3"/>
		<edge from-layer="6484" from-port="0" to-layer="6485" to-port="0"/>
		<edge from-layer="6485" from-port="1" to-layer="6486" to-port="0"/>
		<edge from-layer="6483" from-port="0" to-layer="6486" to-port="1"/>
		<edge from-layer="6482" from-port="4" to-layer="6487" to-port="0"/>
		<edge from-layer="6486" from-port="2" to-layer="6487" to-port="1"/>
		<edge from-layer="6488" from-port="0" to-layer="6489" to-port="0"/>
		<edge from-layer="6487" from-port="2" to-layer="6490" to-port="0"/>
		<edge from-layer="6489" from-port="1" to-layer="6490" to-port="1"/>
		<edge from-layer="6490" from-port="2" to-layer="6491" to-port="0"/>
		<edge from-layer="6491" from-port="1" to-layer="6492" to-port="0"/>
		<edge from-layer="0" from-port="0" to-layer="6492" to-port="1"/>
		<edge from-layer="1" from-port="0" to-layer="6492" to-port="2"/>
		<edge from-layer="2" from-port="0" to-layer="6492" to-port="3"/>
		<edge from-layer="3" from-port="0" to-layer="6492" to-port="4"/>
		<edge from-layer="6494" from-port="0" to-layer="6495" to-port="0"/>
		<edge from-layer="6495" from-port="1" to-layer="6496" to-port="0"/>
		<edge from-layer="6493" from-port="0" to-layer="6496" to-port="1"/>
		<edge from-layer="6492" from-port="5" to-layer="6497" to-port="0"/>
		<edge from-layer="6496" from-port="2" to-layer="6497" to-port="1"/>
		<edge from-layer="6498" from-port="0" to-layer="6499" to-port="0"/>
		<edge from-layer="6497" from-port="2" to-layer="6500" to-port="0"/>
		<edge from-layer="6499" from-port="1" to-layer="6500" to-port="1"/>
		<edge from-layer="6500" from-port="2" to-layer="6501" to-port="0"/>
	</edges>
	<meta_data>
		<MO_version value="custom_HEAD_0e242b324458ed332f0907ac6d88fc24b610d9b9"/>
		<Runtime_version value="2022.3.0-000-0e242b32445-HEAD"/>
		<legacy_path value="True"/>
		<cli_parameters>
			<caffe_parser_path value="DIR"/>
			<data_type value="FP16"/>
			<disable_nhwc_to_nchw value="False"/>
			<disable_omitting_optional value="False"/>
			<disable_resnet_optimization value="False"/>
			<disable_weights_compression value="False"/>
			<enable_concat_optimization value="False"/>
			<enable_flattening_nested_params value="False"/>
			<enable_ssd_gluoncv value="False"/>
			<extensions value="['/opt/home/sys_k8sworker/workspace/DL-Benchmark/try/convert']"/>
			<framework value="onnx"/>
			<input value="input.1"/>
			<input_model value="DIR/facial-landmarks-98-detection-0001.onnx"/>
			<input_model_is_text value="False"/>
			<input_shape value="[1,3,64,64]"/>
			<k value="DIR/CustomLayersMapping.xml"/>
			<layout value="input.1(nchw)"/>
			<legacy_mxnet_model value="False"/>
			<log_level value="ERROR"/>
			<mean_values value="()"/>
			<model_name value="facial-landmarks-98-detection-0001"/>
			<output_dir value="DIR"/>
			<progress value="False"/>
			<remove_memory value="False"/>
			<remove_output_softmax value="False"/>
			<reverse_input_channels value="True"/>
			<save_params_from_nd value="False"/>
			<scale_values value="input.1[255.0]"/>
			<silent value="True"/>
			<source_layout value="()"/>
			<static_shape value="False"/>
			<stream_output value="False"/>
			<target_layout value="()"/>
			<transform value=""/>
			<use_legacy_frontend value="False"/>
			<use_new_frontend value="False"/>
			<unset unset_cli_parameters="batch, counts, disable_fusing, finegrain_fusing, freeze_placeholder_with_value, input_checkpoint, input_meta_graph, input_proto, input_symbol, mean_file, mean_file_offsets, nd_prefix_name, output, pretrained_model_name, saved_model_dir, saved_model_tags, scale, tensorboard_logdir, tensorflow_custom_layer_libraries, tensorflow_custom_operations_config_update, tensorflow_object_detection_api_pipeline_config, tensorflow_use_custom_operations_config, transformations_config"/>
		</cli_parameters>
	</meta_data>
	<quantization_parameters>
		<config>{
		'compression': {
			'algorithms': [
				{
					'name': 'DefaultQuantization',
					'params': {
						'num_samples_for_tuning': 2000,
						'preset': 'performance',
						'stat_subset_size': 300,
						'use_layerwise_tuning': false
					}
				}
			],
			'dump_intermediate_model': true,
			'target_device': 'ANY'
		},
		'engine': {
			'models': [
				{
					'name': 'facial-landmarks-98-detection-0001',
					'launchers': [
						{
							'framework': 'openvino',
							'adapter': {
								'type': 'facial_landmarks_detection',
								'output_blob': 3851
							},
							'device': 'cpu'
						}
					],
					'datasets': [
						{
							'name': 'facial_landmarks_98_db',
							'data_source': 'PATH',
							'annotation_conversion': {
								'converter': 'coco_facial_landmarks',
								'annotation_file': 'PATH'
							},
							'preprocessing': [
								{
									'type': 'crop_rect'
								},
								{
									'type': 'resize',
									'dst_width': 64,
									'dst_height': 64,
									'interpolation': 'LINEAR'
								}
							],
							'postprocessing': [
								{
									'type': 'heatmap2keypoints'
								}
							],
							'metrics': [
								{
									'type': 'nme',
									'only_2d': true
								}
							],
							'_command_line_mapping': {
								'annotation_file': 'PATH'
							}
						}
					]
				}
			],
			'stat_requests_number': null,
			'eval_requests_number': null,
			'type': 'accuracy_checker'
		}
	}</config>
		<version value="invalid version"/>
		<cli_params value="{'quantize': None, 'preset': None, 'model': None, 'weights': None, 'name': None, 'engine': None, 'ac_config': None, 'max_drop': None, 'evaluate': False, 'output_dir': 'PATH', 'direct_dump': True, 'log_level': 'INFO', 'pbar': False, 'stream_output': False, 'keep_uncompressed_weights': False, 'data_source': None}"/>
	</quantization_parameters>
</net>
