<?xml version="1.0"?>
<net name="torch-jit-export" version="11">
	<layers>
		<layer id="0" name="input.1" type="Parameter" version="opset1">
			<data shape="1,3,64,64" element_type="f32" />
			<rt_info>
				<attribute name="old_api_map_element_type" version="0" value="f16" />
			</rt_info>
			<output>
				<port id="0" precision="FP32" names="input.1">
					<dim>1</dim>
					<dim>3</dim>
					<dim>64</dim>
					<dim>64</dim>
					<rt_info>
						<attribute name="layout" version="0" layout="[N,C,H,W]" />
					</rt_info>
				</port>
			</output>
		</layer>
		<layer id="1" name="Gather_46563_compressed" type="Const" version="opset1">
			<data element_type="f16" shape="64, 3, 3, 3" offset="0" size="3456" />
			<rt_info>
				<attribute name="preprocessing" version="0" />
			</rt_info>
			<output>
				<port id="0" precision="FP16">
					<dim>64</dim>
					<dim>3</dim>
					<dim>3</dim>
					<dim>3</dim>
				</port>
			</output>
		</layer>
		<layer id="2" name="Gather_46563" type="Convert" version="opset1">
			<data destination_type="f32" />
			<rt_info>
				<attribute name="decompression" version="0" />
				<attribute name="preprocessing" version="0" />
			</rt_info>
			<input>
				<port id="0" precision="FP16">
					<dim>64</dim>
					<dim>3</dim>
					<dim>3</dim>
					<dim>3</dim>
				</port>
			</input>
			<output>
				<port id="1" precision="FP32">
					<dim>64</dim>
					<dim>3</dim>
					<dim>3</dim>
					<dim>3</dim>
				</port>
			</output>
		</layer>
		<layer id="3" name="Multiply_38671" type="Convolution" version="opset1">
			<data strides="2, 2" dilations="1, 1" pads_begin="1, 1" pads_end="1, 1" auto_pad="explicit" />
			<rt_info>
				<attribute name="preprocessing" version="0" />
			</rt_info>
			<input>
				<port id="0" precision="FP32">
					<dim>1</dim>
					<dim>3</dim>
					<dim>64</dim>
					<dim>64</dim>
				</port>
				<port id="1" precision="FP32">
					<dim>64</dim>
					<dim>3</dim>
					<dim>3</dim>
					<dim>3</dim>
				</port>
			</input>
			<output>
				<port id="2" precision="FP32">
					<dim>1</dim>
					<dim>64</dim>
					<dim>32</dim>
					<dim>32</dim>
				</port>
			</output>
		</layer>
		<layer id="4" name="Constant_38676_compressed" type="Const" version="opset1">
			<data element_type="f16" shape="1, 64, 1, 1" offset="3456" size="128" />
			<output>
				<port id="0" precision="FP16">
					<dim>1</dim>
					<dim>64</dim>
					<dim>1</dim>
					<dim>1</dim>
				</port>
			</output>
		</layer>
		<layer id="5" name="Constant_38676" type="Convert" version="opset1">
			<data destination_type="f32" />
			<rt_info>
				<attribute name="decompression" version="0" />
			</rt_info>
			<input>
				<port id="0" precision="FP16">
					<dim>1</dim>
					<dim>64</dim>
					<dim>1</dim>
					<dim>1</dim>
				</port>
			</input>
			<output>
				<port id="1" precision="FP32">
					<dim>1</dim>
					<dim>64</dim>
					<dim>1</dim>
					<dim>1</dim>
				</port>
			</output>
		</layer>
		<layer id="6" name="BatchNormalization_1" type="Add" version="opset1">
			<data auto_broadcast="numpy" />
			<input>
				<port id="0" precision="FP32">
					<dim>1</dim>
					<dim>64</dim>
					<dim>32</dim>
					<dim>32</dim>
				</port>
				<port id="1" precision="FP32">
					<dim>1</dim>
					<dim>64</dim>
					<dim>1</dim>
					<dim>1</dim>
				</port>
			</input>
			<output>
				<port id="2" precision="FP32" names="1841">
					<dim>1</dim>
					<dim>64</dim>
					<dim>32</dim>
					<dim>32</dim>
				</port>
			</output>
		</layer>
		<layer id="7" name="Relu_2" type="ReLU" version="opset1">
			<input>
				<port id="0" precision="FP32">
					<dim>1</dim>
					<dim>64</dim>
					<dim>32</dim>
					<dim>32</dim>
				</port>
			</input>
			<output>
				<port id="1" precision="FP32" names="1842">
					<dim>1</dim>
					<dim>64</dim>
					<dim>32</dim>
					<dim>32</dim>
				</port>
			</output>
		</layer>
		<layer id="8" name="Multiply_40829_compressed" type="Const" version="opset1">
			<data element_type="f16" shape="64, 64, 3, 3" offset="3584" size="73728" />
			<output>
				<port id="0" precision="FP16">
					<dim>64</dim>
					<dim>64</dim>
					<dim>3</dim>
					<dim>3</dim>
				</port>
			</output>
		</layer>
		<layer id="9" name="Multiply_40829" type="Convert" version="opset1">
			<data destination_type="f32" />
			<rt_info>
				<attribute name="decompression" version="0" />
			</rt_info>
			<input>
				<port id="0" precision="FP16">
					<dim>64</dim>
					<dim>64</dim>
					<dim>3</dim>
					<dim>3</dim>
				</port>
			</input>
			<output>
				<port id="1" precision="FP32">
					<dim>64</dim>
					<dim>64</dim>
					<dim>3</dim>
					<dim>3</dim>
				</port>
			</output>
		</layer>
		<layer id="10" name="Multiply_38678" type="Convolution" version="opset1">
			<data strides="2, 2" dilations="1, 1" pads_begin="1, 1" pads_end="1, 1" auto_pad="explicit" />
			<input>
				<port id="0" precision="FP32">
					<dim>1</dim>
					<dim>64</dim>
					<dim>32</dim>
					<dim>32</dim>
				</port>
				<port id="1" precision="FP32">
					<dim>64</dim>
					<dim>64</dim>
					<dim>3</dim>
					<dim>3</dim>
				</port>
			</input>
			<output>
				<port id="2" precision="FP32">
					<dim>1</dim>
					<dim>64</dim>
					<dim>16</dim>
					<dim>16</dim>
				</port>
			</output>
		</layer>
		<layer id="11" name="Constant_38683_compressed" type="Const" version="opset1">
			<data element_type="f16" shape="1, 64, 1, 1" offset="77312" size="128" />
			<output>
				<port id="0" precision="FP16">
					<dim>1</dim>
					<dim>64</dim>
					<dim>1</dim>
					<dim>1</dim>
				</port>
			</output>
		</layer>
		<layer id="12" name="Constant_38683" type="Convert" version="opset1">
			<data destination_type="f32" />
			<rt_info>
				<attribute name="decompression" version="0" />
			</rt_info>
			<input>
				<port id="0" precision="FP16">
					<dim>1</dim>
					<dim>64</dim>
					<dim>1</dim>
					<dim>1</dim>
				</port>
			</input>
			<output>
				<port id="1" precision="FP32">
					<dim>1</dim>
					<dim>64</dim>
					<dim>1</dim>
					<dim>1</dim>
				</port>
			</output>
		</layer>
		<layer id="13" name="BatchNormalization_4" type="Add" version="opset1">
			<data auto_broadcast="numpy" />
			<input>
				<port id="0" precision="FP32">
					<dim>1</dim>
					<dim>64</dim>
					<dim>16</dim>
					<dim>16</dim>
				</port>
				<port id="1" precision="FP32">
					<dim>1</dim>
					<dim>64</dim>
					<dim>1</dim>
					<dim>1</dim>
				</port>
			</input>
			<output>
				<port id="2" precision="FP32" names="1844">
					<dim>1</dim>
					<dim>64</dim>
					<dim>16</dim>
					<dim>16</dim>
				</port>
			</output>
		</layer>
		<layer id="14" name="Relu_5" type="ReLU" version="opset1">
			<input>
				<port id="0" precision="FP32">
					<dim>1</dim>
					<dim>64</dim>
					<dim>16</dim>
					<dim>16</dim>
				</port>
			</input>
			<output>
				<port id="1" precision="FP32" names="1845">
					<dim>1</dim>
					<dim>64</dim>
					<dim>16</dim>
					<dim>16</dim>
				</port>
			</output>
		</layer>
		<layer id="15" name="Multiply_40835_compressed" type="Const" version="opset1">
			<data element_type="f16" shape="64, 64, 1, 1" offset="77440" size="8192" />
			<output>
				<port id="0" precision="FP16">
					<dim>64</dim>
					<dim>64</dim>
					<dim>1</dim>
					<dim>1</dim>
				</port>
			</output>
		</layer>
		<layer id="16" name="Multiply_40835" type="Convert" version="opset1">
			<data destination_type="f32" />
			<rt_info>
				<attribute name="decompression" version="0" />
			</rt_info>
			<input>
				<port id="0" precision="FP16">
					<dim>64</dim>
					<dim>64</dim>
					<dim>1</dim>
					<dim>1</dim>
				</port>
			</input>
			<output>
				<port id="1" precision="FP32">
					<dim>64</dim>
					<dim>64</dim>
					<dim>1</dim>
					<dim>1</dim>
				</port>
			</output>
		</layer>
		<layer id="17" name="Multiply_38685" type="Convolution" version="opset1">
			<data strides="1, 1" dilations="1, 1" pads_begin="0, 0" pads_end="0, 0" auto_pad="explicit" />
			<input>
				<port id="0" precision="FP32">
					<dim>1</dim>
					<dim>64</dim>
					<dim>16</dim>
					<dim>16</dim>
				</port>
				<port id="1" precision="FP32">
					<dim>64</dim>
					<dim>64</dim>
					<dim>1</dim>
					<dim>1</dim>
				</port>
			</input>
			<output>
				<port id="2" precision="FP32">
					<dim>1</dim>
					<dim>64</dim>
					<dim>16</dim>
					<dim>16</dim>
				</port>
			</output>
		</layer>
		<layer id="18" name="Constant_38690_compressed" type="Const" version="opset1">
			<data element_type="f16" shape="1, 64, 1, 1" offset="85632" size="128" />
			<output>
				<port id="0" precision="FP16">
					<dim>1</dim>
					<dim>64</dim>
					<dim>1</dim>
					<dim>1</dim>
				</port>
			</output>
		</layer>
		<layer id="19" name="Constant_38690" type="Convert" version="opset1">
			<data destination_type="f32" />
			<rt_info>
				<attribute name="decompression" version="0" />
			</rt_info>
			<input>
				<port id="0" precision="FP16">
					<dim>1</dim>
					<dim>64</dim>
					<dim>1</dim>
					<dim>1</dim>
				</port>
			</input>
			<output>
				<port id="1" precision="FP32">
					<dim>1</dim>
					<dim>64</dim>
					<dim>1</dim>
					<dim>1</dim>
				</port>
			</output>
		</layer>
		<layer id="20" name="BatchNormalization_7" type="Add" version="opset1">
			<data auto_broadcast="numpy" />
			<input>
				<port id="0" precision="FP32">
					<dim>1</dim>
					<dim>64</dim>
					<dim>16</dim>
					<dim>16</dim>
				</port>
				<port id="1" precision="FP32">
					<dim>1</dim>
					<dim>64</dim>
					<dim>1</dim>
					<dim>1</dim>
				</port>
			</input>
			<output>
				<port id="2" precision="FP32" names="1847">
					<dim>1</dim>
					<dim>64</dim>
					<dim>16</dim>
					<dim>16</dim>
				</port>
			</output>
		</layer>
		<layer id="21" name="Relu_8" type="ReLU" version="opset1">
			<input>
				<port id="0" precision="FP32">
					<dim>1</dim>
					<dim>64</dim>
					<dim>16</dim>
					<dim>16</dim>
				</port>
			</input>
			<output>
				<port id="1" precision="FP32" names="1848">
					<dim>1</dim>
					<dim>64</dim>
					<dim>16</dim>
					<dim>16</dim>
				</port>
			</output>
		</layer>
		<layer id="22" name="Multiply_40841_compressed" type="Const" version="opset1">
			<data element_type="f16" shape="64, 64, 3, 3" offset="85760" size="73728" />
			<output>
				<port id="0" precision="FP16">
					<dim>64</dim>
					<dim>64</dim>
					<dim>3</dim>
					<dim>3</dim>
				</port>
			</output>
		</layer>
		<layer id="23" name="Multiply_40841" type="Convert" version="opset1">
			<data destination_type="f32" />
			<rt_info>
				<attribute name="decompression" version="0" />
			</rt_info>
			<input>
				<port id="0" precision="FP16">
					<dim>64</dim>
					<dim>64</dim>
					<dim>3</dim>
					<dim>3</dim>
				</port>
			</input>
			<output>
				<port id="1" precision="FP32">
					<dim>64</dim>
					<dim>64</dim>
					<dim>3</dim>
					<dim>3</dim>
				</port>
			</output>
		</layer>
		<layer id="24" name="Multiply_38692" type="Convolution" version="opset1">
			<data strides="1, 1" dilations="1, 1" pads_begin="1, 1" pads_end="1, 1" auto_pad="explicit" />
			<input>
				<port id="0" precision="FP32">
					<dim>1</dim>
					<dim>64</dim>
					<dim>16</dim>
					<dim>16</dim>
				</port>
				<port id="1" precision="FP32">
					<dim>64</dim>
					<dim>64</dim>
					<dim>3</dim>
					<dim>3</dim>
				</port>
			</input>
			<output>
				<port id="2" precision="FP32">
					<dim>1</dim>
					<dim>64</dim>
					<dim>16</dim>
					<dim>16</dim>
				</port>
			</output>
		</layer>
		<layer id="25" name="Constant_38697_compressed" type="Const" version="opset1">
			<data element_type="f16" shape="1, 64, 1, 1" offset="159488" size="128" />
			<output>
				<port id="0" precision="FP16">
					<dim>1</dim>
					<dim>64</dim>
					<dim>1</dim>
					<dim>1</dim>
				</port>
			</output>
		</layer>
		<layer id="26" name="Constant_38697" type="Convert" version="opset1">
			<data destination_type="f32" />
			<rt_info>
				<attribute name="decompression" version="0" />
			</rt_info>
			<input>
				<port id="0" precision="FP16">
					<dim>1</dim>
					<dim>64</dim>
					<dim>1</dim>
					<dim>1</dim>
				</port>
			</input>
			<output>
				<port id="1" precision="FP32">
					<dim>1</dim>
					<dim>64</dim>
					<dim>1</dim>
					<dim>1</dim>
				</port>
			</output>
		</layer>
		<layer id="27" name="BatchNormalization_10" type="Add" version="opset1">
			<data auto_broadcast="numpy" />
			<input>
				<port id="0" precision="FP32">
					<dim>1</dim>
					<dim>64</dim>
					<dim>16</dim>
					<dim>16</dim>
				</port>
				<port id="1" precision="FP32">
					<dim>1</dim>
					<dim>64</dim>
					<dim>1</dim>
					<dim>1</dim>
				</port>
			</input>
			<output>
				<port id="2" precision="FP32" names="1850">
					<dim>1</dim>
					<dim>64</dim>
					<dim>16</dim>
					<dim>16</dim>
				</port>
			</output>
		</layer>
		<layer id="28" name="Relu_11" type="ReLU" version="opset1">
			<input>
				<port id="0" precision="FP32">
					<dim>1</dim>
					<dim>64</dim>
					<dim>16</dim>
					<dim>16</dim>
				</port>
			</input>
			<output>
				<port id="1" precision="FP32" names="1851">
					<dim>1</dim>
					<dim>64</dim>
					<dim>16</dim>
					<dim>16</dim>
				</port>
			</output>
		</layer>
		<layer id="29" name="Multiply_40847_compressed" type="Const" version="opset1">
			<data element_type="f16" shape="256, 64, 1, 1" offset="159616" size="32768" />
			<output>
				<port id="0" precision="FP16">
					<dim>256</dim>
					<dim>64</dim>
					<dim>1</dim>
					<dim>1</dim>
				</port>
			</output>
		</layer>
		<layer id="30" name="Multiply_40847" type="Convert" version="opset1">
			<data destination_type="f32" />
			<rt_info>
				<attribute name="decompression" version="0" />
			</rt_info>
			<input>
				<port id="0" precision="FP16">
					<dim>256</dim>
					<dim>64</dim>
					<dim>1</dim>
					<dim>1</dim>
				</port>
			</input>
			<output>
				<port id="1" precision="FP32">
					<dim>256</dim>
					<dim>64</dim>
					<dim>1</dim>
					<dim>1</dim>
				</port>
			</output>
		</layer>
		<layer id="31" name="Multiply_38699" type="Convolution" version="opset1">
			<data strides="1, 1" dilations="1, 1" pads_begin="0, 0" pads_end="0, 0" auto_pad="explicit" />
			<input>
				<port id="0" precision="FP32">
					<dim>1</dim>
					<dim>64</dim>
					<dim>16</dim>
					<dim>16</dim>
				</port>
				<port id="1" precision="FP32">
					<dim>256</dim>
					<dim>64</dim>
					<dim>1</dim>
					<dim>1</dim>
				</port>
			</input>
			<output>
				<port id="2" precision="FP32">
					<dim>1</dim>
					<dim>256</dim>
					<dim>16</dim>
					<dim>16</dim>
				</port>
			</output>
		</layer>
		<layer id="32" name="Constant_38704_compressed" type="Const" version="opset1">
			<data element_type="f16" shape="1, 256, 1, 1" offset="192384" size="512" />
			<output>
				<port id="0" precision="FP16">
					<dim>1</dim>
					<dim>256</dim>
					<dim>1</dim>
					<dim>1</dim>
				</port>
			</output>
		</layer>
		<layer id="33" name="Constant_38704" type="Convert" version="opset1">
			<data destination_type="f32" />
			<rt_info>
				<attribute name="decompression" version="0" />
			</rt_info>
			<input>
				<port id="0" precision="FP16">
					<dim>1</dim>
					<dim>256</dim>
					<dim>1</dim>
					<dim>1</dim>
				</port>
			</input>
			<output>
				<port id="1" precision="FP32">
					<dim>1</dim>
					<dim>256</dim>
					<dim>1</dim>
					<dim>1</dim>
				</port>
			</output>
		</layer>
		<layer id="34" name="BatchNormalization_13" type="Add" version="opset1">
			<data auto_broadcast="numpy" />
			<input>
				<port id="0" precision="FP32">
					<dim>1</dim>
					<dim>256</dim>
					<dim>16</dim>
					<dim>16</dim>
				</port>
				<port id="1" precision="FP32">
					<dim>1</dim>
					<dim>256</dim>
					<dim>1</dim>
					<dim>1</dim>
				</port>
			</input>
			<output>
				<port id="2" precision="FP32" names="1853">
					<dim>1</dim>
					<dim>256</dim>
					<dim>16</dim>
					<dim>16</dim>
				</port>
			</output>
		</layer>
		<layer id="35" name="Multiply_40853_compressed" type="Const" version="opset1">
			<data element_type="f16" shape="256, 64, 1, 1" offset="192896" size="32768" />
			<output>
				<port id="0" precision="FP16">
					<dim>256</dim>
					<dim>64</dim>
					<dim>1</dim>
					<dim>1</dim>
				</port>
			</output>
		</layer>
		<layer id="36" name="Multiply_40853" type="Convert" version="opset1">
			<data destination_type="f32" />
			<rt_info>
				<attribute name="decompression" version="0" />
			</rt_info>
			<input>
				<port id="0" precision="FP16">
					<dim>256</dim>
					<dim>64</dim>
					<dim>1</dim>
					<dim>1</dim>
				</port>
			</input>
			<output>
				<port id="1" precision="FP32">
					<dim>256</dim>
					<dim>64</dim>
					<dim>1</dim>
					<dim>1</dim>
				</port>
			</output>
		</layer>
		<layer id="37" name="Multiply_38706" type="Convolution" version="opset1">
			<data strides="1, 1" dilations="1, 1" pads_begin="0, 0" pads_end="0, 0" auto_pad="explicit" />
			<input>
				<port id="0" precision="FP32">
					<dim>1</dim>
					<dim>64</dim>
					<dim>16</dim>
					<dim>16</dim>
				</port>
				<port id="1" precision="FP32">
					<dim>256</dim>
					<dim>64</dim>
					<dim>1</dim>
					<dim>1</dim>
				</port>
			</input>
			<output>
				<port id="2" precision="FP32">
					<dim>1</dim>
					<dim>256</dim>
					<dim>16</dim>
					<dim>16</dim>
				</port>
			</output>
		</layer>
		<layer id="38" name="Constant_38711_compressed" type="Const" version="opset1">
			<data element_type="f16" shape="1, 256, 1, 1" offset="225664" size="512" />
			<output>
				<port id="0" precision="FP16">
					<dim>1</dim>
					<dim>256</dim>
					<dim>1</dim>
					<dim>1</dim>
				</port>
			</output>
		</layer>
		<layer id="39" name="Constant_38711" type="Convert" version="opset1">
			<data destination_type="f32" />
			<rt_info>
				<attribute name="decompression" version="0" />
			</rt_info>
			<input>
				<port id="0" precision="FP16">
					<dim>1</dim>
					<dim>256</dim>
					<dim>1</dim>
					<dim>1</dim>
				</port>
			</input>
			<output>
				<port id="1" precision="FP32">
					<dim>1</dim>
					<dim>256</dim>
					<dim>1</dim>
					<dim>1</dim>
				</port>
			</output>
		</layer>
		<layer id="40" name="BatchNormalization_15" type="Add" version="opset1">
			<data auto_broadcast="numpy" />
			<input>
				<port id="0" precision="FP32">
					<dim>1</dim>
					<dim>256</dim>
					<dim>16</dim>
					<dim>16</dim>
				</port>
				<port id="1" precision="FP32">
					<dim>1</dim>
					<dim>256</dim>
					<dim>1</dim>
					<dim>1</dim>
				</port>
			</input>
			<output>
				<port id="2" precision="FP32" names="1855">
					<dim>1</dim>
					<dim>256</dim>
					<dim>16</dim>
					<dim>16</dim>
				</port>
			</output>
		</layer>
		<layer id="41" name="Add_16" type="Add" version="opset1">
			<data auto_broadcast="numpy" />
			<input>
				<port id="0" precision="FP32">
					<dim>1</dim>
					<dim>256</dim>
					<dim>16</dim>
					<dim>16</dim>
				</port>
				<port id="1" precision="FP32">
					<dim>1</dim>
					<dim>256</dim>
					<dim>16</dim>
					<dim>16</dim>
				</port>
			</input>
			<output>
				<port id="2" precision="FP32" names="1856">
					<dim>1</dim>
					<dim>256</dim>
					<dim>16</dim>
					<dim>16</dim>
				</port>
			</output>
		</layer>
		<layer id="42" name="Relu_17" type="ReLU" version="opset1">
			<input>
				<port id="0" precision="FP32">
					<dim>1</dim>
					<dim>256</dim>
					<dim>16</dim>
					<dim>16</dim>
				</port>
			</input>
			<output>
				<port id="1" precision="FP32" names="1857">
					<dim>1</dim>
					<dim>256</dim>
					<dim>16</dim>
					<dim>16</dim>
				</port>
			</output>
		</layer>
		<layer id="43" name="Multiply_40859_compressed" type="Const" version="opset1">
			<data element_type="f16" shape="64, 256, 1, 1" offset="226176" size="32768" />
			<output>
				<port id="0" precision="FP16">
					<dim>64</dim>
					<dim>256</dim>
					<dim>1</dim>
					<dim>1</dim>
				</port>
			</output>
		</layer>
		<layer id="44" name="Multiply_40859" type="Convert" version="opset1">
			<data destination_type="f32" />
			<rt_info>
				<attribute name="decompression" version="0" />
			</rt_info>
			<input>
				<port id="0" precision="FP16">
					<dim>64</dim>
					<dim>256</dim>
					<dim>1</dim>
					<dim>1</dim>
				</port>
			</input>
			<output>
				<port id="1" precision="FP32">
					<dim>64</dim>
					<dim>256</dim>
					<dim>1</dim>
					<dim>1</dim>
				</port>
			</output>
		</layer>
		<layer id="45" name="Multiply_38713" type="Convolution" version="opset1">
			<data strides="1, 1" dilations="1, 1" pads_begin="0, 0" pads_end="0, 0" auto_pad="explicit" />
			<input>
				<port id="0" precision="FP32">
					<dim>1</dim>
					<dim>256</dim>
					<dim>16</dim>
					<dim>16</dim>
				</port>
				<port id="1" precision="FP32">
					<dim>64</dim>
					<dim>256</dim>
					<dim>1</dim>
					<dim>1</dim>
				</port>
			</input>
			<output>
				<port id="2" precision="FP32">
					<dim>1</dim>
					<dim>64</dim>
					<dim>16</dim>
					<dim>16</dim>
				</port>
			</output>
		</layer>
		<layer id="46" name="Constant_38718_compressed" type="Const" version="opset1">
			<data element_type="f16" shape="1, 64, 1, 1" offset="258944" size="128" />
			<output>
				<port id="0" precision="FP16">
					<dim>1</dim>
					<dim>64</dim>
					<dim>1</dim>
					<dim>1</dim>
				</port>
			</output>
		</layer>
		<layer id="47" name="Constant_38718" type="Convert" version="opset1">
			<data destination_type="f32" />
			<rt_info>
				<attribute name="decompression" version="0" />
			</rt_info>
			<input>
				<port id="0" precision="FP16">
					<dim>1</dim>
					<dim>64</dim>
					<dim>1</dim>
					<dim>1</dim>
				</port>
			</input>
			<output>
				<port id="1" precision="FP32">
					<dim>1</dim>
					<dim>64</dim>
					<dim>1</dim>
					<dim>1</dim>
				</port>
			</output>
		</layer>
		<layer id="48" name="BatchNormalization_19" type="Add" version="opset1">
			<data auto_broadcast="numpy" />
			<input>
				<port id="0" precision="FP32">
					<dim>1</dim>
					<dim>64</dim>
					<dim>16</dim>
					<dim>16</dim>
				</port>
				<port id="1" precision="FP32">
					<dim>1</dim>
					<dim>64</dim>
					<dim>1</dim>
					<dim>1</dim>
				</port>
			</input>
			<output>
				<port id="2" precision="FP32" names="1859">
					<dim>1</dim>
					<dim>64</dim>
					<dim>16</dim>
					<dim>16</dim>
				</port>
			</output>
		</layer>
		<layer id="49" name="Relu_20" type="ReLU" version="opset1">
			<input>
				<port id="0" precision="FP32">
					<dim>1</dim>
					<dim>64</dim>
					<dim>16</dim>
					<dim>16</dim>
				</port>
			</input>
			<output>
				<port id="1" precision="FP32" names="1860">
					<dim>1</dim>
					<dim>64</dim>
					<dim>16</dim>
					<dim>16</dim>
				</port>
			</output>
		</layer>
		<layer id="50" name="Multiply_40865_compressed" type="Const" version="opset1">
			<data element_type="f16" shape="64, 64, 3, 3" offset="259072" size="73728" />
			<output>
				<port id="0" precision="FP16">
					<dim>64</dim>
					<dim>64</dim>
					<dim>3</dim>
					<dim>3</dim>
				</port>
			</output>
		</layer>
		<layer id="51" name="Multiply_40865" type="Convert" version="opset1">
			<data destination_type="f32" />
			<rt_info>
				<attribute name="decompression" version="0" />
			</rt_info>
			<input>
				<port id="0" precision="FP16">
					<dim>64</dim>
					<dim>64</dim>
					<dim>3</dim>
					<dim>3</dim>
				</port>
			</input>
			<output>
				<port id="1" precision="FP32">
					<dim>64</dim>
					<dim>64</dim>
					<dim>3</dim>
					<dim>3</dim>
				</port>
			</output>
		</layer>
		<layer id="52" name="Multiply_38720" type="Convolution" version="opset1">
			<data strides="1, 1" dilations="1, 1" pads_begin="1, 1" pads_end="1, 1" auto_pad="explicit" />
			<input>
				<port id="0" precision="FP32">
					<dim>1</dim>
					<dim>64</dim>
					<dim>16</dim>
					<dim>16</dim>
				</port>
				<port id="1" precision="FP32">
					<dim>64</dim>
					<dim>64</dim>
					<dim>3</dim>
					<dim>3</dim>
				</port>
			</input>
			<output>
				<port id="2" precision="FP32">
					<dim>1</dim>
					<dim>64</dim>
					<dim>16</dim>
					<dim>16</dim>
				</port>
			</output>
		</layer>
		<layer id="53" name="Constant_38725_compressed" type="Const" version="opset1">
			<data element_type="f16" shape="1, 64, 1, 1" offset="332800" size="128" />
			<output>
				<port id="0" precision="FP16">
					<dim>1</dim>
					<dim>64</dim>
					<dim>1</dim>
					<dim>1</dim>
				</port>
			</output>
		</layer>
		<layer id="54" name="Constant_38725" type="Convert" version="opset1">
			<data destination_type="f32" />
			<rt_info>
				<attribute name="decompression" version="0" />
			</rt_info>
			<input>
				<port id="0" precision="FP16">
					<dim>1</dim>
					<dim>64</dim>
					<dim>1</dim>
					<dim>1</dim>
				</port>
			</input>
			<output>
				<port id="1" precision="FP32">
					<dim>1</dim>
					<dim>64</dim>
					<dim>1</dim>
					<dim>1</dim>
				</port>
			</output>
		</layer>
		<layer id="55" name="BatchNormalization_22" type="Add" version="opset1">
			<data auto_broadcast="numpy" />
			<input>
				<port id="0" precision="FP32">
					<dim>1</dim>
					<dim>64</dim>
					<dim>16</dim>
					<dim>16</dim>
				</port>
				<port id="1" precision="FP32">
					<dim>1</dim>
					<dim>64</dim>
					<dim>1</dim>
					<dim>1</dim>
				</port>
			</input>
			<output>
				<port id="2" precision="FP32" names="1862">
					<dim>1</dim>
					<dim>64</dim>
					<dim>16</dim>
					<dim>16</dim>
				</port>
			</output>
		</layer>
		<layer id="56" name="Relu_23" type="ReLU" version="opset1">
			<input>
				<port id="0" precision="FP32">
					<dim>1</dim>
					<dim>64</dim>
					<dim>16</dim>
					<dim>16</dim>
				</port>
			</input>
			<output>
				<port id="1" precision="FP32" names="1863">
					<dim>1</dim>
					<dim>64</dim>
					<dim>16</dim>
					<dim>16</dim>
				</port>
			</output>
		</layer>
		<layer id="57" name="Multiply_40871_compressed" type="Const" version="opset1">
			<data element_type="f16" shape="256, 64, 1, 1" offset="332928" size="32768" />
			<output>
				<port id="0" precision="FP16">
					<dim>256</dim>
					<dim>64</dim>
					<dim>1</dim>
					<dim>1</dim>
				</port>
			</output>
		</layer>
		<layer id="58" name="Multiply_40871" type="Convert" version="opset1">
			<data destination_type="f32" />
			<rt_info>
				<attribute name="decompression" version="0" />
			</rt_info>
			<input>
				<port id="0" precision="FP16">
					<dim>256</dim>
					<dim>64</dim>
					<dim>1</dim>
					<dim>1</dim>
				</port>
			</input>
			<output>
				<port id="1" precision="FP32">
					<dim>256</dim>
					<dim>64</dim>
					<dim>1</dim>
					<dim>1</dim>
				</port>
			</output>
		</layer>
		<layer id="59" name="Multiply_38727" type="Convolution" version="opset1">
			<data strides="1, 1" dilations="1, 1" pads_begin="0, 0" pads_end="0, 0" auto_pad="explicit" />
			<input>
				<port id="0" precision="FP32">
					<dim>1</dim>
					<dim>64</dim>
					<dim>16</dim>
					<dim>16</dim>
				</port>
				<port id="1" precision="FP32">
					<dim>256</dim>
					<dim>64</dim>
					<dim>1</dim>
					<dim>1</dim>
				</port>
			</input>
			<output>
				<port id="2" precision="FP32">
					<dim>1</dim>
					<dim>256</dim>
					<dim>16</dim>
					<dim>16</dim>
				</port>
			</output>
		</layer>
		<layer id="60" name="Constant_38732_compressed" type="Const" version="opset1">
			<data element_type="f16" shape="1, 256, 1, 1" offset="365696" size="512" />
			<output>
				<port id="0" precision="FP16">
					<dim>1</dim>
					<dim>256</dim>
					<dim>1</dim>
					<dim>1</dim>
				</port>
			</output>
		</layer>
		<layer id="61" name="Constant_38732" type="Convert" version="opset1">
			<data destination_type="f32" />
			<rt_info>
				<attribute name="decompression" version="0" />
			</rt_info>
			<input>
				<port id="0" precision="FP16">
					<dim>1</dim>
					<dim>256</dim>
					<dim>1</dim>
					<dim>1</dim>
				</port>
			</input>
			<output>
				<port id="1" precision="FP32">
					<dim>1</dim>
					<dim>256</dim>
					<dim>1</dim>
					<dim>1</dim>
				</port>
			</output>
		</layer>
		<layer id="62" name="BatchNormalization_25" type="Add" version="opset1">
			<data auto_broadcast="numpy" />
			<input>
				<port id="0" precision="FP32">
					<dim>1</dim>
					<dim>256</dim>
					<dim>16</dim>
					<dim>16</dim>
				</port>
				<port id="1" precision="FP32">
					<dim>1</dim>
					<dim>256</dim>
					<dim>1</dim>
					<dim>1</dim>
				</port>
			</input>
			<output>
				<port id="2" precision="FP32" names="1865">
					<dim>1</dim>
					<dim>256</dim>
					<dim>16</dim>
					<dim>16</dim>
				</port>
			</output>
		</layer>
		<layer id="63" name="Add_26" type="Add" version="opset1">
			<data auto_broadcast="numpy" />
			<input>
				<port id="0" precision="FP32">
					<dim>1</dim>
					<dim>256</dim>
					<dim>16</dim>
					<dim>16</dim>
				</port>
				<port id="1" precision="FP32">
					<dim>1</dim>
					<dim>256</dim>
					<dim>16</dim>
					<dim>16</dim>
				</port>
			</input>
			<output>
				<port id="2" precision="FP32" names="1866">
					<dim>1</dim>
					<dim>256</dim>
					<dim>16</dim>
					<dim>16</dim>
				</port>
			</output>
		</layer>
		<layer id="64" name="Relu_27" type="ReLU" version="opset1">
			<input>
				<port id="0" precision="FP32">
					<dim>1</dim>
					<dim>256</dim>
					<dim>16</dim>
					<dim>16</dim>
				</port>
			</input>
			<output>
				<port id="1" precision="FP32" names="1867">
					<dim>1</dim>
					<dim>256</dim>
					<dim>16</dim>
					<dim>16</dim>
				</port>
			</output>
		</layer>
		<layer id="65" name="Multiply_40877_compressed" type="Const" version="opset1">
			<data element_type="f16" shape="64, 256, 1, 1" offset="366208" size="32768" />
			<output>
				<port id="0" precision="FP16">
					<dim>64</dim>
					<dim>256</dim>
					<dim>1</dim>
					<dim>1</dim>
				</port>
			</output>
		</layer>
		<layer id="66" name="Multiply_40877" type="Convert" version="opset1">
			<data destination_type="f32" />
			<rt_info>
				<attribute name="decompression" version="0" />
			</rt_info>
			<input>
				<port id="0" precision="FP16">
					<dim>64</dim>
					<dim>256</dim>
					<dim>1</dim>
					<dim>1</dim>
				</port>
			</input>
			<output>
				<port id="1" precision="FP32">
					<dim>64</dim>
					<dim>256</dim>
					<dim>1</dim>
					<dim>1</dim>
				</port>
			</output>
		</layer>
		<layer id="67" name="Multiply_38734" type="Convolution" version="opset1">
			<data strides="1, 1" dilations="1, 1" pads_begin="0, 0" pads_end="0, 0" auto_pad="explicit" />
			<input>
				<port id="0" precision="FP32">
					<dim>1</dim>
					<dim>256</dim>
					<dim>16</dim>
					<dim>16</dim>
				</port>
				<port id="1" precision="FP32">
					<dim>64</dim>
					<dim>256</dim>
					<dim>1</dim>
					<dim>1</dim>
				</port>
			</input>
			<output>
				<port id="2" precision="FP32">
					<dim>1</dim>
					<dim>64</dim>
					<dim>16</dim>
					<dim>16</dim>
				</port>
			</output>
		</layer>
		<layer id="68" name="Constant_38739_compressed" type="Const" version="opset1">
			<data element_type="f16" shape="1, 64, 1, 1" offset="398976" size="128" />
			<output>
				<port id="0" precision="FP16">
					<dim>1</dim>
					<dim>64</dim>
					<dim>1</dim>
					<dim>1</dim>
				</port>
			</output>
		</layer>
		<layer id="69" name="Constant_38739" type="Convert" version="opset1">
			<data destination_type="f32" />
			<rt_info>
				<attribute name="decompression" version="0" />
			</rt_info>
			<input>
				<port id="0" precision="FP16">
					<dim>1</dim>
					<dim>64</dim>
					<dim>1</dim>
					<dim>1</dim>
				</port>
			</input>
			<output>
				<port id="1" precision="FP32">
					<dim>1</dim>
					<dim>64</dim>
					<dim>1</dim>
					<dim>1</dim>
				</port>
			</output>
		</layer>
		<layer id="70" name="BatchNormalization_29" type="Add" version="opset1">
			<data auto_broadcast="numpy" />
			<input>
				<port id="0" precision="FP32">
					<dim>1</dim>
					<dim>64</dim>
					<dim>16</dim>
					<dim>16</dim>
				</port>
				<port id="1" precision="FP32">
					<dim>1</dim>
					<dim>64</dim>
					<dim>1</dim>
					<dim>1</dim>
				</port>
			</input>
			<output>
				<port id="2" precision="FP32" names="1869">
					<dim>1</dim>
					<dim>64</dim>
					<dim>16</dim>
					<dim>16</dim>
				</port>
			</output>
		</layer>
		<layer id="71" name="Relu_30" type="ReLU" version="opset1">
			<input>
				<port id="0" precision="FP32">
					<dim>1</dim>
					<dim>64</dim>
					<dim>16</dim>
					<dim>16</dim>
				</port>
			</input>
			<output>
				<port id="1" precision="FP32" names="1870">
					<dim>1</dim>
					<dim>64</dim>
					<dim>16</dim>
					<dim>16</dim>
				</port>
			</output>
		</layer>
		<layer id="72" name="Multiply_40883_compressed" type="Const" version="opset1">
			<data element_type="f16" shape="64, 64, 3, 3" offset="399104" size="73728" />
			<output>
				<port id="0" precision="FP16">
					<dim>64</dim>
					<dim>64</dim>
					<dim>3</dim>
					<dim>3</dim>
				</port>
			</output>
		</layer>
		<layer id="73" name="Multiply_40883" type="Convert" version="opset1">
			<data destination_type="f32" />
			<rt_info>
				<attribute name="decompression" version="0" />
			</rt_info>
			<input>
				<port id="0" precision="FP16">
					<dim>64</dim>
					<dim>64</dim>
					<dim>3</dim>
					<dim>3</dim>
				</port>
			</input>
			<output>
				<port id="1" precision="FP32">
					<dim>64</dim>
					<dim>64</dim>
					<dim>3</dim>
					<dim>3</dim>
				</port>
			</output>
		</layer>
		<layer id="74" name="Multiply_38741" type="Convolution" version="opset1">
			<data strides="1, 1" dilations="1, 1" pads_begin="1, 1" pads_end="1, 1" auto_pad="explicit" />
			<input>
				<port id="0" precision="FP32">
					<dim>1</dim>
					<dim>64</dim>
					<dim>16</dim>
					<dim>16</dim>
				</port>
				<port id="1" precision="FP32">
					<dim>64</dim>
					<dim>64</dim>
					<dim>3</dim>
					<dim>3</dim>
				</port>
			</input>
			<output>
				<port id="2" precision="FP32">
					<dim>1</dim>
					<dim>64</dim>
					<dim>16</dim>
					<dim>16</dim>
				</port>
			</output>
		</layer>
		<layer id="75" name="Constant_38746_compressed" type="Const" version="opset1">
			<data element_type="f16" shape="1, 64, 1, 1" offset="472832" size="128" />
			<output>
				<port id="0" precision="FP16">
					<dim>1</dim>
					<dim>64</dim>
					<dim>1</dim>
					<dim>1</dim>
				</port>
			</output>
		</layer>
		<layer id="76" name="Constant_38746" type="Convert" version="opset1">
			<data destination_type="f32" />
			<rt_info>
				<attribute name="decompression" version="0" />
			</rt_info>
			<input>
				<port id="0" precision="FP16">
					<dim>1</dim>
					<dim>64</dim>
					<dim>1</dim>
					<dim>1</dim>
				</port>
			</input>
			<output>
				<port id="1" precision="FP32">
					<dim>1</dim>
					<dim>64</dim>
					<dim>1</dim>
					<dim>1</dim>
				</port>
			</output>
		</layer>
		<layer id="77" name="BatchNormalization_32" type="Add" version="opset1">
			<data auto_broadcast="numpy" />
			<input>
				<port id="0" precision="FP32">
					<dim>1</dim>
					<dim>64</dim>
					<dim>16</dim>
					<dim>16</dim>
				</port>
				<port id="1" precision="FP32">
					<dim>1</dim>
					<dim>64</dim>
					<dim>1</dim>
					<dim>1</dim>
				</port>
			</input>
			<output>
				<port id="2" precision="FP32" names="1872">
					<dim>1</dim>
					<dim>64</dim>
					<dim>16</dim>
					<dim>16</dim>
				</port>
			</output>
		</layer>
		<layer id="78" name="Relu_33" type="ReLU" version="opset1">
			<input>
				<port id="0" precision="FP32">
					<dim>1</dim>
					<dim>64</dim>
					<dim>16</dim>
					<dim>16</dim>
				</port>
			</input>
			<output>
				<port id="1" precision="FP32" names="1873">
					<dim>1</dim>
					<dim>64</dim>
					<dim>16</dim>
					<dim>16</dim>
				</port>
			</output>
		</layer>
		<layer id="79" name="Multiply_40889_compressed" type="Const" version="opset1">
			<data element_type="f16" shape="256, 64, 1, 1" offset="472960" size="32768" />
			<output>
				<port id="0" precision="FP16">
					<dim>256</dim>
					<dim>64</dim>
					<dim>1</dim>
					<dim>1</dim>
				</port>
			</output>
		</layer>
		<layer id="80" name="Multiply_40889" type="Convert" version="opset1">
			<data destination_type="f32" />
			<rt_info>
				<attribute name="decompression" version="0" />
			</rt_info>
			<input>
				<port id="0" precision="FP16">
					<dim>256</dim>
					<dim>64</dim>
					<dim>1</dim>
					<dim>1</dim>
				</port>
			</input>
			<output>
				<port id="1" precision="FP32">
					<dim>256</dim>
					<dim>64</dim>
					<dim>1</dim>
					<dim>1</dim>
				</port>
			</output>
		</layer>
		<layer id="81" name="Multiply_38748" type="Convolution" version="opset1">
			<data strides="1, 1" dilations="1, 1" pads_begin="0, 0" pads_end="0, 0" auto_pad="explicit" />
			<input>
				<port id="0" precision="FP32">
					<dim>1</dim>
					<dim>64</dim>
					<dim>16</dim>
					<dim>16</dim>
				</port>
				<port id="1" precision="FP32">
					<dim>256</dim>
					<dim>64</dim>
					<dim>1</dim>
					<dim>1</dim>
				</port>
			</input>
			<output>
				<port id="2" precision="FP32">
					<dim>1</dim>
					<dim>256</dim>
					<dim>16</dim>
					<dim>16</dim>
				</port>
			</output>
		</layer>
		<layer id="82" name="Constant_38753_compressed" type="Const" version="opset1">
			<data element_type="f16" shape="1, 256, 1, 1" offset="505728" size="512" />
			<output>
				<port id="0" precision="FP16">
					<dim>1</dim>
					<dim>256</dim>
					<dim>1</dim>
					<dim>1</dim>
				</port>
			</output>
		</layer>
		<layer id="83" name="Constant_38753" type="Convert" version="opset1">
			<data destination_type="f32" />
			<rt_info>
				<attribute name="decompression" version="0" />
			</rt_info>
			<input>
				<port id="0" precision="FP16">
					<dim>1</dim>
					<dim>256</dim>
					<dim>1</dim>
					<dim>1</dim>
				</port>
			</input>
			<output>
				<port id="1" precision="FP32">
					<dim>1</dim>
					<dim>256</dim>
					<dim>1</dim>
					<dim>1</dim>
				</port>
			</output>
		</layer>
		<layer id="84" name="BatchNormalization_35" type="Add" version="opset1">
			<data auto_broadcast="numpy" />
			<input>
				<port id="0" precision="FP32">
					<dim>1</dim>
					<dim>256</dim>
					<dim>16</dim>
					<dim>16</dim>
				</port>
				<port id="1" precision="FP32">
					<dim>1</dim>
					<dim>256</dim>
					<dim>1</dim>
					<dim>1</dim>
				</port>
			</input>
			<output>
				<port id="2" precision="FP32" names="1875">
					<dim>1</dim>
					<dim>256</dim>
					<dim>16</dim>
					<dim>16</dim>
				</port>
			</output>
		</layer>
		<layer id="85" name="Add_36" type="Add" version="opset1">
			<data auto_broadcast="numpy" />
			<input>
				<port id="0" precision="FP32">
					<dim>1</dim>
					<dim>256</dim>
					<dim>16</dim>
					<dim>16</dim>
				</port>
				<port id="1" precision="FP32">
					<dim>1</dim>
					<dim>256</dim>
					<dim>16</dim>
					<dim>16</dim>
				</port>
			</input>
			<output>
				<port id="2" precision="FP32" names="1876">
					<dim>1</dim>
					<dim>256</dim>
					<dim>16</dim>
					<dim>16</dim>
				</port>
			</output>
		</layer>
		<layer id="86" name="Relu_37" type="ReLU" version="opset1">
			<input>
				<port id="0" precision="FP32">
					<dim>1</dim>
					<dim>256</dim>
					<dim>16</dim>
					<dim>16</dim>
				</port>
			</input>
			<output>
				<port id="1" precision="FP32" names="1877">
					<dim>1</dim>
					<dim>256</dim>
					<dim>16</dim>
					<dim>16</dim>
				</port>
			</output>
		</layer>
		<layer id="87" name="Multiply_40895_compressed" type="Const" version="opset1">
			<data element_type="f16" shape="64, 256, 1, 1" offset="506240" size="32768" />
			<output>
				<port id="0" precision="FP16">
					<dim>64</dim>
					<dim>256</dim>
					<dim>1</dim>
					<dim>1</dim>
				</port>
			</output>
		</layer>
		<layer id="88" name="Multiply_40895" type="Convert" version="opset1">
			<data destination_type="f32" />
			<rt_info>
				<attribute name="decompression" version="0" />
			</rt_info>
			<input>
				<port id="0" precision="FP16">
					<dim>64</dim>
					<dim>256</dim>
					<dim>1</dim>
					<dim>1</dim>
				</port>
			</input>
			<output>
				<port id="1" precision="FP32">
					<dim>64</dim>
					<dim>256</dim>
					<dim>1</dim>
					<dim>1</dim>
				</port>
			</output>
		</layer>
		<layer id="89" name="Multiply_38755" type="Convolution" version="opset1">
			<data strides="1, 1" dilations="1, 1" pads_begin="0, 0" pads_end="0, 0" auto_pad="explicit" />
			<input>
				<port id="0" precision="FP32">
					<dim>1</dim>
					<dim>256</dim>
					<dim>16</dim>
					<dim>16</dim>
				</port>
				<port id="1" precision="FP32">
					<dim>64</dim>
					<dim>256</dim>
					<dim>1</dim>
					<dim>1</dim>
				</port>
			</input>
			<output>
				<port id="2" precision="FP32">
					<dim>1</dim>
					<dim>64</dim>
					<dim>16</dim>
					<dim>16</dim>
				</port>
			</output>
		</layer>
		<layer id="90" name="Constant_38760_compressed" type="Const" version="opset1">
			<data element_type="f16" shape="1, 64, 1, 1" offset="539008" size="128" />
			<output>
				<port id="0" precision="FP16">
					<dim>1</dim>
					<dim>64</dim>
					<dim>1</dim>
					<dim>1</dim>
				</port>
			</output>
		</layer>
		<layer id="91" name="Constant_38760" type="Convert" version="opset1">
			<data destination_type="f32" />
			<rt_info>
				<attribute name="decompression" version="0" />
			</rt_info>
			<input>
				<port id="0" precision="FP16">
					<dim>1</dim>
					<dim>64</dim>
					<dim>1</dim>
					<dim>1</dim>
				</port>
			</input>
			<output>
				<port id="1" precision="FP32">
					<dim>1</dim>
					<dim>64</dim>
					<dim>1</dim>
					<dim>1</dim>
				</port>
			</output>
		</layer>
		<layer id="92" name="BatchNormalization_39" type="Add" version="opset1">
			<data auto_broadcast="numpy" />
			<input>
				<port id="0" precision="FP32">
					<dim>1</dim>
					<dim>64</dim>
					<dim>16</dim>
					<dim>16</dim>
				</port>
				<port id="1" precision="FP32">
					<dim>1</dim>
					<dim>64</dim>
					<dim>1</dim>
					<dim>1</dim>
				</port>
			</input>
			<output>
				<port id="2" precision="FP32" names="1879">
					<dim>1</dim>
					<dim>64</dim>
					<dim>16</dim>
					<dim>16</dim>
				</port>
			</output>
		</layer>
		<layer id="93" name="Relu_40" type="ReLU" version="opset1">
			<input>
				<port id="0" precision="FP32">
					<dim>1</dim>
					<dim>64</dim>
					<dim>16</dim>
					<dim>16</dim>
				</port>
			</input>
			<output>
				<port id="1" precision="FP32" names="1880">
					<dim>1</dim>
					<dim>64</dim>
					<dim>16</dim>
					<dim>16</dim>
				</port>
			</output>
		</layer>
		<layer id="94" name="Multiply_40901_compressed" type="Const" version="opset1">
			<data element_type="f16" shape="64, 64, 3, 3" offset="539136" size="73728" />
			<output>
				<port id="0" precision="FP16">
					<dim>64</dim>
					<dim>64</dim>
					<dim>3</dim>
					<dim>3</dim>
				</port>
			</output>
		</layer>
		<layer id="95" name="Multiply_40901" type="Convert" version="opset1">
			<data destination_type="f32" />
			<rt_info>
				<attribute name="decompression" version="0" />
			</rt_info>
			<input>
				<port id="0" precision="FP16">
					<dim>64</dim>
					<dim>64</dim>
					<dim>3</dim>
					<dim>3</dim>
				</port>
			</input>
			<output>
				<port id="1" precision="FP32">
					<dim>64</dim>
					<dim>64</dim>
					<dim>3</dim>
					<dim>3</dim>
				</port>
			</output>
		</layer>
		<layer id="96" name="Multiply_38762" type="Convolution" version="opset1">
			<data strides="1, 1" dilations="1, 1" pads_begin="1, 1" pads_end="1, 1" auto_pad="explicit" />
			<input>
				<port id="0" precision="FP32">
					<dim>1</dim>
					<dim>64</dim>
					<dim>16</dim>
					<dim>16</dim>
				</port>
				<port id="1" precision="FP32">
					<dim>64</dim>
					<dim>64</dim>
					<dim>3</dim>
					<dim>3</dim>
				</port>
			</input>
			<output>
				<port id="2" precision="FP32">
					<dim>1</dim>
					<dim>64</dim>
					<dim>16</dim>
					<dim>16</dim>
				</port>
			</output>
		</layer>
		<layer id="97" name="Constant_38767_compressed" type="Const" version="opset1">
			<data element_type="f16" shape="1, 64, 1, 1" offset="612864" size="128" />
			<output>
				<port id="0" precision="FP16">
					<dim>1</dim>
					<dim>64</dim>
					<dim>1</dim>
					<dim>1</dim>
				</port>
			</output>
		</layer>
		<layer id="98" name="Constant_38767" type="Convert" version="opset1">
			<data destination_type="f32" />
			<rt_info>
				<attribute name="decompression" version="0" />
			</rt_info>
			<input>
				<port id="0" precision="FP16">
					<dim>1</dim>
					<dim>64</dim>
					<dim>1</dim>
					<dim>1</dim>
				</port>
			</input>
			<output>
				<port id="1" precision="FP32">
					<dim>1</dim>
					<dim>64</dim>
					<dim>1</dim>
					<dim>1</dim>
				</port>
			</output>
		</layer>
		<layer id="99" name="BatchNormalization_42" type="Add" version="opset1">
			<data auto_broadcast="numpy" />
			<input>
				<port id="0" precision="FP32">
					<dim>1</dim>
					<dim>64</dim>
					<dim>16</dim>
					<dim>16</dim>
				</port>
				<port id="1" precision="FP32">
					<dim>1</dim>
					<dim>64</dim>
					<dim>1</dim>
					<dim>1</dim>
				</port>
			</input>
			<output>
				<port id="2" precision="FP32" names="1882">
					<dim>1</dim>
					<dim>64</dim>
					<dim>16</dim>
					<dim>16</dim>
				</port>
			</output>
		</layer>
		<layer id="100" name="Relu_43" type="ReLU" version="opset1">
			<input>
				<port id="0" precision="FP32">
					<dim>1</dim>
					<dim>64</dim>
					<dim>16</dim>
					<dim>16</dim>
				</port>
			</input>
			<output>
				<port id="1" precision="FP32" names="1883">
					<dim>1</dim>
					<dim>64</dim>
					<dim>16</dim>
					<dim>16</dim>
				</port>
			</output>
		</layer>
		<layer id="101" name="Multiply_40907_compressed" type="Const" version="opset1">
			<data element_type="f16" shape="256, 64, 1, 1" offset="612992" size="32768" />
			<output>
				<port id="0" precision="FP16">
					<dim>256</dim>
					<dim>64</dim>
					<dim>1</dim>
					<dim>1</dim>
				</port>
			</output>
		</layer>
		<layer id="102" name="Multiply_40907" type="Convert" version="opset1">
			<data destination_type="f32" />
			<rt_info>
				<attribute name="decompression" version="0" />
			</rt_info>
			<input>
				<port id="0" precision="FP16">
					<dim>256</dim>
					<dim>64</dim>
					<dim>1</dim>
					<dim>1</dim>
				</port>
			</input>
			<output>
				<port id="1" precision="FP32">
					<dim>256</dim>
					<dim>64</dim>
					<dim>1</dim>
					<dim>1</dim>
				</port>
			</output>
		</layer>
		<layer id="103" name="Multiply_38769" type="Convolution" version="opset1">
			<data strides="1, 1" dilations="1, 1" pads_begin="0, 0" pads_end="0, 0" auto_pad="explicit" />
			<input>
				<port id="0" precision="FP32">
					<dim>1</dim>
					<dim>64</dim>
					<dim>16</dim>
					<dim>16</dim>
				</port>
				<port id="1" precision="FP32">
					<dim>256</dim>
					<dim>64</dim>
					<dim>1</dim>
					<dim>1</dim>
				</port>
			</input>
			<output>
				<port id="2" precision="FP32">
					<dim>1</dim>
					<dim>256</dim>
					<dim>16</dim>
					<dim>16</dim>
				</port>
			</output>
		</layer>
		<layer id="104" name="Constant_38774_compressed" type="Const" version="opset1">
			<data element_type="f16" shape="1, 256, 1, 1" offset="645760" size="512" />
			<output>
				<port id="0" precision="FP16">
					<dim>1</dim>
					<dim>256</dim>
					<dim>1</dim>
					<dim>1</dim>
				</port>
			</output>
		</layer>
		<layer id="105" name="Constant_38774" type="Convert" version="opset1">
			<data destination_type="f32" />
			<rt_info>
				<attribute name="decompression" version="0" />
			</rt_info>
			<input>
				<port id="0" precision="FP16">
					<dim>1</dim>
					<dim>256</dim>
					<dim>1</dim>
					<dim>1</dim>
				</port>
			</input>
			<output>
				<port id="1" precision="FP32">
					<dim>1</dim>
					<dim>256</dim>
					<dim>1</dim>
					<dim>1</dim>
				</port>
			</output>
		</layer>
		<layer id="106" name="BatchNormalization_45" type="Add" version="opset1">
			<data auto_broadcast="numpy" />
			<input>
				<port id="0" precision="FP32">
					<dim>1</dim>
					<dim>256</dim>
					<dim>16</dim>
					<dim>16</dim>
				</port>
				<port id="1" precision="FP32">
					<dim>1</dim>
					<dim>256</dim>
					<dim>1</dim>
					<dim>1</dim>
				</port>
			</input>
			<output>
				<port id="2" precision="FP32" names="1885">
					<dim>1</dim>
					<dim>256</dim>
					<dim>16</dim>
					<dim>16</dim>
				</port>
			</output>
		</layer>
		<layer id="107" name="Add_46" type="Add" version="opset1">
			<data auto_broadcast="numpy" />
			<input>
				<port id="0" precision="FP32">
					<dim>1</dim>
					<dim>256</dim>
					<dim>16</dim>
					<dim>16</dim>
				</port>
				<port id="1" precision="FP32">
					<dim>1</dim>
					<dim>256</dim>
					<dim>16</dim>
					<dim>16</dim>
				</port>
			</input>
			<output>
				<port id="2" precision="FP32" names="1886">
					<dim>1</dim>
					<dim>256</dim>
					<dim>16</dim>
					<dim>16</dim>
				</port>
			</output>
		</layer>
		<layer id="108" name="Relu_47" type="ReLU" version="opset1">
			<input>
				<port id="0" precision="FP32">
					<dim>1</dim>
					<dim>256</dim>
					<dim>16</dim>
					<dim>16</dim>
				</port>
			</input>
			<output>
				<port id="1" precision="FP32" names="1887">
					<dim>1</dim>
					<dim>256</dim>
					<dim>16</dim>
					<dim>16</dim>
				</port>
			</output>
		</layer>
		<layer id="109" name="Multiply_40913_compressed" type="Const" version="opset1">
			<data element_type="f16" shape="18, 256, 3, 3" offset="646272" size="82944" />
			<output>
				<port id="0" precision="FP16">
					<dim>18</dim>
					<dim>256</dim>
					<dim>3</dim>
					<dim>3</dim>
				</port>
			</output>
		</layer>
		<layer id="110" name="Multiply_40913" type="Convert" version="opset1">
			<data destination_type="f32" />
			<rt_info>
				<attribute name="decompression" version="0" />
			</rt_info>
			<input>
				<port id="0" precision="FP16">
					<dim>18</dim>
					<dim>256</dim>
					<dim>3</dim>
					<dim>3</dim>
				</port>
			</input>
			<output>
				<port id="1" precision="FP32">
					<dim>18</dim>
					<dim>256</dim>
					<dim>3</dim>
					<dim>3</dim>
				</port>
			</output>
		</layer>
		<layer id="111" name="Multiply_38776" type="Convolution" version="opset1">
			<data strides="1, 1" dilations="1, 1" pads_begin="1, 1" pads_end="1, 1" auto_pad="explicit" />
			<input>
				<port id="0" precision="FP32">
					<dim>1</dim>
					<dim>256</dim>
					<dim>16</dim>
					<dim>16</dim>
				</port>
				<port id="1" precision="FP32">
					<dim>18</dim>
					<dim>256</dim>
					<dim>3</dim>
					<dim>3</dim>
				</port>
			</input>
			<output>
				<port id="2" precision="FP32">
					<dim>1</dim>
					<dim>18</dim>
					<dim>16</dim>
					<dim>16</dim>
				</port>
			</output>
		</layer>
		<layer id="112" name="Constant_38781_compressed" type="Const" version="opset1">
			<data element_type="f16" shape="1, 18, 1, 1" offset="729216" size="36" />
			<output>
				<port id="0" precision="FP16">
					<dim>1</dim>
					<dim>18</dim>
					<dim>1</dim>
					<dim>1</dim>
				</port>
			</output>
		</layer>
		<layer id="113" name="Constant_38781" type="Convert" version="opset1">
			<data destination_type="f32" />
			<rt_info>
				<attribute name="decompression" version="0" />
			</rt_info>
			<input>
				<port id="0" precision="FP16">
					<dim>1</dim>
					<dim>18</dim>
					<dim>1</dim>
					<dim>1</dim>
				</port>
			</input>
			<output>
				<port id="1" precision="FP32">
					<dim>1</dim>
					<dim>18</dim>
					<dim>1</dim>
					<dim>1</dim>
				</port>
			</output>
		</layer>
		<layer id="114" name="BatchNormalization_49" type="Add" version="opset1">
			<data auto_broadcast="numpy" />
			<input>
				<port id="0" precision="FP32">
					<dim>1</dim>
					<dim>18</dim>
					<dim>16</dim>
					<dim>16</dim>
				</port>
				<port id="1" precision="FP32">
					<dim>1</dim>
					<dim>18</dim>
					<dim>1</dim>
					<dim>1</dim>
				</port>
			</input>
			<output>
				<port id="2" precision="FP32" names="1889">
					<dim>1</dim>
					<dim>18</dim>
					<dim>16</dim>
					<dim>16</dim>
				</port>
			</output>
		</layer>
		<layer id="115" name="Relu_50" type="ReLU" version="opset1">
			<input>
				<port id="0" precision="FP32">
					<dim>1</dim>
					<dim>18</dim>
					<dim>16</dim>
					<dim>16</dim>
				</port>
			</input>
			<output>
				<port id="1" precision="FP32" names="1890">
					<dim>1</dim>
					<dim>18</dim>
					<dim>16</dim>
					<dim>16</dim>
				</port>
			</output>
		</layer>
		<layer id="116" name="Multiply_40919_compressed" type="Const" version="opset1">
			<data element_type="f16" shape="18, 18, 3, 3" offset="729252" size="5832" />
			<output>
				<port id="0" precision="FP16">
					<dim>18</dim>
					<dim>18</dim>
					<dim>3</dim>
					<dim>3</dim>
				</port>
			</output>
		</layer>
		<layer id="117" name="Multiply_40919" type="Convert" version="opset1">
			<data destination_type="f32" />
			<rt_info>
				<attribute name="decompression" version="0" />
			</rt_info>
			<input>
				<port id="0" precision="FP16">
					<dim>18</dim>
					<dim>18</dim>
					<dim>3</dim>
					<dim>3</dim>
				</port>
			</input>
			<output>
				<port id="1" precision="FP32">
					<dim>18</dim>
					<dim>18</dim>
					<dim>3</dim>
					<dim>3</dim>
				</port>
			</output>
		</layer>
		<layer id="118" name="Multiply_38783" type="Convolution" version="opset1">
			<data strides="1, 1" dilations="1, 1" pads_begin="1, 1" pads_end="1, 1" auto_pad="explicit" />
			<input>
				<port id="0" precision="FP32">
					<dim>1</dim>
					<dim>18</dim>
					<dim>16</dim>
					<dim>16</dim>
				</port>
				<port id="1" precision="FP32">
					<dim>18</dim>
					<dim>18</dim>
					<dim>3</dim>
					<dim>3</dim>
				</port>
			</input>
			<output>
				<port id="2" precision="FP32">
					<dim>1</dim>
					<dim>18</dim>
					<dim>16</dim>
					<dim>16</dim>
				</port>
			</output>
		</layer>
		<layer id="119" name="Constant_38788_compressed" type="Const" version="opset1">
			<data element_type="f16" shape="1, 18, 1, 1" offset="735084" size="36" />
			<output>
				<port id="0" precision="FP16">
					<dim>1</dim>
					<dim>18</dim>
					<dim>1</dim>
					<dim>1</dim>
				</port>
			</output>
		</layer>
		<layer id="120" name="Constant_38788" type="Convert" version="opset1">
			<data destination_type="f32" />
			<rt_info>
				<attribute name="decompression" version="0" />
			</rt_info>
			<input>
				<port id="0" precision="FP16">
					<dim>1</dim>
					<dim>18</dim>
					<dim>1</dim>
					<dim>1</dim>
				</port>
			</input>
			<output>
				<port id="1" precision="FP32">
					<dim>1</dim>
					<dim>18</dim>
					<dim>1</dim>
					<dim>1</dim>
				</port>
			</output>
		</layer>
		<layer id="121" name="BatchNormalization_55" type="Add" version="opset1">
			<data auto_broadcast="numpy" />
			<input>
				<port id="0" precision="FP32">
					<dim>1</dim>
					<dim>18</dim>
					<dim>16</dim>
					<dim>16</dim>
				</port>
				<port id="1" precision="FP32">
					<dim>1</dim>
					<dim>18</dim>
					<dim>1</dim>
					<dim>1</dim>
				</port>
			</input>
			<output>
				<port id="2" precision="FP32" names="1895">
					<dim>1</dim>
					<dim>18</dim>
					<dim>16</dim>
					<dim>16</dim>
				</port>
			</output>
		</layer>
		<layer id="122" name="Relu_56" type="ReLU" version="opset1">
			<input>
				<port id="0" precision="FP32">
					<dim>1</dim>
					<dim>18</dim>
					<dim>16</dim>
					<dim>16</dim>
				</port>
			</input>
			<output>
				<port id="1" precision="FP32" names="1896">
					<dim>1</dim>
					<dim>18</dim>
					<dim>16</dim>
					<dim>16</dim>
				</port>
			</output>
		</layer>
		<layer id="123" name="Multiply_40925_compressed" type="Const" version="opset1">
			<data element_type="f16" shape="18, 18, 3, 3" offset="735120" size="5832" />
			<output>
				<port id="0" precision="FP16">
					<dim>18</dim>
					<dim>18</dim>
					<dim>3</dim>
					<dim>3</dim>
				</port>
			</output>
		</layer>
		<layer id="124" name="Multiply_40925" type="Convert" version="opset1">
			<data destination_type="f32" />
			<rt_info>
				<attribute name="decompression" version="0" />
			</rt_info>
			<input>
				<port id="0" precision="FP16">
					<dim>18</dim>
					<dim>18</dim>
					<dim>3</dim>
					<dim>3</dim>
				</port>
			</input>
			<output>
				<port id="1" precision="FP32">
					<dim>18</dim>
					<dim>18</dim>
					<dim>3</dim>
					<dim>3</dim>
				</port>
			</output>
		</layer>
		<layer id="125" name="Multiply_38790" type="Convolution" version="opset1">
			<data strides="1, 1" dilations="1, 1" pads_begin="1, 1" pads_end="1, 1" auto_pad="explicit" />
			<input>
				<port id="0" precision="FP32">
					<dim>1</dim>
					<dim>18</dim>
					<dim>16</dim>
					<dim>16</dim>
				</port>
				<port id="1" precision="FP32">
					<dim>18</dim>
					<dim>18</dim>
					<dim>3</dim>
					<dim>3</dim>
				</port>
			</input>
			<output>
				<port id="2" precision="FP32">
					<dim>1</dim>
					<dim>18</dim>
					<dim>16</dim>
					<dim>16</dim>
				</port>
			</output>
		</layer>
		<layer id="126" name="Constant_38795_compressed" type="Const" version="opset1">
			<data element_type="f16" shape="1, 18, 1, 1" offset="740952" size="36" />
			<output>
				<port id="0" precision="FP16">
					<dim>1</dim>
					<dim>18</dim>
					<dim>1</dim>
					<dim>1</dim>
				</port>
			</output>
		</layer>
		<layer id="127" name="Constant_38795" type="Convert" version="opset1">
			<data destination_type="f32" />
			<rt_info>
				<attribute name="decompression" version="0" />
			</rt_info>
			<input>
				<port id="0" precision="FP16">
					<dim>1</dim>
					<dim>18</dim>
					<dim>1</dim>
					<dim>1</dim>
				</port>
			</input>
			<output>
				<port id="1" precision="FP32">
					<dim>1</dim>
					<dim>18</dim>
					<dim>1</dim>
					<dim>1</dim>
				</port>
			</output>
		</layer>
		<layer id="128" name="BatchNormalization_58" type="Add" version="opset1">
			<data auto_broadcast="numpy" />
			<input>
				<port id="0" precision="FP32">
					<dim>1</dim>
					<dim>18</dim>
					<dim>16</dim>
					<dim>16</dim>
				</port>
				<port id="1" precision="FP32">
					<dim>1</dim>
					<dim>18</dim>
					<dim>1</dim>
					<dim>1</dim>
				</port>
			</input>
			<output>
				<port id="2" precision="FP32" names="1898">
					<dim>1</dim>
					<dim>18</dim>
					<dim>16</dim>
					<dim>16</dim>
				</port>
			</output>
		</layer>
		<layer id="129" name="Add_59" type="Add" version="opset1">
			<data auto_broadcast="numpy" />
			<input>
				<port id="0" precision="FP32">
					<dim>1</dim>
					<dim>18</dim>
					<dim>16</dim>
					<dim>16</dim>
				</port>
				<port id="1" precision="FP32">
					<dim>1</dim>
					<dim>18</dim>
					<dim>16</dim>
					<dim>16</dim>
				</port>
			</input>
			<output>
				<port id="2" precision="FP32" names="1899">
					<dim>1</dim>
					<dim>18</dim>
					<dim>16</dim>
					<dim>16</dim>
				</port>
			</output>
		</layer>
		<layer id="130" name="Relu_60" type="ReLU" version="opset1">
			<input>
				<port id="0" precision="FP32">
					<dim>1</dim>
					<dim>18</dim>
					<dim>16</dim>
					<dim>16</dim>
				</port>
			</input>
			<output>
				<port id="1" precision="FP32" names="1900">
					<dim>1</dim>
					<dim>18</dim>
					<dim>16</dim>
					<dim>16</dim>
				</port>
			</output>
		</layer>
		<layer id="131" name="Multiply_40931_compressed" type="Const" version="opset1">
			<data element_type="f16" shape="18, 18, 3, 3" offset="740988" size="5832" />
			<output>
				<port id="0" precision="FP16">
					<dim>18</dim>
					<dim>18</dim>
					<dim>3</dim>
					<dim>3</dim>
				</port>
			</output>
		</layer>
		<layer id="132" name="Multiply_40931" type="Convert" version="opset1">
			<data destination_type="f32" />
			<rt_info>
				<attribute name="decompression" version="0" />
			</rt_info>
			<input>
				<port id="0" precision="FP16">
					<dim>18</dim>
					<dim>18</dim>
					<dim>3</dim>
					<dim>3</dim>
				</port>
			</input>
			<output>
				<port id="1" precision="FP32">
					<dim>18</dim>
					<dim>18</dim>
					<dim>3</dim>
					<dim>3</dim>
				</port>
			</output>
		</layer>
		<layer id="133" name="Multiply_38797" type="Convolution" version="opset1">
			<data strides="1, 1" dilations="1, 1" pads_begin="1, 1" pads_end="1, 1" auto_pad="explicit" />
			<input>
				<port id="0" precision="FP32">
					<dim>1</dim>
					<dim>18</dim>
					<dim>16</dim>
					<dim>16</dim>
				</port>
				<port id="1" precision="FP32">
					<dim>18</dim>
					<dim>18</dim>
					<dim>3</dim>
					<dim>3</dim>
				</port>
			</input>
			<output>
				<port id="2" precision="FP32">
					<dim>1</dim>
					<dim>18</dim>
					<dim>16</dim>
					<dim>16</dim>
				</port>
			</output>
		</layer>
		<layer id="134" name="Constant_38802_compressed" type="Const" version="opset1">
			<data element_type="f16" shape="1, 18, 1, 1" offset="746820" size="36" />
			<output>
				<port id="0" precision="FP16">
					<dim>1</dim>
					<dim>18</dim>
					<dim>1</dim>
					<dim>1</dim>
				</port>
			</output>
		</layer>
		<layer id="135" name="Constant_38802" type="Convert" version="opset1">
			<data destination_type="f32" />
			<rt_info>
				<attribute name="decompression" version="0" />
			</rt_info>
			<input>
				<port id="0" precision="FP16">
					<dim>1</dim>
					<dim>18</dim>
					<dim>1</dim>
					<dim>1</dim>
				</port>
			</input>
			<output>
				<port id="1" precision="FP32">
					<dim>1</dim>
					<dim>18</dim>
					<dim>1</dim>
					<dim>1</dim>
				</port>
			</output>
		</layer>
		<layer id="136" name="BatchNormalization_62" type="Add" version="opset1">
			<data auto_broadcast="numpy" />
			<input>
				<port id="0" precision="FP32">
					<dim>1</dim>
					<dim>18</dim>
					<dim>16</dim>
					<dim>16</dim>
				</port>
				<port id="1" precision="FP32">
					<dim>1</dim>
					<dim>18</dim>
					<dim>1</dim>
					<dim>1</dim>
				</port>
			</input>
			<output>
				<port id="2" precision="FP32" names="1902">
					<dim>1</dim>
					<dim>18</dim>
					<dim>16</dim>
					<dim>16</dim>
				</port>
			</output>
		</layer>
		<layer id="137" name="Relu_63" type="ReLU" version="opset1">
			<input>
				<port id="0" precision="FP32">
					<dim>1</dim>
					<dim>18</dim>
					<dim>16</dim>
					<dim>16</dim>
				</port>
			</input>
			<output>
				<port id="1" precision="FP32" names="1903">
					<dim>1</dim>
					<dim>18</dim>
					<dim>16</dim>
					<dim>16</dim>
				</port>
			</output>
		</layer>
		<layer id="138" name="Multiply_40937_compressed" type="Const" version="opset1">
			<data element_type="f16" shape="18, 18, 3, 3" offset="746856" size="5832" />
			<output>
				<port id="0" precision="FP16">
					<dim>18</dim>
					<dim>18</dim>
					<dim>3</dim>
					<dim>3</dim>
				</port>
			</output>
		</layer>
		<layer id="139" name="Multiply_40937" type="Convert" version="opset1">
			<data destination_type="f32" />
			<rt_info>
				<attribute name="decompression" version="0" />
			</rt_info>
			<input>
				<port id="0" precision="FP16">
					<dim>18</dim>
					<dim>18</dim>
					<dim>3</dim>
					<dim>3</dim>
				</port>
			</input>
			<output>
				<port id="1" precision="FP32">
					<dim>18</dim>
					<dim>18</dim>
					<dim>3</dim>
					<dim>3</dim>
				</port>
			</output>
		</layer>
		<layer id="140" name="Multiply_38804" type="Convolution" version="opset1">
			<data strides="1, 1" dilations="1, 1" pads_begin="1, 1" pads_end="1, 1" auto_pad="explicit" />
			<input>
				<port id="0" precision="FP32">
					<dim>1</dim>
					<dim>18</dim>
					<dim>16</dim>
					<dim>16</dim>
				</port>
				<port id="1" precision="FP32">
					<dim>18</dim>
					<dim>18</dim>
					<dim>3</dim>
					<dim>3</dim>
				</port>
			</input>
			<output>
				<port id="2" precision="FP32">
					<dim>1</dim>
					<dim>18</dim>
					<dim>16</dim>
					<dim>16</dim>
				</port>
			</output>
		</layer>
		<layer id="141" name="Constant_38809_compressed" type="Const" version="opset1">
			<data element_type="f16" shape="1, 18, 1, 1" offset="752688" size="36" />
			<output>
				<port id="0" precision="FP16">
					<dim>1</dim>
					<dim>18</dim>
					<dim>1</dim>
					<dim>1</dim>
				</port>
			</output>
		</layer>
		<layer id="142" name="Constant_38809" type="Convert" version="opset1">
			<data destination_type="f32" />
			<rt_info>
				<attribute name="decompression" version="0" />
			</rt_info>
			<input>
				<port id="0" precision="FP16">
					<dim>1</dim>
					<dim>18</dim>
					<dim>1</dim>
					<dim>1</dim>
				</port>
			</input>
			<output>
				<port id="1" precision="FP32">
					<dim>1</dim>
					<dim>18</dim>
					<dim>1</dim>
					<dim>1</dim>
				</port>
			</output>
		</layer>
		<layer id="143" name="BatchNormalization_65" type="Add" version="opset1">
			<data auto_broadcast="numpy" />
			<input>
				<port id="0" precision="FP32">
					<dim>1</dim>
					<dim>18</dim>
					<dim>16</dim>
					<dim>16</dim>
				</port>
				<port id="1" precision="FP32">
					<dim>1</dim>
					<dim>18</dim>
					<dim>1</dim>
					<dim>1</dim>
				</port>
			</input>
			<output>
				<port id="2" precision="FP32" names="1905">
					<dim>1</dim>
					<dim>18</dim>
					<dim>16</dim>
					<dim>16</dim>
				</port>
			</output>
		</layer>
		<layer id="144" name="Add_66" type="Add" version="opset1">
			<data auto_broadcast="numpy" />
			<input>
				<port id="0" precision="FP32">
					<dim>1</dim>
					<dim>18</dim>
					<dim>16</dim>
					<dim>16</dim>
				</port>
				<port id="1" precision="FP32">
					<dim>1</dim>
					<dim>18</dim>
					<dim>16</dim>
					<dim>16</dim>
				</port>
			</input>
			<output>
				<port id="2" precision="FP32" names="1906">
					<dim>1</dim>
					<dim>18</dim>
					<dim>16</dim>
					<dim>16</dim>
				</port>
			</output>
		</layer>
		<layer id="145" name="Relu_67" type="ReLU" version="opset1">
			<input>
				<port id="0" precision="FP32">
					<dim>1</dim>
					<dim>18</dim>
					<dim>16</dim>
					<dim>16</dim>
				</port>
			</input>
			<output>
				<port id="1" precision="FP32" names="1907">
					<dim>1</dim>
					<dim>18</dim>
					<dim>16</dim>
					<dim>16</dim>
				</port>
			</output>
		</layer>
		<layer id="146" name="Multiply_40943_compressed" type="Const" version="opset1">
			<data element_type="f16" shape="18, 18, 3, 3" offset="752724" size="5832" />
			<output>
				<port id="0" precision="FP16">
					<dim>18</dim>
					<dim>18</dim>
					<dim>3</dim>
					<dim>3</dim>
				</port>
			</output>
		</layer>
		<layer id="147" name="Multiply_40943" type="Convert" version="opset1">
			<data destination_type="f32" />
			<rt_info>
				<attribute name="decompression" version="0" />
			</rt_info>
			<input>
				<port id="0" precision="FP16">
					<dim>18</dim>
					<dim>18</dim>
					<dim>3</dim>
					<dim>3</dim>
				</port>
			</input>
			<output>
				<port id="1" precision="FP32">
					<dim>18</dim>
					<dim>18</dim>
					<dim>3</dim>
					<dim>3</dim>
				</port>
			</output>
		</layer>
		<layer id="148" name="Multiply_38811" type="Convolution" version="opset1">
			<data strides="1, 1" dilations="1, 1" pads_begin="1, 1" pads_end="1, 1" auto_pad="explicit" />
			<input>
				<port id="0" precision="FP32">
					<dim>1</dim>
					<dim>18</dim>
					<dim>16</dim>
					<dim>16</dim>
				</port>
				<port id="1" precision="FP32">
					<dim>18</dim>
					<dim>18</dim>
					<dim>3</dim>
					<dim>3</dim>
				</port>
			</input>
			<output>
				<port id="2" precision="FP32">
					<dim>1</dim>
					<dim>18</dim>
					<dim>16</dim>
					<dim>16</dim>
				</port>
			</output>
		</layer>
		<layer id="149" name="Constant_38816_compressed" type="Const" version="opset1">
			<data element_type="f16" shape="1, 18, 1, 1" offset="758556" size="36" />
			<output>
				<port id="0" precision="FP16">
					<dim>1</dim>
					<dim>18</dim>
					<dim>1</dim>
					<dim>1</dim>
				</port>
			</output>
		</layer>
		<layer id="150" name="Constant_38816" type="Convert" version="opset1">
			<data destination_type="f32" />
			<rt_info>
				<attribute name="decompression" version="0" />
			</rt_info>
			<input>
				<port id="0" precision="FP16">
					<dim>1</dim>
					<dim>18</dim>
					<dim>1</dim>
					<dim>1</dim>
				</port>
			</input>
			<output>
				<port id="1" precision="FP32">
					<dim>1</dim>
					<dim>18</dim>
					<dim>1</dim>
					<dim>1</dim>
				</port>
			</output>
		</layer>
		<layer id="151" name="BatchNormalization_69" type="Add" version="opset1">
			<data auto_broadcast="numpy" />
			<input>
				<port id="0" precision="FP32">
					<dim>1</dim>
					<dim>18</dim>
					<dim>16</dim>
					<dim>16</dim>
				</port>
				<port id="1" precision="FP32">
					<dim>1</dim>
					<dim>18</dim>
					<dim>1</dim>
					<dim>1</dim>
				</port>
			</input>
			<output>
				<port id="2" precision="FP32" names="1909">
					<dim>1</dim>
					<dim>18</dim>
					<dim>16</dim>
					<dim>16</dim>
				</port>
			</output>
		</layer>
		<layer id="152" name="Relu_70" type="ReLU" version="opset1">
			<input>
				<port id="0" precision="FP32">
					<dim>1</dim>
					<dim>18</dim>
					<dim>16</dim>
					<dim>16</dim>
				</port>
			</input>
			<output>
				<port id="1" precision="FP32" names="1910">
					<dim>1</dim>
					<dim>18</dim>
					<dim>16</dim>
					<dim>16</dim>
				</port>
			</output>
		</layer>
		<layer id="153" name="Multiply_40949_compressed" type="Const" version="opset1">
			<data element_type="f16" shape="18, 18, 3, 3" offset="758592" size="5832" />
			<output>
				<port id="0" precision="FP16">
					<dim>18</dim>
					<dim>18</dim>
					<dim>3</dim>
					<dim>3</dim>
				</port>
			</output>
		</layer>
		<layer id="154" name="Multiply_40949" type="Convert" version="opset1">
			<data destination_type="f32" />
			<rt_info>
				<attribute name="decompression" version="0" />
			</rt_info>
			<input>
				<port id="0" precision="FP16">
					<dim>18</dim>
					<dim>18</dim>
					<dim>3</dim>
					<dim>3</dim>
				</port>
			</input>
			<output>
				<port id="1" precision="FP32">
					<dim>18</dim>
					<dim>18</dim>
					<dim>3</dim>
					<dim>3</dim>
				</port>
			</output>
		</layer>
		<layer id="155" name="Multiply_38818" type="Convolution" version="opset1">
			<data strides="1, 1" dilations="1, 1" pads_begin="1, 1" pads_end="1, 1" auto_pad="explicit" />
			<input>
				<port id="0" precision="FP32">
					<dim>1</dim>
					<dim>18</dim>
					<dim>16</dim>
					<dim>16</dim>
				</port>
				<port id="1" precision="FP32">
					<dim>18</dim>
					<dim>18</dim>
					<dim>3</dim>
					<dim>3</dim>
				</port>
			</input>
			<output>
				<port id="2" precision="FP32">
					<dim>1</dim>
					<dim>18</dim>
					<dim>16</dim>
					<dim>16</dim>
				</port>
			</output>
		</layer>
		<layer id="156" name="Constant_38823_compressed" type="Const" version="opset1">
			<data element_type="f16" shape="1, 18, 1, 1" offset="764424" size="36" />
			<output>
				<port id="0" precision="FP16">
					<dim>1</dim>
					<dim>18</dim>
					<dim>1</dim>
					<dim>1</dim>
				</port>
			</output>
		</layer>
		<layer id="157" name="Constant_38823" type="Convert" version="opset1">
			<data destination_type="f32" />
			<rt_info>
				<attribute name="decompression" version="0" />
			</rt_info>
			<input>
				<port id="0" precision="FP16">
					<dim>1</dim>
					<dim>18</dim>
					<dim>1</dim>
					<dim>1</dim>
				</port>
			</input>
			<output>
				<port id="1" precision="FP32">
					<dim>1</dim>
					<dim>18</dim>
					<dim>1</dim>
					<dim>1</dim>
				</port>
			</output>
		</layer>
		<layer id="158" name="BatchNormalization_72" type="Add" version="opset1">
			<data auto_broadcast="numpy" />
			<input>
				<port id="0" precision="FP32">
					<dim>1</dim>
					<dim>18</dim>
					<dim>16</dim>
					<dim>16</dim>
				</port>
				<port id="1" precision="FP32">
					<dim>1</dim>
					<dim>18</dim>
					<dim>1</dim>
					<dim>1</dim>
				</port>
			</input>
			<output>
				<port id="2" precision="FP32" names="1912">
					<dim>1</dim>
					<dim>18</dim>
					<dim>16</dim>
					<dim>16</dim>
				</port>
			</output>
		</layer>
		<layer id="159" name="Add_73" type="Add" version="opset1">
			<data auto_broadcast="numpy" />
			<input>
				<port id="0" precision="FP32">
					<dim>1</dim>
					<dim>18</dim>
					<dim>16</dim>
					<dim>16</dim>
				</port>
				<port id="1" precision="FP32">
					<dim>1</dim>
					<dim>18</dim>
					<dim>16</dim>
					<dim>16</dim>
				</port>
			</input>
			<output>
				<port id="2" precision="FP32" names="1913">
					<dim>1</dim>
					<dim>18</dim>
					<dim>16</dim>
					<dim>16</dim>
				</port>
			</output>
		</layer>
		<layer id="160" name="Relu_74" type="ReLU" version="opset1">
			<input>
				<port id="0" precision="FP32">
					<dim>1</dim>
					<dim>18</dim>
					<dim>16</dim>
					<dim>16</dim>
				</port>
			</input>
			<output>
				<port id="1" precision="FP32" names="1914">
					<dim>1</dim>
					<dim>18</dim>
					<dim>16</dim>
					<dim>16</dim>
				</port>
			</output>
		</layer>
		<layer id="161" name="Multiply_40955_compressed" type="Const" version="opset1">
			<data element_type="f16" shape="18, 18, 3, 3" offset="764460" size="5832" />
			<output>
				<port id="0" precision="FP16">
					<dim>18</dim>
					<dim>18</dim>
					<dim>3</dim>
					<dim>3</dim>
				</port>
			</output>
		</layer>
		<layer id="162" name="Multiply_40955" type="Convert" version="opset1">
			<data destination_type="f32" />
			<rt_info>
				<attribute name="decompression" version="0" />
			</rt_info>
			<input>
				<port id="0" precision="FP16">
					<dim>18</dim>
					<dim>18</dim>
					<dim>3</dim>
					<dim>3</dim>
				</port>
			</input>
			<output>
				<port id="1" precision="FP32">
					<dim>18</dim>
					<dim>18</dim>
					<dim>3</dim>
					<dim>3</dim>
				</port>
			</output>
		</layer>
		<layer id="163" name="Multiply_38825" type="Convolution" version="opset1">
			<data strides="1, 1" dilations="1, 1" pads_begin="1, 1" pads_end="1, 1" auto_pad="explicit" />
			<input>
				<port id="0" precision="FP32">
					<dim>1</dim>
					<dim>18</dim>
					<dim>16</dim>
					<dim>16</dim>
				</port>
				<port id="1" precision="FP32">
					<dim>18</dim>
					<dim>18</dim>
					<dim>3</dim>
					<dim>3</dim>
				</port>
			</input>
			<output>
				<port id="2" precision="FP32">
					<dim>1</dim>
					<dim>18</dim>
					<dim>16</dim>
					<dim>16</dim>
				</port>
			</output>
		</layer>
		<layer id="164" name="Constant_38830_compressed" type="Const" version="opset1">
			<data element_type="f16" shape="1, 18, 1, 1" offset="770292" size="36" />
			<output>
				<port id="0" precision="FP16">
					<dim>1</dim>
					<dim>18</dim>
					<dim>1</dim>
					<dim>1</dim>
				</port>
			</output>
		</layer>
		<layer id="165" name="Constant_38830" type="Convert" version="opset1">
			<data destination_type="f32" />
			<rt_info>
				<attribute name="decompression" version="0" />
			</rt_info>
			<input>
				<port id="0" precision="FP16">
					<dim>1</dim>
					<dim>18</dim>
					<dim>1</dim>
					<dim>1</dim>
				</port>
			</input>
			<output>
				<port id="1" precision="FP32">
					<dim>1</dim>
					<dim>18</dim>
					<dim>1</dim>
					<dim>1</dim>
				</port>
			</output>
		</layer>
		<layer id="166" name="BatchNormalization_76" type="Add" version="opset1">
			<data auto_broadcast="numpy" />
			<input>
				<port id="0" precision="FP32">
					<dim>1</dim>
					<dim>18</dim>
					<dim>16</dim>
					<dim>16</dim>
				</port>
				<port id="1" precision="FP32">
					<dim>1</dim>
					<dim>18</dim>
					<dim>1</dim>
					<dim>1</dim>
				</port>
			</input>
			<output>
				<port id="2" precision="FP32" names="1916">
					<dim>1</dim>
					<dim>18</dim>
					<dim>16</dim>
					<dim>16</dim>
				</port>
			</output>
		</layer>
		<layer id="167" name="Relu_77" type="ReLU" version="opset1">
			<input>
				<port id="0" precision="FP32">
					<dim>1</dim>
					<dim>18</dim>
					<dim>16</dim>
					<dim>16</dim>
				</port>
			</input>
			<output>
				<port id="1" precision="FP32" names="1917">
					<dim>1</dim>
					<dim>18</dim>
					<dim>16</dim>
					<dim>16</dim>
				</port>
			</output>
		</layer>
		<layer id="168" name="Multiply_40961_compressed" type="Const" version="opset1">
			<data element_type="f16" shape="18, 18, 3, 3" offset="770328" size="5832" />
			<output>
				<port id="0" precision="FP16">
					<dim>18</dim>
					<dim>18</dim>
					<dim>3</dim>
					<dim>3</dim>
				</port>
			</output>
		</layer>
		<layer id="169" name="Multiply_40961" type="Convert" version="opset1">
			<data destination_type="f32" />
			<rt_info>
				<attribute name="decompression" version="0" />
			</rt_info>
			<input>
				<port id="0" precision="FP16">
					<dim>18</dim>
					<dim>18</dim>
					<dim>3</dim>
					<dim>3</dim>
				</port>
			</input>
			<output>
				<port id="1" precision="FP32">
					<dim>18</dim>
					<dim>18</dim>
					<dim>3</dim>
					<dim>3</dim>
				</port>
			</output>
		</layer>
		<layer id="170" name="Multiply_38832" type="Convolution" version="opset1">
			<data strides="1, 1" dilations="1, 1" pads_begin="1, 1" pads_end="1, 1" auto_pad="explicit" />
			<input>
				<port id="0" precision="FP32">
					<dim>1</dim>
					<dim>18</dim>
					<dim>16</dim>
					<dim>16</dim>
				</port>
				<port id="1" precision="FP32">
					<dim>18</dim>
					<dim>18</dim>
					<dim>3</dim>
					<dim>3</dim>
				</port>
			</input>
			<output>
				<port id="2" precision="FP32">
					<dim>1</dim>
					<dim>18</dim>
					<dim>16</dim>
					<dim>16</dim>
				</port>
			</output>
		</layer>
		<layer id="171" name="Constant_38837_compressed" type="Const" version="opset1">
			<data element_type="f16" shape="1, 18, 1, 1" offset="776160" size="36" />
			<output>
				<port id="0" precision="FP16">
					<dim>1</dim>
					<dim>18</dim>
					<dim>1</dim>
					<dim>1</dim>
				</port>
			</output>
		</layer>
		<layer id="172" name="Constant_38837" type="Convert" version="opset1">
			<data destination_type="f32" />
			<rt_info>
				<attribute name="decompression" version="0" />
			</rt_info>
			<input>
				<port id="0" precision="FP16">
					<dim>1</dim>
					<dim>18</dim>
					<dim>1</dim>
					<dim>1</dim>
				</port>
			</input>
			<output>
				<port id="1" precision="FP32">
					<dim>1</dim>
					<dim>18</dim>
					<dim>1</dim>
					<dim>1</dim>
				</port>
			</output>
		</layer>
		<layer id="173" name="BatchNormalization_79" type="Add" version="opset1">
			<data auto_broadcast="numpy" />
			<input>
				<port id="0" precision="FP32">
					<dim>1</dim>
					<dim>18</dim>
					<dim>16</dim>
					<dim>16</dim>
				</port>
				<port id="1" precision="FP32">
					<dim>1</dim>
					<dim>18</dim>
					<dim>1</dim>
					<dim>1</dim>
				</port>
			</input>
			<output>
				<port id="2" precision="FP32" names="1919">
					<dim>1</dim>
					<dim>18</dim>
					<dim>16</dim>
					<dim>16</dim>
				</port>
			</output>
		</layer>
		<layer id="174" name="Add_80" type="Add" version="opset1">
			<data auto_broadcast="numpy" />
			<input>
				<port id="0" precision="FP32">
					<dim>1</dim>
					<dim>18</dim>
					<dim>16</dim>
					<dim>16</dim>
				</port>
				<port id="1" precision="FP32">
					<dim>1</dim>
					<dim>18</dim>
					<dim>16</dim>
					<dim>16</dim>
				</port>
			</input>
			<output>
				<port id="2" precision="FP32" names="1920">
					<dim>1</dim>
					<dim>18</dim>
					<dim>16</dim>
					<dim>16</dim>
				</port>
			</output>
		</layer>
		<layer id="175" name="Relu_81" type="ReLU" version="opset1">
			<input>
				<port id="0" precision="FP32">
					<dim>1</dim>
					<dim>18</dim>
					<dim>16</dim>
					<dim>16</dim>
				</port>
			</input>
			<output>
				<port id="1" precision="FP32" names="1921,1951">
					<dim>1</dim>
					<dim>18</dim>
					<dim>16</dim>
					<dim>16</dim>
				</port>
			</output>
		</layer>
		<layer id="176" name="Multiply_40967_compressed" type="Const" version="opset1">
			<data element_type="f16" shape="36, 256, 3, 3" offset="776196" size="165888" />
			<output>
				<port id="0" precision="FP16">
					<dim>36</dim>
					<dim>256</dim>
					<dim>3</dim>
					<dim>3</dim>
				</port>
			</output>
		</layer>
		<layer id="177" name="Multiply_40967" type="Convert" version="opset1">
			<data destination_type="f32" />
			<rt_info>
				<attribute name="decompression" version="0" />
			</rt_info>
			<input>
				<port id="0" precision="FP16">
					<dim>36</dim>
					<dim>256</dim>
					<dim>3</dim>
					<dim>3</dim>
				</port>
			</input>
			<output>
				<port id="1" precision="FP32">
					<dim>36</dim>
					<dim>256</dim>
					<dim>3</dim>
					<dim>3</dim>
				</port>
			</output>
		</layer>
		<layer id="178" name="Multiply_38839" type="Convolution" version="opset1">
			<data strides="2, 2" dilations="1, 1" pads_begin="1, 1" pads_end="1, 1" auto_pad="explicit" />
			<input>
				<port id="0" precision="FP32">
					<dim>1</dim>
					<dim>256</dim>
					<dim>16</dim>
					<dim>16</dim>
				</port>
				<port id="1" precision="FP32">
					<dim>36</dim>
					<dim>256</dim>
					<dim>3</dim>
					<dim>3</dim>
				</port>
			</input>
			<output>
				<port id="2" precision="FP32">
					<dim>1</dim>
					<dim>36</dim>
					<dim>8</dim>
					<dim>8</dim>
				</port>
			</output>
		</layer>
		<layer id="179" name="Constant_38844_compressed" type="Const" version="opset1">
			<data element_type="f16" shape="1, 36, 1, 1" offset="942084" size="72" />
			<output>
				<port id="0" precision="FP16">
					<dim>1</dim>
					<dim>36</dim>
					<dim>1</dim>
					<dim>1</dim>
				</port>
			</output>
		</layer>
		<layer id="180" name="Constant_38844" type="Convert" version="opset1">
			<data destination_type="f32" />
			<rt_info>
				<attribute name="decompression" version="0" />
			</rt_info>
			<input>
				<port id="0" precision="FP16">
					<dim>1</dim>
					<dim>36</dim>
					<dim>1</dim>
					<dim>1</dim>
				</port>
			</input>
			<output>
				<port id="1" precision="FP32">
					<dim>1</dim>
					<dim>36</dim>
					<dim>1</dim>
					<dim>1</dim>
				</port>
			</output>
		</layer>
		<layer id="181" name="BatchNormalization_52" type="Add" version="opset1">
			<data auto_broadcast="numpy" />
			<input>
				<port id="0" precision="FP32">
					<dim>1</dim>
					<dim>36</dim>
					<dim>8</dim>
					<dim>8</dim>
				</port>
				<port id="1" precision="FP32">
					<dim>1</dim>
					<dim>36</dim>
					<dim>1</dim>
					<dim>1</dim>
				</port>
			</input>
			<output>
				<port id="2" precision="FP32" names="1892">
					<dim>1</dim>
					<dim>36</dim>
					<dim>8</dim>
					<dim>8</dim>
				</port>
			</output>
		</layer>
		<layer id="182" name="Relu_53" type="ReLU" version="opset1">
			<input>
				<port id="0" precision="FP32">
					<dim>1</dim>
					<dim>36</dim>
					<dim>8</dim>
					<dim>8</dim>
				</port>
			</input>
			<output>
				<port id="1" precision="FP32" names="1893">
					<dim>1</dim>
					<dim>36</dim>
					<dim>8</dim>
					<dim>8</dim>
				</port>
			</output>
		</layer>
		<layer id="183" name="Multiply_40973_compressed" type="Const" version="opset1">
			<data element_type="f16" shape="36, 36, 3, 3" offset="942156" size="23328" />
			<output>
				<port id="0" precision="FP16">
					<dim>36</dim>
					<dim>36</dim>
					<dim>3</dim>
					<dim>3</dim>
				</port>
			</output>
		</layer>
		<layer id="184" name="Multiply_40973" type="Convert" version="opset1">
			<data destination_type="f32" />
			<rt_info>
				<attribute name="decompression" version="0" />
			</rt_info>
			<input>
				<port id="0" precision="FP16">
					<dim>36</dim>
					<dim>36</dim>
					<dim>3</dim>
					<dim>3</dim>
				</port>
			</input>
			<output>
				<port id="1" precision="FP32">
					<dim>36</dim>
					<dim>36</dim>
					<dim>3</dim>
					<dim>3</dim>
				</port>
			</output>
		</layer>
		<layer id="185" name="Multiply_38846" type="Convolution" version="opset1">
			<data strides="1, 1" dilations="1, 1" pads_begin="1, 1" pads_end="1, 1" auto_pad="explicit" />
			<input>
				<port id="0" precision="FP32">
					<dim>1</dim>
					<dim>36</dim>
					<dim>8</dim>
					<dim>8</dim>
				</port>
				<port id="1" precision="FP32">
					<dim>36</dim>
					<dim>36</dim>
					<dim>3</dim>
					<dim>3</dim>
				</port>
			</input>
			<output>
				<port id="2" precision="FP32">
					<dim>1</dim>
					<dim>36</dim>
					<dim>8</dim>
					<dim>8</dim>
				</port>
			</output>
		</layer>
		<layer id="186" name="Constant_38851_compressed" type="Const" version="opset1">
			<data element_type="f16" shape="1, 36, 1, 1" offset="965484" size="72" />
			<output>
				<port id="0" precision="FP16">
					<dim>1</dim>
					<dim>36</dim>
					<dim>1</dim>
					<dim>1</dim>
				</port>
			</output>
		</layer>
		<layer id="187" name="Constant_38851" type="Convert" version="opset1">
			<data destination_type="f32" />
			<rt_info>
				<attribute name="decompression" version="0" />
			</rt_info>
			<input>
				<port id="0" precision="FP16">
					<dim>1</dim>
					<dim>36</dim>
					<dim>1</dim>
					<dim>1</dim>
				</port>
			</input>
			<output>
				<port id="1" precision="FP32">
					<dim>1</dim>
					<dim>36</dim>
					<dim>1</dim>
					<dim>1</dim>
				</port>
			</output>
		</layer>
		<layer id="188" name="BatchNormalization_83" type="Add" version="opset1">
			<data auto_broadcast="numpy" />
			<input>
				<port id="0" precision="FP32">
					<dim>1</dim>
					<dim>36</dim>
					<dim>8</dim>
					<dim>8</dim>
				</port>
				<port id="1" precision="FP32">
					<dim>1</dim>
					<dim>36</dim>
					<dim>1</dim>
					<dim>1</dim>
				</port>
			</input>
			<output>
				<port id="2" precision="FP32" names="1923">
					<dim>1</dim>
					<dim>36</dim>
					<dim>8</dim>
					<dim>8</dim>
				</port>
			</output>
		</layer>
		<layer id="189" name="Relu_84" type="ReLU" version="opset1">
			<input>
				<port id="0" precision="FP32">
					<dim>1</dim>
					<dim>36</dim>
					<dim>8</dim>
					<dim>8</dim>
				</port>
			</input>
			<output>
				<port id="1" precision="FP32" names="1924">
					<dim>1</dim>
					<dim>36</dim>
					<dim>8</dim>
					<dim>8</dim>
				</port>
			</output>
		</layer>
		<layer id="190" name="Multiply_40979_compressed" type="Const" version="opset1">
			<data element_type="f16" shape="36, 36, 3, 3" offset="965556" size="23328" />
			<output>
				<port id="0" precision="FP16">
					<dim>36</dim>
					<dim>36</dim>
					<dim>3</dim>
					<dim>3</dim>
				</port>
			</output>
		</layer>
		<layer id="191" name="Multiply_40979" type="Convert" version="opset1">
			<data destination_type="f32" />
			<rt_info>
				<attribute name="decompression" version="0" />
			</rt_info>
			<input>
				<port id="0" precision="FP16">
					<dim>36</dim>
					<dim>36</dim>
					<dim>3</dim>
					<dim>3</dim>
				</port>
			</input>
			<output>
				<port id="1" precision="FP32">
					<dim>36</dim>
					<dim>36</dim>
					<dim>3</dim>
					<dim>3</dim>
				</port>
			</output>
		</layer>
		<layer id="192" name="Multiply_38853" type="Convolution" version="opset1">
			<data strides="1, 1" dilations="1, 1" pads_begin="1, 1" pads_end="1, 1" auto_pad="explicit" />
			<input>
				<port id="0" precision="FP32">
					<dim>1</dim>
					<dim>36</dim>
					<dim>8</dim>
					<dim>8</dim>
				</port>
				<port id="1" precision="FP32">
					<dim>36</dim>
					<dim>36</dim>
					<dim>3</dim>
					<dim>3</dim>
				</port>
			</input>
			<output>
				<port id="2" precision="FP32">
					<dim>1</dim>
					<dim>36</dim>
					<dim>8</dim>
					<dim>8</dim>
				</port>
			</output>
		</layer>
		<layer id="193" name="Constant_38858_compressed" type="Const" version="opset1">
			<data element_type="f16" shape="1, 36, 1, 1" offset="988884" size="72" />
			<output>
				<port id="0" precision="FP16">
					<dim>1</dim>
					<dim>36</dim>
					<dim>1</dim>
					<dim>1</dim>
				</port>
			</output>
		</layer>
		<layer id="194" name="Constant_38858" type="Convert" version="opset1">
			<data destination_type="f32" />
			<rt_info>
				<attribute name="decompression" version="0" />
			</rt_info>
			<input>
				<port id="0" precision="FP16">
					<dim>1</dim>
					<dim>36</dim>
					<dim>1</dim>
					<dim>1</dim>
				</port>
			</input>
			<output>
				<port id="1" precision="FP32">
					<dim>1</dim>
					<dim>36</dim>
					<dim>1</dim>
					<dim>1</dim>
				</port>
			</output>
		</layer>
		<layer id="195" name="BatchNormalization_86" type="Add" version="opset1">
			<data auto_broadcast="numpy" />
			<input>
				<port id="0" precision="FP32">
					<dim>1</dim>
					<dim>36</dim>
					<dim>8</dim>
					<dim>8</dim>
				</port>
				<port id="1" precision="FP32">
					<dim>1</dim>
					<dim>36</dim>
					<dim>1</dim>
					<dim>1</dim>
				</port>
			</input>
			<output>
				<port id="2" precision="FP32" names="1926">
					<dim>1</dim>
					<dim>36</dim>
					<dim>8</dim>
					<dim>8</dim>
				</port>
			</output>
		</layer>
		<layer id="196" name="Add_87" type="Add" version="opset1">
			<data auto_broadcast="numpy" />
			<input>
				<port id="0" precision="FP32">
					<dim>1</dim>
					<dim>36</dim>
					<dim>8</dim>
					<dim>8</dim>
				</port>
				<port id="1" precision="FP32">
					<dim>1</dim>
					<dim>36</dim>
					<dim>8</dim>
					<dim>8</dim>
				</port>
			</input>
			<output>
				<port id="2" precision="FP32" names="1927">
					<dim>1</dim>
					<dim>36</dim>
					<dim>8</dim>
					<dim>8</dim>
				</port>
			</output>
		</layer>
		<layer id="197" name="Relu_88" type="ReLU" version="opset1">
			<input>
				<port id="0" precision="FP32">
					<dim>1</dim>
					<dim>36</dim>
					<dim>8</dim>
					<dim>8</dim>
				</port>
			</input>
			<output>
				<port id="1" precision="FP32" names="1928">
					<dim>1</dim>
					<dim>36</dim>
					<dim>8</dim>
					<dim>8</dim>
				</port>
			</output>
		</layer>
		<layer id="198" name="Multiply_40985_compressed" type="Const" version="opset1">
			<data element_type="f16" shape="36, 36, 3, 3" offset="988956" size="23328" />
			<output>
				<port id="0" precision="FP16">
					<dim>36</dim>
					<dim>36</dim>
					<dim>3</dim>
					<dim>3</dim>
				</port>
			</output>
		</layer>
		<layer id="199" name="Multiply_40985" type="Convert" version="opset1">
			<data destination_type="f32" />
			<rt_info>
				<attribute name="decompression" version="0" />
			</rt_info>
			<input>
				<port id="0" precision="FP16">
					<dim>36</dim>
					<dim>36</dim>
					<dim>3</dim>
					<dim>3</dim>
				</port>
			</input>
			<output>
				<port id="1" precision="FP32">
					<dim>36</dim>
					<dim>36</dim>
					<dim>3</dim>
					<dim>3</dim>
				</port>
			</output>
		</layer>
		<layer id="200" name="Multiply_38860" type="Convolution" version="opset1">
			<data strides="1, 1" dilations="1, 1" pads_begin="1, 1" pads_end="1, 1" auto_pad="explicit" />
			<input>
				<port id="0" precision="FP32">
					<dim>1</dim>
					<dim>36</dim>
					<dim>8</dim>
					<dim>8</dim>
				</port>
				<port id="1" precision="FP32">
					<dim>36</dim>
					<dim>36</dim>
					<dim>3</dim>
					<dim>3</dim>
				</port>
			</input>
			<output>
				<port id="2" precision="FP32">
					<dim>1</dim>
					<dim>36</dim>
					<dim>8</dim>
					<dim>8</dim>
				</port>
			</output>
		</layer>
		<layer id="201" name="Constant_38865_compressed" type="Const" version="opset1">
			<data element_type="f16" shape="1, 36, 1, 1" offset="1012284" size="72" />
			<output>
				<port id="0" precision="FP16">
					<dim>1</dim>
					<dim>36</dim>
					<dim>1</dim>
					<dim>1</dim>
				</port>
			</output>
		</layer>
		<layer id="202" name="Constant_38865" type="Convert" version="opset1">
			<data destination_type="f32" />
			<rt_info>
				<attribute name="decompression" version="0" />
			</rt_info>
			<input>
				<port id="0" precision="FP16">
					<dim>1</dim>
					<dim>36</dim>
					<dim>1</dim>
					<dim>1</dim>
				</port>
			</input>
			<output>
				<port id="1" precision="FP32">
					<dim>1</dim>
					<dim>36</dim>
					<dim>1</dim>
					<dim>1</dim>
				</port>
			</output>
		</layer>
		<layer id="203" name="BatchNormalization_90" type="Add" version="opset1">
			<data auto_broadcast="numpy" />
			<input>
				<port id="0" precision="FP32">
					<dim>1</dim>
					<dim>36</dim>
					<dim>8</dim>
					<dim>8</dim>
				</port>
				<port id="1" precision="FP32">
					<dim>1</dim>
					<dim>36</dim>
					<dim>1</dim>
					<dim>1</dim>
				</port>
			</input>
			<output>
				<port id="2" precision="FP32" names="1930">
					<dim>1</dim>
					<dim>36</dim>
					<dim>8</dim>
					<dim>8</dim>
				</port>
			</output>
		</layer>
		<layer id="204" name="Relu_91" type="ReLU" version="opset1">
			<input>
				<port id="0" precision="FP32">
					<dim>1</dim>
					<dim>36</dim>
					<dim>8</dim>
					<dim>8</dim>
				</port>
			</input>
			<output>
				<port id="1" precision="FP32" names="1931">
					<dim>1</dim>
					<dim>36</dim>
					<dim>8</dim>
					<dim>8</dim>
				</port>
			</output>
		</layer>
		<layer id="205" name="Multiply_40991_compressed" type="Const" version="opset1">
			<data element_type="f16" shape="36, 36, 3, 3" offset="1012356" size="23328" />
			<output>
				<port id="0" precision="FP16">
					<dim>36</dim>
					<dim>36</dim>
					<dim>3</dim>
					<dim>3</dim>
				</port>
			</output>
		</layer>
		<layer id="206" name="Multiply_40991" type="Convert" version="opset1">
			<data destination_type="f32" />
			<rt_info>
				<attribute name="decompression" version="0" />
			</rt_info>
			<input>
				<port id="0" precision="FP16">
					<dim>36</dim>
					<dim>36</dim>
					<dim>3</dim>
					<dim>3</dim>
				</port>
			</input>
			<output>
				<port id="1" precision="FP32">
					<dim>36</dim>
					<dim>36</dim>
					<dim>3</dim>
					<dim>3</dim>
				</port>
			</output>
		</layer>
		<layer id="207" name="Multiply_38867" type="Convolution" version="opset1">
			<data strides="1, 1" dilations="1, 1" pads_begin="1, 1" pads_end="1, 1" auto_pad="explicit" />
			<input>
				<port id="0" precision="FP32">
					<dim>1</dim>
					<dim>36</dim>
					<dim>8</dim>
					<dim>8</dim>
				</port>
				<port id="1" precision="FP32">
					<dim>36</dim>
					<dim>36</dim>
					<dim>3</dim>
					<dim>3</dim>
				</port>
			</input>
			<output>
				<port id="2" precision="FP32">
					<dim>1</dim>
					<dim>36</dim>
					<dim>8</dim>
					<dim>8</dim>
				</port>
			</output>
		</layer>
		<layer id="208" name="Constant_38872_compressed" type="Const" version="opset1">
			<data element_type="f16" shape="1, 36, 1, 1" offset="1035684" size="72" />
			<output>
				<port id="0" precision="FP16">
					<dim>1</dim>
					<dim>36</dim>
					<dim>1</dim>
					<dim>1</dim>
				</port>
			</output>
		</layer>
		<layer id="209" name="Constant_38872" type="Convert" version="opset1">
			<data destination_type="f32" />
			<rt_info>
				<attribute name="decompression" version="0" />
			</rt_info>
			<input>
				<port id="0" precision="FP16">
					<dim>1</dim>
					<dim>36</dim>
					<dim>1</dim>
					<dim>1</dim>
				</port>
			</input>
			<output>
				<port id="1" precision="FP32">
					<dim>1</dim>
					<dim>36</dim>
					<dim>1</dim>
					<dim>1</dim>
				</port>
			</output>
		</layer>
		<layer id="210" name="BatchNormalization_93" type="Add" version="opset1">
			<data auto_broadcast="numpy" />
			<input>
				<port id="0" precision="FP32">
					<dim>1</dim>
					<dim>36</dim>
					<dim>8</dim>
					<dim>8</dim>
				</port>
				<port id="1" precision="FP32">
					<dim>1</dim>
					<dim>36</dim>
					<dim>1</dim>
					<dim>1</dim>
				</port>
			</input>
			<output>
				<port id="2" precision="FP32" names="1933">
					<dim>1</dim>
					<dim>36</dim>
					<dim>8</dim>
					<dim>8</dim>
				</port>
			</output>
		</layer>
		<layer id="211" name="Add_94" type="Add" version="opset1">
			<data auto_broadcast="numpy" />
			<input>
				<port id="0" precision="FP32">
					<dim>1</dim>
					<dim>36</dim>
					<dim>8</dim>
					<dim>8</dim>
				</port>
				<port id="1" precision="FP32">
					<dim>1</dim>
					<dim>36</dim>
					<dim>8</dim>
					<dim>8</dim>
				</port>
			</input>
			<output>
				<port id="2" precision="FP32" names="1934">
					<dim>1</dim>
					<dim>36</dim>
					<dim>8</dim>
					<dim>8</dim>
				</port>
			</output>
		</layer>
		<layer id="212" name="Relu_95" type="ReLU" version="opset1">
			<input>
				<port id="0" precision="FP32">
					<dim>1</dim>
					<dim>36</dim>
					<dim>8</dim>
					<dim>8</dim>
				</port>
			</input>
			<output>
				<port id="1" precision="FP32" names="1935">
					<dim>1</dim>
					<dim>36</dim>
					<dim>8</dim>
					<dim>8</dim>
				</port>
			</output>
		</layer>
		<layer id="213" name="Multiply_40997_compressed" type="Const" version="opset1">
			<data element_type="f16" shape="36, 36, 3, 3" offset="1035756" size="23328" />
			<output>
				<port id="0" precision="FP16">
					<dim>36</dim>
					<dim>36</dim>
					<dim>3</dim>
					<dim>3</dim>
				</port>
			</output>
		</layer>
		<layer id="214" name="Multiply_40997" type="Convert" version="opset1">
			<data destination_type="f32" />
			<rt_info>
				<attribute name="decompression" version="0" />
			</rt_info>
			<input>
				<port id="0" precision="FP16">
					<dim>36</dim>
					<dim>36</dim>
					<dim>3</dim>
					<dim>3</dim>
				</port>
			</input>
			<output>
				<port id="1" precision="FP32">
					<dim>36</dim>
					<dim>36</dim>
					<dim>3</dim>
					<dim>3</dim>
				</port>
			</output>
		</layer>
		<layer id="215" name="Multiply_38874" type="Convolution" version="opset1">
			<data strides="1, 1" dilations="1, 1" pads_begin="1, 1" pads_end="1, 1" auto_pad="explicit" />
			<input>
				<port id="0" precision="FP32">
					<dim>1</dim>
					<dim>36</dim>
					<dim>8</dim>
					<dim>8</dim>
				</port>
				<port id="1" precision="FP32">
					<dim>36</dim>
					<dim>36</dim>
					<dim>3</dim>
					<dim>3</dim>
				</port>
			</input>
			<output>
				<port id="2" precision="FP32">
					<dim>1</dim>
					<dim>36</dim>
					<dim>8</dim>
					<dim>8</dim>
				</port>
			</output>
		</layer>
		<layer id="216" name="Constant_38879_compressed" type="Const" version="opset1">
			<data element_type="f16" shape="1, 36, 1, 1" offset="1059084" size="72" />
			<output>
				<port id="0" precision="FP16">
					<dim>1</dim>
					<dim>36</dim>
					<dim>1</dim>
					<dim>1</dim>
				</port>
			</output>
		</layer>
		<layer id="217" name="Constant_38879" type="Convert" version="opset1">
			<data destination_type="f32" />
			<rt_info>
				<attribute name="decompression" version="0" />
			</rt_info>
			<input>
				<port id="0" precision="FP16">
					<dim>1</dim>
					<dim>36</dim>
					<dim>1</dim>
					<dim>1</dim>
				</port>
			</input>
			<output>
				<port id="1" precision="FP32">
					<dim>1</dim>
					<dim>36</dim>
					<dim>1</dim>
					<dim>1</dim>
				</port>
			</output>
		</layer>
		<layer id="218" name="BatchNormalization_97" type="Add" version="opset1">
			<data auto_broadcast="numpy" />
			<input>
				<port id="0" precision="FP32">
					<dim>1</dim>
					<dim>36</dim>
					<dim>8</dim>
					<dim>8</dim>
				</port>
				<port id="1" precision="FP32">
					<dim>1</dim>
					<dim>36</dim>
					<dim>1</dim>
					<dim>1</dim>
				</port>
			</input>
			<output>
				<port id="2" precision="FP32" names="1937">
					<dim>1</dim>
					<dim>36</dim>
					<dim>8</dim>
					<dim>8</dim>
				</port>
			</output>
		</layer>
		<layer id="219" name="Relu_98" type="ReLU" version="opset1">
			<input>
				<port id="0" precision="FP32">
					<dim>1</dim>
					<dim>36</dim>
					<dim>8</dim>
					<dim>8</dim>
				</port>
			</input>
			<output>
				<port id="1" precision="FP32" names="1938">
					<dim>1</dim>
					<dim>36</dim>
					<dim>8</dim>
					<dim>8</dim>
				</port>
			</output>
		</layer>
		<layer id="220" name="Multiply_41003_compressed" type="Const" version="opset1">
			<data element_type="f16" shape="36, 36, 3, 3" offset="1059156" size="23328" />
			<output>
				<port id="0" precision="FP16">
					<dim>36</dim>
					<dim>36</dim>
					<dim>3</dim>
					<dim>3</dim>
				</port>
			</output>
		</layer>
		<layer id="221" name="Multiply_41003" type="Convert" version="opset1">
			<data destination_type="f32" />
			<rt_info>
				<attribute name="decompression" version="0" />
			</rt_info>
			<input>
				<port id="0" precision="FP16">
					<dim>36</dim>
					<dim>36</dim>
					<dim>3</dim>
					<dim>3</dim>
				</port>
			</input>
			<output>
				<port id="1" precision="FP32">
					<dim>36</dim>
					<dim>36</dim>
					<dim>3</dim>
					<dim>3</dim>
				</port>
			</output>
		</layer>
		<layer id="222" name="Multiply_38881" type="Convolution" version="opset1">
			<data strides="1, 1" dilations="1, 1" pads_begin="1, 1" pads_end="1, 1" auto_pad="explicit" />
			<input>
				<port id="0" precision="FP32">
					<dim>1</dim>
					<dim>36</dim>
					<dim>8</dim>
					<dim>8</dim>
				</port>
				<port id="1" precision="FP32">
					<dim>36</dim>
					<dim>36</dim>
					<dim>3</dim>
					<dim>3</dim>
				</port>
			</input>
			<output>
				<port id="2" precision="FP32">
					<dim>1</dim>
					<dim>36</dim>
					<dim>8</dim>
					<dim>8</dim>
				</port>
			</output>
		</layer>
		<layer id="223" name="Constant_38886_compressed" type="Const" version="opset1">
			<data element_type="f16" shape="1, 36, 1, 1" offset="1082484" size="72" />
			<output>
				<port id="0" precision="FP16">
					<dim>1</dim>
					<dim>36</dim>
					<dim>1</dim>
					<dim>1</dim>
				</port>
			</output>
		</layer>
		<layer id="224" name="Constant_38886" type="Convert" version="opset1">
			<data destination_type="f32" />
			<rt_info>
				<attribute name="decompression" version="0" />
			</rt_info>
			<input>
				<port id="0" precision="FP16">
					<dim>1</dim>
					<dim>36</dim>
					<dim>1</dim>
					<dim>1</dim>
				</port>
			</input>
			<output>
				<port id="1" precision="FP32">
					<dim>1</dim>
					<dim>36</dim>
					<dim>1</dim>
					<dim>1</dim>
				</port>
			</output>
		</layer>
		<layer id="225" name="BatchNormalization_100" type="Add" version="opset1">
			<data auto_broadcast="numpy" />
			<input>
				<port id="0" precision="FP32">
					<dim>1</dim>
					<dim>36</dim>
					<dim>8</dim>
					<dim>8</dim>
				</port>
				<port id="1" precision="FP32">
					<dim>1</dim>
					<dim>36</dim>
					<dim>1</dim>
					<dim>1</dim>
				</port>
			</input>
			<output>
				<port id="2" precision="FP32" names="1940">
					<dim>1</dim>
					<dim>36</dim>
					<dim>8</dim>
					<dim>8</dim>
				</port>
			</output>
		</layer>
		<layer id="226" name="Add_101" type="Add" version="opset1">
			<data auto_broadcast="numpy" />
			<input>
				<port id="0" precision="FP32">
					<dim>1</dim>
					<dim>36</dim>
					<dim>8</dim>
					<dim>8</dim>
				</port>
				<port id="1" precision="FP32">
					<dim>1</dim>
					<dim>36</dim>
					<dim>8</dim>
					<dim>8</dim>
				</port>
			</input>
			<output>
				<port id="2" precision="FP32" names="1941">
					<dim>1</dim>
					<dim>36</dim>
					<dim>8</dim>
					<dim>8</dim>
				</port>
			</output>
		</layer>
		<layer id="227" name="Relu_102" type="ReLU" version="opset1">
			<input>
				<port id="0" precision="FP32">
					<dim>1</dim>
					<dim>36</dim>
					<dim>8</dim>
					<dim>8</dim>
				</port>
			</input>
			<output>
				<port id="1" precision="FP32" names="1942">
					<dim>1</dim>
					<dim>36</dim>
					<dim>8</dim>
					<dim>8</dim>
				</port>
			</output>
		</layer>
		<layer id="228" name="Multiply_41009_compressed" type="Const" version="opset1">
			<data element_type="f16" shape="36, 36, 3, 3" offset="1082556" size="23328" />
			<output>
				<port id="0" precision="FP16">
					<dim>36</dim>
					<dim>36</dim>
					<dim>3</dim>
					<dim>3</dim>
				</port>
			</output>
		</layer>
		<layer id="229" name="Multiply_41009" type="Convert" version="opset1">
			<data destination_type="f32" />
			<rt_info>
				<attribute name="decompression" version="0" />
			</rt_info>
			<input>
				<port id="0" precision="FP16">
					<dim>36</dim>
					<dim>36</dim>
					<dim>3</dim>
					<dim>3</dim>
				</port>
			</input>
			<output>
				<port id="1" precision="FP32">
					<dim>36</dim>
					<dim>36</dim>
					<dim>3</dim>
					<dim>3</dim>
				</port>
			</output>
		</layer>
		<layer id="230" name="Multiply_38888" type="Convolution" version="opset1">
			<data strides="1, 1" dilations="1, 1" pads_begin="1, 1" pads_end="1, 1" auto_pad="explicit" />
			<input>
				<port id="0" precision="FP32">
					<dim>1</dim>
					<dim>36</dim>
					<dim>8</dim>
					<dim>8</dim>
				</port>
				<port id="1" precision="FP32">
					<dim>36</dim>
					<dim>36</dim>
					<dim>3</dim>
					<dim>3</dim>
				</port>
			</input>
			<output>
				<port id="2" precision="FP32">
					<dim>1</dim>
					<dim>36</dim>
					<dim>8</dim>
					<dim>8</dim>
				</port>
			</output>
		</layer>
		<layer id="231" name="Constant_38893_compressed" type="Const" version="opset1">
			<data element_type="f16" shape="1, 36, 1, 1" offset="1105884" size="72" />
			<output>
				<port id="0" precision="FP16">
					<dim>1</dim>
					<dim>36</dim>
					<dim>1</dim>
					<dim>1</dim>
				</port>
			</output>
		</layer>
		<layer id="232" name="Constant_38893" type="Convert" version="opset1">
			<data destination_type="f32" />
			<rt_info>
				<attribute name="decompression" version="0" />
			</rt_info>
			<input>
				<port id="0" precision="FP16">
					<dim>1</dim>
					<dim>36</dim>
					<dim>1</dim>
					<dim>1</dim>
				</port>
			</input>
			<output>
				<port id="1" precision="FP32">
					<dim>1</dim>
					<dim>36</dim>
					<dim>1</dim>
					<dim>1</dim>
				</port>
			</output>
		</layer>
		<layer id="233" name="BatchNormalization_104" type="Add" version="opset1">
			<data auto_broadcast="numpy" />
			<input>
				<port id="0" precision="FP32">
					<dim>1</dim>
					<dim>36</dim>
					<dim>8</dim>
					<dim>8</dim>
				</port>
				<port id="1" precision="FP32">
					<dim>1</dim>
					<dim>36</dim>
					<dim>1</dim>
					<dim>1</dim>
				</port>
			</input>
			<output>
				<port id="2" precision="FP32" names="1944">
					<dim>1</dim>
					<dim>36</dim>
					<dim>8</dim>
					<dim>8</dim>
				</port>
			</output>
		</layer>
		<layer id="234" name="Relu_105" type="ReLU" version="opset1">
			<input>
				<port id="0" precision="FP32">
					<dim>1</dim>
					<dim>36</dim>
					<dim>8</dim>
					<dim>8</dim>
				</port>
			</input>
			<output>
				<port id="1" precision="FP32" names="1945">
					<dim>1</dim>
					<dim>36</dim>
					<dim>8</dim>
					<dim>8</dim>
				</port>
			</output>
		</layer>
		<layer id="235" name="Multiply_41015_compressed" type="Const" version="opset1">
			<data element_type="f16" shape="36, 36, 3, 3" offset="1105956" size="23328" />
			<output>
				<port id="0" precision="FP16">
					<dim>36</dim>
					<dim>36</dim>
					<dim>3</dim>
					<dim>3</dim>
				</port>
			</output>
		</layer>
		<layer id="236" name="Multiply_41015" type="Convert" version="opset1">
			<data destination_type="f32" />
			<rt_info>
				<attribute name="decompression" version="0" />
			</rt_info>
			<input>
				<port id="0" precision="FP16">
					<dim>36</dim>
					<dim>36</dim>
					<dim>3</dim>
					<dim>3</dim>
				</port>
			</input>
			<output>
				<port id="1" precision="FP32">
					<dim>36</dim>
					<dim>36</dim>
					<dim>3</dim>
					<dim>3</dim>
				</port>
			</output>
		</layer>
		<layer id="237" name="Multiply_38895" type="Convolution" version="opset1">
			<data strides="1, 1" dilations="1, 1" pads_begin="1, 1" pads_end="1, 1" auto_pad="explicit" />
			<input>
				<port id="0" precision="FP32">
					<dim>1</dim>
					<dim>36</dim>
					<dim>8</dim>
					<dim>8</dim>
				</port>
				<port id="1" precision="FP32">
					<dim>36</dim>
					<dim>36</dim>
					<dim>3</dim>
					<dim>3</dim>
				</port>
			</input>
			<output>
				<port id="2" precision="FP32">
					<dim>1</dim>
					<dim>36</dim>
					<dim>8</dim>
					<dim>8</dim>
				</port>
			</output>
		</layer>
		<layer id="238" name="Constant_38900_compressed" type="Const" version="opset1">
			<data element_type="f16" shape="1, 36, 1, 1" offset="1129284" size="72" />
			<output>
				<port id="0" precision="FP16">
					<dim>1</dim>
					<dim>36</dim>
					<dim>1</dim>
					<dim>1</dim>
				</port>
			</output>
		</layer>
		<layer id="239" name="Constant_38900" type="Convert" version="opset1">
			<data destination_type="f32" />
			<rt_info>
				<attribute name="decompression" version="0" />
			</rt_info>
			<input>
				<port id="0" precision="FP16">
					<dim>1</dim>
					<dim>36</dim>
					<dim>1</dim>
					<dim>1</dim>
				</port>
			</input>
			<output>
				<port id="1" precision="FP32">
					<dim>1</dim>
					<dim>36</dim>
					<dim>1</dim>
					<dim>1</dim>
				</port>
			</output>
		</layer>
		<layer id="240" name="BatchNormalization_107" type="Add" version="opset1">
			<data auto_broadcast="numpy" />
			<input>
				<port id="0" precision="FP32">
					<dim>1</dim>
					<dim>36</dim>
					<dim>8</dim>
					<dim>8</dim>
				</port>
				<port id="1" precision="FP32">
					<dim>1</dim>
					<dim>36</dim>
					<dim>1</dim>
					<dim>1</dim>
				</port>
			</input>
			<output>
				<port id="2" precision="FP32" names="1947">
					<dim>1</dim>
					<dim>36</dim>
					<dim>8</dim>
					<dim>8</dim>
				</port>
			</output>
		</layer>
		<layer id="241" name="Add_108" type="Add" version="opset1">
			<data auto_broadcast="numpy" />
			<input>
				<port id="0" precision="FP32">
					<dim>1</dim>
					<dim>36</dim>
					<dim>8</dim>
					<dim>8</dim>
				</port>
				<port id="1" precision="FP32">
					<dim>1</dim>
					<dim>36</dim>
					<dim>8</dim>
					<dim>8</dim>
				</port>
			</input>
			<output>
				<port id="2" precision="FP32" names="1948">
					<dim>1</dim>
					<dim>36</dim>
					<dim>8</dim>
					<dim>8</dim>
				</port>
			</output>
		</layer>
		<layer id="242" name="Relu_109" type="ReLU" version="opset1">
			<input>
				<port id="0" precision="FP32">
					<dim>1</dim>
					<dim>36</dim>
					<dim>8</dim>
					<dim>8</dim>
				</port>
			</input>
			<output>
				<port id="1" precision="FP32" names="1949">
					<dim>1</dim>
					<dim>36</dim>
					<dim>8</dim>
					<dim>8</dim>
				</port>
			</output>
		</layer>
		<layer id="243" name="Multiply_41021_compressed" type="Const" version="opset1">
			<data element_type="f16" shape="18, 36, 1, 1" offset="1129356" size="1296" />
			<output>
				<port id="0" precision="FP16">
					<dim>18</dim>
					<dim>36</dim>
					<dim>1</dim>
					<dim>1</dim>
				</port>
			</output>
		</layer>
		<layer id="244" name="Multiply_41021" type="Convert" version="opset1">
			<data destination_type="f32" />
			<rt_info>
				<attribute name="decompression" version="0" />
			</rt_info>
			<input>
				<port id="0" precision="FP16">
					<dim>18</dim>
					<dim>36</dim>
					<dim>1</dim>
					<dim>1</dim>
				</port>
			</input>
			<output>
				<port id="1" precision="FP32">
					<dim>18</dim>
					<dim>36</dim>
					<dim>1</dim>
					<dim>1</dim>
				</port>
			</output>
		</layer>
		<layer id="245" name="Multiply_38902" type="Convolution" version="opset1">
			<data strides="1, 1" dilations="1, 1" pads_begin="0, 0" pads_end="0, 0" auto_pad="explicit" />
			<input>
				<port id="0" precision="FP32">
					<dim>1</dim>
					<dim>36</dim>
					<dim>8</dim>
					<dim>8</dim>
				</port>
				<port id="1" precision="FP32">
					<dim>18</dim>
					<dim>36</dim>
					<dim>1</dim>
					<dim>1</dim>
				</port>
			</input>
			<output>
				<port id="2" precision="FP32">
					<dim>1</dim>
					<dim>18</dim>
					<dim>8</dim>
					<dim>8</dim>
				</port>
			</output>
		</layer>
		<layer id="246" name="Constant_38907_compressed" type="Const" version="opset1">
			<data element_type="f16" shape="1, 18, 1, 1" offset="1130652" size="36" />
			<output>
				<port id="0" precision="FP16">
					<dim>1</dim>
					<dim>18</dim>
					<dim>1</dim>
					<dim>1</dim>
				</port>
			</output>
		</layer>
		<layer id="247" name="Constant_38907" type="Convert" version="opset1">
			<data destination_type="f32" />
			<rt_info>
				<attribute name="decompression" version="0" />
			</rt_info>
			<input>
				<port id="0" precision="FP16">
					<dim>1</dim>
					<dim>18</dim>
					<dim>1</dim>
					<dim>1</dim>
				</port>
			</input>
			<output>
				<port id="1" precision="FP32">
					<dim>1</dim>
					<dim>18</dim>
					<dim>1</dim>
					<dim>1</dim>
				</port>
			</output>
		</layer>
		<layer id="248" name="BatchNormalization_113" type="Add" version="opset1">
			<data auto_broadcast="numpy" />
			<input>
				<port id="0" precision="FP32">
					<dim>1</dim>
					<dim>18</dim>
					<dim>8</dim>
					<dim>8</dim>
				</port>
				<port id="1" precision="FP32">
					<dim>1</dim>
					<dim>18</dim>
					<dim>1</dim>
					<dim>1</dim>
				</port>
			</input>
			<output>
				<port id="2" precision="FP32" names="1953">
					<dim>1</dim>
					<dim>18</dim>
					<dim>8</dim>
					<dim>8</dim>
				</port>
			</output>
		</layer>
		<layer id="249" name="Shape_134" type="ShapeOf" version="opset3">
			<data output_type="i64" />
			<input>
				<port id="0" precision="FP32">
					<dim>1</dim>
					<dim>18</dim>
					<dim>8</dim>
					<dim>8</dim>
				</port>
			</input>
			<output>
				<port id="1" precision="I64" names="1954,1962,1974">
					<dim>4</dim>
				</port>
			</output>
		</layer>
		<layer id="250" name="Constant_136" type="Const" version="opset1">
			<data element_type="i64" shape="1" offset="1130688" size="8" />
			<output>
				<port id="0" precision="I64" names="1976">
					<dim>1</dim>
				</port>
			</output>
		</layer>
		<layer id="251" name="Constant_137" type="Const" version="opset1">
			<data element_type="i64" shape="1" offset="1130696" size="8" />
			<output>
				<port id="0" precision="I64" names="1977">
					<dim>1</dim>
				</port>
			</output>
		</layer>
		<layer id="252" name="Broadcast_1717" type="Const" version="opset1">
			<data element_type="i64" shape="1" offset="1130704" size="8" />
			<output>
				<port id="0" precision="I64">
					<dim>1</dim>
				</port>
			</output>
		</layer>
		<layer id="253" name="Slice_138" type="StridedSlice" version="opset1">
			<data begin_mask="0" end_mask="0" new_axis_mask="" shrink_axis_mask="" ellipsis_mask="" />
			<input>
				<port id="0" precision="I64">
					<dim>4</dim>
				</port>
				<port id="1" precision="I64">
					<dim>1</dim>
				</port>
				<port id="2" precision="I64">
					<dim>1</dim>
				</port>
				<port id="3" precision="I64">
					<dim>1</dim>
				</port>
			</input>
			<output>
				<port id="4" precision="I64" names="1978">
					<dim>2</dim>
				</port>
			</output>
		</layer>
		<layer id="254" name="Constant_115" type="Const" version="opset1">
			<data element_type="i64" shape="" offset="1130696" size="8" />
			<output>
				<port id="0" precision="I64" names="1955" />
			</output>
		</layer>
		<layer id="255" name="Constant_1689" type="Const" version="opset1">
			<data element_type="i64" shape="" offset="1130688" size="8" />
			<output>
				<port id="0" precision="I64" />
			</output>
		</layer>
		<layer id="256" name="Gather_116" type="Gather" version="opset8">
			<data batch_dims="0" />
			<input>
				<port id="0" precision="I64">
					<dim>4</dim>
				</port>
				<port id="1" precision="I64" />
				<port id="2" precision="I64" />
			</input>
			<output>
				<port id="3" precision="I64" names="1956" />
			</output>
		</layer>
		<layer id="257" name="Cast_117" type="Convert" version="opset1">
			<data destination_type="f32" />
			<input>
				<port id="0" precision="I64" />
			</input>
			<output>
				<port id="1" precision="FP32" names="1957" />
			</output>
		</layer>
		<layer id="258" name="Constant_118" type="Const" version="opset1">
			<data element_type="f32" shape="" offset="1130712" size="4" />
			<output>
				<port id="0" precision="FP32" names="1958" />
			</output>
		</layer>
		<layer id="259" name="Mul_119" type="Multiply" version="opset1">
			<data auto_broadcast="numpy" />
			<input>
				<port id="0" precision="FP32" />
				<port id="1" precision="FP32" />
			</input>
			<output>
				<port id="2" precision="FP32" names="1959,1960" />
			</output>
		</layer>
		<layer id="260" name="Floor_121" type="Floor" version="opset1">
			<input>
				<port id="0" precision="FP32" />
			</input>
			<output>
				<port id="1" precision="FP32" names="1961" />
			</output>
		</layer>
		<layer id="261" name="Constant_1705" type="Const" version="opset1">
			<data element_type="i64" shape="1" offset="1130688" size="8" />
			<output>
				<port id="0" precision="I64">
					<dim>1</dim>
				</port>
			</output>
		</layer>
		<layer id="262" name="Unsqueeze_130" type="Unsqueeze" version="opset1">
			<input>
				<port id="0" precision="FP32" />
				<port id="1" precision="I64">
					<dim>1</dim>
				</port>
			</input>
			<output>
				<port id="2" precision="FP32" names="1970">
					<dim>1</dim>
				</port>
			</output>
		</layer>
		<layer id="263" name="Constant_123" type="Const" version="opset1">
			<data element_type="i64" shape="" offset="1130716" size="8" />
			<output>
				<port id="0" precision="I64" names="1963" />
			</output>
		</layer>
		<layer id="264" name="Constant_1698" type="Const" version="opset1">
			<data element_type="i64" shape="" offset="1130688" size="8" />
			<output>
				<port id="0" precision="I64" />
			</output>
		</layer>
		<layer id="265" name="Gather_124" type="Gather" version="opset8">
			<data batch_dims="0" />
			<input>
				<port id="0" precision="I64">
					<dim>4</dim>
				</port>
				<port id="1" precision="I64" />
				<port id="2" precision="I64" />
			</input>
			<output>
				<port id="3" precision="I64" names="1964" />
			</output>
		</layer>
		<layer id="266" name="Cast_125" type="Convert" version="opset1">
			<data destination_type="f32" />
			<input>
				<port id="0" precision="I64" />
			</input>
			<output>
				<port id="1" precision="FP32" names="1965" />
			</output>
		</layer>
		<layer id="267" name="Constant_126" type="Const" version="opset1">
			<data element_type="f32" shape="" offset="1130712" size="4" />
			<output>
				<port id="0" precision="FP32" names="1966" />
			</output>
		</layer>
		<layer id="268" name="Mul_127" type="Multiply" version="opset1">
			<data auto_broadcast="numpy" />
			<input>
				<port id="0" precision="FP32" />
				<port id="1" precision="FP32" />
			</input>
			<output>
				<port id="2" precision="FP32" names="1967,1968" />
			</output>
		</layer>
		<layer id="269" name="Floor_129" type="Floor" version="opset1">
			<input>
				<port id="0" precision="FP32" />
			</input>
			<output>
				<port id="1" precision="FP32" names="1969" />
			</output>
		</layer>
		<layer id="270" name="Constant_1707" type="Const" version="opset1">
			<data element_type="i64" shape="1" offset="1130688" size="8" />
			<output>
				<port id="0" precision="I64">
					<dim>1</dim>
				</port>
			</output>
		</layer>
		<layer id="271" name="Unsqueeze_131" type="Unsqueeze" version="opset1">
			<input>
				<port id="0" precision="FP32" />
				<port id="1" precision="I64">
					<dim>1</dim>
				</port>
			</input>
			<output>
				<port id="2" precision="FP32" names="1971">
					<dim>1</dim>
				</port>
			</output>
		</layer>
		<layer id="272" name="Concat_132" type="Concat" version="opset1">
			<data axis="0" />
			<input>
				<port id="0" precision="FP32">
					<dim>1</dim>
				</port>
				<port id="1" precision="FP32">
					<dim>1</dim>
				</port>
			</input>
			<output>
				<port id="2" precision="FP32" names="1972">
					<dim>2</dim>
				</port>
			</output>
		</layer>
		<layer id="273" name="Cast_139" type="Convert" version="opset1">
			<data destination_type="i64" />
			<input>
				<port id="0" precision="FP32">
					<dim>2</dim>
				</port>
			</input>
			<output>
				<port id="1" precision="I64" names="1979">
					<dim>2</dim>
				</port>
			</output>
		</layer>
		<layer id="274" name="Concat_140" type="Concat" version="opset1">
			<data axis="0" />
			<input>
				<port id="0" precision="I64">
					<dim>2</dim>
				</port>
				<port id="1" precision="I64">
					<dim>2</dim>
				</port>
			</input>
			<output>
				<port id="2" precision="I64" names="1980">
					<dim>4</dim>
				</port>
			</output>
		</layer>
		<layer id="275" name="Resize_142" type="Interpolate" version="opset11">
			<data mode="linear_onnx" shape_calculation_mode="sizes" coordinate_transformation_mode="pytorch_half_pixel" nearest_mode="floor" antialias="false" pads_begin="0, 0, 0, 0" pads_end="0, 0, 0, 0" cube_coeff="-0.75" />
			<input>
				<port id="0" precision="FP32">
					<dim>1</dim>
					<dim>18</dim>
					<dim>8</dim>
					<dim>8</dim>
				</port>
				<port id="1" precision="I64">
					<dim>4</dim>
				</port>
			</input>
			<output>
				<port id="2" precision="FP32" names="1982">
					<dim>1</dim>
					<dim>18</dim>
					<dim>16</dim>
					<dim>16</dim>
				</port>
			</output>
		</layer>
		<layer id="276" name="Add_143" type="Add" version="opset1">
			<data auto_broadcast="numpy" />
			<input>
				<port id="0" precision="FP32">
					<dim>1</dim>
					<dim>18</dim>
					<dim>16</dim>
					<dim>16</dim>
				</port>
				<port id="1" precision="FP32">
					<dim>1</dim>
					<dim>18</dim>
					<dim>16</dim>
					<dim>16</dim>
				</port>
			</input>
			<output>
				<port id="2" precision="FP32" names="1983">
					<dim>1</dim>
					<dim>18</dim>
					<dim>16</dim>
					<dim>16</dim>
				</port>
			</output>
		</layer>
		<layer id="277" name="Relu_144" type="ReLU" version="opset1">
			<input>
				<port id="0" precision="FP32">
					<dim>1</dim>
					<dim>18</dim>
					<dim>16</dim>
					<dim>16</dim>
				</port>
			</input>
			<output>
				<port id="1" precision="FP32" names="1984">
					<dim>1</dim>
					<dim>18</dim>
					<dim>16</dim>
					<dim>16</dim>
				</port>
			</output>
		</layer>
		<layer id="278" name="Multiply_41027_compressed" type="Const" version="opset1">
			<data element_type="f16" shape="18, 18, 3, 3" offset="1130724" size="5832" />
			<output>
				<port id="0" precision="FP16">
					<dim>18</dim>
					<dim>18</dim>
					<dim>3</dim>
					<dim>3</dim>
				</port>
			</output>
		</layer>
		<layer id="279" name="Multiply_41027" type="Convert" version="opset1">
			<data destination_type="f32" />
			<rt_info>
				<attribute name="decompression" version="0" />
			</rt_info>
			<input>
				<port id="0" precision="FP16">
					<dim>18</dim>
					<dim>18</dim>
					<dim>3</dim>
					<dim>3</dim>
				</port>
			</input>
			<output>
				<port id="1" precision="FP32">
					<dim>18</dim>
					<dim>18</dim>
					<dim>3</dim>
					<dim>3</dim>
				</port>
			</output>
		</layer>
		<layer id="280" name="Multiply_38909" type="Convolution" version="opset1">
			<data strides="1, 1" dilations="1, 1" pads_begin="1, 1" pads_end="1, 1" auto_pad="explicit" />
			<input>
				<port id="0" precision="FP32">
					<dim>1</dim>
					<dim>18</dim>
					<dim>16</dim>
					<dim>16</dim>
				</port>
				<port id="1" precision="FP32">
					<dim>18</dim>
					<dim>18</dim>
					<dim>3</dim>
					<dim>3</dim>
				</port>
			</input>
			<output>
				<port id="2" precision="FP32">
					<dim>1</dim>
					<dim>18</dim>
					<dim>16</dim>
					<dim>16</dim>
				</port>
			</output>
		</layer>
		<layer id="281" name="Constant_38914_compressed" type="Const" version="opset1">
			<data element_type="f16" shape="1, 18, 1, 1" offset="1136556" size="36" />
			<output>
				<port id="0" precision="FP16">
					<dim>1</dim>
					<dim>18</dim>
					<dim>1</dim>
					<dim>1</dim>
				</port>
			</output>
		</layer>
		<layer id="282" name="Constant_38914" type="Convert" version="opset1">
			<data destination_type="f32" />
			<rt_info>
				<attribute name="decompression" version="0" />
			</rt_info>
			<input>
				<port id="0" precision="FP16">
					<dim>1</dim>
					<dim>18</dim>
					<dim>1</dim>
					<dim>1</dim>
				</port>
			</input>
			<output>
				<port id="1" precision="FP32">
					<dim>1</dim>
					<dim>18</dim>
					<dim>1</dim>
					<dim>1</dim>
				</port>
			</output>
		</layer>
		<layer id="283" name="BatchNormalization_153" type="Add" version="opset1">
			<data auto_broadcast="numpy" />
			<input>
				<port id="0" precision="FP32">
					<dim>1</dim>
					<dim>18</dim>
					<dim>16</dim>
					<dim>16</dim>
				</port>
				<port id="1" precision="FP32">
					<dim>1</dim>
					<dim>18</dim>
					<dim>1</dim>
					<dim>1</dim>
				</port>
			</input>
			<output>
				<port id="2" precision="FP32" names="1993">
					<dim>1</dim>
					<dim>18</dim>
					<dim>16</dim>
					<dim>16</dim>
				</port>
			</output>
		</layer>
		<layer id="284" name="Relu_154" type="ReLU" version="opset1">
			<input>
				<port id="0" precision="FP32">
					<dim>1</dim>
					<dim>18</dim>
					<dim>16</dim>
					<dim>16</dim>
				</port>
			</input>
			<output>
				<port id="1" precision="FP32" names="1994">
					<dim>1</dim>
					<dim>18</dim>
					<dim>16</dim>
					<dim>16</dim>
				</port>
			</output>
		</layer>
		<layer id="285" name="Multiply_41033_compressed" type="Const" version="opset1">
			<data element_type="f16" shape="18, 18, 3, 3" offset="1136592" size="5832" />
			<output>
				<port id="0" precision="FP16">
					<dim>18</dim>
					<dim>18</dim>
					<dim>3</dim>
					<dim>3</dim>
				</port>
			</output>
		</layer>
		<layer id="286" name="Multiply_41033" type="Convert" version="opset1">
			<data destination_type="f32" />
			<rt_info>
				<attribute name="decompression" version="0" />
			</rt_info>
			<input>
				<port id="0" precision="FP16">
					<dim>18</dim>
					<dim>18</dim>
					<dim>3</dim>
					<dim>3</dim>
				</port>
			</input>
			<output>
				<port id="1" precision="FP32">
					<dim>18</dim>
					<dim>18</dim>
					<dim>3</dim>
					<dim>3</dim>
				</port>
			</output>
		</layer>
		<layer id="287" name="Multiply_38916" type="Convolution" version="opset1">
			<data strides="1, 1" dilations="1, 1" pads_begin="1, 1" pads_end="1, 1" auto_pad="explicit" />
			<input>
				<port id="0" precision="FP32">
					<dim>1</dim>
					<dim>18</dim>
					<dim>16</dim>
					<dim>16</dim>
				</port>
				<port id="1" precision="FP32">
					<dim>18</dim>
					<dim>18</dim>
					<dim>3</dim>
					<dim>3</dim>
				</port>
			</input>
			<output>
				<port id="2" precision="FP32">
					<dim>1</dim>
					<dim>18</dim>
					<dim>16</dim>
					<dim>16</dim>
				</port>
			</output>
		</layer>
		<layer id="288" name="Constant_38921_compressed" type="Const" version="opset1">
			<data element_type="f16" shape="1, 18, 1, 1" offset="1142424" size="36" />
			<output>
				<port id="0" precision="FP16">
					<dim>1</dim>
					<dim>18</dim>
					<dim>1</dim>
					<dim>1</dim>
				</port>
			</output>
		</layer>
		<layer id="289" name="Constant_38921" type="Convert" version="opset1">
			<data destination_type="f32" />
			<rt_info>
				<attribute name="decompression" version="0" />
			</rt_info>
			<input>
				<port id="0" precision="FP16">
					<dim>1</dim>
					<dim>18</dim>
					<dim>1</dim>
					<dim>1</dim>
				</port>
			</input>
			<output>
				<port id="1" precision="FP32">
					<dim>1</dim>
					<dim>18</dim>
					<dim>1</dim>
					<dim>1</dim>
				</port>
			</output>
		</layer>
		<layer id="290" name="BatchNormalization_156" type="Add" version="opset1">
			<data auto_broadcast="numpy" />
			<input>
				<port id="0" precision="FP32">
					<dim>1</dim>
					<dim>18</dim>
					<dim>16</dim>
					<dim>16</dim>
				</port>
				<port id="1" precision="FP32">
					<dim>1</dim>
					<dim>18</dim>
					<dim>1</dim>
					<dim>1</dim>
				</port>
			</input>
			<output>
				<port id="2" precision="FP32" names="1996">
					<dim>1</dim>
					<dim>18</dim>
					<dim>16</dim>
					<dim>16</dim>
				</port>
			</output>
		</layer>
		<layer id="291" name="Add_157" type="Add" version="opset1">
			<data auto_broadcast="numpy" />
			<input>
				<port id="0" precision="FP32">
					<dim>1</dim>
					<dim>18</dim>
					<dim>16</dim>
					<dim>16</dim>
				</port>
				<port id="1" precision="FP32">
					<dim>1</dim>
					<dim>18</dim>
					<dim>16</dim>
					<dim>16</dim>
				</port>
			</input>
			<output>
				<port id="2" precision="FP32" names="1997">
					<dim>1</dim>
					<dim>18</dim>
					<dim>16</dim>
					<dim>16</dim>
				</port>
			</output>
		</layer>
		<layer id="292" name="Relu_158" type="ReLU" version="opset1">
			<input>
				<port id="0" precision="FP32">
					<dim>1</dim>
					<dim>18</dim>
					<dim>16</dim>
					<dim>16</dim>
				</port>
			</input>
			<output>
				<port id="1" precision="FP32" names="1998">
					<dim>1</dim>
					<dim>18</dim>
					<dim>16</dim>
					<dim>16</dim>
				</port>
			</output>
		</layer>
		<layer id="293" name="Multiply_41039_compressed" type="Const" version="opset1">
			<data element_type="f16" shape="18, 18, 3, 3" offset="1142460" size="5832" />
			<output>
				<port id="0" precision="FP16">
					<dim>18</dim>
					<dim>18</dim>
					<dim>3</dim>
					<dim>3</dim>
				</port>
			</output>
		</layer>
		<layer id="294" name="Multiply_41039" type="Convert" version="opset1">
			<data destination_type="f32" />
			<rt_info>
				<attribute name="decompression" version="0" />
			</rt_info>
			<input>
				<port id="0" precision="FP16">
					<dim>18</dim>
					<dim>18</dim>
					<dim>3</dim>
					<dim>3</dim>
				</port>
			</input>
			<output>
				<port id="1" precision="FP32">
					<dim>18</dim>
					<dim>18</dim>
					<dim>3</dim>
					<dim>3</dim>
				</port>
			</output>
		</layer>
		<layer id="295" name="Multiply_38923" type="Convolution" version="opset1">
			<data strides="1, 1" dilations="1, 1" pads_begin="1, 1" pads_end="1, 1" auto_pad="explicit" />
			<input>
				<port id="0" precision="FP32">
					<dim>1</dim>
					<dim>18</dim>
					<dim>16</dim>
					<dim>16</dim>
				</port>
				<port id="1" precision="FP32">
					<dim>18</dim>
					<dim>18</dim>
					<dim>3</dim>
					<dim>3</dim>
				</port>
			</input>
			<output>
				<port id="2" precision="FP32">
					<dim>1</dim>
					<dim>18</dim>
					<dim>16</dim>
					<dim>16</dim>
				</port>
			</output>
		</layer>
		<layer id="296" name="Constant_38928_compressed" type="Const" version="opset1">
			<data element_type="f16" shape="1, 18, 1, 1" offset="1148292" size="36" />
			<output>
				<port id="0" precision="FP16">
					<dim>1</dim>
					<dim>18</dim>
					<dim>1</dim>
					<dim>1</dim>
				</port>
			</output>
		</layer>
		<layer id="297" name="Constant_38928" type="Convert" version="opset1">
			<data destination_type="f32" />
			<rt_info>
				<attribute name="decompression" version="0" />
			</rt_info>
			<input>
				<port id="0" precision="FP16">
					<dim>1</dim>
					<dim>18</dim>
					<dim>1</dim>
					<dim>1</dim>
				</port>
			</input>
			<output>
				<port id="1" precision="FP32">
					<dim>1</dim>
					<dim>18</dim>
					<dim>1</dim>
					<dim>1</dim>
				</port>
			</output>
		</layer>
		<layer id="298" name="BatchNormalization_160" type="Add" version="opset1">
			<data auto_broadcast="numpy" />
			<input>
				<port id="0" precision="FP32">
					<dim>1</dim>
					<dim>18</dim>
					<dim>16</dim>
					<dim>16</dim>
				</port>
				<port id="1" precision="FP32">
					<dim>1</dim>
					<dim>18</dim>
					<dim>1</dim>
					<dim>1</dim>
				</port>
			</input>
			<output>
				<port id="2" precision="FP32" names="2000">
					<dim>1</dim>
					<dim>18</dim>
					<dim>16</dim>
					<dim>16</dim>
				</port>
			</output>
		</layer>
		<layer id="299" name="Relu_161" type="ReLU" version="opset1">
			<input>
				<port id="0" precision="FP32">
					<dim>1</dim>
					<dim>18</dim>
					<dim>16</dim>
					<dim>16</dim>
				</port>
			</input>
			<output>
				<port id="1" precision="FP32" names="2001">
					<dim>1</dim>
					<dim>18</dim>
					<dim>16</dim>
					<dim>16</dim>
				</port>
			</output>
		</layer>
		<layer id="300" name="Multiply_41045_compressed" type="Const" version="opset1">
			<data element_type="f16" shape="18, 18, 3, 3" offset="1148328" size="5832" />
			<output>
				<port id="0" precision="FP16">
					<dim>18</dim>
					<dim>18</dim>
					<dim>3</dim>
					<dim>3</dim>
				</port>
			</output>
		</layer>
		<layer id="301" name="Multiply_41045" type="Convert" version="opset1">
			<data destination_type="f32" />
			<rt_info>
				<attribute name="decompression" version="0" />
			</rt_info>
			<input>
				<port id="0" precision="FP16">
					<dim>18</dim>
					<dim>18</dim>
					<dim>3</dim>
					<dim>3</dim>
				</port>
			</input>
			<output>
				<port id="1" precision="FP32">
					<dim>18</dim>
					<dim>18</dim>
					<dim>3</dim>
					<dim>3</dim>
				</port>
			</output>
		</layer>
		<layer id="302" name="Multiply_38930" type="Convolution" version="opset1">
			<data strides="1, 1" dilations="1, 1" pads_begin="1, 1" pads_end="1, 1" auto_pad="explicit" />
			<input>
				<port id="0" precision="FP32">
					<dim>1</dim>
					<dim>18</dim>
					<dim>16</dim>
					<dim>16</dim>
				</port>
				<port id="1" precision="FP32">
					<dim>18</dim>
					<dim>18</dim>
					<dim>3</dim>
					<dim>3</dim>
				</port>
			</input>
			<output>
				<port id="2" precision="FP32">
					<dim>1</dim>
					<dim>18</dim>
					<dim>16</dim>
					<dim>16</dim>
				</port>
			</output>
		</layer>
		<layer id="303" name="Constant_38935_compressed" type="Const" version="opset1">
			<data element_type="f16" shape="1, 18, 1, 1" offset="1154160" size="36" />
			<output>
				<port id="0" precision="FP16">
					<dim>1</dim>
					<dim>18</dim>
					<dim>1</dim>
					<dim>1</dim>
				</port>
			</output>
		</layer>
		<layer id="304" name="Constant_38935" type="Convert" version="opset1">
			<data destination_type="f32" />
			<rt_info>
				<attribute name="decompression" version="0" />
			</rt_info>
			<input>
				<port id="0" precision="FP16">
					<dim>1</dim>
					<dim>18</dim>
					<dim>1</dim>
					<dim>1</dim>
				</port>
			</input>
			<output>
				<port id="1" precision="FP32">
					<dim>1</dim>
					<dim>18</dim>
					<dim>1</dim>
					<dim>1</dim>
				</port>
			</output>
		</layer>
		<layer id="305" name="BatchNormalization_163" type="Add" version="opset1">
			<data auto_broadcast="numpy" />
			<input>
				<port id="0" precision="FP32">
					<dim>1</dim>
					<dim>18</dim>
					<dim>16</dim>
					<dim>16</dim>
				</port>
				<port id="1" precision="FP32">
					<dim>1</dim>
					<dim>18</dim>
					<dim>1</dim>
					<dim>1</dim>
				</port>
			</input>
			<output>
				<port id="2" precision="FP32" names="2003">
					<dim>1</dim>
					<dim>18</dim>
					<dim>16</dim>
					<dim>16</dim>
				</port>
			</output>
		</layer>
		<layer id="306" name="Add_164" type="Add" version="opset1">
			<data auto_broadcast="numpy" />
			<input>
				<port id="0" precision="FP32">
					<dim>1</dim>
					<dim>18</dim>
					<dim>16</dim>
					<dim>16</dim>
				</port>
				<port id="1" precision="FP32">
					<dim>1</dim>
					<dim>18</dim>
					<dim>16</dim>
					<dim>16</dim>
				</port>
			</input>
			<output>
				<port id="2" precision="FP32" names="2004">
					<dim>1</dim>
					<dim>18</dim>
					<dim>16</dim>
					<dim>16</dim>
				</port>
			</output>
		</layer>
		<layer id="307" name="Relu_165" type="ReLU" version="opset1">
			<input>
				<port id="0" precision="FP32">
					<dim>1</dim>
					<dim>18</dim>
					<dim>16</dim>
					<dim>16</dim>
				</port>
			</input>
			<output>
				<port id="1" precision="FP32" names="2005">
					<dim>1</dim>
					<dim>18</dim>
					<dim>16</dim>
					<dim>16</dim>
				</port>
			</output>
		</layer>
		<layer id="308" name="Multiply_41051_compressed" type="Const" version="opset1">
			<data element_type="f16" shape="18, 18, 3, 3" offset="1154196" size="5832" />
			<output>
				<port id="0" precision="FP16">
					<dim>18</dim>
					<dim>18</dim>
					<dim>3</dim>
					<dim>3</dim>
				</port>
			</output>
		</layer>
		<layer id="309" name="Multiply_41051" type="Convert" version="opset1">
			<data destination_type="f32" />
			<rt_info>
				<attribute name="decompression" version="0" />
			</rt_info>
			<input>
				<port id="0" precision="FP16">
					<dim>18</dim>
					<dim>18</dim>
					<dim>3</dim>
					<dim>3</dim>
				</port>
			</input>
			<output>
				<port id="1" precision="FP32">
					<dim>18</dim>
					<dim>18</dim>
					<dim>3</dim>
					<dim>3</dim>
				</port>
			</output>
		</layer>
		<layer id="310" name="Multiply_38937" type="Convolution" version="opset1">
			<data strides="1, 1" dilations="1, 1" pads_begin="1, 1" pads_end="1, 1" auto_pad="explicit" />
			<input>
				<port id="0" precision="FP32">
					<dim>1</dim>
					<dim>18</dim>
					<dim>16</dim>
					<dim>16</dim>
				</port>
				<port id="1" precision="FP32">
					<dim>18</dim>
					<dim>18</dim>
					<dim>3</dim>
					<dim>3</dim>
				</port>
			</input>
			<output>
				<port id="2" precision="FP32">
					<dim>1</dim>
					<dim>18</dim>
					<dim>16</dim>
					<dim>16</dim>
				</port>
			</output>
		</layer>
		<layer id="311" name="Constant_38942_compressed" type="Const" version="opset1">
			<data element_type="f16" shape="1, 18, 1, 1" offset="1160028" size="36" />
			<output>
				<port id="0" precision="FP16">
					<dim>1</dim>
					<dim>18</dim>
					<dim>1</dim>
					<dim>1</dim>
				</port>
			</output>
		</layer>
		<layer id="312" name="Constant_38942" type="Convert" version="opset1">
			<data destination_type="f32" />
			<rt_info>
				<attribute name="decompression" version="0" />
			</rt_info>
			<input>
				<port id="0" precision="FP16">
					<dim>1</dim>
					<dim>18</dim>
					<dim>1</dim>
					<dim>1</dim>
				</port>
			</input>
			<output>
				<port id="1" precision="FP32">
					<dim>1</dim>
					<dim>18</dim>
					<dim>1</dim>
					<dim>1</dim>
				</port>
			</output>
		</layer>
		<layer id="313" name="BatchNormalization_167" type="Add" version="opset1">
			<data auto_broadcast="numpy" />
			<input>
				<port id="0" precision="FP32">
					<dim>1</dim>
					<dim>18</dim>
					<dim>16</dim>
					<dim>16</dim>
				</port>
				<port id="1" precision="FP32">
					<dim>1</dim>
					<dim>18</dim>
					<dim>1</dim>
					<dim>1</dim>
				</port>
			</input>
			<output>
				<port id="2" precision="FP32" names="2007">
					<dim>1</dim>
					<dim>18</dim>
					<dim>16</dim>
					<dim>16</dim>
				</port>
			</output>
		</layer>
		<layer id="314" name="Relu_168" type="ReLU" version="opset1">
			<input>
				<port id="0" precision="FP32">
					<dim>1</dim>
					<dim>18</dim>
					<dim>16</dim>
					<dim>16</dim>
				</port>
			</input>
			<output>
				<port id="1" precision="FP32" names="2008">
					<dim>1</dim>
					<dim>18</dim>
					<dim>16</dim>
					<dim>16</dim>
				</port>
			</output>
		</layer>
		<layer id="315" name="Multiply_41057_compressed" type="Const" version="opset1">
			<data element_type="f16" shape="18, 18, 3, 3" offset="1160064" size="5832" />
			<output>
				<port id="0" precision="FP16">
					<dim>18</dim>
					<dim>18</dim>
					<dim>3</dim>
					<dim>3</dim>
				</port>
			</output>
		</layer>
		<layer id="316" name="Multiply_41057" type="Convert" version="opset1">
			<data destination_type="f32" />
			<rt_info>
				<attribute name="decompression" version="0" />
			</rt_info>
			<input>
				<port id="0" precision="FP16">
					<dim>18</dim>
					<dim>18</dim>
					<dim>3</dim>
					<dim>3</dim>
				</port>
			</input>
			<output>
				<port id="1" precision="FP32">
					<dim>18</dim>
					<dim>18</dim>
					<dim>3</dim>
					<dim>3</dim>
				</port>
			</output>
		</layer>
		<layer id="317" name="Multiply_38944" type="Convolution" version="opset1">
			<data strides="1, 1" dilations="1, 1" pads_begin="1, 1" pads_end="1, 1" auto_pad="explicit" />
			<input>
				<port id="0" precision="FP32">
					<dim>1</dim>
					<dim>18</dim>
					<dim>16</dim>
					<dim>16</dim>
				</port>
				<port id="1" precision="FP32">
					<dim>18</dim>
					<dim>18</dim>
					<dim>3</dim>
					<dim>3</dim>
				</port>
			</input>
			<output>
				<port id="2" precision="FP32">
					<dim>1</dim>
					<dim>18</dim>
					<dim>16</dim>
					<dim>16</dim>
				</port>
			</output>
		</layer>
		<layer id="318" name="Constant_38949_compressed" type="Const" version="opset1">
			<data element_type="f16" shape="1, 18, 1, 1" offset="1165896" size="36" />
			<output>
				<port id="0" precision="FP16">
					<dim>1</dim>
					<dim>18</dim>
					<dim>1</dim>
					<dim>1</dim>
				</port>
			</output>
		</layer>
		<layer id="319" name="Constant_38949" type="Convert" version="opset1">
			<data destination_type="f32" />
			<rt_info>
				<attribute name="decompression" version="0" />
			</rt_info>
			<input>
				<port id="0" precision="FP16">
					<dim>1</dim>
					<dim>18</dim>
					<dim>1</dim>
					<dim>1</dim>
				</port>
			</input>
			<output>
				<port id="1" precision="FP32">
					<dim>1</dim>
					<dim>18</dim>
					<dim>1</dim>
					<dim>1</dim>
				</port>
			</output>
		</layer>
		<layer id="320" name="BatchNormalization_170" type="Add" version="opset1">
			<data auto_broadcast="numpy" />
			<input>
				<port id="0" precision="FP32">
					<dim>1</dim>
					<dim>18</dim>
					<dim>16</dim>
					<dim>16</dim>
				</port>
				<port id="1" precision="FP32">
					<dim>1</dim>
					<dim>18</dim>
					<dim>1</dim>
					<dim>1</dim>
				</port>
			</input>
			<output>
				<port id="2" precision="FP32" names="2010">
					<dim>1</dim>
					<dim>18</dim>
					<dim>16</dim>
					<dim>16</dim>
				</port>
			</output>
		</layer>
		<layer id="321" name="Add_171" type="Add" version="opset1">
			<data auto_broadcast="numpy" />
			<input>
				<port id="0" precision="FP32">
					<dim>1</dim>
					<dim>18</dim>
					<dim>16</dim>
					<dim>16</dim>
				</port>
				<port id="1" precision="FP32">
					<dim>1</dim>
					<dim>18</dim>
					<dim>16</dim>
					<dim>16</dim>
				</port>
			</input>
			<output>
				<port id="2" precision="FP32" names="2011">
					<dim>1</dim>
					<dim>18</dim>
					<dim>16</dim>
					<dim>16</dim>
				</port>
			</output>
		</layer>
		<layer id="322" name="Relu_172" type="ReLU" version="opset1">
			<input>
				<port id="0" precision="FP32">
					<dim>1</dim>
					<dim>18</dim>
					<dim>16</dim>
					<dim>16</dim>
				</port>
			</input>
			<output>
				<port id="1" precision="FP32" names="2012">
					<dim>1</dim>
					<dim>18</dim>
					<dim>16</dim>
					<dim>16</dim>
				</port>
			</output>
		</layer>
		<layer id="323" name="Multiply_41063_compressed" type="Const" version="opset1">
			<data element_type="f16" shape="18, 18, 3, 3" offset="1165932" size="5832" />
			<output>
				<port id="0" precision="FP16">
					<dim>18</dim>
					<dim>18</dim>
					<dim>3</dim>
					<dim>3</dim>
				</port>
			</output>
		</layer>
		<layer id="324" name="Multiply_41063" type="Convert" version="opset1">
			<data destination_type="f32" />
			<rt_info>
				<attribute name="decompression" version="0" />
			</rt_info>
			<input>
				<port id="0" precision="FP16">
					<dim>18</dim>
					<dim>18</dim>
					<dim>3</dim>
					<dim>3</dim>
				</port>
			</input>
			<output>
				<port id="1" precision="FP32">
					<dim>18</dim>
					<dim>18</dim>
					<dim>3</dim>
					<dim>3</dim>
				</port>
			</output>
		</layer>
		<layer id="325" name="Multiply_38951" type="Convolution" version="opset1">
			<data strides="1, 1" dilations="1, 1" pads_begin="1, 1" pads_end="1, 1" auto_pad="explicit" />
			<input>
				<port id="0" precision="FP32">
					<dim>1</dim>
					<dim>18</dim>
					<dim>16</dim>
					<dim>16</dim>
				</port>
				<port id="1" precision="FP32">
					<dim>18</dim>
					<dim>18</dim>
					<dim>3</dim>
					<dim>3</dim>
				</port>
			</input>
			<output>
				<port id="2" precision="FP32">
					<dim>1</dim>
					<dim>18</dim>
					<dim>16</dim>
					<dim>16</dim>
				</port>
			</output>
		</layer>
		<layer id="326" name="Constant_38956_compressed" type="Const" version="opset1">
			<data element_type="f16" shape="1, 18, 1, 1" offset="1171764" size="36" />
			<output>
				<port id="0" precision="FP16">
					<dim>1</dim>
					<dim>18</dim>
					<dim>1</dim>
					<dim>1</dim>
				</port>
			</output>
		</layer>
		<layer id="327" name="Constant_38956" type="Convert" version="opset1">
			<data destination_type="f32" />
			<rt_info>
				<attribute name="decompression" version="0" />
			</rt_info>
			<input>
				<port id="0" precision="FP16">
					<dim>1</dim>
					<dim>18</dim>
					<dim>1</dim>
					<dim>1</dim>
				</port>
			</input>
			<output>
				<port id="1" precision="FP32">
					<dim>1</dim>
					<dim>18</dim>
					<dim>1</dim>
					<dim>1</dim>
				</port>
			</output>
		</layer>
		<layer id="328" name="BatchNormalization_174" type="Add" version="opset1">
			<data auto_broadcast="numpy" />
			<input>
				<port id="0" precision="FP32">
					<dim>1</dim>
					<dim>18</dim>
					<dim>16</dim>
					<dim>16</dim>
				</port>
				<port id="1" precision="FP32">
					<dim>1</dim>
					<dim>18</dim>
					<dim>1</dim>
					<dim>1</dim>
				</port>
			</input>
			<output>
				<port id="2" precision="FP32" names="2014">
					<dim>1</dim>
					<dim>18</dim>
					<dim>16</dim>
					<dim>16</dim>
				</port>
			</output>
		</layer>
		<layer id="329" name="Relu_175" type="ReLU" version="opset1">
			<input>
				<port id="0" precision="FP32">
					<dim>1</dim>
					<dim>18</dim>
					<dim>16</dim>
					<dim>16</dim>
				</port>
			</input>
			<output>
				<port id="1" precision="FP32" names="2015">
					<dim>1</dim>
					<dim>18</dim>
					<dim>16</dim>
					<dim>16</dim>
				</port>
			</output>
		</layer>
		<layer id="330" name="Multiply_41069_compressed" type="Const" version="opset1">
			<data element_type="f16" shape="18, 18, 3, 3" offset="1171800" size="5832" />
			<output>
				<port id="0" precision="FP16">
					<dim>18</dim>
					<dim>18</dim>
					<dim>3</dim>
					<dim>3</dim>
				</port>
			</output>
		</layer>
		<layer id="331" name="Multiply_41069" type="Convert" version="opset1">
			<data destination_type="f32" />
			<rt_info>
				<attribute name="decompression" version="0" />
			</rt_info>
			<input>
				<port id="0" precision="FP16">
					<dim>18</dim>
					<dim>18</dim>
					<dim>3</dim>
					<dim>3</dim>
				</port>
			</input>
			<output>
				<port id="1" precision="FP32">
					<dim>18</dim>
					<dim>18</dim>
					<dim>3</dim>
					<dim>3</dim>
				</port>
			</output>
		</layer>
		<layer id="332" name="Multiply_38958" type="Convolution" version="opset1">
			<data strides="1, 1" dilations="1, 1" pads_begin="1, 1" pads_end="1, 1" auto_pad="explicit" />
			<input>
				<port id="0" precision="FP32">
					<dim>1</dim>
					<dim>18</dim>
					<dim>16</dim>
					<dim>16</dim>
				</port>
				<port id="1" precision="FP32">
					<dim>18</dim>
					<dim>18</dim>
					<dim>3</dim>
					<dim>3</dim>
				</port>
			</input>
			<output>
				<port id="2" precision="FP32">
					<dim>1</dim>
					<dim>18</dim>
					<dim>16</dim>
					<dim>16</dim>
				</port>
			</output>
		</layer>
		<layer id="333" name="Constant_38963_compressed" type="Const" version="opset1">
			<data element_type="f16" shape="1, 18, 1, 1" offset="1177632" size="36" />
			<output>
				<port id="0" precision="FP16">
					<dim>1</dim>
					<dim>18</dim>
					<dim>1</dim>
					<dim>1</dim>
				</port>
			</output>
		</layer>
		<layer id="334" name="Constant_38963" type="Convert" version="opset1">
			<data destination_type="f32" />
			<rt_info>
				<attribute name="decompression" version="0" />
			</rt_info>
			<input>
				<port id="0" precision="FP16">
					<dim>1</dim>
					<dim>18</dim>
					<dim>1</dim>
					<dim>1</dim>
				</port>
			</input>
			<output>
				<port id="1" precision="FP32">
					<dim>1</dim>
					<dim>18</dim>
					<dim>1</dim>
					<dim>1</dim>
				</port>
			</output>
		</layer>
		<layer id="335" name="BatchNormalization_177" type="Add" version="opset1">
			<data auto_broadcast="numpy" />
			<input>
				<port id="0" precision="FP32">
					<dim>1</dim>
					<dim>18</dim>
					<dim>16</dim>
					<dim>16</dim>
				</port>
				<port id="1" precision="FP32">
					<dim>1</dim>
					<dim>18</dim>
					<dim>1</dim>
					<dim>1</dim>
				</port>
			</input>
			<output>
				<port id="2" precision="FP32" names="2017">
					<dim>1</dim>
					<dim>18</dim>
					<dim>16</dim>
					<dim>16</dim>
				</port>
			</output>
		</layer>
		<layer id="336" name="Add_178" type="Add" version="opset1">
			<data auto_broadcast="numpy" />
			<input>
				<port id="0" precision="FP32">
					<dim>1</dim>
					<dim>18</dim>
					<dim>16</dim>
					<dim>16</dim>
				</port>
				<port id="1" precision="FP32">
					<dim>1</dim>
					<dim>18</dim>
					<dim>16</dim>
					<dim>16</dim>
				</port>
			</input>
			<output>
				<port id="2" precision="FP32" names="2018">
					<dim>1</dim>
					<dim>18</dim>
					<dim>16</dim>
					<dim>16</dim>
				</port>
			</output>
		</layer>
		<layer id="337" name="Relu_179" type="ReLU" version="opset1">
			<input>
				<port id="0" precision="FP32">
					<dim>1</dim>
					<dim>18</dim>
					<dim>16</dim>
					<dim>16</dim>
				</port>
			</input>
			<output>
				<port id="1" precision="FP32" names="2019,2077">
					<dim>1</dim>
					<dim>18</dim>
					<dim>16</dim>
					<dim>16</dim>
				</port>
			</output>
		</layer>
		<layer id="338" name="Multiply_41075_compressed" type="Const" version="opset1">
			<data element_type="f16" shape="36, 18, 3, 3" offset="1177668" size="11664" />
			<output>
				<port id="0" precision="FP16">
					<dim>36</dim>
					<dim>18</dim>
					<dim>3</dim>
					<dim>3</dim>
				</port>
			</output>
		</layer>
		<layer id="339" name="Multiply_41075" type="Convert" version="opset1">
			<data destination_type="f32" />
			<rt_info>
				<attribute name="decompression" version="0" />
			</rt_info>
			<input>
				<port id="0" precision="FP16">
					<dim>36</dim>
					<dim>18</dim>
					<dim>3</dim>
					<dim>3</dim>
				</port>
			</input>
			<output>
				<port id="1" precision="FP32">
					<dim>36</dim>
					<dim>18</dim>
					<dim>3</dim>
					<dim>3</dim>
				</port>
			</output>
		</layer>
		<layer id="340" name="Multiply_38965" type="Convolution" version="opset1">
			<data strides="2, 2" dilations="1, 1" pads_begin="1, 1" pads_end="1, 1" auto_pad="explicit" />
			<input>
				<port id="0" precision="FP32">
					<dim>1</dim>
					<dim>18</dim>
					<dim>16</dim>
					<dim>16</dim>
				</port>
				<port id="1" precision="FP32">
					<dim>36</dim>
…
		<edge from-layer="2505" from-port="2" to-layer="2506" to-port="0" />
		<edge from-layer="2506" from-port="1" to-layer="2508" to-port="0" />
		<edge from-layer="2507" from-port="0" to-layer="2508" to-port="1" />
		<edge from-layer="2508" from-port="2" to-layer="2509" to-port="1" />
		<edge from-layer="2509" from-port="2" to-layer="2510" to-port="0" />
		<edge from-layer="2510" from-port="1" to-layer="2511" to-port="1" />
		<edge from-layer="2511" from-port="2" to-layer="2512" to-port="1" />
		<edge from-layer="2512" from-port="2" to-layer="2513" to-port="1" />
		<edge from-layer="2513" from-port="2" to-layer="2547" to-port="0" />
		<edge from-layer="2514" from-port="0" to-layer="2515" to-port="0" />
		<edge from-layer="2515" from-port="1" to-layer="2516" to-port="1" />
		<edge from-layer="2516" from-port="2" to-layer="2519" to-port="0" />
		<edge from-layer="2517" from-port="0" to-layer="2518" to-port="0" />
		<edge from-layer="2518" from-port="1" to-layer="2519" to-port="1" />
		<edge from-layer="2519" from-port="2" to-layer="2546" to-port="0" />
		<edge from-layer="2519" from-port="2" to-layer="2520" to-port="0" />
		<edge from-layer="2520" from-port="1" to-layer="2536" to-port="0" />
		<edge from-layer="2520" from-port="1" to-layer="2527" to-port="0" />
		<edge from-layer="2520" from-port="1" to-layer="2524" to-port="0" />
		<edge from-layer="2521" from-port="0" to-layer="2524" to-port="1" />
		<edge from-layer="2522" from-port="0" to-layer="2524" to-port="2" />
		<edge from-layer="2523" from-port="0" to-layer="2524" to-port="3" />
		<edge from-layer="2524" from-port="4" to-layer="2545" to-port="0" />
		<edge from-layer="2525" from-port="0" to-layer="2527" to-port="1" />
		<edge from-layer="2526" from-port="0" to-layer="2527" to-port="2" />
		<edge from-layer="2527" from-port="3" to-layer="2528" to-port="0" />
		<edge from-layer="2528" from-port="1" to-layer="2530" to-port="0" />
		<edge from-layer="2529" from-port="0" to-layer="2530" to-port="1" />
		<edge from-layer="2530" from-port="2" to-layer="2531" to-port="0" />
		<edge from-layer="2531" from-port="1" to-layer="2533" to-port="0" />
		<edge from-layer="2532" from-port="0" to-layer="2533" to-port="1" />
		<edge from-layer="2533" from-port="2" to-layer="2543" to-port="0" />
		<edge from-layer="2534" from-port="0" to-layer="2536" to-port="1" />
		<edge from-layer="2535" from-port="0" to-layer="2536" to-port="2" />
		<edge from-layer="2536" from-port="3" to-layer="2537" to-port="0" />
		<edge from-layer="2537" from-port="1" to-layer="2539" to-port="0" />
		<edge from-layer="2538" from-port="0" to-layer="2539" to-port="1" />
		<edge from-layer="2539" from-port="2" to-layer="2540" to-port="0" />
		<edge from-layer="2540" from-port="1" to-layer="2542" to-port="0" />
		<edge from-layer="2541" from-port="0" to-layer="2542" to-port="1" />
		<edge from-layer="2542" from-port="2" to-layer="2543" to-port="1" />
		<edge from-layer="2543" from-port="2" to-layer="2544" to-port="0" />
		<edge from-layer="2544" from-port="1" to-layer="2545" to-port="1" />
		<edge from-layer="2545" from-port="2" to-layer="2546" to-port="1" />
		<edge from-layer="2546" from-port="2" to-layer="2547" to-port="1" />
		<edge from-layer="2547" from-port="2" to-layer="2548" to-port="0" />
		<edge from-layer="2548" from-port="1" to-layer="2551" to-port="0" />
		<edge from-layer="2548" from-port="1" to-layer="2562" to-port="1" />
		<edge from-layer="2549" from-port="0" to-layer="2550" to-port="0" />
		<edge from-layer="2550" from-port="1" to-layer="2551" to-port="1" />
		<edge from-layer="2551" from-port="2" to-layer="2554" to-port="0" />
		<edge from-layer="2552" from-port="0" to-layer="2553" to-port="0" />
		<edge from-layer="2553" from-port="1" to-layer="2554" to-port="1" />
		<edge from-layer="2554" from-port="2" to-layer="2555" to-port="0" />
		<edge from-layer="2555" from-port="1" to-layer="2558" to-port="0" />
		<edge from-layer="2556" from-port="0" to-layer="2557" to-port="0" />
		<edge from-layer="2557" from-port="1" to-layer="2558" to-port="1" />
		<edge from-layer="2558" from-port="2" to-layer="2561" to-port="0" />
		<edge from-layer="2559" from-port="0" to-layer="2560" to-port="0" />
		<edge from-layer="2560" from-port="1" to-layer="2561" to-port="1" />
		<edge from-layer="2561" from-port="2" to-layer="2562" to-port="0" />
		<edge from-layer="2562" from-port="2" to-layer="2563" to-port="0" />
		<edge from-layer="2563" from-port="1" to-layer="2566" to-port="0" />
		<edge from-layer="2563" from-port="1" to-layer="2577" to-port="1" />
		<edge from-layer="2564" from-port="0" to-layer="2565" to-port="0" />
		<edge from-layer="2565" from-port="1" to-layer="2566" to-port="1" />
		<edge from-layer="2566" from-port="2" to-layer="2569" to-port="0" />
		<edge from-layer="2567" from-port="0" to-layer="2568" to-port="0" />
		<edge from-layer="2568" from-port="1" to-layer="2569" to-port="1" />
		<edge from-layer="2569" from-port="2" to-layer="2570" to-port="0" />
		<edge from-layer="2570" from-port="1" to-layer="2573" to-port="0" />
		<edge from-layer="2571" from-port="0" to-layer="2572" to-port="0" />
		<edge from-layer="2572" from-port="1" to-layer="2573" to-port="1" />
		<edge from-layer="2573" from-port="2" to-layer="2576" to-port="0" />
		<edge from-layer="2574" from-port="0" to-layer="2575" to-port="0" />
		<edge from-layer="2575" from-port="1" to-layer="2576" to-port="1" />
		<edge from-layer="2576" from-port="2" to-layer="2577" to-port="0" />
		<edge from-layer="2577" from-port="2" to-layer="2578" to-port="0" />
		<edge from-layer="2578" from-port="1" to-layer="2581" to-port="0" />
		<edge from-layer="2578" from-port="1" to-layer="2592" to-port="1" />
		<edge from-layer="2579" from-port="0" to-layer="2580" to-port="0" />
		<edge from-layer="2580" from-port="1" to-layer="2581" to-port="1" />
		<edge from-layer="2581" from-port="2" to-layer="2584" to-port="0" />
		<edge from-layer="2582" from-port="0" to-layer="2583" to-port="0" />
		<edge from-layer="2583" from-port="1" to-layer="2584" to-port="1" />
		<edge from-layer="2584" from-port="2" to-layer="2585" to-port="0" />
		<edge from-layer="2585" from-port="1" to-layer="2588" to-port="0" />
		<edge from-layer="2586" from-port="0" to-layer="2587" to-port="0" />
		<edge from-layer="2587" from-port="1" to-layer="2588" to-port="1" />
		<edge from-layer="2588" from-port="2" to-layer="2591" to-port="0" />
		<edge from-layer="2589" from-port="0" to-layer="2590" to-port="0" />
		<edge from-layer="2590" from-port="1" to-layer="2591" to-port="1" />
		<edge from-layer="2591" from-port="2" to-layer="2592" to-port="0" />
		<edge from-layer="2592" from-port="2" to-layer="2593" to-port="0" />
		<edge from-layer="2593" from-port="1" to-layer="2596" to-port="0" />
		<edge from-layer="2593" from-port="1" to-layer="2607" to-port="1" />
		<edge from-layer="2594" from-port="0" to-layer="2595" to-port="0" />
		<edge from-layer="2595" from-port="1" to-layer="2596" to-port="1" />
		<edge from-layer="2596" from-port="2" to-layer="2599" to-port="0" />
		<edge from-layer="2597" from-port="0" to-layer="2598" to-port="0" />
		<edge from-layer="2598" from-port="1" to-layer="2599" to-port="1" />
		<edge from-layer="2599" from-port="2" to-layer="2600" to-port="0" />
		<edge from-layer="2600" from-port="1" to-layer="2603" to-port="0" />
		<edge from-layer="2601" from-port="0" to-layer="2602" to-port="0" />
		<edge from-layer="2602" from-port="1" to-layer="2603" to-port="1" />
		<edge from-layer="2603" from-port="2" to-layer="2606" to-port="0" />
		<edge from-layer="2604" from-port="0" to-layer="2605" to-port="0" />
		<edge from-layer="2605" from-port="1" to-layer="2606" to-port="1" />
		<edge from-layer="2606" from-port="2" to-layer="2607" to-port="0" />
		<edge from-layer="2607" from-port="2" to-layer="2608" to-port="0" />
		<edge from-layer="2608" from-port="1" to-layer="3109" to-port="0" />
		<edge from-layer="2608" from-port="1" to-layer="3038" to-port="0" />
		<edge from-layer="2608" from-port="1" to-layer="2945" to-port="1" />
		<edge from-layer="2608" from-port="1" to-layer="2611" to-port="0" />
		<edge from-layer="2609" from-port="0" to-layer="2610" to-port="0" />
		<edge from-layer="2610" from-port="1" to-layer="2611" to-port="1" />
		<edge from-layer="2611" from-port="2" to-layer="2614" to-port="0" />
		<edge from-layer="2612" from-port="0" to-layer="2613" to-port="0" />
		<edge from-layer="2613" from-port="1" to-layer="2614" to-port="1" />
		<edge from-layer="2614" from-port="2" to-layer="2615" to-port="0" />
		<edge from-layer="2614" from-port="2" to-layer="2641" to-port="0" />
		<edge from-layer="2615" from-port="1" to-layer="2619" to-port="0" />
		<edge from-layer="2615" from-port="1" to-layer="2622" to-port="0" />
		<edge from-layer="2615" from-port="1" to-layer="2631" to-port="0" />
		<edge from-layer="2616" from-port="0" to-layer="2619" to-port="1" />
		<edge from-layer="2617" from-port="0" to-layer="2619" to-port="2" />
		<edge from-layer="2618" from-port="0" to-layer="2619" to-port="3" />
		<edge from-layer="2619" from-port="4" to-layer="2640" to-port="0" />
		<edge from-layer="2620" from-port="0" to-layer="2622" to-port="1" />
		<edge from-layer="2621" from-port="0" to-layer="2622" to-port="2" />
		<edge from-layer="2622" from-port="3" to-layer="2623" to-port="0" />
		<edge from-layer="2623" from-port="1" to-layer="2625" to-port="0" />
		<edge from-layer="2624" from-port="0" to-layer="2625" to-port="1" />
		<edge from-layer="2625" from-port="2" to-layer="2626" to-port="0" />
		<edge from-layer="2626" from-port="1" to-layer="2628" to-port="0" />
		<edge from-layer="2627" from-port="0" to-layer="2628" to-port="1" />
		<edge from-layer="2628" from-port="2" to-layer="2638" to-port="0" />
		<edge from-layer="2629" from-port="0" to-layer="2631" to-port="1" />
		<edge from-layer="2630" from-port="0" to-layer="2631" to-port="2" />
		<edge from-layer="2631" from-port="3" to-layer="2632" to-port="0" />
		<edge from-layer="2632" from-port="1" to-layer="2634" to-port="0" />
		<edge from-layer="2633" from-port="0" to-layer="2634" to-port="1" />
		<edge from-layer="2634" from-port="2" to-layer="2635" to-port="0" />
		<edge from-layer="2635" from-port="1" to-layer="2637" to-port="0" />
		<edge from-layer="2636" from-port="0" to-layer="2637" to-port="1" />
		<edge from-layer="2637" from-port="2" to-layer="2638" to-port="1" />
		<edge from-layer="2638" from-port="2" to-layer="2639" to-port="0" />
		<edge from-layer="2639" from-port="1" to-layer="2640" to-port="1" />
		<edge from-layer="2640" from-port="2" to-layer="2641" to-port="1" />
		<edge from-layer="2641" from-port="2" to-layer="2642" to-port="1" />
		<edge from-layer="2642" from-port="2" to-layer="2792" to-port="0" />
		<edge from-layer="2643" from-port="0" to-layer="2644" to-port="0" />
		<edge from-layer="2644" from-port="1" to-layer="2645" to-port="1" />
		<edge from-layer="2645" from-port="2" to-layer="2648" to-port="0" />
		<edge from-layer="2646" from-port="0" to-layer="2647" to-port="0" />
		<edge from-layer="2647" from-port="1" to-layer="2648" to-port="1" />
		<edge from-layer="2648" from-port="2" to-layer="2649" to-port="0" />
		<edge from-layer="2649" from-port="1" to-layer="2652" to-port="0" />
		<edge from-layer="2650" from-port="0" to-layer="2651" to-port="0" />
		<edge from-layer="2651" from-port="1" to-layer="2652" to-port="1" />
		<edge from-layer="2652" from-port="2" to-layer="2655" to-port="0" />
		<edge from-layer="2653" from-port="0" to-layer="2654" to-port="0" />
		<edge from-layer="2654" from-port="1" to-layer="2655" to-port="1" />
		<edge from-layer="2655" from-port="2" to-layer="2662" to-port="0" />
		<edge from-layer="2656" from-port="0" to-layer="2657" to-port="0" />
		<edge from-layer="2657" from-port="1" to-layer="2658" to-port="1" />
		<edge from-layer="2658" from-port="2" to-layer="2661" to-port="0" />
		<edge from-layer="2659" from-port="0" to-layer="2660" to-port="0" />
		<edge from-layer="2660" from-port="1" to-layer="2661" to-port="1" />
		<edge from-layer="2661" from-port="2" to-layer="2662" to-port="1" />
		<edge from-layer="2662" from-port="2" to-layer="2663" to-port="0" />
		<edge from-layer="2663" from-port="2" to-layer="2697" to-port="0" />
		<edge from-layer="2664" from-port="0" to-layer="2665" to-port="0" />
		<edge from-layer="2665" from-port="1" to-layer="2666" to-port="1" />
		<edge from-layer="2666" from-port="2" to-layer="2669" to-port="0" />
		<edge from-layer="2667" from-port="0" to-layer="2668" to-port="0" />
		<edge from-layer="2668" from-port="1" to-layer="2669" to-port="1" />
		<edge from-layer="2669" from-port="2" to-layer="2670" to-port="0" />
		<edge from-layer="2669" from-port="2" to-layer="2696" to-port="0" />
		<edge from-layer="2670" from-port="1" to-layer="2686" to-port="0" />
		<edge from-layer="2670" from-port="1" to-layer="2674" to-port="0" />
		<edge from-layer="2670" from-port="1" to-layer="2677" to-port="0" />
		<edge from-layer="2671" from-port="0" to-layer="2674" to-port="1" />
		<edge from-layer="2672" from-port="0" to-layer="2674" to-port="2" />
		<edge from-layer="2673" from-port="0" to-layer="2674" to-port="3" />
		<edge from-layer="2674" from-port="4" to-layer="2695" to-port="0" />
		<edge from-layer="2675" from-port="0" to-layer="2677" to-port="1" />
		<edge from-layer="2676" from-port="0" to-layer="2677" to-port="2" />
		<edge from-layer="2677" from-port="3" to-layer="2678" to-port="0" />
		<edge from-layer="2678" from-port="1" to-layer="2680" to-port="0" />
		<edge from-layer="2679" from-port="0" to-layer="2680" to-port="1" />
		<edge from-layer="2680" from-port="2" to-layer="2681" to-port="0" />
		<edge from-layer="2681" from-port="1" to-layer="2683" to-port="0" />
		<edge from-layer="2682" from-port="0" to-layer="2683" to-port="1" />
		<edge from-layer="2683" from-port="2" to-layer="2693" to-port="0" />
		<edge from-layer="2684" from-port="0" to-layer="2686" to-port="1" />
		<edge from-layer="2685" from-port="0" to-layer="2686" to-port="2" />
		<edge from-layer="2686" from-port="3" to-layer="2687" to-port="0" />
		<edge from-layer="2687" from-port="1" to-layer="2689" to-port="0" />
		<edge from-layer="2688" from-port="0" to-layer="2689" to-port="1" />
		<edge from-layer="2689" from-port="2" to-layer="2690" to-port="0" />
		<edge from-layer="2690" from-port="1" to-layer="2692" to-port="0" />
		<edge from-layer="2691" from-port="0" to-layer="2692" to-port="1" />
		<edge from-layer="2692" from-port="2" to-layer="2693" to-port="1" />
		<edge from-layer="2693" from-port="2" to-layer="2694" to-port="0" />
		<edge from-layer="2694" from-port="1" to-layer="2695" to-port="1" />
		<edge from-layer="2695" from-port="2" to-layer="2696" to-port="1" />
		<edge from-layer="2696" from-port="2" to-layer="2697" to-port="1" />
		<edge from-layer="2697" from-port="2" to-layer="2698" to-port="0" />
		<edge from-layer="2698" from-port="1" to-layer="2701" to-port="0" />
		<edge from-layer="2698" from-port="1" to-layer="2712" to-port="1" />
		<edge from-layer="2699" from-port="0" to-layer="2700" to-port="0" />
		<edge from-layer="2700" from-port="1" to-layer="2701" to-port="1" />
		<edge from-layer="2701" from-port="2" to-layer="2704" to-port="0" />
		<edge from-layer="2702" from-port="0" to-layer="2703" to-port="0" />
		<edge from-layer="2703" from-port="1" to-layer="2704" to-port="1" />
		<edge from-layer="2704" from-port="2" to-layer="2705" to-port="0" />
		<edge from-layer="2705" from-port="1" to-layer="2708" to-port="0" />
		<edge from-layer="2706" from-port="0" to-layer="2707" to-port="0" />
		<edge from-layer="2707" from-port="1" to-layer="2708" to-port="1" />
		<edge from-layer="2708" from-port="2" to-layer="2711" to-port="0" />
		<edge from-layer="2709" from-port="0" to-layer="2710" to-port="0" />
		<edge from-layer="2710" from-port="1" to-layer="2711" to-port="1" />
		<edge from-layer="2711" from-port="2" to-layer="2712" to-port="0" />
		<edge from-layer="2712" from-port="2" to-layer="2713" to-port="0" />
		<edge from-layer="2713" from-port="1" to-layer="2727" to-port="1" />
		<edge from-layer="2713" from-port="1" to-layer="2716" to-port="0" />
		<edge from-layer="2714" from-port="0" to-layer="2715" to-port="0" />
		<edge from-layer="2715" from-port="1" to-layer="2716" to-port="1" />
		<edge from-layer="2716" from-port="2" to-layer="2719" to-port="0" />
		<edge from-layer="2717" from-port="0" to-layer="2718" to-port="0" />
		<edge from-layer="2718" from-port="1" to-layer="2719" to-port="1" />
		<edge from-layer="2719" from-port="2" to-layer="2720" to-port="0" />
		<edge from-layer="2720" from-port="1" to-layer="2723" to-port="0" />
		<edge from-layer="2721" from-port="0" to-layer="2722" to-port="0" />
		<edge from-layer="2722" from-port="1" to-layer="2723" to-port="1" />
		<edge from-layer="2723" from-port="2" to-layer="2726" to-port="0" />
		<edge from-layer="2724" from-port="0" to-layer="2725" to-port="0" />
		<edge from-layer="2725" from-port="1" to-layer="2726" to-port="1" />
		<edge from-layer="2726" from-port="2" to-layer="2727" to-port="0" />
		<edge from-layer="2727" from-port="2" to-layer="2728" to-port="0" />
		<edge from-layer="2728" from-port="1" to-layer="2742" to-port="1" />
		<edge from-layer="2728" from-port="1" to-layer="2731" to-port="0" />
		<edge from-layer="2729" from-port="0" to-layer="2730" to-port="0" />
		<edge from-layer="2730" from-port="1" to-layer="2731" to-port="1" />
		<edge from-layer="2731" from-port="2" to-layer="2734" to-port="0" />
		<edge from-layer="2732" from-port="0" to-layer="2733" to-port="0" />
		<edge from-layer="2733" from-port="1" to-layer="2734" to-port="1" />
		<edge from-layer="2734" from-port="2" to-layer="2735" to-port="0" />
		<edge from-layer="2735" from-port="1" to-layer="2738" to-port="0" />
		<edge from-layer="2736" from-port="0" to-layer="2737" to-port="0" />
		<edge from-layer="2737" from-port="1" to-layer="2738" to-port="1" />
		<edge from-layer="2738" from-port="2" to-layer="2741" to-port="0" />
		<edge from-layer="2739" from-port="0" to-layer="2740" to-port="0" />
		<edge from-layer="2740" from-port="1" to-layer="2741" to-port="1" />
		<edge from-layer="2741" from-port="2" to-layer="2742" to-port="0" />
		<edge from-layer="2742" from-port="2" to-layer="2743" to-port="0" />
		<edge from-layer="2743" from-port="1" to-layer="2746" to-port="0" />
		<edge from-layer="2743" from-port="1" to-layer="2757" to-port="1" />
		<edge from-layer="2744" from-port="0" to-layer="2745" to-port="0" />
		<edge from-layer="2745" from-port="1" to-layer="2746" to-port="1" />
		<edge from-layer="2746" from-port="2" to-layer="2749" to-port="0" />
		<edge from-layer="2747" from-port="0" to-layer="2748" to-port="0" />
		<edge from-layer="2748" from-port="1" to-layer="2749" to-port="1" />
		<edge from-layer="2749" from-port="2" to-layer="2750" to-port="0" />
		<edge from-layer="2750" from-port="1" to-layer="2753" to-port="0" />
		<edge from-layer="2751" from-port="0" to-layer="2752" to-port="0" />
		<edge from-layer="2752" from-port="1" to-layer="2753" to-port="1" />
		<edge from-layer="2753" from-port="2" to-layer="2756" to-port="0" />
		<edge from-layer="2754" from-port="0" to-layer="2755" to-port="0" />
		<edge from-layer="2755" from-port="1" to-layer="2756" to-port="1" />
		<edge from-layer="2756" from-port="2" to-layer="2757" to-port="0" />
		<edge from-layer="2757" from-port="2" to-layer="2758" to-port="0" />
		<edge from-layer="2758" from-port="1" to-layer="2948" to-port="0" />
		<edge from-layer="2758" from-port="1" to-layer="2761" to-port="0" />
		<edge from-layer="2758" from-port="1" to-layer="3123" to-port="0" />
		<edge from-layer="2758" from-port="1" to-layer="3043" to-port="1" />
		<edge from-layer="2759" from-port="0" to-layer="2760" to-port="0" />
		<edge from-layer="2760" from-port="1" to-layer="2761" to-port="1" />
		<edge from-layer="2761" from-port="2" to-layer="2764" to-port="0" />
		<edge from-layer="2762" from-port="0" to-layer="2763" to-port="0" />
		<edge from-layer="2763" from-port="1" to-layer="2764" to-port="1" />
		<edge from-layer="2764" from-port="2" to-layer="2791" to-port="0" />
		<edge from-layer="2764" from-port="2" to-layer="2765" to-port="0" />
		<edge from-layer="2765" from-port="1" to-layer="2769" to-port="0" />
		<edge from-layer="2765" from-port="1" to-layer="2781" to-port="0" />
		<edge from-layer="2765" from-port="1" to-layer="2772" to-port="0" />
		<edge from-layer="2766" from-port="0" to-layer="2769" to-port="1" />
		<edge from-layer="2767" from-port="0" to-layer="2769" to-port="2" />
		<edge from-layer="2768" from-port="0" to-layer="2769" to-port="3" />
		<edge from-layer="2769" from-port="4" to-layer="2790" to-port="0" />
		<edge from-layer="2770" from-port="0" to-layer="2772" to-port="1" />
		<edge from-layer="2771" from-port="0" to-layer="2772" to-port="2" />
		<edge from-layer="2772" from-port="3" to-layer="2773" to-port="0" />
		<edge from-layer="2773" from-port="1" to-layer="2775" to-port="0" />
		<edge from-layer="2774" from-port="0" to-layer="2775" to-port="1" />
		<edge from-layer="2775" from-port="2" to-layer="2776" to-port="0" />
		<edge from-layer="2776" from-port="1" to-layer="2778" to-port="0" />
		<edge from-layer="2777" from-port="0" to-layer="2778" to-port="1" />
		<edge from-layer="2778" from-port="2" to-layer="2788" to-port="0" />
		<edge from-layer="2779" from-port="0" to-layer="2781" to-port="1" />
		<edge from-layer="2780" from-port="0" to-layer="2781" to-port="2" />
		<edge from-layer="2781" from-port="3" to-layer="2782" to-port="0" />
		<edge from-layer="2782" from-port="1" to-layer="2784" to-port="0" />
		<edge from-layer="2783" from-port="0" to-layer="2784" to-port="1" />
		<edge from-layer="2784" from-port="2" to-layer="2785" to-port="0" />
		<edge from-layer="2785" from-port="1" to-layer="2787" to-port="0" />
		<edge from-layer="2786" from-port="0" to-layer="2787" to-port="1" />
		<edge from-layer="2787" from-port="2" to-layer="2788" to-port="1" />
		<edge from-layer="2788" from-port="2" to-layer="2789" to-port="0" />
		<edge from-layer="2789" from-port="1" to-layer="2790" to-port="1" />
		<edge from-layer="2790" from-port="2" to-layer="2791" to-port="1" />
		<edge from-layer="2791" from-port="2" to-layer="2792" to-port="1" />
		<edge from-layer="2792" from-port="2" to-layer="2929" to-port="0" />
		<edge from-layer="2793" from-port="0" to-layer="2794" to-port="0" />
		<edge from-layer="2794" from-port="1" to-layer="2795" to-port="1" />
		<edge from-layer="2795" from-port="2" to-layer="2798" to-port="0" />
		<edge from-layer="2796" from-port="0" to-layer="2797" to-port="0" />
		<edge from-layer="2797" from-port="1" to-layer="2798" to-port="1" />
		<edge from-layer="2798" from-port="2" to-layer="2799" to-port="0" />
		<edge from-layer="2799" from-port="1" to-layer="2802" to-port="0" />
		<edge from-layer="2800" from-port="0" to-layer="2801" to-port="0" />
		<edge from-layer="2801" from-port="1" to-layer="2802" to-port="1" />
		<edge from-layer="2802" from-port="2" to-layer="2805" to-port="0" />
		<edge from-layer="2803" from-port="0" to-layer="2804" to-port="0" />
		<edge from-layer="2804" from-port="1" to-layer="2805" to-port="1" />
		<edge from-layer="2805" from-port="2" to-layer="2806" to-port="0" />
		<edge from-layer="2806" from-port="1" to-layer="2809" to-port="0" />
		<edge from-layer="2807" from-port="0" to-layer="2808" to-port="0" />
		<edge from-layer="2808" from-port="1" to-layer="2809" to-port="1" />
		<edge from-layer="2809" from-port="2" to-layer="2812" to-port="0" />
		<edge from-layer="2810" from-port="0" to-layer="2811" to-port="0" />
		<edge from-layer="2811" from-port="1" to-layer="2812" to-port="1" />
		<edge from-layer="2812" from-port="2" to-layer="2826" to-port="0" />
		<edge from-layer="2813" from-port="0" to-layer="2814" to-port="0" />
		<edge from-layer="2814" from-port="1" to-layer="2815" to-port="1" />
		<edge from-layer="2815" from-port="2" to-layer="2818" to-port="0" />
		<edge from-layer="2816" from-port="0" to-layer="2817" to-port="0" />
		<edge from-layer="2817" from-port="1" to-layer="2818" to-port="1" />
		<edge from-layer="2818" from-port="2" to-layer="2819" to-port="0" />
		<edge from-layer="2819" from-port="1" to-layer="2822" to-port="0" />
		<edge from-layer="2820" from-port="0" to-layer="2821" to-port="0" />
		<edge from-layer="2821" from-port="1" to-layer="2822" to-port="1" />
		<edge from-layer="2822" from-port="2" to-layer="2825" to-port="0" />
		<edge from-layer="2823" from-port="0" to-layer="2824" to-port="0" />
		<edge from-layer="2824" from-port="1" to-layer="2825" to-port="1" />
		<edge from-layer="2825" from-port="2" to-layer="2826" to-port="1" />
		<edge from-layer="2826" from-port="2" to-layer="2833" to-port="0" />
		<edge from-layer="2827" from-port="0" to-layer="2828" to-port="0" />
		<edge from-layer="2828" from-port="1" to-layer="2829" to-port="1" />
		<edge from-layer="2829" from-port="2" to-layer="2832" to-port="0" />
		<edge from-layer="2830" from-port="0" to-layer="2831" to-port="0" />
		<edge from-layer="2831" from-port="1" to-layer="2832" to-port="1" />
		<edge from-layer="2832" from-port="2" to-layer="2833" to-port="1" />
		<edge from-layer="2833" from-port="2" to-layer="2834" to-port="0" />
		<edge from-layer="2834" from-port="2" to-layer="2835" to-port="0" />
		<edge from-layer="2835" from-port="1" to-layer="2838" to-port="0" />
		<edge from-layer="2835" from-port="1" to-layer="2849" to-port="1" />
		<edge from-layer="2836" from-port="0" to-layer="2837" to-port="0" />
		<edge from-layer="2837" from-port="1" to-layer="2838" to-port="1" />
		<edge from-layer="2838" from-port="2" to-layer="2841" to-port="0" />
		<edge from-layer="2839" from-port="0" to-layer="2840" to-port="0" />
		<edge from-layer="2840" from-port="1" to-layer="2841" to-port="1" />
		<edge from-layer="2841" from-port="2" to-layer="2842" to-port="0" />
		<edge from-layer="2842" from-port="1" to-layer="2845" to-port="0" />
		<edge from-layer="2843" from-port="0" to-layer="2844" to-port="0" />
		<edge from-layer="2844" from-port="1" to-layer="2845" to-port="1" />
		<edge from-layer="2845" from-port="2" to-layer="2848" to-port="0" />
		<edge from-layer="2846" from-port="0" to-layer="2847" to-port="0" />
		<edge from-layer="2847" from-port="1" to-layer="2848" to-port="1" />
		<edge from-layer="2848" from-port="2" to-layer="2849" to-port="0" />
		<edge from-layer="2849" from-port="2" to-layer="2850" to-port="0" />
		<edge from-layer="2850" from-port="1" to-layer="2853" to-port="0" />
		<edge from-layer="2850" from-port="1" to-layer="2864" to-port="1" />
		<edge from-layer="2851" from-port="0" to-layer="2852" to-port="0" />
		<edge from-layer="2852" from-port="1" to-layer="2853" to-port="1" />
		<edge from-layer="2853" from-port="2" to-layer="2856" to-port="0" />
		<edge from-layer="2854" from-port="0" to-layer="2855" to-port="0" />
		<edge from-layer="2855" from-port="1" to-layer="2856" to-port="1" />
		<edge from-layer="2856" from-port="2" to-layer="2857" to-port="0" />
		<edge from-layer="2857" from-port="1" to-layer="2860" to-port="0" />
		<edge from-layer="2858" from-port="0" to-layer="2859" to-port="0" />
		<edge from-layer="2859" from-port="1" to-layer="2860" to-port="1" />
		<edge from-layer="2860" from-port="2" to-layer="2863" to-port="0" />
		<edge from-layer="2861" from-port="0" to-layer="2862" to-port="0" />
		<edge from-layer="2862" from-port="1" to-layer="2863" to-port="1" />
		<edge from-layer="2863" from-port="2" to-layer="2864" to-port="0" />
		<edge from-layer="2864" from-port="2" to-layer="2865" to-port="0" />
		<edge from-layer="2865" from-port="1" to-layer="2879" to-port="1" />
		<edge from-layer="2865" from-port="1" to-layer="2868" to-port="0" />
		<edge from-layer="2866" from-port="0" to-layer="2867" to-port="0" />
		<edge from-layer="2867" from-port="1" to-layer="2868" to-port="1" />
		<edge from-layer="2868" from-port="2" to-layer="2871" to-port="0" />
		<edge from-layer="2869" from-port="0" to-layer="2870" to-port="0" />
		<edge from-layer="2870" from-port="1" to-layer="2871" to-port="1" />
		<edge from-layer="2871" from-port="2" to-layer="2872" to-port="0" />
		<edge from-layer="2872" from-port="1" to-layer="2875" to-port="0" />
		<edge from-layer="2873" from-port="0" to-layer="2874" to-port="0" />
		<edge from-layer="2874" from-port="1" to-layer="2875" to-port="1" />
		<edge from-layer="2875" from-port="2" to-layer="2878" to-port="0" />
		<edge from-layer="2876" from-port="0" to-layer="2877" to-port="0" />
		<edge from-layer="2877" from-port="1" to-layer="2878" to-port="1" />
		<edge from-layer="2878" from-port="2" to-layer="2879" to-port="0" />
		<edge from-layer="2879" from-port="2" to-layer="2880" to-port="0" />
		<edge from-layer="2880" from-port="1" to-layer="2883" to-port="0" />
		<edge from-layer="2880" from-port="1" to-layer="2894" to-port="1" />
		<edge from-layer="2881" from-port="0" to-layer="2882" to-port="0" />
		<edge from-layer="2882" from-port="1" to-layer="2883" to-port="1" />
		<edge from-layer="2883" from-port="2" to-layer="2886" to-port="0" />
		<edge from-layer="2884" from-port="0" to-layer="2885" to-port="0" />
		<edge from-layer="2885" from-port="1" to-layer="2886" to-port="1" />
		<edge from-layer="2886" from-port="2" to-layer="2887" to-port="0" />
		<edge from-layer="2887" from-port="1" to-layer="2890" to-port="0" />
		<edge from-layer="2888" from-port="0" to-layer="2889" to-port="0" />
		<edge from-layer="2889" from-port="1" to-layer="2890" to-port="1" />
		<edge from-layer="2890" from-port="2" to-layer="2893" to-port="0" />
		<edge from-layer="2891" from-port="0" to-layer="2892" to-port="0" />
		<edge from-layer="2892" from-port="1" to-layer="2893" to-port="1" />
		<edge from-layer="2893" from-port="2" to-layer="2894" to-port="0" />
		<edge from-layer="2894" from-port="2" to-layer="2895" to-port="0" />
		<edge from-layer="2895" from-port="1" to-layer="2898" to-port="0" />
		<edge from-layer="2895" from-port="1" to-layer="3128" to-port="1" />
		<edge from-layer="2895" from-port="1" to-layer="3046" to-port="0" />
		<edge from-layer="2895" from-port="1" to-layer="2982" to-port="0" />
		<edge from-layer="2896" from-port="0" to-layer="2897" to-port="0" />
		<edge from-layer="2897" from-port="1" to-layer="2898" to-port="1" />
		<edge from-layer="2898" from-port="2" to-layer="2901" to-port="0" />
		<edge from-layer="2899" from-port="0" to-layer="2900" to-port="0" />
		<edge from-layer="2900" from-port="1" to-layer="2901" to-port="1" />
		<edge from-layer="2901" from-port="2" to-layer="2928" to-port="0" />
		<edge from-layer="2901" from-port="2" to-layer="2902" to-port="0" />
		<edge from-layer="2902" from-port="1" to-layer="2918" to-port="0" />
		<edge from-layer="2902" from-port="1" to-layer="2906" to-port="0" />
		<edge from-layer="2902" from-port="1" to-layer="2909" to-port="0" />
		<edge from-layer="2903" from-port="0" to-layer="2906" to-port="1" />
		<edge from-layer="2904" from-port="0" to-layer="2906" to-port="2" />
		<edge from-layer="2905" from-port="0" to-layer="2906" to-port="3" />
		<edge from-layer="2906" from-port="4" to-layer="2927" to-port="0" />
		<edge from-layer="2907" from-port="0" to-layer="2909" to-port="1" />
		<edge from-layer="2908" from-port="0" to-layer="2909" to-port="2" />
		<edge from-layer="2909" from-port="3" to-layer="2910" to-port="0" />
		<edge from-layer="2910" from-port="1" to-layer="2912" to-port="0" />
		<edge from-layer="2911" from-port="0" to-layer="2912" to-port="1" />
		<edge from-layer="2912" from-port="2" to-layer="2913" to-port="0" />
		<edge from-layer="2913" from-port="1" to-layer="2915" to-port="0" />
		<edge from-layer="2914" from-port="0" to-layer="2915" to-port="1" />
		<edge from-layer="2915" from-port="2" to-layer="2925" to-port="0" />
		<edge from-layer="2916" from-port="0" to-layer="2918" to-port="1" />
		<edge from-layer="2917" from-port="0" to-layer="2918" to-port="2" />
		<edge from-layer="2918" from-port="3" to-layer="2919" to-port="0" />
		<edge from-layer="2919" from-port="1" to-layer="2921" to-port="0" />
		<edge from-layer="2920" from-port="0" to-layer="2921" to-port="1" />
		<edge from-layer="2921" from-port="2" to-layer="2922" to-port="0" />
		<edge from-layer="2922" from-port="1" to-layer="2924" to-port="0" />
		<edge from-layer="2923" from-port="0" to-layer="2924" to-port="1" />
		<edge from-layer="2924" from-port="2" to-layer="2925" to-port="1" />
		<edge from-layer="2925" from-port="2" to-layer="2926" to-port="0" />
		<edge from-layer="2926" from-port="1" to-layer="2927" to-port="1" />
		<edge from-layer="2927" from-port="2" to-layer="2928" to-port="1" />
		<edge from-layer="2928" from-port="2" to-layer="2929" to-port="1" />
		<edge from-layer="2929" from-port="2" to-layer="2930" to-port="0" />
		<edge from-layer="2930" from-port="1" to-layer="2938" to-port="0" />
		<edge from-layer="2930" from-port="1" to-layer="2931" to-port="0" />
		<edge from-layer="2931" from-port="1" to-layer="2935" to-port="0" />
		<edge from-layer="2932" from-port="0" to-layer="2935" to-port="1" />
		<edge from-layer="2933" from-port="0" to-layer="2935" to-port="2" />
		<edge from-layer="2934" from-port="0" to-layer="2935" to-port="3" />
		<edge from-layer="2935" from-port="4" to-layer="2937" to-port="0" />
		<edge from-layer="2936" from-port="0" to-layer="2937" to-port="1" />
		<edge from-layer="2937" from-port="2" to-layer="2938" to-port="1" />
		<edge from-layer="2938" from-port="2" to-layer="3138" to-port="0" />
		<edge from-layer="2939" from-port="0" to-layer="2940" to-port="0" />
		<edge from-layer="2940" from-port="1" to-layer="2941" to-port="1" />
		<edge from-layer="2941" from-port="2" to-layer="2944" to-port="0" />
		<edge from-layer="2942" from-port="0" to-layer="2943" to-port="0" />
		<edge from-layer="2943" from-port="1" to-layer="2944" to-port="1" />
		<edge from-layer="2944" from-port="2" to-layer="2945" to-port="0" />
		<edge from-layer="2945" from-port="2" to-layer="2979" to-port="0" />
		<edge from-layer="2946" from-port="0" to-layer="2947" to-port="0" />
		<edge from-layer="2947" from-port="1" to-layer="2948" to-port="1" />
		<edge from-layer="2948" from-port="2" to-layer="2951" to-port="0" />
		<edge from-layer="2949" from-port="0" to-layer="2950" to-port="0" />
		<edge from-layer="2950" from-port="1" to-layer="2951" to-port="1" />
		<edge from-layer="2951" from-port="2" to-layer="2978" to-port="0" />
		<edge from-layer="2951" from-port="2" to-layer="2952" to-port="0" />
		<edge from-layer="2952" from-port="1" to-layer="2968" to-port="0" />
		<edge from-layer="2952" from-port="1" to-layer="2956" to-port="0" />
		<edge from-layer="2952" from-port="1" to-layer="2959" to-port="0" />
		<edge from-layer="2953" from-port="0" to-layer="2956" to-port="1" />
		<edge from-layer="2954" from-port="0" to-layer="2956" to-port="2" />
		<edge from-layer="2955" from-port="0" to-layer="2956" to-port="3" />
		<edge from-layer="2956" from-port="4" to-layer="2977" to-port="0" />
		<edge from-layer="2957" from-port="0" to-layer="2959" to-port="1" />
		<edge from-layer="2958" from-port="0" to-layer="2959" to-port="2" />
		<edge from-layer="2959" from-port="3" to-layer="2960" to-port="0" />
		<edge from-layer="2960" from-port="1" to-layer="2962" to-port="0" />
		<edge from-layer="2961" from-port="0" to-layer="2962" to-port="1" />
		<edge from-layer="2962" from-port="2" to-layer="2963" to-port="0" />
		<edge from-layer="2963" from-port="1" to-layer="2965" to-port="0" />
		<edge from-layer="2964" from-port="0" to-layer="2965" to-port="1" />
		<edge from-layer="2965" from-port="2" to-layer="2975" to-port="0" />
		<edge from-layer="2966" from-port="0" to-layer="2968" to-port="1" />
		<edge from-layer="2967" from-port="0" to-layer="2968" to-port="2" />
		<edge from-layer="2968" from-port="3" to-layer="2969" to-port="0" />
		<edge from-layer="2969" from-port="1" to-layer="2971" to-port="0" />
		<edge from-layer="2970" from-port="0" to-layer="2971" to-port="1" />
		<edge from-layer="2971" from-port="2" to-layer="2972" to-port="0" />
		<edge from-layer="2972" from-port="1" to-layer="2974" to-port="0" />
		<edge from-layer="2973" from-port="0" to-layer="2974" to-port="1" />
		<edge from-layer="2974" from-port="2" to-layer="2975" to-port="1" />
		<edge from-layer="2975" from-port="2" to-layer="2976" to-port="0" />
		<edge from-layer="2976" from-port="1" to-layer="2977" to-port="1" />
		<edge from-layer="2977" from-port="2" to-layer="2978" to-port="1" />
		<edge from-layer="2978" from-port="2" to-layer="2979" to-port="1" />
		<edge from-layer="2979" from-port="2" to-layer="3013" to-port="0" />
		<edge from-layer="2980" from-port="0" to-layer="2981" to-port="0" />
		<edge from-layer="2981" from-port="1" to-layer="2982" to-port="1" />
		<edge from-layer="2982" from-port="2" to-layer="2985" to-port="0" />
		<edge from-layer="2983" from-port="0" to-layer="2984" to-port="0" />
		<edge from-layer="2984" from-port="1" to-layer="2985" to-port="1" />
		<edge from-layer="2985" from-port="2" to-layer="2986" to-port="0" />
		<edge from-layer="2985" from-port="2" to-layer="3012" to-port="0" />
		<edge from-layer="2986" from-port="1" to-layer="2990" to-port="0" />
		<edge from-layer="2986" from-port="1" to-layer="2993" to-port="0" />
		<edge from-layer="2986" from-port="1" to-layer="3002" to-port="0" />
		<edge from-layer="2987" from-port="0" to-layer="2990" to-port="1" />
		<edge from-layer="2988" from-port="0" to-layer="2990" to-port="2" />
		<edge from-layer="2989" from-port="0" to-layer="2990" to-port="3" />
		<edge from-layer="2990" from-port="4" to-layer="3011" to-port="0" />
		<edge from-layer="2991" from-port="0" to-layer="2993" to-port="1" />
		<edge from-layer="2992" from-port="0" to-layer="2993" to-port="2" />
		<edge from-layer="2993" from-port="3" to-layer="2994" to-port="0" />
		<edge from-layer="2994" from-port="1" to-layer="2996" to-port="0" />
		<edge from-layer="2995" from-port="0" to-layer="2996" to-port="1" />
		<edge from-layer="2996" from-port="2" to-layer="2997" to-port="0" />
		<edge from-layer="2997" from-port="1" to-layer="2999" to-port="0" />
		<edge from-layer="2998" from-port="0" to-layer="2999" to-port="1" />
		<edge from-layer="2999" from-port="2" to-layer="3009" to-port="0" />
		<edge from-layer="3000" from-port="0" to-layer="3002" to-port="1" />
		<edge from-layer="3001" from-port="0" to-layer="3002" to-port="2" />
		<edge from-layer="3002" from-port="3" to-layer="3003" to-port="0" />
		<edge from-layer="3003" from-port="1" to-layer="3005" to-port="0" />
		<edge from-layer="3004" from-port="0" to-layer="3005" to-port="1" />
		<edge from-layer="3005" from-port="2" to-layer="3006" to-port="0" />
		<edge from-layer="3006" from-port="1" to-layer="3008" to-port="0" />
		<edge from-layer="3007" from-port="0" to-layer="3008" to-port="1" />
		<edge from-layer="3008" from-port="2" to-layer="3009" to-port="1" />
		<edge from-layer="3009" from-port="2" to-layer="3010" to-port="0" />
		<edge from-layer="3010" from-port="1" to-layer="3011" to-port="1" />
		<edge from-layer="3011" from-port="2" to-layer="3012" to-port="1" />
		<edge from-layer="3012" from-port="2" to-layer="3013" to-port="1" />
		<edge from-layer="3013" from-port="2" to-layer="3014" to-port="0" />
		<edge from-layer="3014" from-port="1" to-layer="3022" to-port="0" />
		<edge from-layer="3014" from-port="1" to-layer="3015" to-port="0" />
		<edge from-layer="3015" from-port="1" to-layer="3019" to-port="0" />
		<edge from-layer="3016" from-port="0" to-layer="3019" to-port="1" />
		<edge from-layer="3017" from-port="0" to-layer="3019" to-port="2" />
		<edge from-layer="3018" from-port="0" to-layer="3019" to-port="3" />
		<edge from-layer="3019" from-port="4" to-layer="3021" to-port="0" />
		<edge from-layer="3020" from-port="0" to-layer="3021" to-port="1" />
		<edge from-layer="3021" from-port="2" to-layer="3022" to-port="1" />
		<edge from-layer="3022" from-port="2" to-layer="3138" to-port="1" />
		<edge from-layer="3023" from-port="0" to-layer="3024" to-port="0" />
		<edge from-layer="3024" from-port="1" to-layer="3025" to-port="1" />
		<edge from-layer="3025" from-port="2" to-layer="3028" to-port="0" />
		<edge from-layer="3026" from-port="0" to-layer="3027" to-port="0" />
		<edge from-layer="3027" from-port="1" to-layer="3028" to-port="1" />
		<edge from-layer="3028" from-port="2" to-layer="3029" to-port="0" />
		<edge from-layer="3029" from-port="1" to-layer="3032" to-port="0" />
		<edge from-layer="3030" from-port="0" to-layer="3031" to-port="0" />
		<edge from-layer="3031" from-port="1" to-layer="3032" to-port="1" />
		<edge from-layer="3032" from-port="2" to-layer="3035" to-port="0" />
		<edge from-layer="3033" from-port="0" to-layer="3034" to-port="0" />
		<edge from-layer="3034" from-port="1" to-layer="3035" to-port="1" />
		<edge from-layer="3035" from-port="2" to-layer="3042" to-port="0" />
		<edge from-layer="3036" from-port="0" to-layer="3037" to-port="0" />
		<edge from-layer="3037" from-port="1" to-layer="3038" to-port="1" />
		<edge from-layer="3038" from-port="2" to-layer="3041" to-port="0" />
		<edge from-layer="3039" from-port="0" to-layer="3040" to-port="0" />
		<edge from-layer="3040" from-port="1" to-layer="3041" to-port="1" />
		<edge from-layer="3041" from-port="2" to-layer="3042" to-port="1" />
		<edge from-layer="3042" from-port="2" to-layer="3043" to-port="0" />
		<edge from-layer="3043" from-port="2" to-layer="3077" to-port="0" />
		<edge from-layer="3044" from-port="0" to-layer="3045" to-port="0" />
		<edge from-layer="3045" from-port="1" to-layer="3046" to-port="1" />
		<edge from-layer="3046" from-port="2" to-layer="3049" to-port="0" />
		<edge from-layer="3047" from-port="0" to-layer="3048" to-port="0" />
		<edge from-layer="3048" from-port="1" to-layer="3049" to-port="1" />
		<edge from-layer="3049" from-port="2" to-layer="3076" to-port="0" />
		<edge from-layer="3049" from-port="2" to-layer="3050" to-port="0" />
		<edge from-layer="3050" from-port="1" to-layer="3054" to-port="0" />
		<edge from-layer="3050" from-port="1" to-layer="3066" to-port="0" />
		<edge from-layer="3050" from-port="1" to-layer="3057" to-port="0" />
		<edge from-layer="3051" from-port="0" to-layer="3054" to-port="1" />
		<edge from-layer="3052" from-port="0" to-layer="3054" to-port="2" />
		<edge from-layer="3053" from-port="0" to-layer="3054" to-port="3" />
		<edge from-layer="3054" from-port="4" to-layer="3075" to-port="0" />
		<edge from-layer="3055" from-port="0" to-layer="3057" to-port="1" />
		<edge from-layer="3056" from-port="0" to-layer="3057" to-port="2" />
		<edge from-layer="3057" from-port="3" to-layer="3058" to-port="0" />
		<edge from-layer="3058" from-port="1" to-layer="3060" to-port="0" />
		<edge from-layer="3059" from-port="0" to-layer="3060" to-port="1" />
		<edge from-layer="3060" from-port="2" to-layer="3061" to-port="0" />
		<edge from-layer="3061" from-port="1" to-layer="3063" to-port="0" />
		<edge from-layer="3062" from-port="0" to-layer="3063" to-port="1" />
		<edge from-layer="3063" from-port="2" to-layer="3073" to-port="0" />
		<edge from-layer="3064" from-port="0" to-layer="3066" to-port="1" />
		<edge from-layer="3065" from-port="0" to-layer="3066" to-port="2" />
		<edge from-layer="3066" from-port="3" to-layer="3067" to-port="0" />
		<edge from-layer="3067" from-port="1" to-layer="3069" to-port="0" />
		<edge from-layer="3068" from-port="0" to-layer="3069" to-port="1" />
		<edge from-layer="3069" from-port="2" to-layer="3070" to-port="0" />
		<edge from-layer="3070" from-port="1" to-layer="3072" to-port="0" />
		<edge from-layer="3071" from-port="0" to-layer="3072" to-port="1" />
		<edge from-layer="3072" from-port="2" to-layer="3073" to-port="1" />
		<edge from-layer="3073" from-port="2" to-layer="3074" to-port="0" />
		<edge from-layer="3074" from-port="1" to-layer="3075" to-port="1" />
		<edge from-layer="3075" from-port="2" to-layer="3076" to-port="1" />
		<edge from-layer="3076" from-port="2" to-layer="3077" to-port="1" />
		<edge from-layer="3077" from-port="2" to-layer="3078" to-port="0" />
		<edge from-layer="3078" from-port="1" to-layer="3086" to-port="0" />
		<edge from-layer="3078" from-port="1" to-layer="3079" to-port="0" />
		<edge from-layer="3079" from-port="1" to-layer="3083" to-port="0" />
		<edge from-layer="3080" from-port="0" to-layer="3083" to-port="1" />
		<edge from-layer="3081" from-port="0" to-layer="3083" to-port="2" />
		<edge from-layer="3082" from-port="0" to-layer="3083" to-port="3" />
		<edge from-layer="3083" from-port="4" to-layer="3085" to-port="0" />
		<edge from-layer="3084" from-port="0" to-layer="3085" to-port="1" />
		<edge from-layer="3085" from-port="2" to-layer="3086" to-port="1" />
		<edge from-layer="3086" from-port="2" to-layer="3138" to-port="2" />
		<edge from-layer="3087" from-port="0" to-layer="3088" to-port="0" />
		<edge from-layer="3088" from-port="1" to-layer="3089" to-port="1" />
		<edge from-layer="3089" from-port="2" to-layer="3092" to-port="0" />
		<edge from-layer="3090" from-port="0" to-layer="3091" to-port="0" />
		<edge from-layer="3091" from-port="1" to-layer="3092" to-port="1" />
		<edge from-layer="3092" from-port="2" to-layer="3093" to-port="0" />
		<edge from-layer="3093" from-port="1" to-layer="3096" to-port="0" />
		<edge from-layer="3094" from-port="0" to-layer="3095" to-port="0" />
		<edge from-layer="3095" from-port="1" to-layer="3096" to-port="1" />
		<edge from-layer="3096" from-port="2" to-layer="3099" to-port="0" />
		<edge from-layer="3097" from-port="0" to-layer="3098" to-port="0" />
		<edge from-layer="3098" from-port="1" to-layer="3099" to-port="1" />
		<edge from-layer="3099" from-port="2" to-layer="3100" to-port="0" />
		<edge from-layer="3100" from-port="1" to-layer="3103" to-port="0" />
		<edge from-layer="3101" from-port="0" to-layer="3102" to-port="0" />
		<edge from-layer="3102" from-port="1" to-layer="3103" to-port="1" />
		<edge from-layer="3103" from-port="2" to-layer="3106" to-port="0" />
		<edge from-layer="3104" from-port="0" to-layer="3105" to-port="0" />
		<edge from-layer="3105" from-port="1" to-layer="3106" to-port="1" />
		<edge from-layer="3106" from-port="2" to-layer="3120" to-port="0" />
		<edge from-layer="3107" from-port="0" to-layer="3108" to-port="0" />
		<edge from-layer="3108" from-port="1" to-layer="3109" to-port="1" />
		<edge from-layer="3109" from-port="2" to-layer="3112" to-port="0" />
		<edge from-layer="3110" from-port="0" to-layer="3111" to-port="0" />
		<edge from-layer="3111" from-port="1" to-layer="3112" to-port="1" />
		<edge from-layer="3112" from-port="2" to-layer="3113" to-port="0" />
		<edge from-layer="3113" from-port="1" to-layer="3116" to-port="0" />
		<edge from-layer="3114" from-port="0" to-layer="3115" to-port="0" />
		<edge from-layer="3115" from-port="1" to-layer="3116" to-port="1" />
		<edge from-layer="3116" from-port="2" to-layer="3119" to-port="0" />
		<edge from-layer="3117" from-port="0" to-layer="3118" to-port="0" />
		<edge from-layer="3118" from-port="1" to-layer="3119" to-port="1" />
		<edge from-layer="3119" from-port="2" to-layer="3120" to-port="1" />
		<edge from-layer="3120" from-port="2" to-layer="3127" to-port="0" />
		<edge from-layer="3121" from-port="0" to-layer="3122" to-port="0" />
		<edge from-layer="3122" from-port="1" to-layer="3123" to-port="1" />
		<edge from-layer="3123" from-port="2" to-layer="3126" to-port="0" />
		<edge from-layer="3124" from-port="0" to-layer="3125" to-port="0" />
		<edge from-layer="3125" from-port="1" to-layer="3126" to-port="1" />
		<edge from-layer="3126" from-port="2" to-layer="3127" to-port="1" />
		<edge from-layer="3127" from-port="2" to-layer="3128" to-port="0" />
		<edge from-layer="3128" from-port="2" to-layer="3129" to-port="0" />
		<edge from-layer="3129" from-port="1" to-layer="3130" to-port="0" />
		<edge from-layer="3129" from-port="1" to-layer="3137" to-port="0" />
		<edge from-layer="3130" from-port="1" to-layer="3134" to-port="0" />
		<edge from-layer="3131" from-port="0" to-layer="3134" to-port="1" />
		<edge from-layer="3132" from-port="0" to-layer="3134" to-port="2" />
		<edge from-layer="3133" from-port="0" to-layer="3134" to-port="3" />
		<edge from-layer="3134" from-port="4" to-layer="3136" to-port="0" />
		<edge from-layer="3135" from-port="0" to-layer="3136" to-port="1" />
		<edge from-layer="3136" from-port="2" to-layer="3137" to-port="1" />
		<edge from-layer="3137" from-port="2" to-layer="3138" to-port="3" />
		<edge from-layer="3138" from-port="4" to-layer="3141" to-port="0" />
		<edge from-layer="3139" from-port="0" to-layer="3140" to-port="0" />
		<edge from-layer="3140" from-port="1" to-layer="3141" to-port="1" />
		<edge from-layer="3141" from-port="2" to-layer="3144" to-port="0" />
		<edge from-layer="3142" from-port="0" to-layer="3143" to-port="0" />
		<edge from-layer="3143" from-port="1" to-layer="3144" to-port="1" />
		<edge from-layer="3144" from-port="2" to-layer="3145" to-port="0" />
		<edge from-layer="3145" from-port="1" to-layer="3148" to-port="0" />
		<edge from-layer="3146" from-port="0" to-layer="3147" to-port="0" />
		<edge from-layer="3147" from-port="1" to-layer="3148" to-port="1" />
		<edge from-layer="3148" from-port="2" to-layer="3151" to-port="0" />
		<edge from-layer="3149" from-port="0" to-layer="3150" to-port="0" />
		<edge from-layer="3150" from-port="1" to-layer="3151" to-port="1" />
		<edge from-layer="3151" from-port="2" to-layer="3152" to-port="0" />
	</edges>
	<rt_info>
		<MO_version value="custom_HEAD_f6ee6e92f846a8c665e4a7089c51481f9689a3b5" />
		<Runtime_version value="2023.0.0-10521-f6ee6e92f84-HEAD" />
		<conversion_parameters>
			<framework value="onnx" />
			<input value="input.1" />
			<input_model value="DIR/facial-landmarks-98-detection-0001.onnx" />
			<input_shape value="[1,3,64,64]" />
			<layout value="input.1(nchw)" />
			<model_name value="facial-landmarks-98-detection-0001" />
			<output_dir value="DIR" />
			<reverse_input_channels value="True" />
			<scale_values value="input.1[255.0]" />
		</conversion_parameters>
		<legacy_frontend value="False" />
	</rt_info>
</net>
