<?xml version="1.0" ?>
<net name="torch-jit-export" version="11">
	<layers>
		<layer id="136" name="input.1" type="Parameter" version="opset1">
			<data shape="1,3,300,300" element_type="f32"/>
			<rt_info>
				<attribute name="old_api_map_element_type" version="0" value="f16"/>
			</rt_info>
			<output>
				<port id="0" precision="FP32" names="input.1">
					<dim>1</dim>
					<dim>3</dim>
					<dim>300</dim>
					<dim>300</dim>
					<rt_info>
						<attribute name="layout" version="0" layout="[N,C,H,W]"/>
					</rt_info>
				</port>
			</output>
		</layer>
		<layer id="0" name="1801180511868" type="Const" version="opset1">
			<data offset="0" size="4" shape="" element_type="f32"/>
			<output>
				<port id="0" precision="FP32"/>
			</output>
		</layer>
		<layer id="1" name="1802180611757" type="Const" version="opset1">
			<data offset="4" size="4" shape="" element_type="f32"/>
			<output>
				<port id="0" precision="FP32"/>
			</output>
		</layer>
		<layer id="2" name="1803180711601" type="Const" version="opset1">
			<data offset="0" size="4" shape="" element_type="f32"/>
			<output>
				<port id="0" precision="FP32"/>
			</output>
		</layer>
		<layer id="3" name="1804180812000" type="Const" version="opset1">
			<data offset="4" size="4" shape="" element_type="f32"/>
			<output>
				<port id="0" precision="FP32"/>
			</output>
		</layer>
		<layer id="4" name="2441244511592" type="Const" version="opset1">
			<data offset="8" size="1440" shape="1,360,1,1" element_type="f32"/>
			<output>
				<port id="0" precision="FP32">
					<dim>1</dim>
					<dim>360</dim>
					<dim>1</dim>
					<dim>1</dim>
				</port>
			</output>
		</layer>
		<layer id="5" name="2442244611631" type="Const" version="opset1">
			<data offset="1448" size="1440" shape="1,360,1,1" element_type="f32"/>
			<output>
				<port id="0" precision="FP32">
					<dim>1</dim>
					<dim>360</dim>
					<dim>1</dim>
					<dim>1</dim>
				</port>
			</output>
		</layer>
		<layer id="6" name="2443244712252" type="Const" version="opset1">
			<data offset="8" size="1440" shape="1,360,1,1" element_type="f32"/>
			<output>
				<port id="0" precision="FP32">
					<dim>1</dim>
					<dim>360</dim>
					<dim>1</dim>
					<dim>1</dim>
				</port>
			</output>
		</layer>
		<layer id="7" name="2444244812297" type="Const" version="opset1">
			<data offset="1448" size="1440" shape="1,360,1,1" element_type="f32"/>
			<output>
				<port id="0" precision="FP32">
					<dim>1</dim>
					<dim>360</dim>
					<dim>1</dim>
					<dim>1</dim>
				</port>
			</output>
		</layer>
		<layer id="8" name="2081208511514" type="Const" version="opset1">
			<data offset="0" size="4" shape="" element_type="f32"/>
			<output>
				<port id="0" precision="FP32"/>
			</output>
		</layer>
		<layer id="9" name="2082208611535" type="Const" version="opset1">
			<data offset="2888" size="4" shape="" element_type="f32"/>
			<output>
				<port id="0" precision="FP32"/>
			</output>
		</layer>
		<layer id="10" name="2083208712213" type="Const" version="opset1">
			<data offset="0" size="4" shape="" element_type="f32"/>
			<output>
				<port id="0" precision="FP32"/>
			</output>
		</layer>
		<layer id="11" name="2084208811859" type="Const" version="opset1">
			<data offset="2888" size="4" shape="" element_type="f32"/>
			<output>
				<port id="0" precision="FP32"/>
			</output>
		</layer>
		<layer id="12" name="2241224511106" type="Const" version="opset1">
			<data offset="2892" size="1920" shape="1,480,1,1" element_type="f32"/>
			<output>
				<port id="0" precision="FP32">
					<dim>1</dim>
					<dim>480</dim>
					<dim>1</dim>
					<dim>1</dim>
				</port>
			</output>
		</layer>
		<layer id="13" name="2242224611787" type="Const" version="opset1">
			<data offset="4812" size="1920" shape="1,480,1,1" element_type="f32"/>
			<output>
				<port id="0" precision="FP32">
					<dim>1</dim>
					<dim>480</dim>
					<dim>1</dim>
					<dim>1</dim>
				</port>
			</output>
		</layer>
		<layer id="14" name="2243224711463" type="Const" version="opset1">
			<data offset="2892" size="1920" shape="1,480,1,1" element_type="f32"/>
			<output>
				<port id="0" precision="FP32">
					<dim>1</dim>
					<dim>480</dim>
					<dim>1</dim>
					<dim>1</dim>
				</port>
			</output>
		</layer>
		<layer id="15" name="2244224811484" type="Const" version="opset1">
			<data offset="4812" size="1920" shape="1,480,1,1" element_type="f32"/>
			<output>
				<port id="0" precision="FP32">
					<dim>1</dim>
					<dim>480</dim>
					<dim>1</dim>
					<dim>1</dim>
				</port>
			</output>
		</layer>
		<layer id="16" name="1941194512402" type="Const" version="opset1">
			<data offset="6732" size="4" shape="" element_type="f32"/>
			<output>
				<port id="0" precision="FP32"/>
			</output>
		</layer>
		<layer id="17" name="1942194611676" type="Const" version="opset1">
			<data offset="6736" size="4" shape="" element_type="f32"/>
			<output>
				<port id="0" precision="FP32"/>
			</output>
		</layer>
		<layer id="18" name="1943194711613" type="Const" version="opset1">
			<data offset="6732" size="4" shape="" element_type="f32"/>
			<output>
				<port id="0" precision="FP32"/>
			</output>
		</layer>
		<layer id="19" name="1944194811658" type="Const" version="opset1">
			<data offset="6736" size="4" shape="" element_type="f32"/>
			<output>
				<port id="0" precision="FP32"/>
			</output>
		</layer>
		<layer id="20" name="2381238511568" type="Const" version="opset1">
			<data offset="6740" size="4" shape="" element_type="f32"/>
			<output>
				<port id="0" precision="FP32"/>
			</output>
		</layer>
		<layer id="21" name="2382238612075" type="Const" version="opset1">
			<data offset="6744" size="4" shape="" element_type="f32"/>
			<output>
				<port id="0" precision="FP32"/>
			</output>
		</layer>
		<layer id="22" name="2383238711325" type="Const" version="opset1">
			<data offset="6740" size="4" shape="" element_type="f32"/>
			<output>
				<port id="0" precision="FP32"/>
			</output>
		</layer>
		<layer id="23" name="2384238812426" type="Const" version="opset1">
			<data offset="6744" size="4" shape="" element_type="f32"/>
			<output>
				<port id="0" precision="FP32"/>
			</output>
		</layer>
		<layer id="24" name="1491149511604" type="Const" version="opset1">
			<data offset="6748" size="4" shape="" element_type="f32"/>
			<output>
				<port id="0" precision="FP32"/>
			</output>
		</layer>
		<layer id="25" name="1492149611532" type="Const" version="opset1">
			<data offset="6752" size="4" shape="" element_type="f32"/>
			<output>
				<port id="0" precision="FP32"/>
			</output>
		</layer>
		<layer id="26" name="1493149712357" type="Const" version="opset1">
			<data offset="6748" size="4" shape="" element_type="f32"/>
			<output>
				<port id="0" precision="FP32"/>
			</output>
		</layer>
		<layer id="27" name="1494149811418" type="Const" version="opset1">
			<data offset="6752" size="4" shape="" element_type="f32"/>
			<output>
				<port id="0" precision="FP32"/>
			</output>
		</layer>
		<layer id="28" name="2181218511259" type="Const" version="opset1">
			<data offset="0" size="4" shape="" element_type="f32"/>
			<output>
				<port id="0" precision="FP32"/>
			</output>
		</layer>
		<layer id="29" name="2182218611436" type="Const" version="opset1">
			<data offset="6756" size="4" shape="" element_type="f32"/>
			<output>
				<port id="0" precision="FP32"/>
			</output>
		</layer>
		<layer id="30" name="2183218711511" type="Const" version="opset1">
			<data offset="0" size="4" shape="" element_type="f32"/>
			<output>
				<port id="0" precision="FP32"/>
			</output>
		</layer>
		<layer id="31" name="2184218812288" type="Const" version="opset1">
			<data offset="6756" size="4" shape="" element_type="f32"/>
			<output>
				<port id="0" precision="FP32"/>
			</output>
		</layer>
		<layer id="32" name="2581258511853" type="Const" version="opset1">
			<data offset="6760" size="1728" shape="1,432,1,1" element_type="f32"/>
			<output>
				<port id="0" precision="FP32">
					<dim>1</dim>
					<dim>432</dim>
					<dim>1</dim>
					<dim>1</dim>
				</port>
			</output>
		</layer>
		<layer id="33" name="2582258611340" type="Const" version="opset1">
			<data offset="8488" size="1728" shape="1,432,1,1" element_type="f32"/>
			<output>
				<port id="0" precision="FP32">
					<dim>1</dim>
					<dim>432</dim>
					<dim>1</dim>
					<dim>1</dim>
				</port>
			</output>
		</layer>
		<layer id="34" name="2583258712219" type="Const" version="opset1">
			<data offset="6760" size="1728" shape="1,432,1,1" element_type="f32"/>
			<output>
				<port id="0" precision="FP32">
					<dim>1</dim>
					<dim>432</dim>
					<dim>1</dim>
					<dim>1</dim>
				</port>
			</output>
		</layer>
		<layer id="35" name="2584258811136" type="Const" version="opset1">
			<data offset="8488" size="1728" shape="1,432,1,1" element_type="f32"/>
			<output>
				<port id="0" precision="FP32">
					<dim>1</dim>
					<dim>432</dim>
					<dim>1</dim>
					<dim>1</dim>
				</port>
			</output>
		</layer>
		<layer id="36" name="1841184512486" type="Const" version="opset1">
			<data offset="10216" size="4" shape="" element_type="f32"/>
			<output>
				<port id="0" precision="FP32"/>
			</output>
		</layer>
		<layer id="37" name="1842184612342" type="Const" version="opset1">
			<data offset="10220" size="4" shape="" element_type="f32"/>
			<output>
				<port id="0" precision="FP32"/>
			</output>
		</layer>
		<layer id="38" name="1843184712363" type="Const" version="opset1">
			<data offset="10216" size="4" shape="" element_type="f32"/>
			<output>
				<port id="0" precision="FP32"/>
			</output>
		</layer>
		<layer id="39" name="1844184811208" type="Const" version="opset1">
			<data offset="10220" size="4" shape="" element_type="f32"/>
			<output>
				<port id="0" precision="FP32"/>
			</output>
		</layer>
		<layer id="40" name="1571157511874" type="Const" version="opset1">
			<data offset="10224" size="4" shape="" element_type="f32"/>
			<output>
				<port id="0" precision="FP32"/>
			</output>
		</layer>
		<layer id="41" name="1572157611382" type="Const" version="opset1">
			<data offset="10228" size="4" shape="" element_type="f32"/>
			<output>
				<port id="0" precision="FP32"/>
			</output>
		</layer>
		<layer id="42" name="1573157711679" type="Const" version="opset1">
			<data offset="10224" size="4" shape="" element_type="f32"/>
			<output>
				<port id="0" precision="FP32"/>
			</output>
		</layer>
		<layer id="43" name="1574157811622" type="Const" version="opset1">
			<data offset="10228" size="4" shape="" element_type="f32"/>
			<output>
				<port id="0" precision="FP32"/>
			</output>
		</layer>
		<layer id="44" name="1701170511844" type="Const" version="opset1">
			<data offset="10232" size="4" shape="" element_type="f32"/>
			<output>
				<port id="0" precision="FP32"/>
			</output>
		</layer>
		<layer id="45" name="1702170611793" type="Const" version="opset1">
			<data offset="10236" size="4" shape="" element_type="f32"/>
			<output>
				<port id="0" precision="FP32"/>
			</output>
		</layer>
		<layer id="46" name="1703170711598" type="Const" version="opset1">
			<data offset="10232" size="4" shape="" element_type="f32"/>
			<output>
				<port id="0" precision="FP32"/>
			</output>
		</layer>
		<layer id="47" name="1704170811451" type="Const" version="opset1">
			<data offset="10236" size="4" shape="" element_type="f32"/>
			<output>
				<port id="0" precision="FP32"/>
			</output>
		</layer>
		<layer id="48" name="2481248511889" type="Const" version="opset1">
			<data offset="0" size="4" shape="" element_type="f32"/>
			<output>
				<port id="0" precision="FP32"/>
			</output>
		</layer>
		<layer id="49" name="2482248611958" type="Const" version="opset1">
			<data offset="10240" size="4" shape="" element_type="f32"/>
			<output>
				<port id="0" precision="FP32"/>
			</output>
		</layer>
		<layer id="50" name="2483248711856" type="Const" version="opset1">
			<data offset="0" size="4" shape="" element_type="f32"/>
			<output>
				<port id="0" precision="FP32"/>
			</output>
		</layer>
		<layer id="51" name="2484248811133" type="Const" version="opset1">
			<data offset="10240" size="4" shape="" element_type="f32"/>
			<output>
				<port id="0" precision="FP32"/>
			</output>
		</layer>
		<layer id="52" name="1611161511145" type="Const" version="opset1">
			<data offset="10244" size="1152" shape="1,288,1,1" element_type="f32"/>
			<output>
				<port id="0" precision="FP32">
					<dim>1</dim>
					<dim>288</dim>
					<dim>1</dim>
					<dim>1</dim>
				</port>
			</output>
		</layer>
		<layer id="53" name="1612161611550" type="Const" version="opset1">
			<data offset="11396" size="1152" shape="1,288,1,1" element_type="f32"/>
			<output>
				<port id="0" precision="FP32">
					<dim>1</dim>
					<dim>288</dim>
					<dim>1</dim>
					<dim>1</dim>
				</port>
			</output>
		</layer>
		<layer id="54" name="1613161711943" type="Const" version="opset1">
			<data offset="10244" size="1152" shape="1,288,1,1" element_type="f32"/>
			<output>
				<port id="0" precision="FP32">
					<dim>1</dim>
					<dim>288</dim>
					<dim>1</dim>
					<dim>1</dim>
				</port>
			</output>
		</layer>
		<layer id="55" name="1614161811640" type="Const" version="opset1">
			<data offset="11396" size="1152" shape="1,288,1,1" element_type="f32"/>
			<output>
				<port id="0" precision="FP32">
					<dim>1</dim>
					<dim>288</dim>
					<dim>1</dim>
					<dim>1</dim>
				</port>
			</output>
		</layer>
		<layer id="56" name="2641264511628" type="Const" version="opset1">
			<data offset="12548" size="4" shape="" element_type="f32"/>
			<output>
				<port id="0" precision="FP32"/>
			</output>
		</layer>
		<layer id="57" name="2642264612099" type="Const" version="opset1">
			<data offset="12552" size="4" shape="" element_type="f32"/>
			<output>
				<port id="0" precision="FP32"/>
			</output>
		</layer>
		<layer id="58" name="2643264711802" type="Const" version="opset1">
			<data offset="12548" size="4" shape="" element_type="f32"/>
			<output>
				<port id="0" precision="FP32"/>
			</output>
		</layer>
		<layer id="59" name="2644264812351" type="Const" version="opset1">
			<data offset="12552" size="4" shape="" element_type="f32"/>
			<output>
				<port id="0" precision="FP32"/>
			</output>
		</layer>
		<layer id="60" name="2421242512138" type="Const" version="opset1">
			<data offset="12556" size="4" shape="" element_type="f32"/>
			<output>
				<port id="0" precision="FP32"/>
			</output>
		</layer>
		<layer id="61" name="2422242611910" type="Const" version="opset1">
			<data offset="12560" size="4" shape="" element_type="f32"/>
			<output>
				<port id="0" precision="FP32"/>
			</output>
		</layer>
		<layer id="62" name="2423242711979" type="Const" version="opset1">
			<data offset="12556" size="4" shape="" element_type="f32"/>
			<output>
				<port id="0" precision="FP32"/>
			</output>
		</layer>
		<layer id="63" name="2424242812192" type="Const" version="opset1">
			<data offset="12560" size="4" shape="" element_type="f32"/>
			<output>
				<port id="0" precision="FP32"/>
			</output>
		</layer>
		<layer id="64" name="1431143512183" type="Const" version="opset1">
			<data offset="12564" size="4" shape="" element_type="f32"/>
			<output>
				<port id="0" precision="FP32"/>
			</output>
		</layer>
		<layer id="65" name="1432143612090" type="Const" version="opset1">
			<data offset="12568" size="4" shape="" element_type="f32"/>
			<output>
				<port id="0" precision="FP32"/>
			</output>
		</layer>
		<layer id="66" name="1433143711544" type="Const" version="opset1">
			<data offset="12564" size="4" shape="" element_type="f32"/>
			<output>
				<port id="0" precision="FP32"/>
			</output>
		</layer>
		<layer id="67" name="1434143811685" type="Const" version="opset1">
			<data offset="12568" size="4" shape="" element_type="f32"/>
			<output>
				<port id="0" precision="FP32"/>
			</output>
		</layer>
		<layer id="68" name="2061206511799" type="Const" version="opset1">
			<data offset="12572" size="4" shape="" element_type="f32"/>
			<output>
				<port id="0" precision="FP32"/>
			</output>
		</layer>
		<layer id="69" name="2062206611595" type="Const" version="opset1">
			<data offset="12576" size="4" shape="" element_type="f32"/>
			<output>
				<port id="0" precision="FP32"/>
			</output>
		</layer>
		<layer id="70" name="2063206711763" type="Const" version="opset1">
			<data offset="12572" size="4" shape="" element_type="f32"/>
			<output>
				<port id="0" precision="FP32"/>
			</output>
		</layer>
		<layer id="71" name="2064206812102" type="Const" version="opset1">
			<data offset="12576" size="4" shape="" element_type="f32"/>
			<output>
				<port id="0" precision="FP32"/>
			</output>
		</layer>
		<layer id="72" name="1881188511316" type="Const" version="opset1">
			<data offset="0" size="4" shape="" element_type="f32"/>
			<output>
				<port id="0" precision="FP32"/>
			</output>
		</layer>
		<layer id="73" name="1882188612063" type="Const" version="opset1">
			<data offset="12580" size="4" shape="" element_type="f32"/>
			<output>
				<port id="0" precision="FP32"/>
			</output>
		</layer>
		<layer id="74" name="1883188711967" type="Const" version="opset1">
			<data offset="0" size="4" shape="" element_type="f32"/>
			<output>
				<port id="0" precision="FP32"/>
			</output>
		</layer>
		<layer id="75" name="1884188811688" type="Const" version="opset1">
			<data offset="12580" size="4" shape="" element_type="f32"/>
			<output>
				<port id="0" precision="FP32"/>
			</output>
		</layer>
		<layer id="76" name="1721172511112" type="Const" version="opset1">
			<data offset="12584" size="576" shape="1,144,1,1" element_type="f32"/>
			<output>
				<port id="0" precision="FP32">
					<dim>1</dim>
					<dim>144</dim>
					<dim>1</dim>
					<dim>1</dim>
				</port>
			</output>
		</layer>
		<layer id="77" name="1722172612396" type="Const" version="opset1">
			<data offset="13160" size="576" shape="1,144,1,1" element_type="f32"/>
			<output>
				<port id="0" precision="FP32">
					<dim>1</dim>
					<dim>144</dim>
					<dim>1</dim>
					<dim>1</dim>
				</port>
			</output>
		</layer>
		<layer id="78" name="1723172712237" type="Const" version="opset1">
			<data offset="12584" size="576" shape="1,144,1,1" element_type="f32"/>
			<output>
				<port id="0" precision="FP32">
					<dim>1</dim>
					<dim>144</dim>
					<dim>1</dim>
					<dim>1</dim>
				</port>
			</output>
		</layer>
		<layer id="79" name="1724172811928" type="Const" version="opset1">
			<data offset="13160" size="576" shape="1,144,1,1" element_type="f32"/>
			<output>
				<port id="0" precision="FP32">
					<dim>1</dim>
					<dim>144</dim>
					<dim>1</dim>
					<dim>1</dim>
				</port>
			</output>
		</layer>
		<layer id="80" name="2021202511706" type="Const" version="opset1">
			<data offset="13736" size="4" shape="" element_type="f32"/>
			<output>
				<port id="0" precision="FP32"/>
			</output>
		</layer>
		<layer id="81" name="2022202611424" type="Const" version="opset1">
			<data offset="13740" size="4" shape="" element_type="f32"/>
			<output>
				<port id="0" precision="FP32"/>
			</output>
		</layer>
		<layer id="82" name="2023202712495" type="Const" version="opset1">
			<data offset="13736" size="4" shape="" element_type="f32"/>
			<output>
				<port id="0" precision="FP32"/>
			</output>
		</layer>
		<layer id="83" name="2024202812462" type="Const" version="opset1">
			<data offset="13740" size="4" shape="" element_type="f32"/>
			<output>
				<port id="0" precision="FP32"/>
			</output>
		</layer>
		<layer id="84" name="1981198512255" type="Const" version="opset1">
			<data offset="13744" size="4" shape="" element_type="f32"/>
			<output>
				<port id="0" precision="FP32"/>
			</output>
		</layer>
		<layer id="85" name="1982198611310" type="Const" version="opset1">
			<data offset="13748" size="4" shape="" element_type="f32"/>
			<output>
				<port id="0" precision="FP32"/>
			</output>
		</layer>
		<layer id="86" name="1983198711553" type="Const" version="opset1">
			<data offset="13744" size="4" shape="" element_type="f32"/>
			<output>
				<port id="0" precision="FP32"/>
			</output>
		</layer>
		<layer id="87" name="1984198811901" type="Const" version="opset1">
			<data offset="13748" size="4" shape="" element_type="f32"/>
			<output>
				<port id="0" precision="FP32"/>
			</output>
		</layer>
		<layer id="88" name="2541254511538" type="Const" version="opset1">
			<data offset="13752" size="4" shape="" element_type="f32"/>
			<output>
				<port id="0" precision="FP32"/>
			</output>
		</layer>
		<layer id="89" name="2542254612036" type="Const" version="opset1">
			<data offset="13756" size="4" shape="" element_type="f32"/>
			<output>
				<port id="0" precision="FP32"/>
			</output>
		</layer>
		<layer id="90" name="2543254711838" type="Const" version="opset1">
			<data offset="13752" size="4" shape="" element_type="f32"/>
			<output>
				<port id="0" precision="FP32"/>
			</output>
		</layer>
		<layer id="91" name="2544254811370" type="Const" version="opset1">
			<data offset="13756" size="4" shape="" element_type="f32"/>
			<output>
				<port id="0" precision="FP32"/>
			</output>
		</layer>
		<layer id="92" name="2621262512108" type="Const" version="opset1">
			<data offset="0" size="4" shape="" element_type="f32"/>
			<output>
				<port id="0" precision="FP32"/>
			</output>
		</layer>
		<layer id="93" name="2622262611199" type="Const" version="opset1">
			<data offset="13760" size="4" shape="" element_type="f32"/>
			<output>
				<port id="0" precision="FP32"/>
			</output>
		</layer>
		<layer id="94" name="2623262712318" type="Const" version="opset1">
			<data offset="0" size="4" shape="" element_type="f32"/>
			<output>
				<port id="0" precision="FP32"/>
			</output>
		</layer>
		<layer id="95" name="2624262811745" type="Const" version="opset1">
			<data offset="13760" size="4" shape="" element_type="f32"/>
			<output>
				<port id="0" precision="FP32"/>
			</output>
		</layer>
		<layer id="96" name="2561256512324" type="Const" version="opset1">
			<data offset="13764" size="432" shape="1,108,1,1" element_type="f32"/>
			<output>
				<port id="0" precision="FP32">
					<dim>1</dim>
					<dim>108</dim>
					<dim>1</dim>
					<dim>1</dim>
				</port>
			</output>
		</layer>
		<layer id="97" name="2562256611529" type="Const" version="opset1">
			<data offset="14196" size="432" shape="1,108,1,1" element_type="f32"/>
			<output>
				<port id="0" precision="FP32">
					<dim>1</dim>
					<dim>108</dim>
					<dim>1</dim>
					<dim>1</dim>
				</port>
			</output>
		</layer>
		<layer id="98" name="2563256712444" type="Const" version="opset1">
			<data offset="13764" size="432" shape="1,108,1,1" element_type="f32"/>
			<output>
				<port id="0" precision="FP32">
					<dim>1</dim>
					<dim>108</dim>
					<dim>1</dim>
					<dim>1</dim>
				</port>
			</output>
		</layer>
		<layer id="99" name="2564256812117" type="Const" version="opset1">
			<data offset="14196" size="432" shape="1,108,1,1" element_type="f32"/>
			<output>
				<port id="0" precision="FP32">
					<dim>1</dim>
					<dim>108</dim>
					<dim>1</dim>
					<dim>1</dim>
				</port>
			</output>
		</layer>
		<layer id="100" name="1471147511934" type="Const" version="opset1">
			<data offset="14628" size="4" shape="" element_type="f32"/>
			<output>
				<port id="0" precision="FP32"/>
			</output>
		</layer>
		<layer id="101" name="1472147611556" type="Const" version="opset1">
			<data offset="14632" size="4" shape="" element_type="f32"/>
			<output>
				<port id="0" precision="FP32"/>
			</output>
		</layer>
		<layer id="102" name="1473147712093" type="Const" version="opset1">
			<data offset="14628" size="4" shape="" element_type="f32"/>
			<output>
				<port id="0" precision="FP32"/>
			</output>
		</layer>
		<layer id="103" name="1474147812417" type="Const" version="opset1">
			<data offset="14632" size="4" shape="" element_type="f32"/>
			<output>
				<port id="0" precision="FP32"/>
			</output>
		</layer>
		<layer id="104" name="2601260511379" type="Const" version="opset1">
			<data offset="14636" size="4" shape="" element_type="f32"/>
			<output>
				<port id="0" precision="FP32"/>
			</output>
		</layer>
		<layer id="105" name="2602260612198" type="Const" version="opset1">
			<data offset="14640" size="4" shape="" element_type="f32"/>
			<output>
				<port id="0" precision="FP32"/>
			</output>
		</layer>
		<layer id="106" name="2603260712018" type="Const" version="opset1">
			<data offset="14636" size="4" shape="" element_type="f32"/>
			<output>
				<port id="0" precision="FP32"/>
			</output>
		</layer>
		<layer id="107" name="2604260812366" type="Const" version="opset1">
			<data offset="14640" size="4" shape="" element_type="f32"/>
			<output>
				<port id="0" precision="FP32"/>
			</output>
		</layer>
		<layer id="108" name="2101210511397" type="Const" version="opset1">
			<data offset="0" size="4" shape="" element_type="f32"/>
			<output>
				<port id="0" precision="FP32"/>
			</output>
		</layer>
		<layer id="109" name="2102210611148" type="Const" version="opset1">
			<data offset="14644" size="4" shape="" element_type="f32"/>
			<output>
				<port id="0" precision="FP32"/>
			</output>
		</layer>
		<layer id="110" name="2103210712021" type="Const" version="opset1">
			<data offset="0" size="4" shape="" element_type="f32"/>
			<output>
				<port id="0" precision="FP32"/>
			</output>
		</layer>
		<layer id="111" name="2104210811127" type="Const" version="opset1">
			<data offset="14644" size="4" shape="" element_type="f32"/>
			<output>
				<port id="0" precision="FP32"/>
			</output>
		</layer>
		<layer id="112" name="2461246511268" type="Const" version="opset1">
			<data offset="14648" size="288" shape="1,72,1,1" element_type="f32"/>
			<output>
				<port id="0" precision="FP32">
					<dim>1</dim>
					<dim>72</dim>
					<dim>1</dim>
					<dim>1</dim>
				</port>
			</output>
		</layer>
		<layer id="113" name="2462246612489" type="Const" version="opset1">
			<data offset="14936" size="288" shape="1,72,1,1" element_type="f32"/>
			<output>
				<port id="0" precision="FP32">
					<dim>1</dim>
					<dim>72</dim>
					<dim>1</dim>
					<dim>1</dim>
				</port>
			</output>
		</layer>
		<layer id="114" name="2463246711175" type="Const" version="opset1">
			<data offset="14648" size="288" shape="1,72,1,1" element_type="f32"/>
			<output>
				<port id="0" precision="FP32">
					<dim>1</dim>
					<dim>72</dim>
					<dim>1</dim>
					<dim>1</dim>
				</port>
			</output>
		</layer>
		<layer id="115" name="2464246812111" type="Const" version="opset1">
			<data offset="14936" size="288" shape="1,72,1,1" element_type="f32"/>
			<output>
				<port id="0" precision="FP32">
					<dim>1</dim>
					<dim>72</dim>
					<dim>1</dim>
					<dim>1</dim>
				</port>
			</output>
		</layer>
		<layer id="116" name="1961196512204" type="Const" version="opset1">
			<data offset="15224" size="4" shape="" element_type="f32"/>
			<output>
				<port id="0" precision="FP32"/>
			</output>
		</layer>
		<layer id="117" name="1962196611862" type="Const" version="opset1">
			<data offset="15228" size="4" shape="" element_type="f32"/>
			<output>
				<port id="0" precision="FP32"/>
			</output>
		</layer>
		<layer id="118" name="1963196712015" type="Const" version="opset1">
			<data offset="15224" size="4" shape="" element_type="f32"/>
			<output>
				<port id="0" precision="FP32"/>
			</output>
		</layer>
		<layer id="119" name="1964196811937" type="Const" version="opset1">
			<data offset="15228" size="4" shape="" element_type="f32"/>
			<output>
				<port id="0" precision="FP32"/>
			</output>
		</layer>
		<layer id="120" name="1781178511727" type="Const" version="opset1">
			<data offset="0" size="4" shape="" element_type="f32"/>
			<output>
				<port id="0" precision="FP32"/>
			</output>
		</layer>
		<layer id="121" name="1782178611697" type="Const" version="opset1">
			<data offset="15232" size="4" shape="" element_type="f32"/>
			<output>
				<port id="0" precision="FP32"/>
			</output>
		</layer>
		<layer id="122" name="1783178711994" type="Const" version="opset1">
			<data offset="0" size="4" shape="" element_type="f32"/>
			<output>
				<port id="0" precision="FP32"/>
			</output>
		</layer>
		<layer id="123" name="1784178812078" type="Const" version="opset1">
			<data offset="15232" size="4" shape="" element_type="f32"/>
			<output>
				<port id="0" precision="FP32"/>
			</output>
		</layer>
		<layer id="124" name="1821182511589" type="Const" version="opset1">
			<data offset="15236" size="96" shape="1,24,1,1" element_type="f32"/>
			<output>
				<port id="0" precision="FP32">
					<dim>1</dim>
					<dim>24</dim>
					<dim>1</dim>
					<dim>1</dim>
				</port>
			</output>
		</layer>
		<layer id="125" name="1822182611232" type="Const" version="opset1">
			<data offset="15332" size="96" shape="1,24,1,1" element_type="f32"/>
			<output>
				<port id="0" precision="FP32">
					<dim>1</dim>
					<dim>24</dim>
					<dim>1</dim>
					<dim>1</dim>
				</port>
			</output>
		</layer>
		<layer id="126" name="1823182711469" type="Const" version="opset1">
			<data offset="15236" size="96" shape="1,24,1,1" element_type="f32"/>
			<output>
				<port id="0" precision="FP32">
					<dim>1</dim>
					<dim>24</dim>
					<dim>1</dim>
					<dim>1</dim>
				</port>
			</output>
		</layer>
		<layer id="127" name="1824182812225" type="Const" version="opset1">
			<data offset="15332" size="96" shape="1,24,1,1" element_type="f32"/>
			<output>
				<port id="0" precision="FP32">
					<dim>1</dim>
					<dim>24</dim>
					<dim>1</dim>
					<dim>1</dim>
				</port>
			</output>
		</layer>
		<layer id="128" name="1901190511709" type="Const" version="opset1">
			<data offset="15428" size="4" shape="" element_type="f32"/>
			<output>
				<port id="0" precision="FP32"/>
			</output>
		</layer>
		<layer id="129" name="1902190612057" type="Const" version="opset1">
			<data offset="15432" size="4" shape="" element_type="f32"/>
			<output>
				<port id="0" precision="FP32"/>
			</output>
		</layer>
		<layer id="130" name="1903190712150" type="Const" version="opset1">
			<data offset="15428" size="4" shape="" element_type="f32"/>
			<output>
				<port id="0" precision="FP32"/>
			</output>
		</layer>
		<layer id="131" name="1904190811217" type="Const" version="opset1">
			<data offset="15432" size="4" shape="" element_type="f32"/>
			<output>
				<port id="0" precision="FP32"/>
			</output>
		</layer>
		<layer id="132" name="1651165511265" type="Const" version="opset1">
			<data offset="0" size="4" shape="" element_type="f32"/>
			<output>
				<port id="0" precision="FP32"/>
			</output>
		</layer>
		<layer id="133" name="1652165611508" type="Const" version="opset1">
			<data offset="15436" size="4" shape="" element_type="f32"/>
			<output>
				<port id="0" precision="FP32"/>
			</output>
		</layer>
		<layer id="134" name="1653165711157" type="Const" version="opset1">
			<data offset="0" size="4" shape="" element_type="f32"/>
			<output>
				<port id="0" precision="FP32"/>
			</output>
		</layer>
		<layer id="135" name="1654165812120" type="Const" version="opset1">
			<data offset="15436" size="4" shape="" element_type="f32"/>
			<output>
				<port id="0" precision="FP32"/>
			</output>
		</layer>
		<layer id="137" name="Constant_680543812216" type="Const" version="opset1">
			<data offset="15440" size="2" shape="1,1,1,1" element_type="f16"/>
			<output>
				<port id="0" precision="FP16">
					<dim>1</dim>
					<dim>1</dim>
					<dim>1</dim>
					<dim>1</dim>
				</port>
			</output>
		</layer>
		<layer id="138" name="Constant_68054385883/restored_convert" type="Convert" version="opset1">
			<data destination_type="f32"/>
			<rt_info>
				<attribute name="decompression" version="0"/>
				<attribute name="preprocessing" version="0"/>
			</rt_info>
			<input>
				<port id="0">
					<dim>1</dim>
					<dim>1</dim>
					<dim>1</dim>
					<dim>1</dim>
				</port>
			</input>
			<output>
				<port id="1" precision="FP32">
					<dim>1</dim>
					<dim>1</dim>
					<dim>1</dim>
					<dim>1</dim>
				</port>
			</output>
		</layer>
		<layer id="139" name="Divide_1225" type="Multiply" version="opset1">
			<data auto_broadcast="numpy"/>
			<rt_info>
				<attribute name="preprocessing" version="0"/>
			</rt_info>
			<input>
				<port id="0">
					<dim>1</dim>
					<dim>3</dim>
					<dim>300</dim>
					<dim>300</dim>
				</port>
				<port id="1">
					<dim>1</dim>
					<dim>1</dim>
					<dim>1</dim>
					<dim>1</dim>
				</port>
			</input>
			<output>
				<port id="2" precision="FP32">
					<dim>1</dim>
					<dim>3</dim>
					<dim>300</dim>
					<dim>300</dim>
				</port>
			</output>
		</layer>
		<layer id="140" name="Multiply_5758/fq_input_0" type="FakeQuantize" version="opset1">
			<data levels="256" auto_broadcast="numpy"/>
			<input>
				<port id="0">
					<dim>1</dim>
					<dim>3</dim>
					<dim>300</dim>
					<dim>300</dim>
				</port>
				<port id="1"/>
				<port id="2"/>
				<port id="3"/>
				<port id="4"/>
			</input>
			<output>
				<port id="5" precision="FP32">
					<dim>1</dim>
					<dim>3</dim>
					<dim>300</dim>
					<dim>300</dim>
				</port>
			</output>
		</layer>
		<layer id="141" name="Gather_679844111490" type="Const" version="opset1">
			<data offset="15442" size="6" shape="1,3,1,1" element_type="f16"/>
			<output>
				<port id="0" precision="FP16">
					<dim>1</dim>
					<dim>3</dim>
					<dim>1</dim>
					<dim>1</dim>
				</port>
			</output>
		</layer>
		<layer id="142" name="Gather_67984415884/restored_convert" type="Convert" version="opset1">
			<data destination_type="f32"/>
			<rt_info>
				<attribute name="decompression" version="0"/>
				<attribute name="preprocessing" version="0"/>
			</rt_info>
			<input>
				<port id="0">
					<dim>1</dim>
					<dim>3</dim>
					<dim>1</dim>
					<dim>1</dim>
				</port>
			</input>
			<output>
				<port id="1" precision="FP32">
					<dim>1</dim>
					<dim>3</dim>
					<dim>1</dim>
					<dim>1</dim>
				</port>
			</output>
		</layer>
		<layer id="143" name="Multiply_5758" type="Multiply" version="opset1">
			<data auto_broadcast="numpy"/>
			<input>
				<port id="0">
					<dim>1</dim>
					<dim>3</dim>
					<dim>300</dim>
					<dim>300</dim>
				</port>
				<port id="1">
					<dim>1</dim>
					<dim>3</dim>
					<dim>1</dim>
					<dim>1</dim>
				</port>
			</input>
			<output>
				<port id="2" precision="FP32">
					<dim>1</dim>
					<dim>3</dim>
					<dim>300</dim>
					<dim>300</dim>
				</port>
			</output>
		</layer>
		<layer id="144" name="Gather_680144411352" type="Const" version="opset1">
			<data offset="15448" size="6" shape="1,3,1,1" element_type="f16"/>
			<output>
				<port id="0" precision="FP16">
					<dim>1</dim>
					<dim>3</dim>
					<dim>1</dim>
					<dim>1</dim>
				</port>
			</output>
		</layer>
		<layer id="145" name="Gather_68014445885/restored_convert" type="Convert" version="opset1">
			<data destination_type="f32"/>
			<rt_info>
				<attribute name="decompression" version="0"/>
				<attribute name="preprocessing" version="0"/>
			</rt_info>
			<input>
				<port id="0">
					<dim>1</dim>
					<dim>3</dim>
					<dim>1</dim>
					<dim>1</dim>
				</port>
			</input>
			<output>
				<port id="1" precision="FP32">
					<dim>1</dim>
					<dim>3</dim>
					<dim>1</dim>
					<dim>1</dim>
				</port>
			</output>
		</layer>
		<layer id="146" name="331" type="Add" version="opset1">
			<data auto_broadcast="numpy"/>
			<input>
				<port id="0">
					<dim>1</dim>
					<dim>3</dim>
					<dim>300</dim>
					<dim>300</dim>
				</port>
				<port id="1">
					<dim>1</dim>
					<dim>3</dim>
					<dim>1</dim>
					<dim>1</dim>
				</port>
			</input>
			<output>
				<port id="2" precision="FP32" names="331">
					<dim>1</dim>
					<dim>3</dim>
					<dim>300</dim>
					<dim>300</dim>
				</port>
			</output>
		</layer>
		<layer id="147" name="Multiply_5765/fq_input_0" type="FakeQuantize" version="opset1">
			<data levels="256" auto_broadcast="numpy"/>
			<input>
				<port id="0">
					<dim>1</dim>
					<dim>3</dim>
					<dim>300</dim>
					<dim>300</dim>
				</port>
				<port id="1"/>
				<port id="2"/>
				<port id="3"/>
				<port id="4"/>
			</input>
			<output>
				<port id="5" precision="FP32">
					<dim>1</dim>
					<dim>3</dim>
					<dim>300</dim>
					<dim>300</dim>
				</port>
			</output>
		</layer>
		<layer id="148" name="Multiply_5765/fq_weights_1/scale748911421" type="Const" version="opset1">
			<data offset="15454" size="96" shape="24,1,1,1" element_type="f32"/>
			<output>
				<port id="0" precision="FP32">
					<dim>24</dim>
					<dim>1</dim>
					<dim>1</dim>
					<dim>1</dim>
				</port>
			</output>
		</layer>
		<layer id="149" name="Gather_68044475886/restored_convert/quantized748111361" type="Const" version="opset1">
			<data offset="15550" size="648" shape="24,3,3,3" element_type="i8"/>
			<output>
				<port id="0" precision="I8">
					<dim>24</dim>
					<dim>3</dim>
					<dim>3</dim>
					<dim>3</dim>
				</port>
			</output>
		</layer>
		<layer id="150" name="Gather_68044475886/restored_convert/quantized/to_f32" type="Convert" version="opset1">
			<data destination_type="f32"/>
			<input>
				<port id="0">
					<dim>24</dim>
					<dim>3</dim>
					<dim>3</dim>
					<dim>3</dim>
				</port>
			</input>
			<output>
				<port id="1" precision="FP32">
					<dim>24</dim>
					<dim>3</dim>
					<dim>3</dim>
					<dim>3</dim>
				</port>
			</output>
		</layer>
		<layer id="151" name="Multiply_5765/fq_weights_1/mulpiply_by_scale" type="Multiply" version="opset1">
			<data auto_broadcast="numpy"/>
			<input>
				<port id="0">
					<dim>24</dim>
					<dim>3</dim>
					<dim>3</dim>
					<dim>3</dim>
				</port>
				<port id="1">
					<dim>24</dim>
					<dim>1</dim>
					<dim>1</dim>
					<dim>1</dim>
				</port>
			</input>
			<output>
				<port id="2" precision="FP32">
					<dim>24</dim>
					<dim>3</dim>
					<dim>3</dim>
					<dim>3</dim>
				</port>
			</output>
		</layer>
		<layer id="152" name="Multiply_5765" type="Convolution" version="opset1">
			<data auto_pad="explicit" strides="2,2" dilations="1,1" pads_begin="1,1" pads_end="1,1"/>
			<input>
				<port id="0">
					<dim>1</dim>
					<dim>3</dim>
					<dim>300</dim>
					<dim>300</dim>
				</port>
				<port id="1">
					<dim>24</dim>
					<dim>3</dim>
					<dim>3</dim>
					<dim>3</dim>
				</port>
			</input>
			<output>
				<port id="2" precision="FP32">
					<dim>1</dim>
					<dim>24</dim>
					<dim>150</dim>
					<dim>150</dim>
				</port>
			</output>
		</layer>
		<layer id="153" name="Constant_577045011253" type="Const" version="opset1">
			<data offset="16198" size="48" shape="1,24,1,1" element_type="f16"/>
			<output>
				<port id="0" precision="FP16">
					<dim>1</dim>
					<dim>24</dim>
					<dim>1</dim>
					<dim>1</dim>
				</port>
			</output>
		</layer>
		<layer id="154" name="Constant_57704505887/restored_convert" type="Convert" version="opset1">
			<data destination_type="f32"/>
			<rt_info>
				<attribute name="decompression" version="0"/>
			</rt_info>
			<input>
				<port id="0">
					<dim>1</dim>
					<dim>24</dim>
					<dim>1</dim>
					<dim>1</dim>
				</port>
			</input>
			<output>
				<port id="1" precision="FP32">
					<dim>1</dim>
					<dim>24</dim>
					<dim>1</dim>
					<dim>1</dim>
				</port>
			</output>
		</layer>
		<layer id="155" name="333" type="Add" version="opset1">
			<data auto_broadcast="numpy"/>
			<input>
				<port id="0">
					<dim>1</dim>
					<dim>24</dim>
					<dim>150</dim>
					<dim>150</dim>
				</port>
				<port id="1">
					<dim>1</dim>
					<dim>24</dim>
					<dim>1</dim>
					<dim>1</dim>
				</port>
			</input>
			<output>
				<port id="2" precision="FP32" names="333">
					<dim>1</dim>
					<dim>24</dim>
					<dim>150</dim>
					<dim>150</dim>
				</port>
			</output>
		</layer>
		<layer id="156" name="334" type="ReLU" version="opset1">
			<input>
				<port id="0">
					<dim>1</dim>
					<dim>24</dim>
					<dim>150</dim>
					<dim>150</dim>
				</port>
			</input>
			<output>
				<port id="1" precision="FP32" names="334">
					<dim>1</dim>
					<dim>24</dim>
					<dim>150</dim>
					<dim>150</dim>
				</port>
			</output>
		</layer>
		<layer id="157" name="Multiply_5772/fq_input_0" type="FakeQuantize" version="opset1">
			<data levels="256" auto_broadcast="numpy"/>
			<input>
				<port id="0">
					<dim>1</dim>
					<dim>24</dim>
					<dim>150</dim>
					<dim>150</dim>
				</port>
				<port id="1">
					<dim>1</dim>
					<dim>24</dim>
					<dim>1</dim>
					<dim>1</dim>
				</port>
				<port id="2">
					<dim>1</dim>
					<dim>24</dim>
					<dim>1</dim>
					<dim>1</dim>
				</port>
				<port id="3">
					<dim>1</dim>
					<dim>24</dim>
					<dim>1</dim>
					<dim>1</dim>
				</port>
				<port id="4">
					<dim>1</dim>
					<dim>24</dim>
					<dim>1</dim>
					<dim>1</dim>
				</port>
			</input>
			<output>
				<port id="5" precision="FP32">
					<dim>1</dim>
					<dim>24</dim>
					<dim>150</dim>
					<dim>150</dim>
				</port>
			</output>
		</layer>
		<layer id="158" name="Multiply_5772/weights_shape982312441" type="Const" version="opset1">
			<data offset="16246" size="40" shape="5" element_type="i64"/>
			<output>
				<port id="0" precision="I64">
					<dim>5</dim>
				</port>
			</output>
		</layer>
		<layer id="159" name="Multiply_5772/fq_weights_1/scale745911457" type="Const" version="opset1">
			<data offset="16286" size="96" shape="24,1,1,1" element_type="f32"/>
			<output>
				<port id="0" precision="FP32">
					<dim>24</dim>
					<dim>1</dim>
					<dim>1</dim>
					<dim>1</dim>
				</port>
			</output>
		</layer>
		<layer id="160" name="Multiply_61524545888/restored_convert/quantized745111292" type="Const" version="opset1">
			<data offset="16382" size="216" shape="24,1,3,3" element_type="i8"/>
			<output>
				<port id="0" precision="I8">
					<dim>24</dim>
					<dim>1</dim>
					<dim>3</dim>
					<dim>3</dim>
				</port>
			</output>
		</layer>
		<layer id="161" name="Multiply_61524545888/restored_convert/quantized/to_f32" type="Convert" version="opset1">
			<data destination_type="f32"/>
			<input>
				<port id="0">
					<dim>24</dim>
					<dim>1</dim>
					<dim>3</dim>
					<dim>3</dim>
				</port>
			</input>
			<output>
				<port id="1" precision="FP32">
					<dim>24</dim>
					<dim>1</dim>
					<dim>3</dim>
					<dim>3</dim>
				</port>
			</output>
		</layer>
		<layer id="162" name="Multiply_5772/fq_weights_1/mulpiply_by_scale" type="Multiply" version="opset1">
			<data auto_broadcast="numpy"/>
			<input>
				<port id="0">
					<dim>24</dim>
					<dim>1</dim>
					<dim>3</dim>
					<dim>3</dim>
				</port>
				<port id="1">
					<dim>24</dim>
					<dim>1</dim>
					<dim>1</dim>
					<dim>1</dim>
				</port>
			</input>
			<output>
				<port id="2" precision="FP32">
					<dim>24</dim>
					<dim>1</dim>
					<dim>3</dim>
					<dim>3</dim>
				</port>
			</output>
		</layer>
		<layer id="163" name="9822" type="Reshape" version="opset1">
			<data special_zero="true"/>
			<input>
				<port id="0">
					<dim>24</dim>
					<dim>1</dim>
					<dim>3</dim>
					<dim>3</dim>
				</port>
				<port id="1">
					<dim>5</dim>
				</port>
			</input>
			<output>
				<port id="2" precision="FP32">
					<dim>24</dim>
					<dim>1</dim>
					<dim>1</dim>
					<dim>3</dim>
					<dim>3</dim>
				</port>
			</output>
		</layer>
		<layer id="164" name="Multiply_5772" type="GroupConvolution" version="opset1">
			<data auto_pad="explicit" strides="1,1" dilations="1,1" pads_begin="1,1" pads_end="1,1"/>
			<input>
				<port id="0">
					<dim>1</dim>
					<dim>24</dim>
					<dim>150</dim>
					<dim>150</dim>
				</port>
				<port id="1">
					<dim>24</dim>
					<dim>1</dim>
					<dim>1</dim>
					<dim>3</dim>
					<dim>3</dim>
				</port>
			</input>
			<output>
				<port id="2" precision="FP32" names="335">
					<dim>1</dim>
					<dim>24</dim>
					<dim>150</dim>
					<dim>150</dim>
				</port>
			</output>
		</layer>
		<layer id="165" name="Constant_577745711337" type="Const" version="opset1">
			<data offset="16598" size="48" shape="1,24,1,1" element_type="f16"/>
			<output>
				<port id="0" precision="FP16">
					<dim>1</dim>
					<dim>24</dim>
					<dim>1</dim>
					<dim>1</dim>
				</port>
			</output>
		</layer>
		<layer id="166" name="Constant_57774575889/restored_convert" type="Convert" version="opset1">
			<data destination_type="f32"/>
			<rt_info>
				<attribute name="decompression" version="0"/>
			</rt_info>
			<input>
				<port id="0">
					<dim>1</dim>
					<dim>24</dim>
					<dim>1</dim>
					<dim>1</dim>
				</port>
			</input>
			<output>
				<port id="1" precision="FP32">
					<dim>1</dim>
					<dim>24</dim>
					<dim>1</dim>
					<dim>1</dim>
				</port>
			</output>
		</layer>
		<layer id="167" name="336" type="Add" version="opset1">
			<data auto_broadcast="numpy"/>
			<input>
				<port id="0">
					<dim>1</dim>
					<dim>24</dim>
					<dim>150</dim>
					<dim>150</dim>
				</port>
				<port id="1">
					<dim>1</dim>
					<dim>24</dim>
					<dim>1</dim>
					<dim>1</dim>
				</port>
			</input>
			<output>
				<port id="2" precision="FP32" names="336">
					<dim>1</dim>
					<dim>24</dim>
					<dim>150</dim>
					<dim>150</dim>
				</port>
			</output>
		</layer>
		<layer id="168" name="337" type="ReLU" version="opset1">
			<input>
				<port id="0">
					<dim>1</dim>
					<dim>24</dim>
					<dim>150</dim>
					<dim>150</dim>
				</port>
			</input>
			<output>
				<port id="1" precision="FP32" names="337">
					<dim>1</dim>
					<dim>24</dim>
					<dim>150</dim>
					<dim>150</dim>
				</port>
			</output>
		</layer>
		<layer id="169" name="Multiply_5779/fq_input_0" type="FakeQuantize" version="opset1">
			<data levels="256" auto_broadcast="numpy"/>
			<input>
				<port id="0">
					<dim>1</dim>
					<dim>24</dim>
					<dim>150</dim>
					<dim>150</dim>
				</port>
				<port id="1"/>
				<port id="2"/>
				<port id="3"/>
				<port id="4"/>
			</input>
			<output>
				<port id="5" precision="FP32">
					<dim>1</dim>
					<dim>24</dim>
					<dim>150</dim>
					<dim>150</dim>
				</port>
			</output>
		</layer>
		<layer id="170" name="Multiply_5779/fq_weights_1/scale820912447" type="Const" version="opset1">
			<data offset="16646" size="48" shape="12,1,1,1" element_type="f32"/>
			<output>
				<port id="0" precision="FP32">
					<dim>12</dim>
					<dim>1</dim>
					<dim>1</dim>
					<dim>1</dim>
				</port>
			</output>
		</layer>
		<layer id="171" name="Multiply_61574615890/restored_convert/quantized820112492" type="Const" version="opset1">
			<data offset="16694" size="288" shape="12,24,1,1" element_type="i8"/>
			<output>
				<port id="0" precision="I8">
					<dim>12</dim>
					<dim>24</dim>
					<dim>1</dim>
					<dim>1</dim>
				</port>
			</output>
		</layer>
		<layer id="172" name="Multiply_61574615890/restored_convert/quantized/to_f32" type="Convert" version="opset1">
			<data destination_type="f32"/>
			<input>
				<port id="0">
					<dim>12</dim>
					<dim>24</dim>
					<dim>1</dim>
					<dim>1</dim>
				</port>
			</input>
			<output>
				<port id="1" precision="FP32">
					<dim>12</dim>
					<dim>24</dim>
					<dim>1</dim>
					<dim>1</dim>
				</port>
			</output>
		</layer>
		<layer id="173" name="Multiply_5779/fq_weights_1/mulpiply_by_scale" type="Multiply" version="opset1">
			<data auto_broadcast="numpy"/>
			<input>
				<port id="0">
					<dim>12</dim>
					<dim>24</dim>
					<dim>1</dim>
					<dim>1</dim>
				</port>
				<port id="1">
					<dim>12</dim>
					<dim>1</dim>
					<dim>1</dim>
					<dim>1</dim>
				</port>
			</input>
			<output>
				<port id="2" precision="FP32">
					<dim>12</dim>
					<dim>24</dim>
					<dim>1</dim>
					<dim>1</dim>
				</port>
			</output>
		</layer>
		<layer id="174" name="Multiply_5779" type="Convolution" version="opset1">
			<data auto_pad="explicit" strides="1,1" dilations="1,1" pads_begin="0,0" pads_end="0,0"/>
			<input>
				<port id="0">
					<dim>1</dim>
					<dim>24</dim>
					<dim>150</dim>
					<dim>150</dim>
				</port>
				<port id="1">
					<dim>12</dim>
					<dim>24</dim>
					<dim>1</dim>
					<dim>1</dim>
				</port>
			</input>
			<output>
				<port id="2" precision="FP32">
					<dim>1</dim>
					<dim>12</dim>
					<dim>150</dim>
					<dim>150</dim>
				</port>
			</output>
		</layer>
		<layer id="175" name="Constant_578446411823" type="Const" version="opset1">
			<data offset="16982" size="24" shape="1,12,1,1" element_type="f16"/>
			<output>
				<port id="0" precision="FP16">
					<dim>1</dim>
					<dim>12</dim>
					<dim>1</dim>
					<dim>1</dim>
				</port>
			</output>
		</layer>
		<layer id="176" name="Constant_57844645891/restored_convert" type="Convert" version="opset1">
			<data destination_type="f32"/>
			<rt_info>
				<attribute name="decompression" version="0"/>
			</rt_info>
			<input>
				<port id="0">
					<dim>1</dim>
					<dim>12</dim>
					<dim>1</dim>
					<dim>1</dim>
				</port>
			</input>
			<output>
				<port id="1" precision="FP32">
					<dim>1</dim>
					<dim>12</dim>
					<dim>1</dim>
					<dim>1</dim>
				</port>
			</output>
		</layer>
		<layer id="177" name="339" type="Add" version="opset1">
			<data auto_broadcast="numpy"/>
			<input>
				<port id="0">
					<dim>1</dim>
					<dim>12</dim>
					<dim>150</dim>
					<dim>150</dim>
				</port>
				<port id="1">
					<dim>1</dim>
					<dim>12</dim>
					<dim>1</dim>
					<dim>1</dim>
				</port>
			</input>
			<output>
				<port id="2" precision="FP32" names="339">
					<dim>1</dim>
					<dim>12</dim>
					<dim>150</dim>
					<dim>150</dim>
				</port>
			</output>
		</layer>
		<layer id="178" name="Multiply_5786/fq_input_0" type="FakeQuantize" version="opset1">
			<data levels="256" auto_broadcast="numpy"/>
			<input>
				<port id="0">
					<dim>1</dim>
					<dim>12</dim>
					<dim>150</dim>
					<dim>150</dim>
				</port>
				<port id="1"/>
				<port id="2"/>
				<port id="3"/>
				<port id="4"/>
			</input>
			<output>
				<port id="5" precision="FP32">
					<dim>1</dim>
					<dim>12</dim>
					<dim>150</dim>
					<dim>150</dim>
				</port>
			</output>
		</layer>
		<layer id="179" name="Multiply_5786/fq_weights_1/scale727911163" type="Const" version="opset1">
			<data offset="17006" size="288" shape="72,1,1,1" element_type="f32"/>
			<output>
				<port id="0" precision="FP32">
					<dim>72</dim>
					<dim>1</dim>
					<dim>1</dim>
					<dim>1</dim>
				</port>
			</output>
		</layer>
		<layer id="180" name="Multiply_61634675892/restored_convert/quantized727111754" type="Const" version="opset1">
			<data offset="17294" size="864" shape="72,12,1,1" element_type="i8"/>
			<output>
				<port id="0" precision="I8">
					<dim>72</dim>
					<dim>12</dim>
					<dim>1</dim>
					<dim>1</dim>
				</port>
			</output>
		</layer>
		<layer id="181" name="Multiply_61634675892/restored_convert/quantized/to_f32" type="Convert" version="opset1">
			<data destination_type="f32"/>
			<input>
				<port id="0">
					<dim>72</dim>
					<dim>12</dim>
					<dim>1</dim>
					<dim>1</dim>
				</port>
			</input>
			<output>
				<port id="1" precision="FP32">
					<dim>72</dim>
					<dim>12</dim>
					<dim>1</dim>
					<dim>1</dim>
				</port>
			</output>
		</layer>
		<layer id="182" name="Multiply_5786/fq_weights_1/mulpiply_by_scale" type="Multiply" version="opset1">
			<data auto_broadcast="numpy"/>
			<input>
				<port id="0">
					<dim>72</dim>
					<dim>12</dim>
					<dim>1</dim>
					<dim>1</dim>
				</port>
				<port id="1">
					<dim>72</dim>
					<dim>1</dim>
					<dim>1</dim>
					<dim>1</dim>
				</port>
			</input>
			<output>
				<port id="2" precision="FP32">
					<dim>72</dim>
					<dim>12</dim>
					<dim>1</dim>
					<dim>1</dim>
				</port>
			</output>
		</layer>
		<layer id="183" name="Multiply_5786" type="Convolution" version="opset1">
			<data auto_pad="explicit" strides="1,1" dilations="1,1" pads_begin="0,0" pads_end="0,0"/>
			<input>
				<port id="0">
					<dim>1</dim>
					<dim>12</dim>
					<dim>150</dim>
					<dim>150</dim>
				</port>
				<port id="1">
					<dim>72</dim>
					<dim>12</dim>
					<dim>1</dim>
					<dim>1</dim>
				</port>
			</input>
			<output>
				<port id="2" precision="FP32">
					<dim>1</dim>
					<dim>72</dim>
					<dim>150</dim>
					<dim>150</dim>
				</port>
			</output>
		</layer>
		<layer id="184" name="Constant_579147011442" type="Const" version="opset1">
			<data offset="18158" size="144" shape="1,72,1,1" element_type="f16"/>
			<output>
				<port id="0" precision="FP16">
					<dim>1</dim>
					<dim>72</dim>
					<dim>1</dim>
					<dim>1</dim>
				</port>
			</output>
		</layer>
		<layer id="185" name="Constant_57914705893/restored_convert" type="Convert" version="opset1">
			<data destination_type="f32"/>
			<rt_info>
				<attribute name="decompression" version="0"/>
			</rt_info>
			<input>
				<port id="0">
					<dim>1</dim>
					<dim>72</dim>
					<dim>1</dim>
					<dim>1</dim>
				</port>
			</input>
			<output>
				<port id="1" precision="FP32">
					<dim>1</dim>
					<dim>72</dim>
					<dim>1</dim>
					<dim>1</dim>
				</port>
			</output>
		</layer>
		<layer id="186" name="341" type="Add" version="opset1">
			<data auto_broadcast="numpy"/>
			<input>
				<port id="0">
					<dim>1</dim>
					<dim>72</dim>
					<dim>150</dim>
					<dim>150</dim>
				</port>
				<port id="1">
					<dim>1</dim>
					<dim>72</dim>
					<dim>1</dim>
					<dim>1</dim>
				</port>
			</input>
			<output>
				<port id="2" precision="FP32" names="341">
					<dim>1</dim>
					<dim>72</dim>
					<dim>150</dim>
					<dim>150</dim>
				</port>
			</output>
		</layer>
		<layer id="187" name="342" type="ReLU" version="opset1">
			<input>
				<port id="0">
					<dim>1</dim>
					<dim>72</dim>
					<dim>150</dim>
					<dim>150</dim>
				</port>
			</input>
			<output>
				<port id="1" precision="FP32" names="342">
					<dim>1</dim>
					<dim>72</dim>
					<dim>150</dim>
					<dim>150</dim>
				</port>
			</output>
		</layer>
		<layer id="188" name="Multiply_5793/fq_input_0" type="FakeQuantize" version="opset1">
			<data levels="256" auto_broadcast="numpy"/>
			<input>
				<port id="0">
					<dim>1</dim>
					<dim>72</dim>
					<dim>150</dim>
					<dim>150</dim>
				</port>
				<port id="1">
					<dim>1</dim>
					<dim>72</dim>
					<dim>1</dim>
					<dim>1</dim>
				</port>
				<port id="2">
					<dim>1</dim>
					<dim>72</dim>
					<dim>1</dim>
					<dim>1</dim>
				</port>
				<port id="3">
					<dim>1</dim>
					<dim>72</dim>
					<dim>1</dim>
					<dim>1</dim>
				</port>
				<port id="4">
					<dim>1</dim>
					<dim>72</dim>
					<dim>1</dim>
					<dim>1</dim>
				</port>
			</input>
			<output>
				<port id="5" precision="FP32">
					<dim>1</dim>
					<dim>72</dim>
					<dim>150</dim>
					<dim>150</dim>
				</port>
			</output>
		</layer>
		<layer id="189" name="Multiply_5793/weights_shape983712309" type="Const" version="opset1">
			<data offset="18302" size="40" shape="5" element_type="i64"/>
			<output>
				<port id="0" precision="I64">
					<dim>5</dim>
				</port>
			</output>
		</layer>
		<layer id="190" name="Multiply_5793/fq_weights_1/scale751912210" type="Const" version="opset1">
			<data offset="18342" size="288" shape="72,1,1,1" element_type="f32"/>
			<output>
				<port id="0" precision="FP32">
					<dim>72</dim>
					<dim>1</dim>
					<dim>1</dim>
					<dim>1</dim>
				</port>
			</output>
		</layer>
		<layer id="191" name="Multiply_61694745894/restored_convert/quantized751111988" type="Const" version="opset1">
			<data offset="18630" size="648" shape="72,1,3,3" element_type="i8"/>
			<output>
				<port id="0" precision="I8">
					<dim>72</dim>
					<dim>1</dim>
					<dim>3</dim>
					<dim>3</dim>
				</port>
			</output>
		</layer>
		<layer id="192" name="Multiply_61694745894/restored_convert/quantized/to_f32" type="Convert" version="opset1">
			<data destination_type="f32"/>
			<input>
				<port id="0">
					<dim>72</dim>
					<dim>1</dim>
					<dim>3</dim>
					<dim>3</dim>
				</port>
			</input>
			<output>
				<port id="1" precision="FP32">
					<dim>72</dim>
					<dim>1</dim>
					<dim>3</dim>
					<dim>3</dim>
				</port>
			</output>
		</layer>
		<layer id="193" name="Multiply_5793/fq_weights_1/mulpiply_by_scale" type="Multiply" version="opset1">
			<data auto_broadcast="numpy"/>
			<input>
				<port id="0">
					<dim>72</dim>
					<dim>1</dim>
					<dim>3</dim>
					<dim>3</dim>
				</port>
				<port id="1">
					<dim>72</dim>
					<dim>1</dim>
					<dim>1</dim>
					<dim>1</dim>
				</port>
			</input>
			<output>
				<port id="2" precision="FP32">
					<dim>72</dim>
					<dim>1</dim>
					<dim>3</dim>
					<dim>3</dim>
				</port>
			</output>
		</layer>
		<layer id="194" name="9836" type="Reshape" version="opset1">
			<data special_zero="true"/>
			<input>
				<port id="0">
					<dim>72</dim>
					<dim>1</dim>
					<dim>3</dim>
					<dim>3</dim>
				</port>
				<port id="1">
					<dim>5</dim>
				</port>
			</input>
			<output>
				<port id="2" precision="FP32">
					<dim>72</dim>
					<dim>1</dim>
					<dim>1</dim>
					<dim>3</dim>
					<dim>3</dim>
				</port>
			</output>
		</layer>
		<layer id="195" name="Multiply_5793" type="GroupConvolution" version="opset1">
			<data auto_pad="explicit" strides="2,2" dilations="1,1" pads_begin="1,1" pads_end="1,1"/>
			<input>
				<port id="0">
					<dim>1</dim>
					<dim>72</dim>
					<dim>150</dim>
					<dim>150</dim>
				</port>
				<port id="1">
					<dim>72</dim>
					<dim>1</dim>
					<dim>1</dim>
					<dim>3</dim>
					<dim>3</dim>
				</port>
			</input>
			<output>
				<port id="2" precision="FP32" names="343">
					<dim>1</dim>
					<dim>72</dim>
					<dim>75</dim>
					<dim>75</dim>
				</port>
			</output>
		</layer>
		<layer id="196" name="Constant_579847712291" type="Const" version="opset1">
			<data offset="19278" size="144" shape="1,72,1,1" element_type="f16"/>
			<output>
				<port id="0" precision="FP16">
					<dim>1</dim>
					<dim>72</dim>
					<dim>1</dim>
					<dim>1</dim>
				</port>
			</output>
		</layer>
		<layer id="197" name="Constant_57984775895/restored_convert" type="Convert" version="opset1">
			<data destination_type="f32"/>
			<rt_info>
				<attribute name="decompression" version="0"/>
			</rt_info>
			<input>
				<port id="0">
					<dim>1</dim>
					<dim>72</dim>
					<dim>1</dim>
					<dim>1</dim>
				</port>
			</input>
			<output>
				<port id="1" precision="FP32">
					<dim>1</dim>
					<dim>72</dim>
					<dim>1</dim>
					<dim>1</dim>
				</port>
			</output>
		</layer>
		<layer id="198" name="344" type="Add" version="opset1">
			<data auto_broadcast="numpy"/>
			<input>
				<port id="0">
					<dim>1</dim>
					<dim>72</dim>
					<dim>75</dim>
					<dim>75</dim>
				</port>
				<port id="1">
					<dim>1</dim>
					<dim>72</dim>
					<dim>1</dim>
					<dim>1</dim>
				</port>
			</input>
			<output>
				<port id="2" precision="FP32" names="344">
					<dim>1</dim>
					<dim>72</dim>
					<dim>75</dim>
					<dim>75</dim>
				</port>
			</output>
		</layer>
		<layer id="199" name="345" type="ReLU" version="opset1">
			<input>
				<port id="0">
					<dim>1</dim>
					<dim>72</dim>
					<dim>75</dim>
					<dim>75</dim>
				</port>
			</input>
			<output>
				<port id="1" precision="FP32" names="345">
					<dim>1</dim>
					<dim>72</dim>
					<dim>75</dim>
					<dim>75</dim>
				</port>
			</output>
		</layer>
		<layer id="200" name="Multiply_5800/fq_input_0" type="FakeQuantize" version="opset1">
			<data levels="256" auto_broadcast="numpy"/>
			<input>
				<port id="0">
					<dim>1</dim>
					<dim>72</dim>
					<dim>75</dim>
					<dim>75</dim>
				</port>
				<port id="1"/>
				<port id="2"/>
				<port id="3"/>
				<port id="4"/>
			</input>
			<output>
				<port id="5" precision="FP32">
					<dim>1</dim>
					<dim>72</dim>
					<dim>75</dim>
					<dim>75</dim>
				</port>
			</output>
		</layer>
		<layer id="201" name="Multiply_5800/fq_weights_1/scale811911400" type="Const" version="opset1">
			<data offset="19422" size="72" shape="18,1,1,1" element_type="f32"/>
			<output>
				<port id="0" precision="FP32">
					<dim>18</dim>
					<dim>1</dim>
					<dim>1</dim>
					<dim>1</dim>
				</port>
			</output>
		</layer>
		<layer id="202" name="Multiply_61744815896/restored_convert/quantized811112471" type="Const" version="opset1">
			<data offset="19494" size="1296" shape="18,72,1,1" element_type="i8"/>
			<output>
				<port id="0" precision="I8">
					<dim>18</dim>
					<dim>72</dim>
					<dim>1</dim>
					<dim>1</dim>
				</port>
			</output>
		</layer>
		<layer id="203" name="Multiply_61744815896/restored_convert/quantized/to_f32" type="Convert" version="opset1">
			<data destination_type="f32"/>
			<input>
				<port id="0">
					<dim>18</dim>
					<dim>72</dim>
					<dim>1</dim>
					<dim>1</dim>
				</port>
			</input>
			<output>
				<port id="1" precision="FP32">
					<dim>18</dim>
					<dim>72</dim>
					<dim>1</dim>
					<dim>1</dim>
				</port>
			</output>
		</layer>
		<layer id="204" name="Multiply_5800/fq_weights_1/mulpiply_by_scale" type="Multiply" version="opset1">
			<data auto_broadcast="numpy"/>
			<input>
				<port id="0">
					<dim>18</dim>
					<dim>72</dim>
					<dim>1</dim>
					<dim>1</dim>
				</port>
				<port id="1">
					<dim>18</dim>
					<dim>1</dim>
					<dim>1</dim>
					<dim>1</dim>
				</port>
			</input>
			<output>
				<port id="2" precision="FP32">
					<dim>18</dim>
					<dim>72</dim>
					<dim>1</dim>
					<dim>1</dim>
				</port>
			</output>
		</layer>
		<layer id="205" name="Multiply_5800" type="Convolution" version="opset1">
			<data auto_pad="explicit" strides="1,1" dilations="1,1" pads_begin="0,0" pads_end="0,0"/>
			<input>
				<port id="0">
					<dim>1</dim>
					<dim>72</dim>
					<dim>75</dim>
					<dim>75</dim>
				</port>
				<port id="1">
					<dim>18</dim>
					<dim>72</dim>
					<dim>1</dim>
					<dim>1</dim>
				</port>
			</input>
			<output>
				<port id="2" precision="FP32">
					<dim>1</dim>
					<dim>18</dim>
					<dim>75</dim>
					<dim>75</dim>
				</port>
			</output>
		</layer>
		<layer id="206" name="Constant_580548411139" type="Const" version="opset1">
			<data offset="20790" size="36" shape="1,18,1,1" element_type="f16"/>
			<output>
				<port id="0" precision="FP16">
					<dim>1</dim>
					<dim>18</dim>
					<dim>1</dim>
					<dim>1</dim>
				</port>
			</output>
		</layer>
		<layer id="207" name="Constant_58054845897/restored_convert" type="Convert" version="opset1">
			<data destination_type="f32"/>
			<rt_info>
				<attribute name="decompression" version="0"/>
			</rt_info>
			<input>
				<port id="0">
					<dim>1</dim>
					<dim>18</dim>
					<dim>1</dim>
					<dim>1</dim>
				</port>
			</input>
			<output>
				<port id="1" precision="FP32">
					<dim>1</dim>
					<dim>18</dim>
					<dim>1</dim>
					<dim>1</dim>
				</port>
			</output>
		</layer>
		<layer id="208" name="347" type="Add" version="opset1">
			<data auto_broadcast="numpy"/>
			<input>
				<port id="0">
					<dim>1</dim>
					<dim>18</dim>
					<dim>75</dim>
					<dim>75</dim>
				</port>
				<port id="1">
					<dim>1</dim>
					<dim>18</dim>
					<dim>1</dim>
					<dim>1</dim>
				</port>
			</input>
			<output>
				<port id="2" precision="FP32" names="347">
					<dim>1</dim>
					<dim>18</dim>
					<dim>75</dim>
					<dim>75</dim>
				</port>
			</output>
		</layer>
		<layer id="209" name="356/fq_input_0" type="FakeQuantize" version="opset1">
			<data levels="256" auto_broadcast="numpy"/>
			<input>
				<port id="0">
					<dim>1</dim>
					<dim>18</dim>
					<dim>75</dim>
					<dim>75</dim>
				</port>
				<port id="1"/>
				<port id="2"/>
				<port id="3"/>
				<port id="4"/>
			</input>
			<output>
				<port id="5" precision="FP32">
					<dim>1</dim>
					<dim>18</dim>
					<dim>75</dim>
					<dim>75</dim>
				</port>
			</output>
		</layer>
		<layer id="210" name="2611261511730" type="Const" version="opset1">
			<data offset="20826" size="4" shape="" element_type="f32"/>
			<output>
				<port id="0" precision="FP32"/>
			</output>
		</layer>
		<layer id="211" name="2612261612456" type="Const" version="opset1">
			<data offset="20830" size="4" shape="" element_type="f32"/>
			<output>
				<port id="0" precision="FP32"/>
			</output>
		</layer>
		<layer id="212" name="2613261711178" type="Const" version="opset1">
			<data offset="20826" size="4" shape="" element_type="f32"/>
			<output>
				<port id="0" precision="FP32"/>
			</output>
		</layer>
		<layer id="213" name="2614261811220" type="Const" version="opset1">
			<data offset="20830" size="4" shape="" element_type="f32"/>
			<output>
				<port id="0" precision="FP32"/>
			</output>
		</layer>
		<layer id="214" name="2501250512096" type="Const" version="opset1">
			<data offset="0" size="4" shape="" element_type="f32"/>
			<output>
				<port id="0" precision="FP32"/>
			</output>
		</layer>
		<layer id="215" name="2502250611349" type="Const" version="opset1">
			<data offset="20834" size="4" shape="" element_type="f32"/>
			<output>
				<port id="0" precision="FP32"/>
			</output>
		</layer>
		<layer id="216" name="2503250712258" type="Const" version="opset1">
			<data offset="0" size="4" shape="" element_type="f32"/>
			<output>
				<port id="0" precision="FP32"/>
			</output>
		</layer>
		<layer id="217" name="2504250811196" type="Const" version="opset1">
			<data offset="20834" size="4" shape="" element_type="f32"/>
			<output>
				<port id="0" precision="FP32"/>
			</output>
		</layer>
		<layer id="218" name="1661166512027" type="Const" version="opset1">
			<data offset="13764" size="432" shape="1,108,1,1" element_type="f32"/>
			<output>
				<port id="0" precision="FP32">
					<dim>1</dim>
					<dim>108</dim>
					<dim>1</dim>
					<dim>1</dim>
				</port>
			</output>
		</layer>
		<layer id="219" name="1662166612141" type="Const" version="opset1">
			<data offset="20838" size="432" shape="1,108,1,1" element_type="f32"/>
			<output>
				<port id="0" precision="FP32">
					<dim>1</dim>
					<dim>108</dim>
					<dim>1</dim>
					<dim>1</dim>
				</port>
			</output>
		</layer>
		<layer id="220" name="1663166711271" type="Const" version="opset1">
			<data offset="13764" size="432" shape="1,108,1,1" element_type="f32"/>
			<output>
				<port id="0" precision="FP32">
					<dim>1</dim>
					<dim>108</dim>
					<dim>1</dim>
					<dim>1</dim>
				</port>
			</output>
		</layer>
		<layer id="221" name="1664166811493" type="Const" version="opset1">
			<data offset="20838" size="432" shape="1,108,1,1" element_type="f32"/>
			<output>
				<port id="0" precision="FP32">
					<dim>1</dim>
					<dim>108</dim>
					<dim>1</dim>
					<dim>1</dim>
				</port>
			</output>
		</layer>
		<layer id="222" name="Multiply_5807/fq_weights_1/scale724911373" type="Const" version="opset1">
			<data offset="21270" size="432" shape="108,1,1,1" element_type="f32"/>
			<output>
				<port id="0" precision="FP32">
					<dim>108</dim>
					<dim>1</dim>
					<dim>1</dim>
					<dim>1</dim>
				</port>
			</output>
		</layer>
		<layer id="223" name="Multiply_61804875898/restored_convert/quantized724111172" type="Const" version="opset1">
			<data offset="21702" size="1944" shape="108,18,1,1" element_type="i8"/>
			<output>
				<port id="0" precision="I8">
					<dim>108</dim>
					<dim>18</dim>
					<dim>1</dim>
					<dim>1</dim>
				</port>
			</output>
		</layer>
		<layer id="224" name="Multiply_61804875898/restored_convert/quantized/to_f32" type="Convert" version="opset1">
			<data destination_type="f32"/>
			<input>
				<port id="0">
					<dim>108</dim>
					<dim>18</dim>
					<dim>1</dim>
					<dim>1</dim>
				</port>
			</input>
			<output>
				<port id="1" precision="FP32">
					<dim>108</dim>
					<dim>18</dim>
					<dim>1</dim>
					<dim>1</dim>
				</port>
			</output>
		</layer>
		<layer id="225" name="Multiply_5807/fq_weights_1/mulpiply_by_scale" type="Multiply" version="opset1">
			<data auto_broadcast="numpy"/>
			<input>
				<port id="0">
					<dim>108</dim>
					<dim>18</dim>
					<dim>1</dim>
					<dim>1</dim>
				</port>
				<port id="1">
					<dim>108</dim>
					<dim>1</dim>
					<dim>1</dim>
					<dim>1</dim>
				</port>
			</input>
			<output>
				<port id="2" precision="FP32">
					<dim>108</dim>
					<dim>18</dim>
					<dim>1</dim>
					<dim>1</dim>
				</port>
			</output>
		</layer>
		<layer id="226" name="Multiply_5807" type="Convolution" version="opset1">
			<data auto_pad="explicit" strides="1,1" dilations="1,1" pads_begin="0,0" pads_end="0,0"/>
			<input>
				<port id="0">
					<dim>1</dim>
					<dim>18</dim>
					<dim>75</dim>
					<dim>75</dim>
				</port>
				<port id="1">
					<dim>108</dim>
					<dim>18</dim>
					<dim>1</dim>
					<dim>1</dim>
				</port>
			</input>
			<output>
				<port id="2" precision="FP32">
					<dim>1</dim>
					<dim>108</dim>
					<dim>75</dim>
					<dim>75</dim>
				</port>
			</output>
		</layer>
		<layer id="227" name="Constant_581249011643" type="Const" version="opset1">
			<data offset="23646" size="216" shape="1,108,1,1" element_type="f16"/>
			<output>
				<port id="0" precision="FP16">
					<dim>1</dim>
					<dim>108</dim>
					<dim>1</dim>
					<dim>1</dim>
				</port>
			</output>
		</layer>
		<layer id="228" name="Constant_58124905899/restored_convert" type="Convert" version="opset1">
			<data destination_type="f32"/>
			<rt_info>
				<attribute name="decompression" version="0"/>
			</rt_info>
			<input>
				<port id="0">
					<dim>1</dim>
					<dim>108</dim>
					<dim>1</dim>
					<dim>1</dim>
				</port>
			</input>
			<output>
				<port id="1" precision="FP32">
					<dim>1</dim>
					<dim>108</dim>
					<dim>1</dim>
					<dim>1</dim>
				</port>
			</output>
		</layer>
		<layer id="229" name="349" type="Add" version="opset1">
			<data auto_broadcast="numpy"/>
			<input>
				<port id="0">
					<dim>1</dim>
					<dim>108</dim>
					<dim>75</dim>
					<dim>75</dim>
				</port>
				<port id="1">
					<dim>1</dim>
					<dim>108</dim>
					<dim>1</dim>
					<dim>1</dim>
				</port>
			</input>
			<output>
				<port id="2" precision="FP32" names="349">
					<dim>1</dim>
					<dim>108</dim>
					<dim>75</dim>
					<dim>75</dim>
				</port>
			</output>
		</layer>
		<layer id="230" name="350" type="ReLU" version="opset1">
			<input>
				<port id="0">
					<dim>1</dim>
					<dim>108</dim>
					<dim>75</dim>
					<dim>75</dim>
				</port>
			</input>
			<output>
				<port id="1" precision="FP32" names="350">
					<dim>1</dim>
					<dim>108</dim>
					<dim>75</dim>
					<dim>75</dim>
				</port>
			</output>
		</layer>
		<layer id="231" name="Multiply_5814/fq_input_0" type="FakeQuantize" version="opset1">
			<data levels="256" auto_broadcast="numpy"/>
			<input>
				<port id="0">
					<dim>1</dim>
					<dim>108</dim>
					<dim>75</dim>
					<dim>75</dim>
				</port>
				<port id="1">
					<dim>1</dim>
					<dim>108</dim>
					<dim>1</dim>
					<dim>1</dim>
				</port>
				<port id="2">
					<dim>1</dim>
					<dim>108</dim>
					<dim>1</dim>
					<dim>1</dim>
				</port>
				<port id="3">
					<dim>1</dim>
					<dim>108</dim>
					<dim>1</dim>
					<dim>1</dim>
				</port>
				<port id="4">
					<dim>1</dim>
					<dim>108</dim>
					<dim>1</dim>
					<dim>1</dim>
				</port>
			</input>
			<output>
				<port id="5" precision="FP32">
					<dim>1</dim>
					<dim>108</dim>
					<dim>75</dim>
					<dim>75</dim>
				</port>
			</output>
		</layer>
		<layer id="232" name="Multiply_5814/weights_shape985111364" type="Const" version="opset1">
			<data offset="23862" size="40" shape="5" element_type="i64"/>
			<output>
				<port id="0" precision="I64">
					<dim>5</dim>
				</port>
			</output>
		</layer>
		<layer id="233" name="Multiply_5814/fq_weights_1/scale694912009" type="Const" version="opset1">
			<data offset="23902" size="432" shape="108,1,1,1" element_type="f32"/>
			<output>
				<port id="0" precision="FP32">
					<dim>108</dim>
					<dim>1</dim>
					<dim>1</dim>
					<dim>1</dim>
				</port>
			</output>
		</layer>
		<layer id="234" name="Multiply_61864945900/restored_convert/quantized694111694" type="Const" version="opset1">
			<data offset="24334" size="972" shape="108,1,3,3" element_type="i8"/>
			<output>
				<port id="0" precision="I8">
					<dim>108</dim>
					<dim>1</dim>
					<dim>3</dim>
					<dim>3</dim>
				</port>
			</output>
		</layer>
		<layer id="235" name="Multiply_61864945900/restored_convert/quantized/to_f32" type="Convert" version="opset1">
			<data destination_type="f32"/>
			<input>
				<port id="0">
					<dim>108</dim>
					<dim>1</dim>
					<dim>3</dim>
					<dim>3</dim>
				</port>
			</input>
			<output>
				<port id="1" precision="FP32">
					<dim>108</dim>
					<dim>1</dim>
					<dim>3</dim>
					<dim>3</dim>
				</port>
			</output>
		</layer>
		<layer id="236" name="Multiply_5814/fq_weights_1/mulpiply_by_scale" type="Multiply" version="opset1">
			<data auto_broadcast="numpy"/>
			<input>
				<port id="0">
					<dim>108</dim>
					<dim>1</dim>
					<dim>3</dim>
					<dim>3</dim>
				</port>
				<port id="1">
					<dim>108</dim>
					<dim>1</dim>
					<dim>1</dim>
					<dim>1</dim>
				</port>
			</input>
			<output>
				<port id="2" precision="FP32">
					<dim>108</dim>
					<dim>1</dim>
					<dim>3</dim>
					<dim>3</dim>
				</port>
			</output>
		</layer>
		<layer id="237" name="9850" type="Reshape" version="opset1">
			<data special_zero="true"/>
			<input>
				<port id="0">
					<dim>108</dim>
					<dim>1</dim>
					<dim>3</dim>
					<dim>3</dim>
				</port>
				<port id="1">
					<dim>5</dim>
				</port>
			</input>
			<output>
				<port id="2" precision="FP32">
					<dim>108</dim>
					<dim>1</dim>
					<dim>1</dim>
					<dim>3</dim>
					<dim>3</dim>
				</port>
			</output>
		</layer>
		<layer id="238" name="Multiply_5814" type="GroupConvolution" version="opset1">
			<data auto_pad="explicit" strides="1,1" dilations="1,1" pads_begin="1,1" pads_end="1,1"/>
			<input>
				<port id="0">
					<dim>1</dim>
					<dim>108</dim>
					<dim>75</dim>
					<dim>75</dim>
				</port>
				<port id="1">
					<dim>108</dim>
					<dim>1</dim>
					<dim>1</dim>
					<dim>3</dim>
					<dim>3</dim>
				</port>
			</input>
			<output>
				<port id="2" precision="FP32" names="351">
					<dim>1</dim>
					<dim>108</dim>
					<dim>75</dim>
					<dim>75</dim>
				</port>
			</output>
		</layer>
		<layer id="239" name="Constant_581949711649" type="Const" version="opset1">
			<data offset="25306" size="216" shape="1,108,1,1" element_type="f16"/>
			<output>
				<port id="0" precision="FP16">
					<dim>1</dim>
					<dim>108</dim>
					<dim>1</dim>
					<dim>1</dim>
				</port>
			</output>
		</layer>
		<layer id="240" name="Constant_58194975901/restored_convert" type="Convert" version="opset1">
			<data destination_type="f32"/>
			<rt_info>
				<attribute name="decompression" version="0"/>
			</rt_info>
			<input>
				<port id="0">
					<dim>1</dim>
					<dim>108</dim>
					<dim>1</dim>
					<dim>1</dim>
				</port>
			</input>
			<output>
				<port id="1" precision="FP32">
					<dim>1</dim>
					<dim>108</dim>
					<dim>1</dim>
					<dim>1</dim>
				</port>
			</output>
		</layer>
		<layer id="241" name="352" type="Add" version="opset1">
			<data auto_broadcast="numpy"/>
			<input>
				<port id="0">
					<dim>1</dim>
					<dim>108</dim>
					<dim>75</dim>
					<dim>75</dim>
				</port>
				<port id="1">
					<dim>1</dim>
					<dim>108</dim>
					<dim>1</dim>
					<dim>1</dim>
				</port>
			</input>
			<output>
				<port id="2" precision="FP32" names="352">
					<dim>1</dim>
					<dim>108</dim>
					<dim>75</dim>
					<dim>75</dim>
				</port>
			</output>
		</layer>
		<layer id="242" name="353" type="ReLU" version="opset1">
			<input>
				<port id="0">
					<dim>1</dim>
					<dim>108</dim>
					<dim>75</dim>
					<dim>75</dim>
				</port>
			</input>
			<output>
				<port id="1" precision="FP32" names="353">
					<dim>1</dim>
					<dim>108</dim>
					<dim>75</dim>
					<dim>75</dim>
				</port>
			</output>
		</layer>
		<layer id="243" name="Multiply_5821/fq_input_0" type="FakeQuantize" version="opset1">
			<data levels="256" auto_broadcast="numpy"/>
			<input>
				<port id="0">
					<dim>1</dim>
					<dim>108</dim>
					<dim>75</dim>
					<dim>75</dim>
				</port>
				<port id="1"/>
				<port id="2"/>
				<port id="3"/>
				<port id="4"/>
			</input>
			<output>
				<port id="5" precision="FP32">
					<dim>1</dim>
					<dim>108</dim>
					<dim>75</dim>
					<dim>75</dim>
				</port>
			</output>
		</layer>
		<layer id="244" name="Multiply_5821/fq_weights_1/scale712912231" type="Const" version="opset1">
			<data offset="25522" size="72" shape="18,1,1,1" element_type="f32"/>
			<output>
				<port id="0" precision="FP32">
					<dim>18</dim>
					<dim>1</dim>
					<dim>1</dim>
					<dim>1</dim>
				</port>
			</output>
		</layer>
		<layer id="245" name="Multiply_61915015902/restored_convert/quantized712112072" type="Const" version="opset1">
			<data offset="25594" size="1944" shape="18,108,1,1" element_type="i8"/>
			<output>
				<port id="0" precision="I8">
					<dim>18</dim>
					<dim>108</dim>
					<dim>1</dim>
					<dim>1</dim>
				</port>
			</output>
		</layer>
		<layer id="246" name="Multiply_61915015902/restored_convert/quantized/to_f32" type="Convert" version="opset1">
			<data destination_type="f32"/>
			<input>
				<port id="0">
					<dim>18</dim>
					<dim>108</dim>
					<dim>1</dim>
					<dim>1</dim>
				</port>
			</input>
			<output>
				<port id="1" precision="FP32">
					<dim>18</dim>
					<dim>108</dim>
					<dim>1</dim>
					<dim>1</dim>
				</port>
			</output>
		</layer>
		<layer id="247" name="Multiply_5821/fq_weights_1/mulpiply_by_scale" type="Multiply" version="opset1">
			<data auto_broadcast="numpy"/>
			<input>
				<port id="0">
					<dim>18</dim>
					<dim>108</dim>
					<dim>1</dim>
					<dim>1</dim>
				</port>
				<port id="1">
					<dim>18</dim>
					<dim>1</dim>
					<dim>1</dim>
					<dim>1</dim>
				</port>
			</input>
			<output>
				<port id="2" precision="FP32">
					<dim>18</dim>
					<dim>108</dim>
					<dim>1</dim>
					<dim>1</dim>
				</port>
			</output>
		</layer>
		<layer id="248" name="Multiply_5821" type="Convolution" version="opset1">
			<data auto_pad="explicit" strides="1,1" dilations="1,1" pads_begin="0,0" pads_end="0,0"/>
			<input>
				<port id="0">
					<dim>1</dim>
					<dim>108</dim>
					<dim>75</dim>
					<dim>75</dim>
				</port>
				<port id="1">
					<dim>18</dim>
					<dim>108</dim>
					<dim>1</dim>
					<dim>1</dim>
				</port>
			</input>
			<output>
				<port id="2" precision="FP32">
					<dim>1</dim>
					<dim>18</dim>
					<dim>75</dim>
					<dim>75</dim>
				</port>
			</output>
		</layer>
		<layer id="249" name="Constant_582650411919" type="Const" version="opset1">
			<data offset="27538" size="36" shape="1,18,1,1" element_type="f16"/>
			<output>
				<port id="0" precision="FP16">
					<dim>1</dim>
					<dim>18</dim>
					<dim>1</dim>
					<dim>1</dim>
				</port>
			</output>
		</layer>
		<layer id="250" name="Constant_58265045903/restored_convert" type="Convert" version="opset1">
			<data destination_type="f32"/>
			<rt_info>
				<attribute name="decompression" version="0"/>
			</rt_info>
			<input>
				<port id="0">
					<dim>1</dim>
					<dim>18</dim>
					<dim>1</dim>
					<dim>1</dim>
				</port>
			</input>
			<output>
				<port id="1" precision="FP32">
					<dim>1</dim>
					<dim>18</dim>
					<dim>1</dim>
					<dim>1</dim>
				</port>
			</output>
		</layer>
		<layer id="251" name="355" type="Add" version="opset1">
			<data auto_broadcast="numpy"/>
			<input>
				<port id="0">
					<dim>1</dim>
					<dim>18</dim>
					<dim>75</dim>
					<dim>75</dim>
				</port>
				<port id="1">
					<dim>1</dim>
					<dim>18</dim>
					<dim>1</dim>
					<dim>1</dim>
				</port>
			</input>
			<output>
				<port id="2" precision="FP32" names="355">
					<dim>1</dim>
					<dim>18</dim>
					<dim>75</dim>
					<dim>75</dim>
				</port>
			</output>
		</layer>
		<layer id="252" name="356/fq_input_1" type="FakeQuantize" version="opset1">
			<data levels="256" auto_broadcast="numpy"/>
			<input>
				<port id="0">
					<dim>1</dim>
					<dim>18</dim>
					<dim>75</dim>
					<dim>75</dim>
				</port>
				<port id="1"/>
				<port id="2"/>
				<port id="3"/>
				<port id="4"/>
			</input>
			<output>
				<port id="5" precision="FP32">
					<dim>1</dim>
					<dim>18</dim>
					<dim>75</dim>
					<dim>75</dim>
				</port>
			</output>
		</layer>
		<layer id="253" name="356" type="Add" version="opset1">
			<data auto_broadcast="numpy"/>
			<input>
				<port id="0">
					<dim>1</dim>
					<dim>18</dim>
					<dim>75</dim>
					<dim>75</dim>
				</port>
				<port id="1">
					<dim>1</dim>
					<dim>18</dim>
					<dim>75</dim>
					<dim>75</dim>
				</port>
			</input>
			<output>
				<port id="2" precision="FP32" names="356">
					<dim>1</dim>
					<dim>18</dim>
					<dim>75</dim>
					<dim>75</dim>
				</port>
			</output>
		</layer>
		<layer id="254" name="Multiply_5828/fq_input_0" type="FakeQuantize" version="opset1">
			<data levels="256" auto_broadcast="numpy"/>
			<input>
				<port id="0">
					<dim>1</dim>
					<dim>18</dim>
					<dim>75</dim>
					<dim>75</dim>
				</port>
				<port id="1"/>
				<port id="2"/>
				<port id="3"/>
				<port id="4"/>
			</input>
			<output>
				<port id="5" precision="FP32">
					<dim>1</dim>
					<dim>18</dim>
					<dim>75</dim>
					<dim>75</dim>
				</port>
			</output>
		</layer>
		<layer id="255" name="Multiply_5828/fq_weights_1/scale784911118" type="Const" version="opset1">
			<data offset="27574" size="432" shape="108,1,1,1" element_type="f32"/>
			<output>
				<port id="0" precision="FP32">
					<dim>108</dim>
					<dim>1</dim>
					<dim>1</dim>
					<dim>1</dim>
				</port>
			</output>
		</layer>
		<layer id="256" name="Multiply_61975085904/restored_convert/quantized784111481" type="Const" version="opset1">
			<data offset="28006" size="1944" shape="108,18,1,1" element_type="i8"/>
			<output>
				<port id="0" precision="I8">
					<dim>108</dim>
					<dim>18</dim>
					<dim>1</dim>
					<dim>1</dim>
				</port>
			</output>
		</layer>
		<layer id="257" name="Multiply_61975085904/restored_convert/quantized/to_f32" type="Convert" version="opset1">
			<data destination_type="f32"/>
			<input>
				<port id="0">
					<dim>108</dim>
					<dim>18</dim>
					<dim>1</dim>
					<dim>1</dim>
				</port>
			</input>
			<output>
				<port id="1" precision="FP32">
					<dim>108</dim>
					<dim>18</dim>
					<dim>1</dim>
					<dim>1</dim>
				</port>
			</output>
		</layer>
		<layer id="258" name="Multiply_5828/fq_weights_1/mulpiply_by_scale" type="Multiply" version="opset1">
			<data auto_broadcast="numpy"/>
			<input>
				<port id="0">
					<dim>108</dim>
					<dim>18</dim>
					<dim>1</dim>
					<dim>1</dim>
				</port>
				<port id="1">
					<dim>108</dim>
					<dim>1</dim>
					<dim>1</dim>
					<dim>1</dim>
				</port>
			</input>
			<output>
				<port id="2" precision="FP32">
					<dim>108</dim>
					<dim>18</dim>
					<dim>1</dim>
					<dim>1</dim>
				</port>
			</output>
		</layer>
		<layer id="259" name="Multiply_5828" type="Convolution" version="opset1">
			<data auto_pad="explicit" strides="1,1" dilations="1,1" pads_begin="0,0" pads_end="0,0"/>
			<input>
				<port id="0">
					<dim>1</dim>
					<dim>18</dim>
					<dim>75</dim>
					<dim>75</dim>
				</port>
				<port id="1">
					<dim>108</dim>
					<dim>18</dim>
					<dim>1</dim>
					<dim>1</dim>
				</port>
			</input>
			<output>
				<port id="2" precision="FP32">
					<dim>1</dim>
					<dim>108</dim>
					<dim>75</dim>
					<dim>75</dim>
				</port>
			</output>
		</layer>
		<layer id="260" name="Constant_583351112450" type="Const" version="opset1">
			<data offset="29950" size="216" shape="1,108,1,1" element_type="f16"/>
			<output>
				<port id="0" precision="FP16">
					<dim>1</dim>
					<dim>108</dim>
					<dim>1</dim>
					<dim>1</dim>
				</port>
			</output>
		</layer>
		<layer id="261" name="Constant_58335115905/restored_convert" type="Convert" version="opset1">
			<data destination_type="f32"/>
			<rt_info>
				<attribute name="decompression" version="0"/>
			</rt_info>
			<input>
				<port id="0">
					<dim>1</dim>
					<dim>108</dim>
					<dim>1</dim>
					<dim>1</dim>
				</port>
			</input>
			<output>
				<port id="1" precision="FP32">
					<dim>1</dim>
					<dim>108</dim>
					<dim>1</dim>
					<dim>1</dim>
				</port>
			</output>
		</layer>
		<layer id="262" name="358" type="Add" version="opset1">
			<data auto_broadcast="numpy"/>
			<input>
				<port id="0">
					<dim>1</dim>
					<dim>108</dim>
					<dim>75</dim>
					<dim>75</dim>
				</port>
				<port id="1">
					<dim>1</dim>
					<dim>108</dim>
					<dim>1</dim>
					<dim>1</dim>
				</port>
			</input>
			<output>
				<port id="2" precision="FP32" names="358">
					<dim>1</dim>
					<dim>108</dim>
					<dim>75</dim>
					<dim>75</dim>
				</port>
			</output>
		</layer>
		<layer id="263" name="359" type="ReLU" version="opset1">
			<input>
				<port id="0">
					<dim>1</dim>
					<dim>108</dim>
					<dim>75</dim>
					<dim>75</dim>
				</port>
			</input>
			<output>
				<port id="1" precision="FP32" names="359">
					<dim>1</dim>
					<dim>108</dim>
					<dim>75</dim>
					<dim>75</dim>
				</port>
			</output>
		</layer>
		<layer id="264" name="Multiply_5835/fq_input_0" type="FakeQuantize" version="opset1">
			<data levels="256" auto_broadcast="numpy"/>
			<input>
				<port id="0">
					<dim>1</dim>
					<dim>108</dim>
					<dim>75</dim>
					<dim>75</dim>
				</port>
				<port id="1">
					<dim>1</dim>
					<dim>108</dim>
					<dim>1</dim>
					<dim>1</dim>
				</port>
				<port id="2">
					<dim>1</dim>
					<dim>108</dim>
					<dim>1</dim>
					<dim>1</dim>
				</port>
				<port id="3">
					<dim>1</dim>
					<dim>108</dim>
					<dim>1</dim>
					<dim>1</dim>
				</port>
				<port id="4">
					<dim>1</dim>
					<dim>108</dim>
					<dim>1</dim>
					<dim>1</dim>
				</port>
			</input>
			<output>
				<port id="5" precision="FP32">
					<dim>1</dim>
					<dim>108</dim>
					<dim>75</dim>
					<dim>75</dim>
				</port>
			</output>
		</layer>
		<layer id="265" name="Multiply_5835/weights_shape986512222" type="Const" version="opset1">
			<data offset="23862" size="40" shape="5" element_type="i64"/>
			<output>
				<port id="0" precision="I64">
					<dim>5</dim>
				</port>
			</output>
		</layer>
		<layer id="266" name="Multiply_5835/fq_weights_1/scale814912384" type="Const" version="opset1">
			<data offset="30166" size="432" shape="108,1,1,1" element_type="f32"/>
			<output>
				<port id="0" precision="FP32">
					<dim>108</dim>
					<dim>1</dim>
					<dim>1</dim>
					<dim>1</dim>
				</port>
			</output>
		</layer>
		<layer id="267" name="Multiply_62035155906/restored_convert/quantized814111790" type="Const" version="opset1">
			<data offset="30598" size="972" shape="108,1,3,3" element_type="i8"/>
			<output>
				<port id="0" precision="I8">
					<dim>108</dim>
					<dim>1</dim>
					<dim>3</dim>
					<dim>3</dim>
				</port>
			</output>
		</layer>
		<layer id="268" name="Multiply_62035155906/restored_convert/quantized/to_f32" type="Convert" version="opset1">
			<data destination_type="f32"/>
			<input>
				<port id="0">
					<dim>108</dim>
					<dim>1</dim>
					<dim>3</dim>
					<dim>3</dim>
				</port>
			</input>
			<output>
				<port id="1" precision="FP32">
					<dim>108</dim>
					<dim>1</dim>
					<dim>3</dim>
					<dim>3</dim>
				</port>
			</output>
		</layer>
		<layer id="269" name="Multiply_5835/fq_weights_1/mulpiply_by_scale" type="Multiply" version="opset1">
			<data auto_broadcast="numpy"/>
			<input>
				<port id="0">
					<dim>108</dim>
					<dim>1</dim>
					<dim>3</dim>
					<dim>3</dim>
				</port>
				<port id="1">
					<dim>108</dim>
					<dim>1</dim>
					<dim>1</dim>
					<dim>1</dim>
				</port>
			</input>
			<output>
				<port id="2" precision="FP32">
					<dim>108</dim>
					<dim>1</dim>
					<dim>3</dim>
					<dim>3</dim>
				</port>
			</output>
		</layer>
		<layer id="270" name="9864" type="Reshape" version="opset1">
			<data special_zero="true"/>
			<input>
				<port id="0">
					<dim>108</dim>
					<dim>1</dim>
					<dim>3</dim>
					<dim>3</dim>
				</port>
				<port id="1">
					<dim>5</dim>
				</port>
			</input>
			<output>
				<port id="2" precision="FP32">
					<dim>108</dim>
					<dim>1</dim>
					<dim>1</dim>
					<dim>3</dim>
					<dim>3</dim>
				</port>
			</output>
		</layer>
		<layer id="271" name="Multiply_5835" type="GroupConvolution" version="opset1">
			<data auto_pad="explicit" strides="2,2" dilations="1,1" pads_begin="1,1" pads_end="1,1"/>
			<input>
				<port id="0">
					<dim>1</dim>
					<dim>108</dim>
					<dim>75</dim>
					<dim>75</dim>
				</port>
				<port id="1">
					<dim>108</dim>
					<dim>1</dim>
					<dim>1</dim>
					<dim>3</dim>
					<dim>3</dim>
				</port>
			</input>
			<output>
				<port id="2" precision="FP32" names="360">
					<dim>1</dim>
					<dim>108</dim>
					<dim>38</dim>
					<dim>38</dim>
				</port>
			</output>
		</layer>
		<layer id="272" name="Constant_584051811283" type="Const" version="opset1">
			<data offset="31570" size="216" shape="1,108,1,1" element_type="f16"/>
			<output>
				<port id="0" precision="FP16">
					<dim>1</dim>
					<dim>108</dim>
					<dim>1</dim>
					<dim>1</dim>
				</port>
			</output>
		</layer>
		<layer id="273" name="Constant_58405185907/restored_convert" type="Convert" version="opset1">
			<data destination_type="f32"/>
			<rt_info>
				<attribute name="decompression" version="0"/>
			</rt_info>
			<input>
				<port id="0">
					<dim>1</dim>
					<dim>108</dim>
					<dim>1</dim>
					<dim>1</dim>
				</port>
			</input>
			<output>
				<port id="1" precision="FP32">
					<dim>1</dim>
					<dim>108</dim>
					<dim>1</dim>
					<dim>1</dim>
				</port>
			</output>
		</layer>
		<layer id="274" name="361" type="Add" version="opset1">
			<data auto_broadcast="numpy"/>
			<input>
				<port id="0">
					<dim>1</dim>
					<dim>108</dim>
					<dim>38</dim>
					<dim>38</dim>
				</port>
				<port id="1">
					<dim>1</dim>
					<dim>108</dim>
					<dim>1</dim>
					<dim>1</dim>
				</port>
			</input>
			<output>
				<port id="2" precision="FP32" names="361">
					<dim>1</dim>
					<dim>108</dim>
					<dim>38</dim>
					<dim>38</dim>
				</port>
			</output>
		</layer>
		<layer id="275" name="362" type="ReLU" version="opset1">
			<input>
				<port id="0">
					<dim>1</dim>
					<dim>108</dim>
					<dim>38</dim>
					<dim>38</dim>
				</port>
			</input>
			<output>
				<port id="1" precision="FP32" names="362">
					<dim>1</dim>
					<dim>108</dim>
					<dim>38</dim>
					<dim>38</dim>
				</port>
			</output>
		</layer>
		<layer id="276" name="Multiply_5842/fq_input_0" type="FakeQuantize" version="opset1">
			<data levels="256" auto_broadcast="numpy"/>
			<input>
				<port id="0">
					<dim>1</dim>
					<dim>108</dim>
					<dim>38</dim>
					<dim>38</dim>
				</port>
				<port id="1"/>
				<port id="2"/>
				<port id="3"/>
				<port id="4"/>
			</input>
			<output>
				<port id="5" precision="FP32">
					<dim>1</dim>
					<dim>108</dim>
					<dim>38</dim>
					<dim>38</dim>
				</port>
			</output>
		</layer>
		<layer id="277" name="Multiply_5842/fq_weights_1/scale793912042" type="Const" version="opset1">
			<data offset="31786" size="96" shape="24,1,1,1" element_type="f32"/>
			<output>
				<port id="0" precision="FP32">
					<dim>24</dim>
					<dim>1</dim>
					<dim>1</dim>
					<dim>1</dim>
				</port>
			</output>
		</layer>
		<layer id="278" name="Multiply_62085225908/restored_convert/quantized793112273" type="Const" version="opset1">
			<data offset="31882" size="2592" shape="24,108,1,1" element_type="i8"/>
			<output>
				<port id="0" precision="I8">
					<dim>24</dim>
					<dim>108</dim>
					<dim>1</dim>
					<dim>1</dim>
				</port>
			</output>
		</layer>
		<layer id="279" name="Multiply_62085225908/restored_convert/quantized/to_f32" type="Convert" version="opset1">
			<data destination_type="f32"/>
			<input>
				<port id="0">
					<dim>24</dim>
					<dim>108</dim>
					<dim>1</dim>
					<dim>1</dim>
				</port>
			</input>
			<output>
				<port id="1" precision="FP32">
					<dim>24</dim>
					<dim>108</dim>
					<dim>1</dim>
					<dim>1</dim>
				</port>
			</output>
		</layer>
		<layer id="280" name="Multiply_5842/fq_weights_1/mulpiply_by_scale" type="Multiply" version="opset1">
			<data auto_broadcast="numpy"/>
			<input>
				<port id="0">
					<dim>24</dim>
					<dim>108</dim>
					<dim>1</dim>
					<dim>1</dim>
				</port>
				<port id="1">
					<dim>24</dim>
					<dim>1</dim>
					<dim>1</dim>
					<dim>1</dim>
				</port>
			</input>
			<output>
				<port id="2" precision="FP32">
					<dim>24</dim>
					<dim>108</dim>
					<dim>1</dim>
					<dim>1</dim>
				</port>
			</output>
		</layer>
		<layer id="281" name="Multiply_5842" type="Convolution" version="opset1">
			<data auto_pad="explicit" strides="1,1" dilations="1,1" pads_begin="0,0" pads_end="0,0"/>
			<input>
				<port id="0">
					<dim>1</dim>
					<dim>108</dim>
					<dim>38</dim>
					<dim>38</dim>
				</port>
				<port id="1">
					<dim>24</dim>
					<dim>108</dim>
					<dim>1</dim>
					<dim>1</dim>
				</port>
			</input>
			<output>
				<port id="2" precision="FP32">
					<dim>1</dim>
					<dim>24</dim>
					<dim>38</dim>
					<dim>38</dim>
				</port>
			</output>
		</layer>
		<layer id="282" name="Constant_584752511820" type="Const" version="opset1">
			<data offset="34474" size="48" shape="1,24,1,1" element_type="f16"/>
			<output>
				<port id="0" precision="FP16">
					<dim>1</dim>
					<dim>24</dim>
					<dim>1</dim>
					<dim>1</dim>
				</port>
			</output>
		</layer>
		<layer id="283" name="Constant_58475255909/restored_convert" type="Convert" version="opset1">
			<data destination_type="f32"/>
			<rt_info>
				<attribute name="decompression" version="0"/>
			</rt_info>
			<input>
				<port id="0">
					<dim>1</dim>
					<dim>24</dim>
					<dim>1</dim>
					<dim>1</dim>
				</port>
			</input>
			<output>
				<port id="1" precision="FP32">
					<dim>1</dim>
					<dim>24</dim>
					<dim>1</dim>
					<dim>1</dim>
				</port>
			</output>
		</layer>
		<layer id="284" name="364" type="Add" version="opset1">
			<data auto_broadcast="numpy"/>
			<input>
				<port id="0">
					<dim>1</dim>
					<dim>24</dim>
					<dim>38</dim>
					<dim>38</dim>
				</port>
				<port id="1">
					<dim>1</dim>
					<dim>24</dim>
					<dim>1</dim>
					<dim>1</dim>
				</port>
			</input>
			<output>
				<port id="2" precision="FP32" names="364">
					<dim>1</dim>
					<dim>24</dim>
					<dim>38</dim>
					<dim>38</dim>
				</port>
			</output>
		</layer>
		<layer id="285" name="373/fq_input_0" type="FakeQuantize" version="opset1">
			<data levels="256" auto_broadcast="numpy"/>
			<input>
				<port id="0">
					<dim>1</dim>
					<dim>24</dim>
					<dim>38</dim>
					<dim>38</dim>
				</port>
				<port id="1"/>
				<port id="2"/>
				<port id="3"/>
				<port id="4"/>
			</input>
			<output>
				<port id="5" precision="FP32">
					<dim>1</dim>
					<dim>24</dim>
					<dim>38</dim>
					<dim>38</dim>
				</port>
			</output>
		</layer>
		<layer id="286" name="2551255511775" type="Const" version="opset1">
			<data offset="34522" size="4" shape="" element_type="f32"/>
			<output>
				<port id="0" precision="FP32"/>
			</output>
		</layer>
		<layer id="287" name="2552255611298" type="Const" version="opset1">
			<data offset="34526" size="4" shape="" element_type="f32"/>
			<output>
				<port id="0" precision="FP32"/>
			</output>
		</layer>
		<layer id="288" name="2553255711091" type="Const" version="opset1">
			<data offset="34522" size="4" shape="" element_type="f32"/>
			<output>
				<port id="0" precision="FP32"/>
			</output>
		</layer>
		<layer id="289" name="2554255811871" type="Const" version="opset1">
			<data offset="34526" size="4" shape="" element_type="f32"/>
			<output>
				<port id="0" precision="FP32"/>
			</output>
		</layer>
		<layer id="290" name="1511151511478" type="Const" version="opset1">
			<data offset="0" size="4" shape="" element_type="f32"/>
			<output>
				<port id="0" precision="FP32"/>
			</output>
		</layer>
		<layer id="291" name="1512151611751" type="Const" version="opset1">
			<data offset="34530" size="4" shape="" element_type="f32"/>
			<output>
				<port id="0" precision="FP32"/>
			</output>
		</layer>
		<layer id="292" name="1513151712048" type="Const" version="opset1">
			<data offset="0" size="4" shape="" element_type="f32"/>
			<output>
				<port id="0" precision="FP32"/>
			</output>
		</layer>
		<layer id="293" name="1514151811235" type="Const" version="opset1">
			<data offset="34530" size="4" shape="" element_type="f32"/>
			<output>
				<port id="0" precision="FP32"/>
			</output>
		</layer>
		<layer id="294" name="1861186511991" type="Const" version="opset1">
			<data offset="12584" size="576" shape="1,144,1,1" element_type="f32"/>
			<output>
				<port id="0" precision="FP32">
					<dim>1</dim>
					<dim>144</dim>
					<dim>1</dim>
					<dim>1</dim>
				</port>
			</output>
		</layer>
		<layer id="295" name="1862186611949" type="Const" version="opset1">
			<data offset="34534" size="576" shape="1,144,1,1" element_type="f32"/>
			<output>
				<port id="0" precision="FP32">
					<dim>1</dim>
					<dim>144</dim>
					<dim>1</dim>
					<dim>1</dim>
				</port>
			</output>
		</layer>
		<layer id="296" name="1863186712243" type="Const" version="opset1">
			<data offset="12584" size="576" shape="1,144,1,1" element_type="f32"/>
			<output>
				<port id="0" precision="FP32">
					<dim>1</dim>
					<dim>144</dim>
					<dim>1</dim>
					<dim>1</dim>
				</port>
			</output>
		</layer>
		<layer id="297" name="1864186812348" type="Const" version="opset1">
			<data offset="34534" size="576" shape="1,144,1,1" element_type="f32"/>
			<output>
				<port id="0" precision="FP32">
					<dim>1</dim>
					<dim>144</dim>
					<dim>1</dim>
					<dim>1</dim>
				</port>
			</output>
		</layer>
		<layer id="298" name="Multiply_5849/fq_weights_1/scale697912414" type="Const" version="opset1">
			<data offset="35110" size="576" shape="144,1,1,1" element_type="f32"/>
			<output>
				<port id="0" precision="FP32">
					<dim>144</dim>
					<dim>1</dim>
					<dim>1</dim>
					<dim>1</dim>
				</port>
			</output>
		</layer>
		<layer id="299" name="Multiply_62145285910/restored_convert/quantized697111652" type="Const" version="opset1">
			<data offset="35686" size="3456" shape="144,24,1,1" element_type="i8"/>
			<output>
				<port id="0" precision="I8">
					<dim>144</dim>
					<dim>24</dim>
					<dim>1</dim>
					<dim>1</dim>
				</port>
			</output>
		</layer>
		<layer id="300" name="Multiply_62145285910/restored_convert/quantized/to_f32" type="Convert" version="opset1">
			<data destination_type="f32"/>
			<input>
				<port id="0">
					<dim>144</dim>
					<dim>24</dim>
					<dim>1</dim>
					<dim>1</dim>
				</port>
			</input>
			<output>
				<port id="1" precision="FP32">
					<dim>144</dim>
					<dim>24</dim>
					<dim>1</dim>
					<dim>1</dim>
				</port>
			</output>
		</layer>
		<layer id="301" name="Multiply_5849/fq_weights_1/mulpiply_by_scale" type="Multiply" version="opset1">
			<data auto_broadcast="numpy"/>
			<input>
				<port id="0">
					<dim>144</dim>
					<dim>24</dim>
					<dim>1</dim>
					<dim>1</dim>
				</port>
				<port id="1">
					<dim>144</dim>
					<dim>1</dim>
					<dim>1</dim>
					<dim>1</dim>
				</port>
			</input>
			<output>
				<port id="2" precision="FP32">
					<dim>144</dim>
					<dim>24</dim>
					<dim>1</dim>
					<dim>1</dim>
				</port>
			</output>
		</layer>
		<layer id="302" name="Multiply_5849" type="Convolution" version="opset1">
			<data auto_pad="explicit" strides="1,1" dilations="1,1" pads_begin="0,0" pads_end="0,0"/>
			<input>
				<port id="0">
					<dim>1</dim>
					<dim>24</dim>
					<dim>38</dim>
					<dim>38</dim>
				</port>
				<port id="1">
					<dim>144</dim>
					<dim>24</dim>
					<dim>1</dim>
					<dim>1</dim>
				</port>
			</input>
			<output>
				<port id="2" precision="FP32">
					<dim>1</dim>
					<dim>144</dim>
					<dim>38</dim>
					<dim>38</dim>
				</port>
			</output>
		</layer>
		<layer id="303" name="Constant_585453111916" type="Const" version="opset1">
			<data offset="39142" size="288" shape="1,144,1,1" element_type="f16"/>
			<output>
				<port id="0" precision="FP16">
					<dim>1</dim>
					<dim>144</dim>
					<dim>1</dim>
					<dim>1</dim>
				</port>
			</output>
		</layer>
		<layer id="304" name="Constant_58545315911/restored_convert" type="Convert" version="opset1">
			<data destination_type="f32"/>
			<rt_info>
				<attribute name="decompression" version="0"/>
			</rt_info>
			<input>
				<port id="0">
					<dim>1</dim>
					<dim>144</dim>
					<dim>1</dim>
					<dim>1</dim>
				</port>
			</input>
			<output>
				<port id="1" precision="FP32">
					<dim>1</dim>
					<dim>144</dim>
					<dim>1</dim>
					<dim>1</dim>
				</port>
			</output>
		</layer>
		<layer id="305" name="366" type="Add" version="opset1">
			<data auto_broadcast="numpy"/>
			<input>
				<port id="0">
					<dim>1</dim>
					<dim>144</dim>
					<dim>38</dim>
					<dim>38</dim>
				</port>
				<port id="1">
					<dim>1</dim>
					<dim>144</dim>
					<dim>1</dim>
					<dim>1</dim>
				</port>
			</input>
			<output>
				<port id="2" precision="FP32" names="366">
					<dim>1</dim>
					<dim>144</dim>
					<dim>38</dim>
					<dim>38</dim>
				</port>
			</output>
		</layer>
		<layer id="306" name="367" type="ReLU" version="opset1">
			<input>
				<port id="0">
					<dim>1</dim>
					<dim>144</dim>
					<dim>38</dim>
					<dim>38</dim>
				</port>
			</input>
			<output>
				<port id="1" precision="FP32" names="367">
					<dim>1</dim>
					<dim>144</dim>
					<dim>38</dim>
					<dim>38</dim>
				</port>
			</output>
		</layer>
		<layer id="307" name="Multiply_5856/fq_input_0" type="FakeQuantize" version="opset1">
			<data levels="256" auto_broadcast="numpy"/>
			<input>
				<port id="0">
					<dim>1</dim>
					<dim>144</dim>
					<dim>38</dim>
					<dim>38</dim>
				</port>
				<port id="1">
					<dim>1</dim>
					<dim>144</dim>
					<dim>1</dim>
					<dim>1</dim>
				</port>
				<port id="2">
					<dim>1</dim>
					<dim>144</dim>
					<dim>1</dim>
					<dim>1</dim>
				</port>
				<port id="3">
					<dim>1</dim>
					<dim>144</dim>
					<dim>1</dim>
					<dim>1</dim>
				</port>
				<port id="4">
					<dim>1</dim>
					<dim>144</dim>
					<dim>1</dim>
					<dim>1</dim>
				</port>
			</input>
			<output>
				<port id="5" precision="FP32">
					<dim>1</dim>
					<dim>144</dim>
					<dim>38</dim>
					<dim>38</dim>
				</port>
			</output>
		</layer>
		<layer id="308" name="Multiply_5856/weights_shape987911094" type="Const" version="opset1">
			<data offset="39430" size="40" shape="5" element_type="i64"/>
			<output>
				<port id="0" precision="I64">
					<dim>5</dim>
				</port>
			</output>
		</layer>
		<layer id="309" name="Multiply_5856/fq_weights_1/scale709911301" type="Const" version="opset1">
			<data offset="39470" size="576" shape="144,1,1,1" element_type="f32"/>
			<output>
				<port id="0" precision="FP32">
					<dim>144</dim>
					<dim>1</dim>
					<dim>1</dim>
					<dim>1</dim>
				</port>
			</output>
		</layer>
		<layer id="310" name="Multiply_62205355912/restored_convert/quantized709112408" type="Const" version="opset1">
			<data offset="40046" size="1296" shape="144,1,3,3" element_type="i8"/>
			<output>
				<port id="0" precision="I8">
					<dim>144</dim>
					<dim>1</dim>
					<dim>3</dim>
					<dim>3</dim>
				</port>
			</output>
		</layer>
		<layer id="311" name="Multiply_62205355912/restored_convert/quantized/to_f32" type="Convert" version="opset1">
			<data destination_type="f32"/>
			<input>
				<port id="0">
					<dim>144</dim>
					<dim>1</dim>
					<dim>3</dim>
					<dim>3</dim>
				</port>
			</input>
			<output>
				<port id="1" precision="FP32">
					<dim>144</dim>
					<dim>1</dim>
					<dim>3</dim>
					<dim>3</dim>
				</port>
			</output>
		</layer>
		<layer id="312" name="Multiply_5856/fq_weights_1/mulpiply_by_scale" type="Multiply" version="opset1">
			<data auto_broadcast="numpy"/>
			<input>
				<port id="0">
					<dim>144</dim>
					<dim>1</dim>
					<dim>3</dim>
					<dim>3</dim>
				</port>
				<port id="1">
					<dim>144</dim>
					<dim>1</dim>
					<dim>1</dim>
					<dim>1</dim>
				</port>
			</input>
			<output>
				<port id="2" precision="FP32">
					<dim>144</dim>
					<dim>1</dim>
					<dim>3</dim>
					<dim>3</dim>
				</port>
			</output>
		</layer>
		<layer id="313" name="9878" type="Reshape" version="opset1">
			<data special_zero="true"/>
			<input>
				<port id="0">
					<dim>144</dim>
					<dim>1</dim>
					<dim>3</dim>
					<dim>3</dim>
				</port>
				<port id="1">
					<dim>5</dim>
				</port>
			</input>
			<output>
				<port id="2" precision="FP32">
					<dim>144</dim>
					<dim>1</dim>
					<dim>1</dim>
					<dim>3</dim>
					<dim>3</dim>
				</port>
			</output>
		</layer>
		<layer id="314" name="Multiply_5856" type="GroupConvolution" version="opset1">
			<data auto_pad="explicit" strides="1,1" dilations="1,1" pads_begin="1,1" pads_end="1,1"/>
			<input>
				<port id="0">
					<dim>1</dim>
					<dim>144</dim>
					<dim>38</dim>
					<dim>38</dim>
				</port>
				<port id="1">
					<dim>144</dim>
					<dim>1</dim>
					<dim>1</dim>
					<dim>3</dim>
					<dim>3</dim>
				</port>
			</input>
			<output>
				<port id="2" precision="FP32" names="368">
					<dim>1</dim>
					<dim>144</dim>
					<dim>38</dim>
					<dim>38</dim>
				</port>
			</output>
		</layer>
		<layer id="315" name="Constant_586153812228" type="Const" version="opset1">
			<data offset="41342" size="288" shape="1,144,1,1" element_type="f16"/>
			<output>
				<port id="0" precision="FP16">
					<dim>1</dim>
					<dim>144</dim>
					<dim>1</dim>
					<dim>1</dim>
				</port>
			</output>
		</layer>
		<layer id="316" name="Constant_58615385913/restored_convert" type="Convert" version="opset1">
			<data destination_type="f32"/>
			<rt_info>
				<attribute name="decompression" version="0"/>
			</rt_info>
			<input>
				<port id="0">
					<dim>1</dim>
					<dim>144</dim>
					<dim>1</dim>
					<dim>1</dim>
				</port>
			</input>
			<output>
				<port id="1" precision="FP32">
					<dim>1</dim>
					<dim>144</dim>
					<dim>1</dim>
					<dim>1</dim>
				</port>
			</output>
		</layer>
		<layer id="317" name="369" type="Add" version="opset1">
			<data auto_broadcast="numpy"/>
			<input>
				<port id="0">
					<dim>1</dim>
					<dim>144</dim>
					<dim>38</dim>
					<dim>38</dim>
				</port>
				<port id="1">
					<dim>1</dim>
					<dim>144</dim>
					<dim>1</dim>
					<dim>1</dim>
				</port>
			</input>
			<output>
				<port id="2" precision="FP32" names="369">
					<dim>1</dim>
					<dim>144</dim>
					<dim>38</dim>
					<dim>38</dim>
				</port>
			</output>
		</layer>
		<layer id="318" name="370" type="ReLU" version="opset1">
			<input>
				<port id="0">
					<dim>1</dim>
					<dim>144</dim>
					<dim>38</dim>
					<dim>38</dim>
				</port>
			</input>
			<output>
				<port id="1" precision="FP32" names="370">
					<dim>1</dim>
					<dim>144</dim>
					<dim>38</dim>
					<dim>38</dim>
				</port>
			</output>
		</layer>
		<layer id="319" name="Multiply_5863/fq_input_0" type="FakeQuantize" version="opset1">
			<data levels="256" auto_broadcast="numpy"/>
			<input>
				<port id="0">
					<dim>1</dim>
					<dim>144</dim>
					<dim>38</dim>
					<dim>38</dim>
				</port>
				<port id="1"/>
				<port id="2"/>
				<port id="3"/>
				<port id="4"/>
			</input>
			<output>
				<port id="5" precision="FP32">
					<dim>1</dim>
					<dim>144</dim>
					<dim>38</dim>
					<dim>38</dim>
				</port>
			</output>
		</layer>
		<layer id="320" name="Multiply_5863/fq_weights_1/scale715912483" type="Const" version="opset1">
			<data offset="41630" size="96" shape="24,1,1,1" element_type="f32"/>
			<output>
				<port id="0" precision="FP32">
					<dim>24</dim>
					<dim>1</dim>
					<dim>1</dim>
					<dim>1</dim>
				</port>
			</output>
		</layer>
		<layer id="321" name="Multiply_62255425914/restored_convert/quantized715112336" type="Const" version="opset1">
			<data offset="41726" size="3456" shape="24,144,1,1" element_type="i8"/>
			<output>
				<port id="0" precision="I8">
					<dim>24</dim>
					<dim>144</dim>
					<dim>1</dim>
					<dim>1</dim>
				</port>
			</output>
		</layer>
		<layer id="322" name="Multiply_62255425914/restored_convert/quantized/to_f32" type="Convert" version="opset1">
			<data destination_type="f32"/>
			<input>
				<port id="0">
					<dim>24</dim>
					<dim>144</dim>
					<dim>1</dim>
					<dim>1</dim>
				</port>
			</input>
			<output>
				<port id="1" precision="FP32">
					<dim>24</dim>
					<dim>144</dim>
					<dim>1</dim>
					<dim>1</dim>
				</port>
			</output>
		</layer>
		<layer id="323" name="Multiply_5863/fq_weights_1/mulpiply_by_scale" type="Multiply" version="opset1">
			<data auto_broadcast="numpy"/>
			<input>
				<port id="0">
					<dim>24</dim>
					<dim>144</dim>
					<dim>1</dim>
					<dim>1</dim>
				</port>
				<port id="1">
					<dim>24</dim>
					<dim>1</dim>
					<dim>1</dim>
					<dim>1</dim>
				</port>
			</input>
			<output>
				<port id="2" precision="FP32">
					<dim>24</dim>
					<dim>144</dim>
					<dim>1</dim>
					<dim>1</dim>
				</port>
			</output>
		</layer>
		<layer id="324" name="Multiply_5863" type="Convolution" version="opset1">
			<data auto_pad="explicit" strides="1,1" dilations="1,1" pads_begin="0,0" pads_end="0,0"/>
			<input>
				<port id="0">
					<dim>1</dim>
					<dim>144</dim>
					<dim>38</dim>
					<dim>38</dim>
				</port>
				<port id="1">
					<dim>24</dim>
					<dim>144</dim>
					<dim>1</dim>
					<dim>1</dim>
				</port>
			</input>
			<output>
				<port id="2" precision="FP32">
					<dim>1</dim>
					<dim>24</dim>
					<dim>38</dim>
					<dim>38</dim>
				</port>
			</output>
		</layer>
		<layer id="325" name="Constant_586854511202" type="Const" version="opset1">
			<data offset="45182" size="48" shape="1,24,1,1" element_type="f16"/>
			<output>
				<port id="0" precision="FP16">
					<dim>1</dim>
					<dim>24</dim>
					<dim>1</dim>
					<dim>1</dim>
				</port>
			</output>
		</layer>
		<layer id="326" name="Constant_58685455915/restored_convert" type="Convert" version="opset1">
			<data destination_type="f32"/>
			<rt_info>
				<attribute name="decompression" version="0"/>
			</rt_info>
			<input>
				<port id="0">
					<dim>1</dim>
					<dim>24</dim>
					<dim>1</dim>
					<dim>1</dim>
				</port>
			</input>
			<output>
				<port id="1" precision="FP32">
					<dim>1</dim>
					<dim>24</dim>
					<dim>1</dim>
					<dim>1</dim>
				</port>
			</output>
		</layer>
		<layer id="327" name="372" type="Add" version="opset1">
			<data auto_broadcast="numpy"/>
			<input>
				<port id="0">
					<dim>1</dim>
					<dim>24</dim>
					<dim>38</dim>
					<dim>38</dim>
				</port>
				<port id="1">
					<dim>1</dim>
					<dim>24</dim>
					<dim>1</dim>
					<dim>1</dim>
				</port>
			</input>
			<output>
				<port id="2" precision="FP32" names="372">
					<dim>1</dim>
					<dim>24</dim>
					<dim>38</dim>
					<dim>38</dim>
				</port>
			</output>
		</layer>
		<layer id="328" name="373/fq_input_1" type="FakeQuantize" version="opset1">
			<data levels="256" auto_broadcast="numpy"/>
			<input>
				<port id="0">
					<dim>1</dim>
					<dim>24</dim>
					<dim>38</dim>
					<dim>38</dim>
				</port>
				<port id="1"/>
				<port id="2"/>
				<port id="3"/>
				<port id="4"/>
			</input>
			<output>
				<port id="5" precision="FP32">
					<dim>1</dim>
					<dim>24</dim>
					<dim>38</dim>
					<dim>38</dim>
				</port>
			</output>
		</layer>
		<layer id="329" name="373" type="Add" version="opset1">
			<data auto_broadcast="numpy"/>
			<input>
				<port id="0">
					<dim>1</dim>
					<dim>24</dim>
					<dim>38</dim>
					<dim>38</dim>
				</port>
				<port id="1">
					<dim>1</dim>
					<dim>24</dim>
					<dim>38</dim>
					<dim>38</dim>
				</port>
			</input>
			<output>
				<port id="2" precision="FP32" names="373">
					<dim>1</dim>
					<dim>24</dim>
					<dim>38</dim>
					<dim>38</dim>
				</port>
			</output>
		</layer>
		<layer id="330" name="382/fq_input_0" type="FakeQuantize" version="opset1">
			<data levels="256" auto_broadcast="numpy"/>
			<input>
				<port id="0">
					<dim>1</dim>
					<dim>24</dim>
					<dim>38</dim>
					<dim>38</dim>
				</port>
				<port id="1"/>
				<port id="2"/>
				<port id="3"/>
				<port id="4"/>
			</input>
			<output>
				<port id="5" precision="FP32">
					<dim>1</dim>
					<dim>24</dim>
					<dim>38</dim>
					<dim>38</dim>
				</port>
			</output>
		</layer>
		<layer id="331" name="1991199511904" type="Const" version="opset1">
			<data offset="45230" size="4" shape="" element_type="f32"/>
			<output>
				<port id="0" precision="FP32"/>
			</output>
		</layer>
		<layer id="332" name="1992199611517" type="Const" version="opset1">
			<data offset="45234" size="4" shape="" element_type="f32"/>
			<output>
				<port id="0" precision="FP32"/>
			</output>
		</layer>
		<layer id="333" name="1993199712159" type="Const" version="opset1">
			<data offset="45230" size="4" shape="" element_type="f32"/>
			<output>
				<port id="0" precision="FP32"/>
			</output>
		</layer>
		<layer id="334" name="1994199811997" type="Const" version="opset1">
			<data offset="45234" size="4" shape="" element_type="f32"/>
			<output>
				<port id="0" precision="FP32"/>
			</output>
		</layer>
		<layer id="335" name="2301230511673" type="Const" version="opset1">
			<data offset="0" size="4" shape="" element_type="f32"/>
			<output>
				<port id="0" precision="FP32"/>
			</output>
		</layer>
		<layer id="336" name="2302230612129" type="Const" version="opset1">
			<data offset="45238" size="4" shape="" element_type="f32"/>
			<output>
				<port id="0" precision="FP32"/>
			</output>
		</layer>
		<layer id="337" name="2303230712294" type="Const" version="opset1">
			<data offset="0" size="4" shape="" element_type="f32"/>
			<output>
				<port id="0" precision="FP32"/>
			</output>
		</layer>
		<layer id="338" name="2304230811466" type="Const" version="opset1">
			<data offset="45238" size="4" shape="" element_type="f32"/>
			<output>
				<port id="0" precision="FP32"/>
			</output>
		</layer>
		<layer id="339" name="2321232511739" type="Const" version="opset1">
			<data offset="12584" size="576" shape="1,144,1,1" element_type="f32"/>
			<output>
				<port id="0" precision="FP32">
					<dim>1</dim>
					<dim>144</dim>
					<dim>1</dim>
					<dim>1</dim>
				</port>
			</output>
		</layer>
		<layer id="340" name="2322232612024" type="Const" version="opset1">
			<data offset="45242" size="576" shape="1,144,1,1" element_type="f32"/>
			<output>
				<port id="0" precision="FP32">
					<dim>1</dim>
					<dim>144</dim>
					<dim>1</dim>
					<dim>1</dim>
				</port>
			</output>
		</layer>
		<layer id="341" name="2323232711295" type="Const" version="opset1">
			<data offset="12584" size="576" shape="1,144,1,1" element_type="f32"/>
			<output>
				<port id="0" precision="FP32">
					<dim>1</dim>
					<dim>144</dim>
					<dim>1</dim>
					<dim>1</dim>
				</port>
			</output>
		</layer>
		<layer id="342" name="2324232812411" type="Const" version="opset1">
			<data offset="45242" size="576" shape="1,144,1,1" element_type="f32"/>
			<output>
				<port id="0" precision="FP32">
					<dim>1</dim>
					<dim>144</dim>
					<dim>1</dim>
					<dim>1</dim>
				</port>
			</output>
		</layer>
		<layer id="343" name="Multiply_5870/fq_weights_1/scale703911841" type="Const" version="opset1">
			<data offset="45818" size="576" shape="144,1,1,1" element_type="f32"/>
			<output>
				<port id="0" precision="FP32">
					<dim>144</dim>
					<dim>1</dim>
					<dim>1</dim>
					<dim>1</dim>
				</port>
			</output>
		</layer>
		<layer id="344" name="Multiply_62315495916/restored_convert/quantized703112201" type="Const" version="opset1">
			<data offset="46394" size="3456" shape="144,24,1,1" element_type="i8"/>
			<output>
				<port id="0" precision="I8">
					<dim>144</dim>
					<dim>24</dim>
					<dim>1</dim>
					<dim>1</dim>
				</port>
			</output>
		</layer>
		<layer id="345" name="Multiply_62315495916/restored_convert/quantized/to_f32" type="Convert" version="opset1">
			<data destination_type="f32"/>
			<input>
				<port id="0">
					<dim>144</dim>
					<dim>24</dim>
					<dim>1</dim>
					<dim>1</dim>
				</port>
			</input>
			<output>
				<port id="1" precision="FP32">
					<dim>144</dim>
					<dim>24</dim>
					<dim>1</dim>
					<dim>1</dim>
				</port>
			</output>
		</layer>
		<layer id="346" name="Multiply_5870/fq_weights_1/mulpiply_by_scale" type="Multiply" version="opset1">
			<data auto_broadcast="numpy"/>
			<input>
				<port id="0">
					<dim>144</dim>
					<dim>24</dim>
					<dim>1</dim>
					<dim>1</dim>
				</port>
				<port id="1">
					<dim>144</dim>
					<dim>1</dim>
					<dim>1</dim>
					<dim>1</dim>
				</port>
			</input>
			<output>
				<port id="2" precision="FP32">
					<dim>144</dim>
					<dim>24</dim>
					<dim>1</dim>
					<dim>1</dim>
				</port>
			</output>
		</layer>
		<layer id="347" name="Multiply_5870" type="Convolution" version="opset1">
			<data auto_pad="explicit" strides="1,1" dilations="1,1" pads_begin="0,0" pads_end="0,0"/>
			<input>
				<port id="0">
					<dim>1</dim>
					<dim>24</dim>
					<dim>38</dim>
					<dim>38</dim>
				</port>
				<port id="1">
					<dim>144</dim>
					<dim>24</dim>
					<dim>1</dim>
					<dim>1</dim>
				</port>
			</input>
			<output>
				<port id="2" precision="FP32">
					<dim>1</dim>
					<dim>144</dim>
					<dim>38</dim>
					<dim>38</dim>
				</port>
			</output>
		</layer>
		<layer id="348" name="Constant_587555211130" type="Const" version="opset1">
			<data offset="49850" size="288" shape="1,144,1,1" element_type="f16"/>
			<output>
				<port id="0" precision="FP16">
					<dim>1</dim>
					<dim>144</dim>
					<dim>1</dim>
					<dim>1</dim>
				</port>
			</output>
		</layer>
		<layer id="349" name="Constant_58755525917/restored_convert" type="Convert" version="opset1">
			<data destination_type="f32"/>
			<rt_info>
				<attribute name="decompression" version="0"/>
			</rt_info>
			<input>
				<port id="0">
					<dim>1</dim>
					<dim>144</dim>
					<dim>1</dim>
					<dim>1</dim>
				</port>
			</input>
			<output>
				<port id="1" precision="FP32">
					<dim>1</dim>
					<dim>144</dim>
					<dim>1</dim>
					<dim>1</dim>
				</port>
			</output>
		</layer>
		<layer id="350" name="375" type="Add" version="opset1">
			<data auto_broadcast="numpy"/>
			<input>
				<port id="0">
					<dim>1</dim>
					<dim>144</dim>
					<dim>38</dim>
					<dim>38</dim>
				</port>
				<port id="1">
					<dim>1</dim>
					<dim>144</dim>
					<dim>1</dim>
					<dim>1</dim>
				</port>
			</input>
			<output>
				<port id="2" precision="FP32" names="375">
					<dim>1</dim>
					<dim>144</dim>
					<dim>38</dim>
					<dim>38</dim>
				</port>
			</output>
		</layer>
		<layer id="351" name="376" type="ReLU" version="opset1">
			<input>
				<port id="0">
					<dim>1</dim>
					<dim>144</dim>
					<dim>38</dim>
					<dim>38</dim>
				</port>
			</input>
			<output>
				<port id="1" precision="FP32" names="376">
					<dim>1</dim>
					<dim>144</dim>
					<dim>38</dim>
					<dim>38</dim>
				</port>
			</output>
		</layer>
		<layer id="352" name="Multiply_5877/fq_input_0" type="FakeQuantize" version="opset1">
			<data levels="256" auto_broadcast="numpy"/>
			<input>
				<port id="0">
					<dim>1</dim>
					<dim>144</dim>
					<dim>38</dim>
					<dim>38</dim>
				</port>
				<port id="1">
					<dim>1</dim>
					<dim>144</dim>
					<dim>1</dim>
					<dim>1</dim>
				</port>
				<port id="2">
					<dim>1</dim>
					<dim>144</dim>
					<dim>1</dim>
					<dim>1</dim>
				</port>
				<port id="3">
					<dim>1</dim>
					<dim>144</dim>
					<dim>1</dim>
					<dim>1</dim>
				</port>
				<port id="4">
					<dim>1</dim>
					<dim>144</dim>
					<dim>1</dim>
					<dim>1</dim>
				</port>
			</input>
			<output>
				<port id="5" precision="FP32">
					<dim>1</dim>
					<dim>144</dim>
					<dim>38</dim>
					<dim>38</dim>
				</port>
			</output>
		</layer>
		<layer id="353" name="Multiply_5877/weights_shape989311610" type="Const" version="opset1">
			<data offset="39430" size="40" shape="5" element_type="i64"/>
			<output>
				<port id="0" precision="I64">
					<dim>5</dim>
				</port>
			</output>
		</layer>
		<layer id="354" name="Multiply_5877/fq_weights_1/scale805912084" type="Const" version="opset1">
			<data offset="50138" size="576" shape="144,1,1,1" element_type="f32"/>
			<output>
				<port id="0" precision="FP32">
					<dim>144</dim>
					<dim>1</dim>
					<dim>1</dim>
					<dim>1</dim>
				</port>
			</output>
		</layer>
		<layer id="355" name="Multiply_62375565918/restored_convert/quantized805111190" type="Const" version="opset1">
			<data offset="50714" size="1296" shape="144,1,3,3" element_type="i8"/>
			<output>
				<port id="0" precision="I8">
					<dim>144</dim>
					<dim>1</dim>
					<dim>3</dim>
					<dim>3</dim>
				</port>
			</output>
		</layer>
		<layer id="356" name="Multiply_62375565918/restored_convert/quantized/to_f32" type="Convert" version="opset1">
			<data destination_type="f32"/>
			<input>
				<port id="0">
					<dim>144</dim>
					<dim>1</dim>
					<dim>3</dim>
					<dim>3</dim>
				</port>
			</input>
			<output>
				<port id="1" precision="FP32">
					<dim>144</dim>
					<dim>1</dim>
					<dim>3</dim>
					<dim>3</dim>
				</port>
			</output>
		</layer>
		<layer id="357" name="Multiply_5877/fq_weights_1/mulpiply_by_scale" type="Multiply" version="opset1">
			<data auto_broadcast="numpy"/>
			<input>
				<port id="0">
					<dim>144</dim>
					<dim>1</dim>
					<dim>3</dim>
					<dim>3</dim>
				</port>
				<port id="1">
					<dim>144</dim>
					<dim>1</dim>
					<dim>1</dim>
					<dim>1</dim>
				</port>
			</input>
			<output>
				<port id="2" precision="FP32">
					<dim>144</dim>
					<dim>1</dim>
					<dim>3</dim>
					<dim>3</dim>
				</port>
			</output>
		</layer>
		<layer id="358" name="9892" type="Reshape" version="opset1">
			<data special_zero="true"/>
			<input>
				<port id="0">
					<dim>144</dim>
					<dim>1</dim>
					<dim>3</dim>
					<dim>3</dim>
				</port>
				<port id="1">
					<dim>5</dim>
				</port>
			</input>
			<output>
				<port id="2" precision="FP32">
					<dim>144</dim>
					<dim>1</dim>
					<dim>1</dim>
					<dim>3</dim>
					<dim>3</dim>
				</port>
			</output>
		</layer>
		<layer id="359" name="Multiply_5877" type="GroupConvolution" version="opset1">
			<data auto_pad="explicit" strides="1,1" dilations="1,1" pads_begin="1,1" pads_end="1,1"/>
			<input>
				<port id="0">
					<dim>1</dim>
					<dim>144</dim>
					<dim>38</dim>
					<dim>38</dim>
				</port>
				<port id="1">
					<dim>144</dim>
					<dim>1</dim>
					<dim>1</dim>
					<dim>3</dim>
					<dim>3</dim>
				</port>
			</input>
			<output>
				<port id="2" precision="FP32" names="377">
					<dim>1</dim>
					<dim>144</dim>
					<dim>38</dim>
					<dim>38</dim>
				</port>
			</output>
		</layer>
		<layer id="360" name="Constant_588255911250" type="Const" version="opset1">
			<data offset="52010" size="288" shape="1,144,1,1" element_type="f16"/>
			<output>
				<port id="0" precision="FP16">
					<dim>1</dim>
					<dim>144</dim>
					<dim>1</dim>
					<dim>1</dim>
				</port>
			</output>
		</layer>
		<layer id="361" name="Constant_58825595919/restored_convert" type="Convert" version="opset1">
			<data destination_type="f32"/>
			<rt_info>
				<attribute name="decompression" version="0"/>
			</rt_info>
			<input>
				<port id="0">
					<dim>1</dim>
					<dim>144</dim>
					<dim>1</dim>
					<dim>1</dim>
				</port>
			</input>
			<output>
				<port id="1" precision="FP32">
					<dim>1</dim>
					<dim>144</dim>
					<dim>1</dim>
					<dim>1</dim>
				</port>
			</output>
		</layer>
		<layer id="362" name="378" type="Add" version="opset1">
			<data auto_broadcast="numpy"/>
			<input>
				<port id="0">
					<dim>1</dim>
					<dim>144</dim>
					<dim>38</dim>
					<dim>38</dim>
				</port>
				<port id="1">
					<dim>1</dim>
					<dim>144</dim>
					<dim>1</dim>
					<dim>1</dim>
				</port>
			</input>
			<output>
				<port id="2" precision="FP32" names="378">
					<dim>1</dim>
					<dim>144</dim>
					<dim>38</dim>
					<dim>38</dim>
				</port>
			</output>
		</layer>
		<layer id="363" name="379" type="ReLU" version="opset1">
			<input>
				<port id="0">
					<dim>1</dim>
					<dim>144</dim>
					<dim>38</dim>
					<dim>38</dim>
				</port>
			</input>
			<output>
				<port id="1" precision="FP32" names="379">
					<dim>1</dim>
					<dim>144</dim>
					<dim>38</dim>
					<dim>38</dim>
				</port>
			</output>
		</layer>
		<layer id="364" name="Multiply_5884/fq_input_0" type="FakeQuantize" version="opset1">
			<data levels="256" auto_broadcast="numpy"/>
			<input>
				<port id="0">
					<dim>1</dim>
					<dim>144</dim>
					<dim>38</dim>
					<dim>38</dim>
				</port>
				<port id="1"/>
				<port id="2"/>
				<port id="3"/>
				<port id="4"/>
			</input>
			<output>
				<port id="5" precision="FP32">
					<dim>1</dim>
					<dim>144</dim>
					<dim>38</dim>
					<dim>38</dim>
				</port>
			</output>
		</layer>
		<layer id="365" name="Multiply_5884/fq_weights_1/scale718912189" type="Const" version="opset1">
			<data offset="52298" size="96" shape="24,1,1,1" element_type="f32"/>
			<output>
				<port id="0" precision="FP32">
					<dim>24</dim>
					<dim>1</dim>
					<dim>1</dim>
					<dim>1</dim>
				</port>
			</output>
		</layer>
		<layer id="366" name="Multiply_62425635920/restored_convert/quantized718111388" type="Const" version="opset1">
			<data offset="52394" size="3456" shape="24,144,1,1" element_type="i8"/>
			<output>
				<port id="0" precision="I8">
					<dim>24</dim>
					<dim>144</dim>
					<dim>1</dim>
					<dim>1</dim>
				</port>
			</output>
		</layer>
		<layer id="367" name="Multiply_62425635920/restored_convert/quantized/to_f32" type="Convert" version="opset1">
			<data destination_type="f32"/>
			<input>
				<port id="0">
					<dim>24</dim>
					<dim>144</dim>
					<dim>1</dim>
					<dim>1</dim>
				</port>
			</input>
			<output>
				<port id="1" precision="FP32">
					<dim>24</dim>
					<dim>144</dim>
					<dim>1</dim>
					<dim>1</dim>
				</port>
			</output>
		</layer>
		<layer id="368" name="Multiply_5884/fq_weights_1/mulpiply_by_scale" type="Multiply" version="opset1">
			<data auto_broadcast="numpy"/>
			<input>
				<port id="0">
					<dim>24</dim>
					<dim>144</dim>
					<dim>1</dim>
					<dim>1</dim>
				</port>
				<port id="1">
					<dim>24</dim>
					<dim>1</dim>
					<dim>1</dim>
					<dim>1</dim>
				</port>
			</input>
			<output>
				<port id="2" precision="FP32">
					<dim>24</dim>
					<dim>144</dim>
					<dim>1</dim>
					<dim>1</dim>
				</port>
			</output>
		</layer>
		<layer id="369" name="Multiply_5884" type="Convolution" version="opset1">
			<data auto_pad="explicit" strides="1,1" dilations="1,1" pads_begin="0,0" pads_end="0,0"/>
			<input>
				<port id="0">
					<dim>1</dim>
					<dim>144</dim>
					<dim>38</dim>
					<dim>38</dim>
				</port>
				<port id="1">
					<dim>24</dim>
					<dim>144</dim>
					<dim>1</dim>
					<dim>1</dim>
				</port>
			</input>
			<output>
				<port id="2" precision="FP32">
					<dim>1</dim>
					<dim>24</dim>
					<dim>38</dim>
					<dim>38</dim>
				</port>
			</output>
		</layer>
		<layer id="370" name="Constant_588956611355" type="Const" version="opset1">
			<data offset="55850" size="48" shape="1,24,1,1" element_type="f16"/>
			<output>
				<port id="0" precision="FP16">
					<dim>1</dim>
					<dim>24</dim>
					<dim>1</dim>
					<dim>1</dim>
				</port>
			</output>
		</layer>
		<layer id="371" name="Constant_58895665921/restored_convert" type="Convert" version="opset1">
			<data destination_type="f32"/>
			<rt_info>
				<attribute name="decompression" version="0"/>
			</rt_info>
			<input>
				<port id="0">
					<dim>1</dim>
					<dim>24</dim>
					<dim>1</dim>
					<dim>1</dim>
				</port>
			</input>
			<output>
				<port id="1" precision="FP32">
					<dim>1</dim>
					<dim>24</dim>
					<dim>1</dim>
					<dim>1</dim>
				</port>
			</output>
		</layer>
		<layer id="372" name="381" type="Add" version="opset1">
			<data auto_broadcast="numpy"/>
			<input>
				<port id="0">
					<dim>1</dim>
					<dim>24</dim>
					<dim>38</dim>
					<dim>38</dim>
				</port>
				<port id="1">
					<dim>1</dim>
					<dim>24</dim>
					<dim>1</dim>
					<dim>1</dim>
				</port>
			</input>
			<output>
				<port id="2" precision="FP32" names="381">
					<dim>1</dim>
					<dim>24</dim>
					<dim>38</dim>
					<dim>38</dim>
				</port>
			</output>
		</layer>
		<layer id="373" name="382/fq_input_1" type="FakeQuantize" version="opset1">
			<data levels="256" auto_broadcast="numpy"/>
			<input>
				<port id="0">
					<dim>1</dim>
					<dim>24</dim>
					<dim>38</dim>
					<dim>38</dim>
				</port>
				<port id="1"/>
				<port id="2"/>
				<port id="3"/>
				<port id="4"/>
			</input>
			<output>
				<port id="5" precision="FP32">
					<dim>1</dim>
					<dim>24</dim>
					<dim>38</dim>
					<dim>38</dim>
				</port>
			</output>
		</layer>
		<layer id="374" name="382" type="Add" version="opset1">
			<data auto_broadcast="numpy"/>
			<input>
				<port id="0">
					<dim>1</dim>
					<dim>24</dim>
					<dim>38</dim>
					<dim>38</dim>
				</port>
				<port id="1">
					<dim>1</dim>
					<dim>24</dim>
					<dim>38</dim>
					<dim>38</dim>
				</port>
			</input>
			<output>
				<port id="2" precision="FP32" names="382">
					<dim>1</dim>
					<dim>24</dim>
					<dim>38</dim>
					<dim>38</dim>
				</port>
			</output>
		</layer>
		<layer id="375" name="Multiply_5891/fq_input_0" type="FakeQuantize" version="opset1">
			<data levels="256" auto_broadcast="numpy"/>
			<input>
				<port id="0">
					<dim>1</dim>
					<dim>24</dim>
					<dim>38</dim>
					<dim>38</dim>
				</port>
				<port id="1"/>
				<port id="2"/>
				<port id="3"/>
				<port id="4"/>
			</input>
			<output>
				<port id="5" precision="FP32">
					<dim>1</dim>
					<dim>24</dim>
					<dim>38</dim>
					<dim>38</dim>
				</port>
			</output>
		</layer>
		<layer id="376" name="Multiply_5891/fq_weights_1/scale829911286" type="Const" version="opset1">
			<data offset="55898" size="576" shape="144,1,1,1" element_type="f32"/>
			<output>
				<port id="0" precision="FP32">
					<dim>144</dim>
					<dim>1</dim>
					<dim>1</dim>
					<dim>1</dim>
				</port>
			</output>
		</layer>
		<layer id="377" name="Multiply_62485705922/restored_convert/quantized829111952" type="Const" version="opset1">
			<data offset="56474" size="3456" shape="144,24,1,1" element_type="i8"/>
			<output>
				<port id="0" precision="I8">
					<dim>144</dim>
					<dim>24</dim>
					<dim>1</dim>
					<dim>1</dim>
				</port>
			</output>
		</layer>
		<layer id="378" name="Multiply_62485705922/restored_convert/quantized/to_f32" type="Convert" version="opset1">
			<data destination_type="f32"/>
			<input>
				<port id="0">
					<dim>144</dim>
					<dim>24</dim>
					<dim>1</dim>
					<dim>1</dim>
				</port>
			</input>
			<output>
				<port id="1" precision="FP32">
					<dim>144</dim>
					<dim>24</dim>
					<dim>1</dim>
					<dim>1</dim>
				</port>
			</output>
		</layer>
		<layer id="379" name="Multiply_5891/fq_weights_1/mulpiply_by_scale" type="Multiply" version="opset1">
			<data auto_broadcast="numpy"/>
			<input>
				<port id="0">
					<dim>144</dim>
					<dim>24</dim>
					<dim>1</dim>
					<dim>1</dim>
				</port>
				<port id="1">
					<dim>144</dim>
					<dim>1</dim>
					<dim>1</dim>
					<dim>1</dim>
				</port>
			</input>
			<output>
				<port id="2" precision="FP32">
					<dim>144</dim>
					<dim>24</dim>
					<dim>1</dim>
					<dim>1</dim>
				</port>
			</output>
		</layer>
		<layer id="380" name="Multiply_5891" type="Convolution" version="opset1">
			<data auto_pad="explicit" strides="1,1" dilations="1,1" pads_begin="0,0" pads_end="0,0"/>
			<input>
				<port id="0">
					<dim>1</dim>
					<dim>24</dim>
					<dim>38</dim>
					<dim>38</dim>
				</port>
				<port id="1">
					<dim>144</dim>
					<dim>24</dim>
					<dim>1</dim>
					<dim>1</dim>
				</port>
			</input>
			<output>
				<port id="2" precision="FP32">
					<dim>1</dim>
					<dim>144</dim>
					<dim>38</dim>
					<dim>38</dim>
				</port>
			</output>
		</layer>
		<layer id="381" name="Constant_589657311520" type="Const" version="opset1">
			<data offset="59930" size="288" shape="1,144,1,1" element_type="f16"/>
			<output>
				<port id="0" precision="FP16">
					<dim>1</dim>
					<dim>144</dim>
					<dim>1</dim>
					<dim>1</dim>
				</port>
			</output>
		</layer>
		<layer id="382" name="Constant_58965735923/restored_convert" type="Convert" version="opset1">
			<data destination_type="f32"/>
			<rt_info>
				<attribute name="decompression" version="0"/>
			</rt_info>
			<input>
				<port id="0">
					<dim>1</dim>
					<dim>144</dim>
					<dim>1</dim>
					<dim>1</dim>
				</port>
			</input>
			<output>
				<port id="1" precision="FP32">
					<dim>1</dim>
					<dim>144</dim>
					<dim>1</dim>
					<dim>1</dim>
				</port>
			</output>
		</layer>
		<layer id="383" name="384" type="Add" version="opset1">
			<data auto_broadcast="numpy"/>
			<input>
				<port id="0">
					<dim>1</dim>
					<dim>144</dim>
					<dim>38</dim>
					<dim>38</dim>
				</port>
				<port id="1">
					<dim>1</dim>
					<dim>144</dim>
					<dim>1</dim>
					<dim>1</dim>
				</port>
			</input>
			<output>
				<port id="2" precision="FP32" names="384">
					<dim>1</dim>
					<dim>144</dim>
					<dim>38</dim>
					<dim>38</dim>
				</port>
			</output>
		</layer>
		<layer id="384" name="385" type="ReLU" version="opset1">
			<input>
				<port id="0">
					<dim>1</dim>
					<dim>144</dim>
					<dim>38</dim>
					<dim>38</dim>
				</port>
			</input>
			<output>
				<port id="1" precision="FP32" names="385">
					<dim>1</dim>
					<dim>144</dim>
					<dim>38</dim>
					<dim>38</dim>
				</port>
			</output>
		</layer>
		<layer id="385" name="Multiply_5898/fq_input_0" type="FakeQuantize" version="opset1">
			<data levels="256" auto_broadcast="numpy"/>
			<input>
				<port id="0">
					<dim>1</dim>
					<dim>144</dim>
					<dim>38</dim>
					<dim>38</dim>
				</port>
				<port id="1">
					<dim>1</dim>
					<dim>144</dim>
					<dim>1</dim>
					<dim>1</dim>
				</port>
				<port id="2">
					<dim>1</dim>
					<dim>144</dim>
					<dim>1</dim>
					<dim>1</dim>
				</port>
				<port id="3">
					<dim>1</dim>
					<dim>144</dim>
					<dim>1</dim>
					<dim>1</dim>
				</port>
				<port id="4">
					<dim>1</dim>
					<dim>144</dim>
					<dim>1</dim>
					<dim>1</dim>
				</port>
			</input>
			<output>
				<port id="5" precision="FP32">
					<dim>1</dim>
					<dim>144</dim>
					<dim>38</dim>
					<dim>38</dim>
				</port>
			</output>
		</layer>
		<layer id="386" name="Multiply_5898/weights_shape990712285" type="Const" version="opset1">
			<data offset="39430" size="40" shape="5" element_type="i64"/>
			<output>
				<port id="0" precision="I64">
					<dim>5</dim>
				</port>
			</output>
		</layer>
		<layer id="387" name="Multiply_5898/fq_weights_1/scale706912012" type="Const" version="opset1">
			<data offset="60218" size="576" shape="144,1,1,1" element_type="f32"/>
			<output>
				<port id="0" precision="FP32">
					<dim>144</dim>
					<dim>1</dim>
					<dim>1</dim>
					<dim>1</dim>
				</port>
			</output>
		</layer>
		<layer id="388" name="Multiply_62545775924/restored_convert/quantized706111214" type="Const" version="opset1">
			<data offset="60794" size="1296" shape="144,1,3,3" element_type="i8"/>
			<output>
				<port id="0" precision="I8">
					<dim>144</dim>
					<dim>1</dim>
					<dim>3</dim>
					<dim>3</dim>
				</port>
			</output>
		</layer>
		<layer id="389" name="Multiply_62545775924/restored_convert/quantized/to_f32" type="Convert" version="opset1">
			<data destination_type="f32"/>
			<input>
				<port id="0">
					<dim>144</dim>
					<dim>1</dim>
					<dim>3</dim>
					<dim>3</dim>
				</port>
			</input>
			<output>
				<port id="1" precision="FP32">
					<dim>144</dim>
					<dim>1</dim>
					<dim>3</dim>
					<dim>3</dim>
				</port>
			</output>
		</layer>
		<layer id="390" name="Multiply_5898/fq_weights_1/mulpiply_by_scale" type="Multiply" version="opset1">
			<data auto_broadcast="numpy"/>
			<input>
				<port id="0">
					<dim>144</dim>
					<dim>1</dim>
					<dim>3</dim>
					<dim>3</dim>
				</port>
				<port id="1">
					<dim>144</dim>
					<dim>1</dim>
					<dim>1</dim>
					<dim>1</dim>
				</port>
			</input>
			<output>
				<port id="2" precision="FP32">
					<dim>144</dim>
					<dim>1</dim>
					<dim>3</dim>
					<dim>3</dim>
				</port>
			</output>
		</layer>
		<layer id="391" name="9906" type="Reshape" version="opset1">
			<data special_zero="true"/>
			<input>
				<port id="0">
					<dim>144</dim>
					<dim>1</dim>
					<dim>3</dim>
					<dim>3</dim>
				</port>
				<port id="1">
					<dim>5</dim>
				</port>
			</input>
			<output>
				<port id="2" precision="FP32">
					<dim>144</dim>
					<dim>1</dim>
					<dim>1</dim>
					<dim>3</dim>
					<dim>3</dim>
				</port>
			</output>
		</layer>
		<layer id="392" name="Multiply_5898" type="GroupConvolution" version="opset1">
			<data auto_pad="explicit" strides="2,2" dilations="1,1" pads_begin="1,1" pads_end="1,1"/>
			<input>
				<port id="0">
					<dim>1</dim>
					<dim>144</dim>
					<dim>38</dim>
					<dim>38</dim>
				</port>
				<port id="1">
					<dim>144</dim>
					<dim>1</dim>
					<dim>1</dim>
					<dim>3</dim>
					<dim>3</dim>
				</port>
			</input>
			<output>
				<port id="2" precision="FP32" names="386">
					<dim>1</dim>
					<dim>144</dim>
					<dim>19</dim>
					<dim>19</dim>
				</port>
			</output>
		</layer>
		<layer id="393" name="Constant_590358012132" type="Const" version="opset1">
			<data offset="62090" size="288" shape="1,144,1,1" element_type="f16"/>
			<output>
				<port id="0" precision="FP16">
					<dim>1</dim>
					<dim>144</dim>
					<dim>1</dim>
					<dim>1</dim>
				</port>
			</output>
		</layer>
		<layer id="394" name="Constant_59035805925/restored_convert" type="Convert" version="opset1">
			<data destination_type="f32"/>
			<rt_info>
				<attribute name="decompression" version="0"/>
			</rt_info>
			<input>
				<port id="0">
					<dim>1</dim>
					<dim>144</dim>
					<dim>1</dim>
					<dim>1</dim>
				</port>
			</input>
			<output>
				<port id="1" precision="FP32">
					<dim>1</dim>
					<dim>144</dim>
					<dim>1</dim>
					<dim>1</dim>
				</port>
			</output>
		</layer>
		<layer id="395" name="387" type="Add" version="opset1">
			<data auto_broadcast="numpy"/>
			<input>
				<port id="0">
					<dim>1</dim>
					<dim>144</dim>
					<dim>19</dim>
					<dim>19</dim>
				</port>
				<port id="1">
					<dim>1</dim>
					<dim>144</dim>
					<dim>1</dim>
					<dim>1</dim>
				</port>
			</input>
			<output>
				<port id="2" precision="FP32" names="387">
					<dim>1</dim>
					<dim>144</dim>
					<dim>19</dim>
					<dim>19</dim>
				</port>
			</output>
		</layer>
		<layer id="396" name="388" type="ReLU" version="opset1">
			<input>
				<port id="0">
					<dim>1</dim>
					<dim>144</dim>
					<dim>19</dim>
					<dim>19</dim>
				</port>
			</input>
			<output>
				<port id="1" precision="FP32" names="388">
					<dim>1</dim>
					<dim>144</dim>
					<dim>19</dim>
					<dim>19</dim>
				</port>
			</output>
		</layer>
		<layer id="397" name="Multiply_5905/fq_input_0" type="FakeQuantize" version="opset1">
			<data levels="256" auto_broadcast="numpy"/>
			<input>
				<port id="0">
					<dim>1</dim>
					<dim>144</dim>
					<dim>19</dim>
					<dim>19</dim>
				</port>
				<port id="1"/>
				<port id="2"/>
				<port id="3"/>
				<port id="4"/>
			</input>
			<output>
				<port id="5" precision="FP32">
					<dim>1</dim>
					<dim>144</dim>
					<dim>19</dim>
					<dim>19</dim>
				</port>
			</output>
		</layer>
		<layer id="398" name="Multiply_5905/fq_weights_1/scale808911448" type="Const" version="opset1">
			<data offset="62378" size="192" shape="48,1,1,1" element_type="f32"/>
			<output>
				<port id="0" precision="FP32">
					<dim>48</dim>
					<dim>1</dim>
					<dim>1</dim>
					<dim>1</dim>
				</port>
			</output>
		</layer>
		<layer id="399" name="Multiply_62595845926/restored_convert/quantized808111976" type="Const" version="opset1">
			<data offset="62570" size="6912" shape="48,144,1,1" element_type="i8"/>
			<output>
				<port id="0" precision="I8">
					<dim>48</dim>
					<dim>144</dim>
					<dim>1</dim>
					<dim>1</dim>
				</port>
			</output>
		</layer>
		<layer id="400" name="Multiply_62595845926/restored_convert/quantized/to_f32" type="Convert" version="opset1">
			<data destination_type="f32"/>
			<input>
				<port id="0">
					<dim>48</dim>
					<dim>144</dim>
					<dim>1</dim>
					<dim>1</dim>
				</port>
			</input>
			<output>
				<port id="1" precision="FP32">
					<dim>48</dim>
					<dim>144</dim>
					<dim>1</dim>
					<dim>1</dim>
				</port>
			</output>
		</layer>
		<layer id="401" name="Multiply_5905/fq_weights_1/mulpiply_by_scale" type="Multiply" version="opset1">
			<data auto_broadcast="numpy"/>
			<input>
				<port id="0">
					<dim>48</dim>
					<dim>144</dim>
					<dim>1</dim>
					<dim>1</dim>
				</port>
				<port id="1">
					<dim>48</dim>
					<dim>1</dim>
					<dim>1</dim>
					<dim>1</dim>
				</port>
			</input>
			<output>
				<port id="2" precision="FP32">
					<dim>48</dim>
					<dim>144</dim>
					<dim>1</dim>
					<dim>1</dim>
				</port>
			</output>
		</layer>
		<layer id="402" name="Multiply_5905" type="Convolution" version="opset1">
			<data auto_pad="explicit" strides="1,1" dilations="1,1" pads_begin="0,0" pads_end="0,0"/>
			<input>
				<port id="0">
					<dim>1</dim>
					<dim>144</dim>
					<dim>19</dim>
					<dim>19</dim>
				</port>
				<port id="1">
					<dim>48</dim>
					<dim>144</dim>
					<dim>1</dim>
					<dim>1</dim>
				</port>
			</input>
			<output>
				<port id="2" precision="FP32">
					<dim>1</dim>
					<dim>48</dim>
					<dim>19</dim>
					<dim>19</dim>
				</port>
			</output>
		</layer>
		<layer id="403" name="Constant_591058712246" type="Const" version="opset1">
			<data offset="69482" size="96" shape="1,48,1,1" element_type="f16"/>
			<output>
				<port id="0" precision="FP16">
					<dim>1</dim>
					<dim>48</dim>
					<dim>1</dim>
					<dim>1</dim>
				</port>
			</output>
		</layer>
		<layer id="404" name="Constant_59105875927/restored_convert" type="Convert" version="opset1">
			<data destination_type="f32"/>
			<rt_info>
				<attribute name="decompression" version="0"/>
			</rt_info>
			<input>
				<port id="0">
					<dim>1</dim>
					<dim>48</dim>
					<dim>1</dim>
					<dim>1</dim>
				</port>
			</input>
			<output>
				<port id="1" precision="FP32">
					<dim>1</dim>
					<dim>48</dim>
					<dim>1</dim>
					<dim>1</dim>
				</port>
			</output>
		</layer>
		<layer id="405" name="390" type="Add" version="opset1">
			<data auto_broadcast="numpy"/>
			<input>
				<port id="0">
					<dim>1</dim>
					<dim>48</dim>
					<dim>19</dim>
					<dim>19</dim>
				</port>
				<port id="1">
					<dim>1</dim>
					<dim>48</dim>
					<dim>1</dim>
					<dim>1</dim>
				</port>
			</input>
			<output>
				<port id="2" precision="FP32" names="390">
					<dim>1</dim>
					<dim>48</dim>
					<dim>19</dim>
					<dim>19</dim>
				</port>
			</output>
		</layer>
		<layer id="406" name="399/fq_input_0" type="FakeQuantize" version="opset1">
			<data levels="256" auto_broadcast="numpy"/>
			<input>
				<port id="0">
					<dim>1</dim>
					<dim>48</dim>
					<dim>19</dim>
					<dim>19</dim>
				</port>
				<port id="1"/>
				<port id="2"/>
				<port id="3"/>
				<port id="4"/>
			</input>
			<output>
				<port id="5" precision="FP32">
					<dim>1</dim>
					<dim>48</dim>
					<dim>19</dim>
					<dim>19</dim>
				</port>
			</output>
		</layer>
		<layer id="407" name="2071207511778" type="Const" version="opset1">
			<data offset="69578" size="4" shape="" element_type="f32"/>
			<output>
				<port id="0" precision="FP32"/>
			</output>
		</layer>
		<layer id="408" name="2072207611835" type="Const" version="opset1">
			<data offset="69582" size="4" shape="" element_type="f32"/>
			<output>
				<port id="0" precision="FP32"/>
			</output>
		</layer>
		<layer id="409" name="2073207711343" type="Const" version="opset1">
			<data offset="69578" size="4" shape="" element_type="f32"/>
			<output>
				<port id="0" precision="FP32"/>
			</output>
		</layer>
		<layer id="410" name="2074207812420" type="Const" version="opset1">
			<data offset="69582" size="4" shape="" element_type="f32"/>
			<output>
				<port id="0" precision="FP32"/>
			</output>
		</layer>
		<layer id="411" name="1681168511445" type="Const" version="opset1">
			<data offset="0" size="4" shape="" element_type="f32"/>
			<output>
				<port id="0" precision="FP32"/>
			</output>
		</layer>
		<layer id="412" name="1682168611307" type="Const" version="opset1">
			<data offset="69586" size="4" shape="" element_type="f32"/>
			<output>
				<port id="0" precision="FP32"/>
			</output>
		</layer>
		<layer id="413" name="1683168711925" type="Const" version="opset1">
			<data offset="0" size="4" shape="" element_type="f32"/>
			<output>
				<port id="0" precision="FP32"/>
			</output>
		</layer>
		<layer id="414" name="1684168812081" type="Const" version="opset1">
			<data offset="69586" size="4" shape="" element_type="f32"/>
			<output>
				<port id="0" precision="FP32"/>
			</output>
		</layer>
		<layer id="415" name="2521252511460" type="Const" version="opset1">
			<data offset="10244" size="1152" shape="1,288,1,1" element_type="f32"/>
			<output>
				<port id="0" precision="FP32">
					<dim>1</dim>
					<dim>288</dim>
					<dim>1</dim>
					<dim>1</dim>
				</port>
			</output>
		</layer>
		<layer id="416" name="2522252611121" type="Const" version="opset1">
			<data offset="69590" size="1152" shape="1,288,1,1" element_type="f32"/>
			<output>
				<port id="0" precision="FP32">
					<dim>1</dim>
					<dim>288</dim>
					<dim>1</dim>
					<dim>1</dim>
				</port>
			</output>
		</layer>
		<layer id="417" name="2523252711391" type="Const" version="opset1">
			<data offset="10244" size="1152" shape="1,288,1,1" element_type="f32"/>
			<output>
				<port id="0" precision="FP32">
					<dim>1</dim>
					<dim>288</dim>
					<dim>1</dim>
					<dim>1</dim>
				</port>
			</output>
		</layer>
		<layer id="418" name="2524252811646" type="Const" version="opset1">
			<data offset="69590" size="1152" shape="1,288,1,1" element_type="f32"/>
			<output>
				<port id="0" precision="FP32">
					<dim>1</dim>
					<dim>288</dim>
					<dim>1</dim>
					<dim>1</dim>
				</port>
			</output>
		</layer>
		<layer id="419" name="Multiply_5912/fq_weights_1/scale736911955" type="Const" version="opset1">
			<data offset="70742" size="1152" shape="288,1,1,1" element_type="f32"/>
			<output>
				<port id="0" precision="FP32">
					<dim>288</dim>
					<dim>1</dim>
					<dim>1</dim>
					<dim>1</dim>
				</port>
			</output>
		</layer>
		<layer id="420" name="Multiply_62655905928/restored_convert/quantized736111850" type="Const" version="opset1">
			<data offset="71894" size="13824" shape="288,48,1,1" element_type="i8"/>
			<output>
				<port id="0" precision="I8">
					<dim>288</dim>
					<dim>48</dim>
					<dim>1</dim>
					<dim>1</dim>
				</port>
			</output>
		</layer>
		<layer id="421" name="Multiply_62655905928/restored_convert/quantized/to_f32" type="Convert" version="opset1">
			<data destination_type="f32"/>
			<input>
				<port id="0">
					<dim>288</dim>
					<dim>48</dim>
					<dim>1</dim>
					<dim>1</dim>
				</port>
			</input>
			<output>
				<port id="1" precision="FP32">
					<dim>288</dim>
					<dim>48</dim>
					<dim>1</dim>
					<dim>1</dim>
				</port>
			</output>
		</layer>
		<layer id="422" name="Multiply_5912/fq_weights_1/mulpiply_by_scale" type="Multiply" version="opset1">
			<data auto_broadcast="numpy"/>
			<input>
				<port id="0">
					<dim>288</dim>
					<dim>48</dim>
					<dim>1</dim>
					<dim>1</dim>
				</port>
				<port id="1">
					<dim>288</dim>
					<dim>1</dim>
					<dim>1</dim>
					<dim>1</dim>
				</port>
			</input>
			<output>
				<port id="2" precision="FP32">
					<dim>288</dim>
					<dim>48</dim>
					<dim>1</dim>
					<dim>1</dim>
				</port>
			</output>
		</layer>
		<layer id="423" name="Multiply_5912" type="Convolution" version="opset1">
			<data auto_pad="explicit" strides="1,1" dilations="1,1" pads_begin="0,0" pads_end="0,0"/>
			<input>
				<port id="0">
					<dim>1</dim>
					<dim>48</dim>
					<dim>19</dim>
					<dim>19</dim>
				</port>
				<port id="1">
					<dim>288</dim>
					<dim>48</dim>
					<dim>1</dim>
					<dim>1</dim>
				</port>
			</input>
			<output>
				<port id="2" precision="FP32">
					<dim>1</dim>
					<dim>288</dim>
					<dim>19</dim>
					<dim>19</dim>
				</port>
			</output>
		</layer>
		<layer id="424" name="Constant_591759311187" type="Const" version="opset1">
			<data offset="85718" size="576" shape="1,288,1,1" element_type="f16"/>
			<output>
				<port id="0" precision="FP16">
					<dim>1</dim>
					<dim>288</dim>
					<dim>1</dim>
					<dim>1</dim>
				</port>
			</output>
		</layer>
		<layer id="425" name="Constant_59175935929/restored_convert" type="Convert" version="opset1">
			<data destination_type="f32"/>
			<rt_info>
				<attribute name="decompression" version="0"/>
			</rt_info>
			<input>
				<port id="0">
					<dim>1</dim>
					<dim>288</dim>
					<dim>1</dim>
					<dim>1</dim>
				</port>
			</input>
			<output>
				<port id="1" precision="FP32">
					<dim>1</dim>
					<dim>288</dim>
					<dim>1</dim>
					<dim>1</dim>
				</port>
			</output>
		</layer>
		<layer id="426" name="392" type="Add" version="opset1">
			<data auto_broadcast="numpy"/>
			<input>
				<port id="0">
					<dim>1</dim>
					<dim>288</dim>
					<dim>19</dim>
					<dim>19</dim>
				</port>
				<port id="1">
					<dim>1</dim>
…
		<edge from-layer="356" from-port="1" to-layer="357" to-port="0"/>
		<edge from-layer="354" from-port="0" to-layer="357" to-port="1"/>
		<edge from-layer="357" from-port="2" to-layer="358" to-port="0"/>
		<edge from-layer="353" from-port="0" to-layer="358" to-port="1"/>
		<edge from-layer="352" from-port="5" to-layer="359" to-port="0"/>
		<edge from-layer="358" from-port="2" to-layer="359" to-port="1"/>
		<edge from-layer="360" from-port="0" to-layer="361" to-port="0"/>
		<edge from-layer="359" from-port="2" to-layer="362" to-port="0"/>
		<edge from-layer="361" from-port="1" to-layer="362" to-port="1"/>
		<edge from-layer="362" from-port="2" to-layer="363" to-port="0"/>
		<edge from-layer="363" from-port="1" to-layer="364" to-port="0"/>
		<edge from-layer="335" from-port="0" to-layer="364" to-port="1"/>
		<edge from-layer="336" from-port="0" to-layer="364" to-port="2"/>
		<edge from-layer="337" from-port="0" to-layer="364" to-port="3"/>
		<edge from-layer="338" from-port="0" to-layer="364" to-port="4"/>
		<edge from-layer="366" from-port="0" to-layer="367" to-port="0"/>
		<edge from-layer="367" from-port="1" to-layer="368" to-port="0"/>
		<edge from-layer="365" from-port="0" to-layer="368" to-port="1"/>
		<edge from-layer="364" from-port="5" to-layer="369" to-port="0"/>
		<edge from-layer="368" from-port="2" to-layer="369" to-port="1"/>
		<edge from-layer="370" from-port="0" to-layer="371" to-port="0"/>
		<edge from-layer="369" from-port="2" to-layer="372" to-port="0"/>
		<edge from-layer="371" from-port="1" to-layer="372" to-port="1"/>
		<edge from-layer="372" from-port="2" to-layer="373" to-port="0"/>
		<edge from-layer="331" from-port="0" to-layer="373" to-port="1"/>
		<edge from-layer="332" from-port="0" to-layer="373" to-port="2"/>
		<edge from-layer="333" from-port="0" to-layer="373" to-port="3"/>
		<edge from-layer="334" from-port="0" to-layer="373" to-port="4"/>
		<edge from-layer="330" from-port="5" to-layer="374" to-port="0"/>
		<edge from-layer="373" from-port="5" to-layer="374" to-port="1"/>
		<edge from-layer="374" from-port="2" to-layer="375" to-port="0"/>
		<edge from-layer="80" from-port="0" to-layer="375" to-port="1"/>
		<edge from-layer="81" from-port="0" to-layer="375" to-port="2"/>
		<edge from-layer="82" from-port="0" to-layer="375" to-port="3"/>
		<edge from-layer="83" from-port="0" to-layer="375" to-port="4"/>
		<edge from-layer="377" from-port="0" to-layer="378" to-port="0"/>
		<edge from-layer="378" from-port="1" to-layer="379" to-port="0"/>
		<edge from-layer="376" from-port="0" to-layer="379" to-port="1"/>
		<edge from-layer="375" from-port="5" to-layer="380" to-port="0"/>
		<edge from-layer="379" from-port="2" to-layer="380" to-port="1"/>
		<edge from-layer="381" from-port="0" to-layer="382" to-port="0"/>
		<edge from-layer="380" from-port="2" to-layer="383" to-port="0"/>
		<edge from-layer="382" from-port="1" to-layer="383" to-port="1"/>
		<edge from-layer="383" from-port="2" to-layer="384" to-port="0"/>
		<edge from-layer="384" from-port="1" to-layer="385" to-port="0"/>
		<edge from-layer="76" from-port="0" to-layer="385" to-port="1"/>
		<edge from-layer="77" from-port="0" to-layer="385" to-port="2"/>
		<edge from-layer="78" from-port="0" to-layer="385" to-port="3"/>
		<edge from-layer="79" from-port="0" to-layer="385" to-port="4"/>
		<edge from-layer="388" from-port="0" to-layer="389" to-port="0"/>
		<edge from-layer="389" from-port="1" to-layer="390" to-port="0"/>
		<edge from-layer="387" from-port="0" to-layer="390" to-port="1"/>
		<edge from-layer="390" from-port="2" to-layer="391" to-port="0"/>
		<edge from-layer="386" from-port="0" to-layer="391" to-port="1"/>
		<edge from-layer="385" from-port="5" to-layer="392" to-port="0"/>
		<edge from-layer="391" from-port="2" to-layer="392" to-port="1"/>
		<edge from-layer="393" from-port="0" to-layer="394" to-port="0"/>
		<edge from-layer="392" from-port="2" to-layer="395" to-port="0"/>
		<edge from-layer="394" from-port="1" to-layer="395" to-port="1"/>
		<edge from-layer="395" from-port="2" to-layer="396" to-port="0"/>
		<edge from-layer="396" from-port="1" to-layer="397" to-port="0"/>
		<edge from-layer="72" from-port="0" to-layer="397" to-port="1"/>
		<edge from-layer="73" from-port="0" to-layer="397" to-port="2"/>
		<edge from-layer="74" from-port="0" to-layer="397" to-port="3"/>
		<edge from-layer="75" from-port="0" to-layer="397" to-port="4"/>
		<edge from-layer="399" from-port="0" to-layer="400" to-port="0"/>
		<edge from-layer="400" from-port="1" to-layer="401" to-port="0"/>
		<edge from-layer="398" from-port="0" to-layer="401" to-port="1"/>
		<edge from-layer="397" from-port="5" to-layer="402" to-port="0"/>
		<edge from-layer="401" from-port="2" to-layer="402" to-port="1"/>
		<edge from-layer="403" from-port="0" to-layer="404" to-port="0"/>
		<edge from-layer="402" from-port="2" to-layer="405" to-port="0"/>
		<edge from-layer="404" from-port="1" to-layer="405" to-port="1"/>
		<edge from-layer="405" from-port="2" to-layer="406" to-port="0"/>
		<edge from-layer="68" from-port="0" to-layer="406" to-port="1"/>
		<edge from-layer="69" from-port="0" to-layer="406" to-port="2"/>
		<edge from-layer="70" from-port="0" to-layer="406" to-port="3"/>
		<edge from-layer="71" from-port="0" to-layer="406" to-port="4"/>
		<edge from-layer="420" from-port="0" to-layer="421" to-port="0"/>
		<edge from-layer="421" from-port="1" to-layer="422" to-port="0"/>
		<edge from-layer="419" from-port="0" to-layer="422" to-port="1"/>
		<edge from-layer="406" from-port="5" to-layer="423" to-port="0"/>
		<edge from-layer="422" from-port="2" to-layer="423" to-port="1"/>
		<edge from-layer="424" from-port="0" to-layer="425" to-port="0"/>
		<edge from-layer="423" from-port="2" to-layer="426" to-port="0"/>
		<edge from-layer="425" from-port="1" to-layer="426" to-port="1"/>
		<edge from-layer="426" from-port="2" to-layer="427" to-port="0"/>
		<edge from-layer="427" from-port="1" to-layer="428" to-port="0"/>
		<edge from-layer="415" from-port="0" to-layer="428" to-port="1"/>
		<edge from-layer="416" from-port="0" to-layer="428" to-port="2"/>
		<edge from-layer="417" from-port="0" to-layer="428" to-port="3"/>
		<edge from-layer="418" from-port="0" to-layer="428" to-port="4"/>
		<edge from-layer="431" from-port="0" to-layer="432" to-port="0"/>
		<edge from-layer="432" from-port="1" to-layer="433" to-port="0"/>
		<edge from-layer="430" from-port="0" to-layer="433" to-port="1"/>
		<edge from-layer="433" from-port="2" to-layer="434" to-port="0"/>
		<edge from-layer="429" from-port="0" to-layer="434" to-port="1"/>
		<edge from-layer="428" from-port="5" to-layer="435" to-port="0"/>
		<edge from-layer="434" from-port="2" to-layer="435" to-port="1"/>
		<edge from-layer="436" from-port="0" to-layer="437" to-port="0"/>
		<edge from-layer="435" from-port="2" to-layer="438" to-port="0"/>
		<edge from-layer="437" from-port="1" to-layer="438" to-port="1"/>
		<edge from-layer="438" from-port="2" to-layer="439" to-port="0"/>
		<edge from-layer="439" from-port="1" to-layer="440" to-port="0"/>
		<edge from-layer="411" from-port="0" to-layer="440" to-port="1"/>
		<edge from-layer="412" from-port="0" to-layer="440" to-port="2"/>
		<edge from-layer="413" from-port="0" to-layer="440" to-port="3"/>
		<edge from-layer="414" from-port="0" to-layer="440" to-port="4"/>
		<edge from-layer="442" from-port="0" to-layer="443" to-port="0"/>
		<edge from-layer="443" from-port="1" to-layer="444" to-port="0"/>
		<edge from-layer="441" from-port="0" to-layer="444" to-port="1"/>
		<edge from-layer="440" from-port="5" to-layer="445" to-port="0"/>
		<edge from-layer="444" from-port="2" to-layer="445" to-port="1"/>
		<edge from-layer="446" from-port="0" to-layer="447" to-port="0"/>
		<edge from-layer="445" from-port="2" to-layer="448" to-port="0"/>
		<edge from-layer="447" from-port="1" to-layer="448" to-port="1"/>
		<edge from-layer="448" from-port="2" to-layer="449" to-port="0"/>
		<edge from-layer="407" from-port="0" to-layer="449" to-port="1"/>
		<edge from-layer="408" from-port="0" to-layer="449" to-port="2"/>
		<edge from-layer="409" from-port="0" to-layer="449" to-port="3"/>
		<edge from-layer="410" from-port="0" to-layer="449" to-port="4"/>
		<edge from-layer="406" from-port="5" to-layer="450" to-port="0"/>
		<edge from-layer="449" from-port="5" to-layer="450" to-port="1"/>
		<edge from-layer="450" from-port="2" to-layer="451" to-port="0"/>
		<edge from-layer="64" from-port="0" to-layer="451" to-port="1"/>
		<edge from-layer="65" from-port="0" to-layer="451" to-port="2"/>
		<edge from-layer="66" from-port="0" to-layer="451" to-port="3"/>
		<edge from-layer="67" from-port="0" to-layer="451" to-port="4"/>
		<edge from-layer="465" from-port="0" to-layer="466" to-port="0"/>
		<edge from-layer="466" from-port="1" to-layer="467" to-port="0"/>
		<edge from-layer="464" from-port="0" to-layer="467" to-port="1"/>
		<edge from-layer="451" from-port="5" to-layer="468" to-port="0"/>
		<edge from-layer="467" from-port="2" to-layer="468" to-port="1"/>
		<edge from-layer="469" from-port="0" to-layer="470" to-port="0"/>
		<edge from-layer="468" from-port="2" to-layer="471" to-port="0"/>
		<edge from-layer="470" from-port="1" to-layer="471" to-port="1"/>
		<edge from-layer="471" from-port="2" to-layer="472" to-port="0"/>
		<edge from-layer="472" from-port="1" to-layer="473" to-port="0"/>
		<edge from-layer="460" from-port="0" to-layer="473" to-port="1"/>
		<edge from-layer="461" from-port="0" to-layer="473" to-port="2"/>
		<edge from-layer="462" from-port="0" to-layer="473" to-port="3"/>
		<edge from-layer="463" from-port="0" to-layer="473" to-port="4"/>
		<edge from-layer="476" from-port="0" to-layer="477" to-port="0"/>
		<edge from-layer="477" from-port="1" to-layer="478" to-port="0"/>
		<edge from-layer="475" from-port="0" to-layer="478" to-port="1"/>
		<edge from-layer="478" from-port="2" to-layer="479" to-port="0"/>
		<edge from-layer="474" from-port="0" to-layer="479" to-port="1"/>
		<edge from-layer="473" from-port="5" to-layer="480" to-port="0"/>
		<edge from-layer="479" from-port="2" to-layer="480" to-port="1"/>
		<edge from-layer="481" from-port="0" to-layer="482" to-port="0"/>
		<edge from-layer="480" from-port="2" to-layer="483" to-port="0"/>
		<edge from-layer="482" from-port="1" to-layer="483" to-port="1"/>
		<edge from-layer="483" from-port="2" to-layer="484" to-port="0"/>
		<edge from-layer="484" from-port="1" to-layer="485" to-port="0"/>
		<edge from-layer="456" from-port="0" to-layer="485" to-port="1"/>
		<edge from-layer="457" from-port="0" to-layer="485" to-port="2"/>
		<edge from-layer="458" from-port="0" to-layer="485" to-port="3"/>
		<edge from-layer="459" from-port="0" to-layer="485" to-port="4"/>
		<edge from-layer="487" from-port="0" to-layer="488" to-port="0"/>
		<edge from-layer="488" from-port="1" to-layer="489" to-port="0"/>
		<edge from-layer="486" from-port="0" to-layer="489" to-port="1"/>
		<edge from-layer="485" from-port="5" to-layer="490" to-port="0"/>
		<edge from-layer="489" from-port="2" to-layer="490" to-port="1"/>
		<edge from-layer="491" from-port="0" to-layer="492" to-port="0"/>
		<edge from-layer="490" from-port="2" to-layer="493" to-port="0"/>
		<edge from-layer="492" from-port="1" to-layer="493" to-port="1"/>
		<edge from-layer="493" from-port="2" to-layer="494" to-port="0"/>
		<edge from-layer="452" from-port="0" to-layer="494" to-port="1"/>
		<edge from-layer="453" from-port="0" to-layer="494" to-port="2"/>
		<edge from-layer="454" from-port="0" to-layer="494" to-port="3"/>
		<edge from-layer="455" from-port="0" to-layer="494" to-port="4"/>
		<edge from-layer="451" from-port="5" to-layer="495" to-port="0"/>
		<edge from-layer="494" from-port="5" to-layer="495" to-port="1"/>
		<edge from-layer="495" from-port="2" to-layer="496" to-port="0"/>
		<edge from-layer="60" from-port="0" to-layer="496" to-port="1"/>
		<edge from-layer="61" from-port="0" to-layer="496" to-port="2"/>
		<edge from-layer="62" from-port="0" to-layer="496" to-port="3"/>
		<edge from-layer="63" from-port="0" to-layer="496" to-port="4"/>
		<edge from-layer="510" from-port="0" to-layer="511" to-port="0"/>
		<edge from-layer="511" from-port="1" to-layer="512" to-port="0"/>
		<edge from-layer="509" from-port="0" to-layer="512" to-port="1"/>
		<edge from-layer="496" from-port="5" to-layer="513" to-port="0"/>
		<edge from-layer="512" from-port="2" to-layer="513" to-port="1"/>
		<edge from-layer="514" from-port="0" to-layer="515" to-port="0"/>
		<edge from-layer="513" from-port="2" to-layer="516" to-port="0"/>
		<edge from-layer="515" from-port="1" to-layer="516" to-port="1"/>
		<edge from-layer="516" from-port="2" to-layer="517" to-port="0"/>
		<edge from-layer="517" from-port="1" to-layer="518" to-port="0"/>
		<edge from-layer="505" from-port="0" to-layer="518" to-port="1"/>
		<edge from-layer="506" from-port="0" to-layer="518" to-port="2"/>
		<edge from-layer="507" from-port="0" to-layer="518" to-port="3"/>
		<edge from-layer="508" from-port="0" to-layer="518" to-port="4"/>
		<edge from-layer="521" from-port="0" to-layer="522" to-port="0"/>
		<edge from-layer="522" from-port="1" to-layer="523" to-port="0"/>
		<edge from-layer="520" from-port="0" to-layer="523" to-port="1"/>
		<edge from-layer="523" from-port="2" to-layer="524" to-port="0"/>
		<edge from-layer="519" from-port="0" to-layer="524" to-port="1"/>
		<edge from-layer="518" from-port="5" to-layer="525" to-port="0"/>
		<edge from-layer="524" from-port="2" to-layer="525" to-port="1"/>
		<edge from-layer="526" from-port="0" to-layer="527" to-port="0"/>
		<edge from-layer="525" from-port="2" to-layer="528" to-port="0"/>
		<edge from-layer="527" from-port="1" to-layer="528" to-port="1"/>
		<edge from-layer="528" from-port="2" to-layer="529" to-port="0"/>
		<edge from-layer="529" from-port="1" to-layer="530" to-port="0"/>
		<edge from-layer="501" from-port="0" to-layer="530" to-port="1"/>
		<edge from-layer="502" from-port="0" to-layer="530" to-port="2"/>
		<edge from-layer="503" from-port="0" to-layer="530" to-port="3"/>
		<edge from-layer="504" from-port="0" to-layer="530" to-port="4"/>
		<edge from-layer="532" from-port="0" to-layer="533" to-port="0"/>
		<edge from-layer="533" from-port="1" to-layer="534" to-port="0"/>
		<edge from-layer="531" from-port="0" to-layer="534" to-port="1"/>
		<edge from-layer="530" from-port="5" to-layer="535" to-port="0"/>
		<edge from-layer="534" from-port="2" to-layer="535" to-port="1"/>
		<edge from-layer="536" from-port="0" to-layer="537" to-port="0"/>
		<edge from-layer="535" from-port="2" to-layer="538" to-port="0"/>
		<edge from-layer="537" from-port="1" to-layer="538" to-port="1"/>
		<edge from-layer="538" from-port="2" to-layer="539" to-port="0"/>
		<edge from-layer="497" from-port="0" to-layer="539" to-port="1"/>
		<edge from-layer="498" from-port="0" to-layer="539" to-port="2"/>
		<edge from-layer="499" from-port="0" to-layer="539" to-port="3"/>
		<edge from-layer="500" from-port="0" to-layer="539" to-port="4"/>
		<edge from-layer="496" from-port="5" to-layer="540" to-port="0"/>
		<edge from-layer="539" from-port="5" to-layer="540" to-port="1"/>
		<edge from-layer="540" from-port="2" to-layer="541" to-port="0"/>
		<edge from-layer="56" from-port="0" to-layer="541" to-port="1"/>
		<edge from-layer="57" from-port="0" to-layer="541" to-port="2"/>
		<edge from-layer="58" from-port="0" to-layer="541" to-port="3"/>
		<edge from-layer="59" from-port="0" to-layer="541" to-port="4"/>
		<edge from-layer="543" from-port="0" to-layer="544" to-port="0"/>
		<edge from-layer="544" from-port="1" to-layer="545" to-port="0"/>
		<edge from-layer="542" from-port="0" to-layer="545" to-port="1"/>
		<edge from-layer="541" from-port="5" to-layer="546" to-port="0"/>
		<edge from-layer="545" from-port="2" to-layer="546" to-port="1"/>
		<edge from-layer="547" from-port="0" to-layer="548" to-port="0"/>
		<edge from-layer="546" from-port="2" to-layer="549" to-port="0"/>
		<edge from-layer="548" from-port="1" to-layer="549" to-port="1"/>
		<edge from-layer="549" from-port="2" to-layer="550" to-port="0"/>
		<edge from-layer="550" from-port="1" to-layer="551" to-port="0"/>
		<edge from-layer="52" from-port="0" to-layer="551" to-port="1"/>
		<edge from-layer="53" from-port="0" to-layer="551" to-port="2"/>
		<edge from-layer="54" from-port="0" to-layer="551" to-port="3"/>
		<edge from-layer="55" from-port="0" to-layer="551" to-port="4"/>
		<edge from-layer="554" from-port="0" to-layer="555" to-port="0"/>
		<edge from-layer="555" from-port="1" to-layer="556" to-port="0"/>
		<edge from-layer="553" from-port="0" to-layer="556" to-port="1"/>
		<edge from-layer="556" from-port="2" to-layer="557" to-port="0"/>
		<edge from-layer="552" from-port="0" to-layer="557" to-port="1"/>
		<edge from-layer="551" from-port="5" to-layer="558" to-port="0"/>
		<edge from-layer="557" from-port="2" to-layer="558" to-port="1"/>
		<edge from-layer="559" from-port="0" to-layer="560" to-port="0"/>
		<edge from-layer="558" from-port="2" to-layer="561" to-port="0"/>
		<edge from-layer="560" from-port="1" to-layer="561" to-port="1"/>
		<edge from-layer="561" from-port="2" to-layer="562" to-port="0"/>
		<edge from-layer="562" from-port="1" to-layer="563" to-port="0"/>
		<edge from-layer="48" from-port="0" to-layer="563" to-port="1"/>
		<edge from-layer="49" from-port="0" to-layer="563" to-port="2"/>
		<edge from-layer="50" from-port="0" to-layer="563" to-port="3"/>
		<edge from-layer="51" from-port="0" to-layer="563" to-port="4"/>
		<edge from-layer="565" from-port="0" to-layer="566" to-port="0"/>
		<edge from-layer="566" from-port="1" to-layer="567" to-port="0"/>
		<edge from-layer="564" from-port="0" to-layer="567" to-port="1"/>
		<edge from-layer="563" from-port="5" to-layer="568" to-port="0"/>
		<edge from-layer="567" from-port="2" to-layer="568" to-port="1"/>
		<edge from-layer="569" from-port="0" to-layer="570" to-port="0"/>
		<edge from-layer="568" from-port="2" to-layer="571" to-port="0"/>
		<edge from-layer="570" from-port="1" to-layer="571" to-port="1"/>
		<edge from-layer="571" from-port="2" to-layer="572" to-port="0"/>
		<edge from-layer="44" from-port="0" to-layer="572" to-port="1"/>
		<edge from-layer="45" from-port="0" to-layer="572" to-port="2"/>
		<edge from-layer="46" from-port="0" to-layer="572" to-port="3"/>
		<edge from-layer="47" from-port="0" to-layer="572" to-port="4"/>
		<edge from-layer="586" from-port="0" to-layer="587" to-port="0"/>
		<edge from-layer="587" from-port="1" to-layer="588" to-port="0"/>
		<edge from-layer="585" from-port="0" to-layer="588" to-port="1"/>
		<edge from-layer="572" from-port="5" to-layer="589" to-port="0"/>
		<edge from-layer="588" from-port="2" to-layer="589" to-port="1"/>
		<edge from-layer="590" from-port="0" to-layer="591" to-port="0"/>
		<edge from-layer="589" from-port="2" to-layer="592" to-port="0"/>
		<edge from-layer="591" from-port="1" to-layer="592" to-port="1"/>
		<edge from-layer="592" from-port="2" to-layer="593" to-port="0"/>
		<edge from-layer="593" from-port="1" to-layer="594" to-port="0"/>
		<edge from-layer="581" from-port="0" to-layer="594" to-port="1"/>
		<edge from-layer="582" from-port="0" to-layer="594" to-port="2"/>
		<edge from-layer="583" from-port="0" to-layer="594" to-port="3"/>
		<edge from-layer="584" from-port="0" to-layer="594" to-port="4"/>
		<edge from-layer="597" from-port="0" to-layer="598" to-port="0"/>
		<edge from-layer="598" from-port="1" to-layer="599" to-port="0"/>
		<edge from-layer="596" from-port="0" to-layer="599" to-port="1"/>
		<edge from-layer="599" from-port="2" to-layer="600" to-port="0"/>
		<edge from-layer="595" from-port="0" to-layer="600" to-port="1"/>
		<edge from-layer="594" from-port="5" to-layer="601" to-port="0"/>
		<edge from-layer="600" from-port="2" to-layer="601" to-port="1"/>
		<edge from-layer="602" from-port="0" to-layer="603" to-port="0"/>
		<edge from-layer="601" from-port="2" to-layer="604" to-port="0"/>
		<edge from-layer="603" from-port="1" to-layer="604" to-port="1"/>
		<edge from-layer="604" from-port="2" to-layer="605" to-port="0"/>
		<edge from-layer="605" from-port="1" to-layer="606" to-port="0"/>
		<edge from-layer="577" from-port="0" to-layer="606" to-port="1"/>
		<edge from-layer="578" from-port="0" to-layer="606" to-port="2"/>
		<edge from-layer="579" from-port="0" to-layer="606" to-port="3"/>
		<edge from-layer="580" from-port="0" to-layer="606" to-port="4"/>
		<edge from-layer="608" from-port="0" to-layer="609" to-port="0"/>
		<edge from-layer="609" from-port="1" to-layer="610" to-port="0"/>
		<edge from-layer="607" from-port="0" to-layer="610" to-port="1"/>
		<edge from-layer="606" from-port="5" to-layer="611" to-port="0"/>
		<edge from-layer="610" from-port="2" to-layer="611" to-port="1"/>
		<edge from-layer="612" from-port="0" to-layer="613" to-port="0"/>
		<edge from-layer="611" from-port="2" to-layer="614" to-port="0"/>
		<edge from-layer="613" from-port="1" to-layer="614" to-port="1"/>
		<edge from-layer="614" from-port="2" to-layer="615" to-port="0"/>
		<edge from-layer="573" from-port="0" to-layer="615" to-port="1"/>
		<edge from-layer="574" from-port="0" to-layer="615" to-port="2"/>
		<edge from-layer="575" from-port="0" to-layer="615" to-port="3"/>
		<edge from-layer="576" from-port="0" to-layer="615" to-port="4"/>
		<edge from-layer="572" from-port="5" to-layer="616" to-port="0"/>
		<edge from-layer="615" from-port="5" to-layer="616" to-port="1"/>
		<edge from-layer="616" from-port="2" to-layer="617" to-port="0"/>
		<edge from-layer="40" from-port="0" to-layer="617" to-port="1"/>
		<edge from-layer="41" from-port="0" to-layer="617" to-port="2"/>
		<edge from-layer="42" from-port="0" to-layer="617" to-port="3"/>
		<edge from-layer="43" from-port="0" to-layer="617" to-port="4"/>
		<edge from-layer="631" from-port="0" to-layer="632" to-port="0"/>
		<edge from-layer="632" from-port="1" to-layer="633" to-port="0"/>
		<edge from-layer="630" from-port="0" to-layer="633" to-port="1"/>
		<edge from-layer="617" from-port="5" to-layer="634" to-port="0"/>
		<edge from-layer="633" from-port="2" to-layer="634" to-port="1"/>
		<edge from-layer="635" from-port="0" to-layer="636" to-port="0"/>
		<edge from-layer="634" from-port="2" to-layer="637" to-port="0"/>
		<edge from-layer="636" from-port="1" to-layer="637" to-port="1"/>
		<edge from-layer="637" from-port="2" to-layer="638" to-port="0"/>
		<edge from-layer="638" from-port="1" to-layer="639" to-port="0"/>
		<edge from-layer="626" from-port="0" to-layer="639" to-port="1"/>
		<edge from-layer="627" from-port="0" to-layer="639" to-port="2"/>
		<edge from-layer="628" from-port="0" to-layer="639" to-port="3"/>
		<edge from-layer="629" from-port="0" to-layer="639" to-port="4"/>
		<edge from-layer="642" from-port="0" to-layer="643" to-port="0"/>
		<edge from-layer="643" from-port="1" to-layer="644" to-port="0"/>
		<edge from-layer="641" from-port="0" to-layer="644" to-port="1"/>
		<edge from-layer="644" from-port="2" to-layer="645" to-port="0"/>
		<edge from-layer="640" from-port="0" to-layer="645" to-port="1"/>
		<edge from-layer="639" from-port="5" to-layer="646" to-port="0"/>
		<edge from-layer="645" from-port="2" to-layer="646" to-port="1"/>
		<edge from-layer="647" from-port="0" to-layer="648" to-port="0"/>
		<edge from-layer="646" from-port="2" to-layer="649" to-port="0"/>
		<edge from-layer="648" from-port="1" to-layer="649" to-port="1"/>
		<edge from-layer="649" from-port="2" to-layer="650" to-port="0"/>
		<edge from-layer="650" from-port="1" to-layer="651" to-port="0"/>
		<edge from-layer="622" from-port="0" to-layer="651" to-port="1"/>
		<edge from-layer="623" from-port="0" to-layer="651" to-port="2"/>
		<edge from-layer="624" from-port="0" to-layer="651" to-port="3"/>
		<edge from-layer="625" from-port="0" to-layer="651" to-port="4"/>
		<edge from-layer="653" from-port="0" to-layer="654" to-port="0"/>
		<edge from-layer="654" from-port="1" to-layer="655" to-port="0"/>
		<edge from-layer="652" from-port="0" to-layer="655" to-port="1"/>
		<edge from-layer="651" from-port="5" to-layer="656" to-port="0"/>
		<edge from-layer="655" from-port="2" to-layer="656" to-port="1"/>
		<edge from-layer="657" from-port="0" to-layer="658" to-port="0"/>
		<edge from-layer="656" from-port="2" to-layer="659" to-port="0"/>
		<edge from-layer="658" from-port="1" to-layer="659" to-port="1"/>
		<edge from-layer="659" from-port="2" to-layer="660" to-port="0"/>
		<edge from-layer="618" from-port="0" to-layer="660" to-port="1"/>
		<edge from-layer="619" from-port="0" to-layer="660" to-port="2"/>
		<edge from-layer="620" from-port="0" to-layer="660" to-port="3"/>
		<edge from-layer="621" from-port="0" to-layer="660" to-port="4"/>
		<edge from-layer="617" from-port="5" to-layer="661" to-port="0"/>
		<edge from-layer="660" from-port="5" to-layer="661" to-port="1"/>
		<edge from-layer="661" from-port="2" to-layer="662" to-port="0"/>
		<edge from-layer="36" from-port="0" to-layer="662" to-port="1"/>
		<edge from-layer="37" from-port="0" to-layer="662" to-port="2"/>
		<edge from-layer="38" from-port="0" to-layer="662" to-port="3"/>
		<edge from-layer="39" from-port="0" to-layer="662" to-port="4"/>
		<edge from-layer="664" from-port="0" to-layer="665" to-port="0"/>
		<edge from-layer="665" from-port="1" to-layer="666" to-port="0"/>
		<edge from-layer="663" from-port="0" to-layer="666" to-port="1"/>
		<edge from-layer="662" from-port="5" to-layer="667" to-port="0"/>
		<edge from-layer="666" from-port="2" to-layer="667" to-port="1"/>
		<edge from-layer="668" from-port="0" to-layer="669" to-port="0"/>
		<edge from-layer="667" from-port="2" to-layer="670" to-port="0"/>
		<edge from-layer="669" from-port="1" to-layer="670" to-port="1"/>
		<edge from-layer="670" from-port="2" to-layer="671" to-port="0"/>
		<edge from-layer="671" from-port="1" to-layer="672" to-port="0"/>
		<edge from-layer="32" from-port="0" to-layer="672" to-port="1"/>
		<edge from-layer="33" from-port="0" to-layer="672" to-port="2"/>
		<edge from-layer="34" from-port="0" to-layer="672" to-port="3"/>
		<edge from-layer="35" from-port="0" to-layer="672" to-port="4"/>
		<edge from-layer="675" from-port="0" to-layer="676" to-port="0"/>
		<edge from-layer="676" from-port="1" to-layer="677" to-port="0"/>
		<edge from-layer="674" from-port="0" to-layer="677" to-port="1"/>
		<edge from-layer="677" from-port="2" to-layer="678" to-port="0"/>
		<edge from-layer="673" from-port="0" to-layer="678" to-port="1"/>
		<edge from-layer="672" from-port="5" to-layer="679" to-port="0"/>
		<edge from-layer="678" from-port="2" to-layer="679" to-port="1"/>
		<edge from-layer="680" from-port="0" to-layer="681" to-port="0"/>
		<edge from-layer="679" from-port="2" to-layer="682" to-port="0"/>
		<edge from-layer="681" from-port="1" to-layer="682" to-port="1"/>
		<edge from-layer="682" from-port="2" to-layer="683" to-port="0"/>
		<edge from-layer="683" from-port="1" to-layer="684" to-port="0"/>
		<edge from-layer="28" from-port="0" to-layer="684" to-port="1"/>
		<edge from-layer="29" from-port="0" to-layer="684" to-port="2"/>
		<edge from-layer="30" from-port="0" to-layer="684" to-port="3"/>
		<edge from-layer="31" from-port="0" to-layer="684" to-port="4"/>
		<edge from-layer="686" from-port="0" to-layer="687" to-port="0"/>
		<edge from-layer="687" from-port="1" to-layer="688" to-port="0"/>
		<edge from-layer="685" from-port="0" to-layer="688" to-port="1"/>
		<edge from-layer="684" from-port="5" to-layer="689" to-port="0"/>
		<edge from-layer="688" from-port="2" to-layer="689" to-port="1"/>
		<edge from-layer="690" from-port="0" to-layer="691" to-port="0"/>
		<edge from-layer="689" from-port="2" to-layer="692" to-port="0"/>
		<edge from-layer="691" from-port="1" to-layer="692" to-port="1"/>
		<edge from-layer="692" from-port="2" to-layer="693" to-port="0"/>
		<edge from-layer="24" from-port="0" to-layer="693" to-port="1"/>
		<edge from-layer="25" from-port="0" to-layer="693" to-port="2"/>
		<edge from-layer="26" from-port="0" to-layer="693" to-port="3"/>
		<edge from-layer="27" from-port="0" to-layer="693" to-port="4"/>
		<edge from-layer="707" from-port="0" to-layer="708" to-port="0"/>
		<edge from-layer="708" from-port="1" to-layer="709" to-port="0"/>
		<edge from-layer="706" from-port="0" to-layer="709" to-port="1"/>
		<edge from-layer="693" from-port="5" to-layer="710" to-port="0"/>
		<edge from-layer="709" from-port="2" to-layer="710" to-port="1"/>
		<edge from-layer="711" from-port="0" to-layer="712" to-port="0"/>
		<edge from-layer="710" from-port="2" to-layer="713" to-port="0"/>
		<edge from-layer="712" from-port="1" to-layer="713" to-port="1"/>
		<edge from-layer="713" from-port="2" to-layer="714" to-port="0"/>
		<edge from-layer="714" from-port="1" to-layer="715" to-port="0"/>
		<edge from-layer="702" from-port="0" to-layer="715" to-port="1"/>
		<edge from-layer="703" from-port="0" to-layer="715" to-port="2"/>
		<edge from-layer="704" from-port="0" to-layer="715" to-port="3"/>
		<edge from-layer="705" from-port="0" to-layer="715" to-port="4"/>
		<edge from-layer="718" from-port="0" to-layer="719" to-port="0"/>
		<edge from-layer="719" from-port="1" to-layer="720" to-port="0"/>
		<edge from-layer="717" from-port="0" to-layer="720" to-port="1"/>
		<edge from-layer="720" from-port="2" to-layer="721" to-port="0"/>
		<edge from-layer="716" from-port="0" to-layer="721" to-port="1"/>
		<edge from-layer="715" from-port="5" to-layer="722" to-port="0"/>
		<edge from-layer="721" from-port="2" to-layer="722" to-port="1"/>
		<edge from-layer="723" from-port="0" to-layer="724" to-port="0"/>
		<edge from-layer="722" from-port="2" to-layer="725" to-port="0"/>
		<edge from-layer="724" from-port="1" to-layer="725" to-port="1"/>
		<edge from-layer="725" from-port="2" to-layer="726" to-port="0"/>
		<edge from-layer="726" from-port="1" to-layer="727" to-port="0"/>
		<edge from-layer="698" from-port="0" to-layer="727" to-port="1"/>
		<edge from-layer="699" from-port="0" to-layer="727" to-port="2"/>
		<edge from-layer="700" from-port="0" to-layer="727" to-port="3"/>
		<edge from-layer="701" from-port="0" to-layer="727" to-port="4"/>
		<edge from-layer="729" from-port="0" to-layer="730" to-port="0"/>
		<edge from-layer="730" from-port="1" to-layer="731" to-port="0"/>
		<edge from-layer="728" from-port="0" to-layer="731" to-port="1"/>
		<edge from-layer="727" from-port="5" to-layer="732" to-port="0"/>
		<edge from-layer="731" from-port="2" to-layer="732" to-port="1"/>
		<edge from-layer="733" from-port="0" to-layer="734" to-port="0"/>
		<edge from-layer="732" from-port="2" to-layer="735" to-port="0"/>
		<edge from-layer="734" from-port="1" to-layer="735" to-port="1"/>
		<edge from-layer="735" from-port="2" to-layer="736" to-port="0"/>
		<edge from-layer="694" from-port="0" to-layer="736" to-port="1"/>
		<edge from-layer="695" from-port="0" to-layer="736" to-port="2"/>
		<edge from-layer="696" from-port="0" to-layer="736" to-port="3"/>
		<edge from-layer="697" from-port="0" to-layer="736" to-port="4"/>
		<edge from-layer="693" from-port="5" to-layer="737" to-port="0"/>
		<edge from-layer="736" from-port="5" to-layer="737" to-port="1"/>
		<edge from-layer="737" from-port="2" to-layer="738" to-port="0"/>
		<edge from-layer="20" from-port="0" to-layer="738" to-port="1"/>
		<edge from-layer="21" from-port="0" to-layer="738" to-port="2"/>
		<edge from-layer="22" from-port="0" to-layer="738" to-port="3"/>
		<edge from-layer="23" from-port="0" to-layer="738" to-port="4"/>
		<edge from-layer="752" from-port="0" to-layer="753" to-port="0"/>
		<edge from-layer="753" from-port="1" to-layer="754" to-port="0"/>
		<edge from-layer="751" from-port="0" to-layer="754" to-port="1"/>
		<edge from-layer="738" from-port="5" to-layer="755" to-port="0"/>
		<edge from-layer="754" from-port="2" to-layer="755" to-port="1"/>
		<edge from-layer="756" from-port="0" to-layer="757" to-port="0"/>
		<edge from-layer="755" from-port="2" to-layer="758" to-port="0"/>
		<edge from-layer="757" from-port="1" to-layer="758" to-port="1"/>
		<edge from-layer="758" from-port="2" to-layer="759" to-port="0"/>
		<edge from-layer="759" from-port="1" to-layer="760" to-port="0"/>
		<edge from-layer="747" from-port="0" to-layer="760" to-port="1"/>
		<edge from-layer="748" from-port="0" to-layer="760" to-port="2"/>
		<edge from-layer="749" from-port="0" to-layer="760" to-port="3"/>
		<edge from-layer="750" from-port="0" to-layer="760" to-port="4"/>
		<edge from-layer="763" from-port="0" to-layer="764" to-port="0"/>
		<edge from-layer="764" from-port="1" to-layer="765" to-port="0"/>
		<edge from-layer="762" from-port="0" to-layer="765" to-port="1"/>
		<edge from-layer="765" from-port="2" to-layer="766" to-port="0"/>
		<edge from-layer="761" from-port="0" to-layer="766" to-port="1"/>
		<edge from-layer="760" from-port="5" to-layer="767" to-port="0"/>
		<edge from-layer="766" from-port="2" to-layer="767" to-port="1"/>
		<edge from-layer="768" from-port="0" to-layer="769" to-port="0"/>
		<edge from-layer="767" from-port="2" to-layer="770" to-port="0"/>
		<edge from-layer="769" from-port="1" to-layer="770" to-port="1"/>
		<edge from-layer="770" from-port="2" to-layer="771" to-port="0"/>
		<edge from-layer="771" from-port="1" to-layer="772" to-port="0"/>
		<edge from-layer="743" from-port="0" to-layer="772" to-port="1"/>
		<edge from-layer="744" from-port="0" to-layer="772" to-port="2"/>
		<edge from-layer="745" from-port="0" to-layer="772" to-port="3"/>
		<edge from-layer="746" from-port="0" to-layer="772" to-port="4"/>
		<edge from-layer="774" from-port="0" to-layer="775" to-port="0"/>
		<edge from-layer="775" from-port="1" to-layer="776" to-port="0"/>
		<edge from-layer="773" from-port="0" to-layer="776" to-port="1"/>
		<edge from-layer="772" from-port="5" to-layer="777" to-port="0"/>
		<edge from-layer="776" from-port="2" to-layer="777" to-port="1"/>
		<edge from-layer="778" from-port="0" to-layer="779" to-port="0"/>
		<edge from-layer="777" from-port="2" to-layer="780" to-port="0"/>
		<edge from-layer="779" from-port="1" to-layer="780" to-port="1"/>
		<edge from-layer="780" from-port="2" to-layer="781" to-port="0"/>
		<edge from-layer="739" from-port="0" to-layer="781" to-port="1"/>
		<edge from-layer="740" from-port="0" to-layer="781" to-port="2"/>
		<edge from-layer="741" from-port="0" to-layer="781" to-port="3"/>
		<edge from-layer="742" from-port="0" to-layer="781" to-port="4"/>
		<edge from-layer="738" from-port="5" to-layer="782" to-port="0"/>
		<edge from-layer="781" from-port="5" to-layer="782" to-port="1"/>
		<edge from-layer="782" from-port="2" to-layer="783" to-port="0"/>
		<edge from-layer="16" from-port="0" to-layer="783" to-port="1"/>
		<edge from-layer="17" from-port="0" to-layer="783" to-port="2"/>
		<edge from-layer="18" from-port="0" to-layer="783" to-port="3"/>
		<edge from-layer="19" from-port="0" to-layer="783" to-port="4"/>
		<edge from-layer="785" from-port="0" to-layer="786" to-port="0"/>
		<edge from-layer="786" from-port="1" to-layer="787" to-port="0"/>
		<edge from-layer="784" from-port="0" to-layer="787" to-port="1"/>
		<edge from-layer="783" from-port="5" to-layer="788" to-port="0"/>
		<edge from-layer="787" from-port="2" to-layer="788" to-port="1"/>
		<edge from-layer="789" from-port="0" to-layer="790" to-port="0"/>
		<edge from-layer="788" from-port="2" to-layer="791" to-port="0"/>
		<edge from-layer="790" from-port="1" to-layer="791" to-port="1"/>
		<edge from-layer="791" from-port="2" to-layer="792" to-port="0"/>
		<edge from-layer="792" from-port="1" to-layer="793" to-port="0"/>
		<edge from-layer="12" from-port="0" to-layer="793" to-port="1"/>
		<edge from-layer="13" from-port="0" to-layer="793" to-port="2"/>
		<edge from-layer="14" from-port="0" to-layer="793" to-port="3"/>
		<edge from-layer="15" from-port="0" to-layer="793" to-port="4"/>
		<edge from-layer="796" from-port="0" to-layer="797" to-port="0"/>
		<edge from-layer="797" from-port="1" to-layer="798" to-port="0"/>
		<edge from-layer="795" from-port="0" to-layer="798" to-port="1"/>
		<edge from-layer="798" from-port="2" to-layer="799" to-port="0"/>
		<edge from-layer="794" from-port="0" to-layer="799" to-port="1"/>
		<edge from-layer="793" from-port="5" to-layer="800" to-port="0"/>
		<edge from-layer="799" from-port="2" to-layer="800" to-port="1"/>
		<edge from-layer="801" from-port="0" to-layer="802" to-port="0"/>
		<edge from-layer="800" from-port="2" to-layer="803" to-port="0"/>
		<edge from-layer="802" from-port="1" to-layer="803" to-port="1"/>
		<edge from-layer="803" from-port="2" to-layer="804" to-port="0"/>
		<edge from-layer="804" from-port="1" to-layer="805" to-port="0"/>
		<edge from-layer="8" from-port="0" to-layer="805" to-port="1"/>
		<edge from-layer="9" from-port="0" to-layer="805" to-port="2"/>
		<edge from-layer="10" from-port="0" to-layer="805" to-port="3"/>
		<edge from-layer="11" from-port="0" to-layer="805" to-port="4"/>
		<edge from-layer="807" from-port="0" to-layer="808" to-port="0"/>
		<edge from-layer="808" from-port="1" to-layer="809" to-port="0"/>
		<edge from-layer="806" from-port="0" to-layer="809" to-port="1"/>
		<edge from-layer="805" from-port="5" to-layer="810" to-port="0"/>
		<edge from-layer="809" from-port="2" to-layer="810" to-port="1"/>
		<edge from-layer="811" from-port="0" to-layer="812" to-port="0"/>
		<edge from-layer="810" from-port="2" to-layer="813" to-port="0"/>
		<edge from-layer="812" from-port="1" to-layer="813" to-port="1"/>
		<edge from-layer="813" from-port="2" to-layer="814" to-port="0"/>
		<edge from-layer="4" from-port="0" to-layer="814" to-port="1"/>
		<edge from-layer="5" from-port="0" to-layer="814" to-port="2"/>
		<edge from-layer="6" from-port="0" to-layer="814" to-port="3"/>
		<edge from-layer="7" from-port="0" to-layer="814" to-port="4"/>
		<edge from-layer="817" from-port="0" to-layer="818" to-port="0"/>
		<edge from-layer="818" from-port="1" to-layer="819" to-port="0"/>
		<edge from-layer="816" from-port="0" to-layer="819" to-port="1"/>
		<edge from-layer="819" from-port="2" to-layer="820" to-port="0"/>
		<edge from-layer="815" from-port="0" to-layer="820" to-port="1"/>
		<edge from-layer="814" from-port="5" to-layer="821" to-port="0"/>
		<edge from-layer="820" from-port="2" to-layer="821" to-port="1"/>
		<edge from-layer="822" from-port="0" to-layer="823" to-port="0"/>
		<edge from-layer="821" from-port="2" to-layer="824" to-port="0"/>
		<edge from-layer="823" from-port="1" to-layer="824" to-port="1"/>
		<edge from-layer="824" from-port="2" to-layer="825" to-port="0"/>
		<edge from-layer="825" from-port="1" to-layer="826" to-port="0"/>
		<edge from-layer="0" from-port="0" to-layer="826" to-port="1"/>
		<edge from-layer="1" from-port="0" to-layer="826" to-port="2"/>
		<edge from-layer="2" from-port="0" to-layer="826" to-port="3"/>
		<edge from-layer="3" from-port="0" to-layer="826" to-port="4"/>
		<edge from-layer="828" from-port="0" to-layer="829" to-port="0"/>
		<edge from-layer="829" from-port="1" to-layer="830" to-port="0"/>
		<edge from-layer="827" from-port="0" to-layer="830" to-port="1"/>
		<edge from-layer="826" from-port="5" to-layer="831" to-port="0"/>
		<edge from-layer="830" from-port="2" to-layer="831" to-port="1"/>
		<edge from-layer="832" from-port="0" to-layer="833" to-port="0"/>
		<edge from-layer="831" from-port="2" to-layer="834" to-port="0"/>
		<edge from-layer="833" from-port="1" to-layer="834" to-port="1"/>
		<edge from-layer="834" from-port="2" to-layer="836" to-port="0"/>
		<edge from-layer="835" from-port="0" to-layer="836" to-port="1"/>
		<edge from-layer="834" from-port="2" to-layer="837" to-port="0"/>
		<edge from-layer="837" from-port="1" to-layer="840" to-port="0"/>
		<edge from-layer="838" from-port="0" to-layer="840" to-port="1"/>
		<edge from-layer="839" from-port="0" to-layer="840" to-port="2"/>
		<edge from-layer="840" from-port="3" to-layer="842" to-port="0"/>
		<edge from-layer="841" from-port="0" to-layer="842" to-port="1"/>
		<edge from-layer="836" from-port="2" to-layer="843" to-port="0"/>
		<edge from-layer="842" from-port="2" to-layer="843" to-port="1"/>
		<edge from-layer="850" from-port="0" to-layer="851" to-port="0"/>
		<edge from-layer="851" from-port="1" to-layer="852" to-port="0"/>
		<edge from-layer="849" from-port="0" to-layer="852" to-port="1"/>
		<edge from-layer="852" from-port="2" to-layer="853" to-port="0"/>
		<edge from-layer="848" from-port="0" to-layer="853" to-port="1"/>
		<edge from-layer="814" from-port="5" to-layer="854" to-port="0"/>
		<edge from-layer="853" from-port="2" to-layer="854" to-port="1"/>
		<edge from-layer="855" from-port="0" to-layer="856" to-port="0"/>
		<edge from-layer="854" from-port="2" to-layer="857" to-port="0"/>
		<edge from-layer="856" from-port="1" to-layer="857" to-port="1"/>
		<edge from-layer="857" from-port="2" to-layer="858" to-port="0"/>
		<edge from-layer="858" from-port="1" to-layer="859" to-port="0"/>
		<edge from-layer="844" from-port="0" to-layer="859" to-port="1"/>
		<edge from-layer="845" from-port="0" to-layer="859" to-port="2"/>
		<edge from-layer="846" from-port="0" to-layer="859" to-port="3"/>
		<edge from-layer="847" from-port="0" to-layer="859" to-port="4"/>
		<edge from-layer="861" from-port="0" to-layer="862" to-port="0"/>
		<edge from-layer="862" from-port="1" to-layer="863" to-port="0"/>
		<edge from-layer="860" from-port="0" to-layer="863" to-port="1"/>
		<edge from-layer="859" from-port="5" to-layer="864" to-port="0"/>
		<edge from-layer="863" from-port="2" to-layer="864" to-port="1"/>
		<edge from-layer="865" from-port="0" to-layer="866" to-port="0"/>
		<edge from-layer="864" from-port="2" to-layer="867" to-port="0"/>
		<edge from-layer="866" from-port="1" to-layer="867" to-port="1"/>
		<edge from-layer="867" from-port="2" to-layer="869" to-port="0"/>
		<edge from-layer="868" from-port="0" to-layer="869" to-port="1"/>
		<edge from-layer="867" from-port="2" to-layer="870" to-port="0"/>
		<edge from-layer="870" from-port="1" to-layer="873" to-port="0"/>
		<edge from-layer="871" from-port="0" to-layer="873" to-port="1"/>
		<edge from-layer="872" from-port="0" to-layer="873" to-port="2"/>
		<edge from-layer="873" from-port="3" to-layer="875" to-port="0"/>
		<edge from-layer="874" from-port="0" to-layer="875" to-port="1"/>
		<edge from-layer="869" from-port="2" to-layer="876" to-port="0"/>
		<edge from-layer="875" from-port="2" to-layer="876" to-port="1"/>
		<edge from-layer="876" from-port="2" to-layer="878" to-port="0"/>
		<edge from-layer="877" from-port="0" to-layer="878" to-port="1"/>
		<edge from-layer="878" from-port="2" to-layer="879" to-port="0"/>
		<edge from-layer="879" from-port="1" to-layer="883" to-port="0"/>
		<edge from-layer="880" from-port="0" to-layer="883" to-port="1"/>
		<edge from-layer="881" from-port="0" to-layer="883" to-port="2"/>
		<edge from-layer="882" from-port="0" to-layer="883" to-port="3"/>
		<edge from-layer="883" from-port="4" to-layer="885" to-port="0"/>
		<edge from-layer="884" from-port="0" to-layer="885" to-port="1"/>
		<edge from-layer="885" from-port="2" to-layer="887" to-port="0"/>
		<edge from-layer="886" from-port="0" to-layer="887" to-port="1"/>
		<edge from-layer="878" from-port="2" to-layer="888" to-port="0"/>
		<edge from-layer="887" from-port="2" to-layer="888" to-port="1"/>
		<edge from-layer="888" from-port="2" to-layer="889" to-port="0"/>
		<edge from-layer="889" from-port="1" to-layer="890" to-port="0"/>
		<edge from-layer="879" from-port="1" to-layer="890" to-port="1"/>
		<edge from-layer="890" from-port="2" to-layer="892" to-port="0"/>
		<edge from-layer="891" from-port="0" to-layer="892" to-port="1"/>
		<edge from-layer="813" from-port="2" to-layer="893" to-port="0"/>
		<edge from-layer="893" from-port="1" to-layer="897" to-port="0"/>
		<edge from-layer="894" from-port="0" to-layer="897" to-port="1"/>
		<edge from-layer="895" from-port="0" to-layer="897" to-port="2"/>
		<edge from-layer="896" from-port="0" to-layer="897" to-port="3"/>
		<edge from-layer="139" from-port="2" to-layer="898" to-port="0"/>
		<edge from-layer="898" from-port="1" to-layer="902" to-port="0"/>
		<edge from-layer="899" from-port="0" to-layer="902" to-port="1"/>
		<edge from-layer="900" from-port="0" to-layer="902" to-port="2"/>
		<edge from-layer="901" from-port="0" to-layer="902" to-port="3"/>
		<edge from-layer="897" from-port="4" to-layer="903" to-port="0"/>
		<edge from-layer="902" from-port="4" to-layer="903" to-port="1"/>
		<edge from-layer="903" from-port="2" to-layer="905" to-port="0"/>
		<edge from-layer="904" from-port="0" to-layer="905" to-port="1"/>
		<edge from-layer="843" from-port="2" to-layer="906" to-port="0"/>
		<edge from-layer="892" from-port="2" to-layer="906" to-port="1"/>
		<edge from-layer="905" from-port="2" to-layer="906" to-port="2"/>
		<edge from-layer="906" from-port="3" to-layer="907" to-port="0"/>
	</edges>
	<rt_info>
		<MO_version value="custom_HEAD_0250f62d11102ae97a35803756f079090876ddc1"/>
		<Runtime_version value="2023.0.0-10367-0250f62d111-HEAD"/>
		<conversion_parameters>
			<framework value="onnx"/>
			<input value="input.1"/>
			<input_model value="DIR/mobilenetv2_fd_single_head.onnx"/>
			<input_shape value="[1,3,300,300]"/>
			<layout value="input.1(nchw)"/>
			<model_name value="face-detection-retail-0005"/>
			<output_dir value="DIR"/>
			<reverse_input_channels value="True"/>
			<scale_values value="input.1[255.0]"/>
		</conversion_parameters>
		<legacy_frontend value="False"/>
		<quantization_parameters>
			<cli_params>
				<ac_config value="None"/>
				<data_source value="None"/>
				<direct_dump value="True"/>
				<engine value="None"/>
				<evaluate value="False"/>
				<keep_uncompressed_weights value="False"/>
				<log_level value="INFO"/>
				<max_drop value="None"/>
				<model value="None"/>
				<name value="None"/>
				<output_dir value="PATH"/>
				<pbar value="False"/>
				<preset value="None"/>
				<quantize value="None"/>
				<stream_output value="False"/>
				<weights value="None"/>
			</cli_params>
			<config value="{
		'compression': {
			'algorithms': [
				{
					'name': 'DefaultQuantization',
					'params': {
						'num_samples_for_tuning': 2000,
						'preset': 'performance',
						'stat_subset_size': 300,
						'use_layerwise_tuning': false
					}
				}
			],
			'dump_intermediate_model': true,
			'target_device': 'ANY'
		},
		'engine': {
			'models': [
				{
					'name': 'face-detection-retail-0005',
					'launchers': [
						{
							'framework': 'openvino',
							'adapter': 'ssd',
							'device': 'cpu'
						}
					],
					'datasets': [
						{
							'name': 'wider',
							'data_source': 'PATH',
							'annotation_conversion': {
								'converter': 'wider',
								'annotation_file': 'PATH'
							},
							'annotation': 'PATH',
							'dataset_meta': 'PATH',
							'preprocessing': [
								{
									'type': 'resize',
									'size': 300
								}
							],
							'postprocessing': [
								{
									'type': 'resize_prediction_boxes'
								},
								{
									'type': 'cast_to_int'
								},
								{
									'type': 'clip_boxes',
									'size': 1024,
									'apply_to': 'annotation'
								},
								{
									'type': 'filter',
									'apply_to': 'annotation',
									'height_range': '64, 1024',
									'is_empty': true
								}
							],
							'metrics': [
								{
									'type': 'map',
									'ignore_difficult': true,
									'include_boundaries': false,
									'allow_multiple_matches_per_ignored': true,
									'distinct_conf': false,
									'reference': 0.8452
								}
							],
							'_command_line_mapping': {
								'annotation_file': 'PATH'
							}
						}
					]
				}
			],
			'stat_requests_number': null,
			'eval_requests_number': null,
			'type': 'accuracy_checker'
		}
	}"/>
			<version value="invalid version"/>
		</quantization_parameters>
	</rt_info>
	<quantization_parameters>
		<config>{
		'compression': {
			'algorithms': [
				{
					'name': 'DefaultQuantization',
					'params': {
						'num_samples_for_tuning': 2000,
						'preset': 'performance',
						'stat_subset_size': 300,
						'use_layerwise_tuning': false
					}
				}
			],
			'dump_intermediate_model': true,
			'target_device': 'ANY'
		},
		'engine': {
			'models': [
				{
					'name': 'face-detection-retail-0005',
					'launchers': [
						{
							'framework': 'openvino',
							'adapter': 'ssd',
							'device': 'cpu'
						}
					],
					'datasets': [
						{
							'name': 'wider',
							'data_source': 'PATH',
							'annotation_conversion': {
								'converter': 'wider',
								'annotation_file': 'PATH'
							},
							'annotation': 'PATH',
							'dataset_meta': 'PATH',
							'preprocessing': [
								{
									'type': 'resize',
									'size': 300
								}
							],
							'postprocessing': [
								{
									'type': 'resize_prediction_boxes'
								},
								{
									'type': 'cast_to_int'
								},
								{
									'type': 'clip_boxes',
									'size': 1024,
									'apply_to': 'annotation'
								},
								{
									'type': 'filter',
									'apply_to': 'annotation',
									'height_range': '64, 1024',
									'is_empty': true
								}
							],
							'metrics': [
								{
									'type': 'map',
									'ignore_difficult': true,
									'include_boundaries': false,
									'allow_multiple_matches_per_ignored': true,
									'distinct_conf': false,
									'reference': 0.8452
								}
							],
							'_command_line_mapping': {
								'annotation_file': 'PATH'
							}
						}
					]
				}
			],
			'stat_requests_number': null,
			'eval_requests_number': null,
			'type': 'accuracy_checker'
		}
	}</config>
		<version value="invalid version"/>
		<cli_params value="{'quantize': None, 'preset': None, 'model': None, 'weights': None, 'name': None, 'engine': None, 'ac_config': None, 'max_drop': None, 'evaluate': False, 'output_dir': 'PATH', 'direct_dump': True, 'log_level': 'INFO', 'pbar': False, 'stream_output': False, 'keep_uncompressed_weights': False, 'data_source': None}"/>
	</quantization_parameters>
</net>
